mlops_project/outputs/2022-05-27/13-01-02/models/epoch=2-step=1965.ckpt (torch, 985744 bytes, 66 tensors)

conv1.weight f4 [10, 3, 5, 5]
00000000: e4f9 05bd 04e3 033d a6d1 13bd a368 883d
00000010: 7875 8dbd d74d d23d b9f5 71bd 427f 80bd
00000020: 1ee5 26bd 5550 903d fa4b b5bc 3e14 883d
00000030: 19fd 84bd 0c07 12bd 6001 acbc 187c 70bb
00000040: 9f3c 99bd 4001 db3d 0fff aabb a02d 8b3d
00000050: ac8d 953d 8e36 d93c cc9b 0e3d 55c6 eb3d
00000060: 986e 59bd fd81 293d d50a 31bd a1a2 d83d
00000070: a9be d63d f33d b5bd a921 d03d 7b45 923d
00000080: f22f 9a3d b389 963d f9af f93d 0c06 31bc
00000090: 41d2 bcbd e2cc 18bc 569a 83bd dfe7 053d
000000a0: bba4 a6bc 812f 55bd 1f67 443c 5465 0c3e
000000b0: 2236 cb3c bd90 86bb 5702 05bc 130a d23c
000000c0: 4dcf e03d 270c 9d3d 8cbd 143b 4b75 65bc
000000d0: f9f1 5ebc 97a6 ab3c 9b8a fbbc c8b9 32be
000000e0: cc0c 0dbe dc65 bb3d 398f 34bc 7c35 0cbe
000000f0: f437 14bc b4aa b53d 1173 3cbe 8ea0 f0bd
00000100: 1e8a 84bd f4b0 b6bc 07d3 eebd 0658 93bc
00000110: 0ce1 29be 0a90 2a3d 4145 8a3d ba32 5b3d
00000120: b8b1 0abe 908d 0dbe e876 723c 84dd 153d
00000130: 2cb8 883d 7dc4 c2bd a7e9 473c f6a1 cf3d
00000140: 0ccf ac3d 5fbc 713c 26dc eb3c de08 283c
00000150: 2912 2ebd dd29 7dbc e510 83bd dc2e bc3d
00000160: 0a4b 813d 200a 643d 8e8c 6ebd 2d2f d13d
00000170: 63b5 0d3d 652c ab3d c660 20bd f822 723d
00000180: 2761 f03d 4d95 9a3d 31df ca3d cb73 92bc
00000190: e768 d13d d835 d4bd 2dca 643c a2b3 94bd
000001a0: b314 07bd 09e2 bdbc e4da ff3b cbae d23d
000001b0: 64d2 463d fda8 503c a001 d43d 3281 91bd
000001c0: f2c6 323d a001 c2bc 1629 a4bc 5fff ed3c
000001d0: 908d cfbd 8ea8 f93b 9ad8 113d 06a6 d73d
000001e0: 20cc 46bc 8cb4 373d 74bf e93d 330a 65bd
000001f0: e4c3 e63d 38b7 c1bd 3697 813c 9464 4d3c
00000200: b255 22ba 3b72 553d 4a53 80bd fd23 52bb
00000210: 24cd 14bd 137f 24be 21cf 7ebd 4d52 bcbd
00000220: a9dd b43c 4f9b 43bd f7d3 21bd 9994 85bd
00000230: 2713 dd3b 6a77 afbd 1cb1 31bc f5e9 aa3d
00000240: 07ae 303b 3812 42bd fc19 d0bd fee2 41bc
00000250: 7982 13be ec9f 0bbe 4b58 41bd 34dc 3ebd
00000260: 1913 323c 54b5 aa3d bd3c 0d3d 99d8 dd3d
00000270: f282 b4bd 99c0 263c 54f7 e1bd dd2a 163d
00000280: 89f7 283d babe c13d f09d c5bd 8eff 8f3d
00000290: 51e2 853d f260 d63d a695 acbb 8636 c63d
000002a0: 59be 893d b256 513d 62ef b03c b8d9 d0bd
000002b0: 7f7a da3b ec8f 0c3d 1883 c7bd 57f9 46bd
000002c0: 7b4f 10be b4e5 d3bc 6361 d93d fa0b e93b
000002d0: ce98 673c d048 f13a 40a6 a83d c8e2 0abe
000002e0: d202 ebbd 2c60 08bd 7567 ccbd d401 843d
000002f0: c7ff 833d 133c 29be 877c cabd dc08 27be
00000300: 8b9f 333d beb8 b33d 5176 08be 53d6 45bd
00000310: 1944 c53c 3b64 6fbd d4ef f53d ac8e 293d
00000320: 0b27 4bbc 012d 683c e010 3d3d 5931 1abd
00000330: c508 e0bd 426e d93c 968f a03b d0bd b83c
00000340: 944a ffbc fea3 9b3d f20f f7bc f95e b9bc
00000350: c917 733d c6fa 03be 37b9 033d 08b9 29bb
00000360: 94a5 763d f15a 6cbd a857 f63b 7bb6 023b
00000370: 0e09 b6bd b850 fdbd d1e4 9e3d bc15 2fbc
00000380: 6d6a bc3d 775b d1bd 6386 d0bc dbcc 7abd
00000390: 4d65 a93d 418b 1e3d c391 8cbc 604c 1bbc
000003a0: 1f20 afbd c49a fd3c 6991 8a3c a9e7 8cbd
000003b0: 15f9 843d 1997 2a3c fc2d e0bd 8851 8b3d
000003c0: 9d24 923d 93a9 31bc a07a 60bd b3c8 e1bb
000003d0: 9e6c b73d e4af d63d bbc1 d4bd 5722 82bd
000003e0: bee8 ad3d 6860 5f3d 089f ad3d 08b8 fdbc
000003f0: 0152 d73d 71c4 bbbd 8bea a23b 4e6d 19bc
-0.032709017 0.03219892 -0.03608861 0.06660583 -0.06907171 0.10268753 -0.05907223 -0.062742725
-0.040745847 0.07046572 -0.022130955 0.06644486 -0.06493587 -0.03565125 -0.02099675 -0.003669506
-0.07482266 0.10693598 -0.0052183936 0.06795812 0.073024124 0.026515272 0.03481655 0.11512438
-0.053083986 0.041383732 -0.04322322 0.10577894 0.10485584 -0.088497065 0.1016267 0.071421586
0.07528676 0.07350483 0.12191767 -0.010804664 -0.0921979 -0.009326192 -0.064259216 0.032691833
-0.020342221 -0.052047256 0.011987477 0.13710529 0.024806086 -0.0041066096 -0.008118234 0.02563957
0.109770395 0.076683335 0.0022695987 -0.014005016 -0.013607495 0.02095346 -0.03070574 -0.17453682
-0.13774413 0.091502875 -0.011020475 -0.13692278 -0.009046543 0.0887045 -0.1840327 -0.117493734
-0.06471656 -0.022301175 -0.11661344 -0.017986309 -0.16589755 0.041641273 0.067514904 0.053515173
-0.13544357 -0.13823533 0.014798857 0.036588207 0.06675753 -0.095101334 0.012201703 0.101383135
0.084379286 0.014754384 0.028791498 0.01025602 -0.042497788 -0.0154518755 -0.06399707 0.09188625
0.06313141 0.05567372 -0.058239512 0.10214076 0.034596812 0.08358077 -0.03915479 0.05911538
0.1173728 0.07548008 0.09905852 -0.01787748 0.10225087 -0.103618324 0.013964218 -0.07260825
-0.032978725 -0.023179071 0.007808076 0.10287245 0.048540488 0.012735602 0.103518724 -0.0710472
0.04364676 -0.023682415 -0.020039123 0.029052434 -0.10134423 0.0076189702 0.035606958 0.10529713
-0.012133628 0.044849917 0.1141347 -0.05591793 0.11267832 -0.09458774 0.015819173 0.012536187
-0.0006192579 0.05211089 -0.06265886 -0.0032064908 -0.03632845 -0.160641 -0.062209252 -0.09195385
0.022078352 -0.047755536 -0.039508786 -0.065224834 0.006746668 -0.08567698 -0.010845449 0.08345405
0.0026959197 -0.047380656 -0.10161206 -0.011833904 -0.1440524 -0.13635224 -0.047203343 -0.04659672
0.010868811 0.08335367 0.034481753 0.10832328 -0.08814038 0.010177755 -0.11033502 0.03666197
0.041251693 0.09460206 -0.09649265 0.07031165 0.06537307 0.104677096 -0.005266863 0.09678368
0.06725759 0.05110807 0.021598522 -0.101977766 0.0066674347 0.034316942 -0.09741801 -0.048577633
-0.1409282 -0.025866367 0.10614278 0.0071120234 0.014135553 0.0018408541 0.08234835 -0.13563073
-0.11475147 -0.03329484 -0.0998067 0.06445661 0.0644527 -0.16526823 -0.09887033 -0.16311973
0.043853324 0.08775471 -0.13326384 -0.0483001 0.024080323 -0.058445197 0.12008634 0.041395828
-0.012399445 0.014170886 0.04615867 -0.037644718 -0.10939173 0.026541833 0.0048999293 0.022551447
-0.031163491 0.075996384 -0.03015897 -0.022628294 0.059348855 -0.12888631 0.032159057 -0.002589764
0.0602165 -0.057703916 0.0075177737 0.0019945193 -0.08888446 -0.123689115 0.07758487 -0.010686334
0.091999866 -0.10222524 -0.025454706 -0.06123052 0.08271275 0.03870702 -0.017159348 -0.009478658
-0.085510485 0.030957587 0.01691504 -0.06880123 0.06492821 0.010412001 -0.10946271 0.0680266
0.0713589 -0.010843652 -0.054804444 -0.0068903803 0.08956264 0.10482767 -0.10388514 -0.06354206
0.08491658 0.0545353 0.084775984 -0.030971542 0.10513688 -0.091683276 0.0049718074 -0.009364439

conv1.bias f4 [10]
00000000: bcbc 1b3d 72aa ee3c 2320 f3bd 3421 9e3c
00000010: 5afe 0cbe 99aa 1dbd 0503 1bbc 411d 80bd
00000020: 39bc 7e3d d3dc b63d
0.038021788 0.029134009 -0.11871364 0.019302942 -0.13768902 -0.038492773 -0.009461169 -0.0625558
0.062191222 0.089288376

conv2.weight f4 [10, 10, 5, 5]
00000000: 9b1c bbbd f455 6e3d d2b6 2dbd 4b4c c1bd
00000010: c4af 76bd ffed a63d cead 833d fbe5 a7bc
00000020: 84df 68bd b820 11bd c236 95bc eec4 803d
00000030: 3c6e fb3c 5e0e debc 576a c9bd 669e 0a3d
00000040: 0f02 7d3b eadb 263d a025 4e3c 7eac df3d
00000050: 8e73 62bd 18ac 2f3d aa8c 1f3d c9a8 cb3d
00000060: 8ba2 c2ba a6a7 32bd f442 343d 8878 4bbd
00000070: 54d1 3bbd a17d 54bd a7bd 58bd 877b c1bd
00000080: d9af 973d cf3b 42bc 2fff 233d 09e1 8a3d
00000090: e849 663d db34 9c3d cfe4 ba3b 7e3e 6bbd
000000a0: deca 3b3d 2af1 65bd 6df9 c03b 25ab 9bbc
000000b0: 9361 873d abd5 9f3b 2dec f9bc 7d42 33bd
000000c0: 3bc6 8f3d f930 d2bc 793f 0bbd 14e0 9abc
000000d0: 3bc2 80bd 6e3c cb3d 9dda c73d e283 8bbc
000000e0: 850b 8e3d 3efd 743d cdb4 1dbc 19c6 ae3c
000000f0: e81d f23b 7bab 7abc 7673 63bc 80f9 a2bc
00000100: 3715 703d 459f c63c 9e25 d6bc 3e88 9ebd
00000110: 8f3e 743c b6c7 353d 38dc 8c3d b898 42bd
00000120: c58f 843d a3e3 47bd a8ff 27bc b088 d93b
00000130: fdc6 afbb d3bf 613c 7e11 acbd 7c1d bfbd
00000140: 5ad4 93bc 6110 6c3d 3ce0 b0bd f3fe aa3c
00000150: e059 59bd 03d0 6dbd 6493 be3d 64a5 9bbd
00000160: d17a 4c3a 997e 05bd 6474 803d 1743 9dbd
00000170: 7db9 623d 35a4 113d a2b8 893c 696b cf3d
00000180: 4776 af3d d98c 883d f6a6 413d 394d 873d
00000190: fca9 8f3d 59b8 b23c 1835 23bd 9de9 4c3d
000001a0: fa91 ae3b 4063 543d 16f9 7ebc 5390 cb3c
000001b0: af23 58bd 55bf 2ebd 8be1 2dbd d96b 793d
000001c0: 4dcc 36bd a744 f8bc 1882 39bc 0d76 8dbd
000001d0: 3a58 6cbd 481c 89bd 5a43 8abd d578 7bbd
000001e0: eae3 4e3c 19e4 843d d122 5fbd 7f83 abbc
000001f0: fa27 56bd 2b10 143d 40a2 903d 8b4d 5fbd
00000200: 3733 55bd 8d67 223c c22d 95bd 55c5 c03d
00000210: 3dd0 47bd 7a93 f8bb 72f1 893c 87fd 0d3b
00000220: a8eb 8fbd fcf4 babc 656c 983d 6cd4 d6bd
00000230: 8a83 443d 9538 8abd f158 463c 6dac 463d
00000240: 6e9f 66bd a263 0abe 5e6a 88bc 8d3e b1bd
00000250: cb45 80bc 4e24 663d 10ee 323d 17e0 4cbd
00000260: efd1 50bc 5c91 2cbd d1bd 25bd 0859 1e3d
00000270: eba1 0c3c 4311 643d 8f01 e83c d264 2bbd
00000280: 6b85 d13b f70f 31bd dc9d 75bd 8f50 42bd
00000290: 5228 6b3d 651c 39bd 4b9c 2c3d 6ba2 20bd
000002a0: f4ab 793d 22b7 2dbd 1a62 e53b 82a2 a6bd
000002b0: c09f d2bc 5036 bbbc d553 8cbc 7045 1bbd
000002c0: 6bd0 be3b c091 fcbb 7382 543d ba54 6cbd
000002d0: b84e a2bd 82a5 743d 161b 9b3c 119c c73b
000002e0: 6de4 93bc a5bb ad3d fe4b 3cbd ca3e 9b3d
000002f0: ea5d 823d eb44 85bd 3f04 9a3b eb42 9b3c
00000300: 8af1 11bd e4ea e7bc bae5 843d c209 963d
00000310: bad3 f13b 4357 973d 03b2 143d 54f9 5c3d
00000320: 3657 843d cf7f 9e3a 6db5 d4bd 934d 673d
00000330: 0771 9c39 47d8 9abd f650 52bb 583e 1bbd
00000340: 0f79 3ebd a1d3 143b 7ae6 4dbd c340 7cbd
00000350: d02f 10bb 75df 493d 1efe 613c 411e 153c
00000360: b26e c1bc 7f66 7dbd c0c0 0e3c 63e7 91bd
00000370: 03e7 a33b 8037 593d 8041 8d3d 972d 65bc
00000380: fa55 59bd ca71 303a 0a20 613d 0a1a 993b
00000390: b2df 8abd 7344 453d a101 5abd e254 d53c
000003a0: 056c 6e3d 4a1e d8bc 8638 d8bc 5ec0 063d
000003b0: 2c17 89bc e84b 963d 3f0f 013d c808 77bc
000003c0: 8474 8b3c 471f 94bb d302 0c3d abb0 9abd
000003d0: 0dbb 933d 39e8 a3ba 46ad 233d 46d5 3d3c
000003e0: 369d af3d a355 8abc 322d 87bd 81a9 60bc
000003f0: 0548 87bd 4285 1fbd 34e9 4fbd 4313 34bd
-0.091363154 0.05818744 -0.04241068 -0.0943838 -0.060226217 0.08150863 0.06429635 -0.020495405
-0.056853786 -0.035431594 -0.018214587 0.06287561 0.030692212 -0.02710646 -0.09834736 0.033842467
0.0038605963 0.04073707 0.012582213 0.10921572 -0.055285983 0.04288873 0.038952507 0.099443026
-0.0014849467 -0.043616913 0.044009164 -0.049675494 -0.045853928 -0.05187762 -0.05291524 -0.09447389
0.07406587 -0.01185508 0.040038284 0.06781203 0.056222826 0.07627269 0.0057035456 -0.057432644
0.045847766 -0.056138195 0.005889109 -0.019002507 0.06610408 0.004877766 -0.030508125 -0.04376458
0.07020231 -0.025658118 -0.03399608 -0.018905677 -0.062870465 0.099236354 0.09758494 -0.01703066
0.06935791 0.059811823 -0.009625626 0.021334695 0.007388819 -0.015299673 -0.0138825085 -0.019894361
0.058613982 0.024245868 -0.026140984 -0.0774083 0.014907493 0.044379912 0.06877941 -0.047508925
0.06472734 -0.048801076 -0.010253824 0.006638609 -0.0053642974 0.013778645 -0.08401774 -0.093317956
-0.018045593 0.057632808 -0.08636519 0.020873522 -0.053064227 -0.058059704 0.09305456 -0.07599905
0.00078002835 -0.032591436 0.062722 -0.07678812 0.055352677 0.03555699 0.016811673 0.10127909
0.085674815 0.066674896 0.047278367 0.06606526 0.07014844 0.02181642 -0.039845556 0.05002748
0.0053274604 0.051852465 -0.015562316 0.024849093 -0.052768406 -0.042662937 -0.042451423 0.060893867
-0.04462843 -0.030306173 -0.011322521 -0.06907282 -0.057701327 -0.06694847 -0.067511275 -0.06139453
0.012627581 0.06488819 -0.054476563 -0.020936726 -0.05228422 0.03614823 0.07062197 -0.05451731
-0.052050795 0.009912384 -0.07284118 0.09412638 -0.048782576 -0.00758594 0.016838763 0.0021666007
-0.0702737 -0.022821896 0.074425496 -0.10489735 0.047977008 -0.067490734 0.012106166 0.04850428
-0.056304388 -0.1351457 -0.016652282 -0.08654509 -0.01565828 0.056186967 0.043684065 -0.050018396
-0.012745365 -0.042130813 -0.040464226 0.038659126 0.008583526 0.055680525 0.028321056 -0.041844197
0.0063940785 -0.043228116 -0.059965 -0.047440108 0.0574115 -0.045193095 0.04214124 -0.039217394
0.060955003 -0.042410977 0.00700022 -0.08136465 -0.02571094 -0.022853047 -0.017129818 -0.037908018
0.005823185 -0.0077078044 0.05188222 -0.05769799 -0.07925171 0.059728153 0.018933814 0.0060916026
-0.018053258 0.08483056 -0.04597091 0.075803354 0.06365569 -0.06507286 0.004700213 0.018952807
-0.03563074 -0.028310247 0.06489129 0.0732608 0.007379976 0.07389691 0.036302578 0.053948715
0.06461947 0.0012092533 -0.10386167 0.056470465 0.0002983885 -0.07560783 -0.0032091714 -0.037901253
-0.04650217 0.0022709148 -0.050268628 -0.0615852 -0.0022001155 0.04928537 0.013793496 0.009101451
-0.023612354 -0.061865326 0.008712947 -0.07124212 0.005001904 0.053031445 0.06897259 -0.01398792
-0.05306051 0.0006730823 0.054962195 0.0046722936 -0.06780948 0.04816098 -0.05322421 0.026041452
0.058208484 -0.02638163 -0.02639414 0.0328983 -0.016734682 0.07338697 0.03150868 -0.015077777
0.017023332 -0.00452033 0.03418238 -0.07553228 0.072134115 -0.0012505121 0.03996017 0.011586493
0.085749075 -0.016886538 -0.06600417 -0.013712288 -0.066055335 -0.038945444 -0.05075951 -0.043963682

conv2.bias f4 [10]
00000000: 2813 48bd beac a5bd e74e 653c a57a 2cbb
00000010: 367d 0d3c 056d 033b 8dd3 d7bb e9d3 793b
00000020: 8aa3 07bc 3543 09bd
-0.048846394 -0.080895886 0.013995863 -0.002631822 0.00863581 0.0020053994 -0.006586498 0.0038120693
-0.008278737 -0.03351136

conv3.weight f4 [20, 10, 5, 5]
00000000: fd64 a0bd 2a6d 2dbd d958 85bd 80ca 543d
00000010: e067 5a3d 680a aa3c 1293 cbbd 28bd 9ebc
00000020: 8a58 80bd becb 303d 26fb d0bd 9312 e7bd
00000030: e4f2 b6bd c12b d13c 89a6 513d 49ad c0bd
00000040: 00ca c2bc b4ae acbc 4f03 3abb 5461 ffbc
00000050: 1a9e 3ebd b432 9e3a e577 b53b 0919 993d
00000060: 82e6 0c3d 1032 aabc 2b5e 2ebd 7880 e13c
00000070: 2068 8bbd 03a9 6d3d 9312 91bd 3112 58bd
00000080: 84b8 e5bc 4dbe 5e3c b0fe cfbc 14c5 8fbd
00000090: 71c8 94bd e980 03bc be9a a9bd 5b6d c2bc
000000a0: aecc dabd f691 4abc c054 e1bd 18e7 20bd
000000b0: 53ec acbb 24e0 52bd 801f 323b 743a b5bd
000000c0: 7a15 bb3c 456c ec3c b778 473c 31a9 4ebb
000000d0: 0f5d 283b ae86 9b3c 18db aebb 3796 a1bd
000000e0: 195c 183b c4b1 80bc f5f1 993c e165 60bc
000000f0: a076 34bd 36ae 57bd 8c72 a2bd 973e aabc
00000100: 41ab 353c 1ed4 85bd f7cb edbb c86e 9abd
00000110: 2d8a 62bd f472 adbc 8236 6c3c 6264 53bc
00000120: 21e2 18bb d769 9e3d 4d90 c33d 495f b2bc
00000130: 99ed 4b3c cb9d 06bd c4e7 88bc 9816 51bb
00000140: a24a 213c 0c7f 4dbd 1d72 293d 82c5 52bb
00000150: 4ad2 4fbc c360 20bd e4a9 0a3d d6f6 72bc
00000160: e9a2 0cbd 6246 053a fdf3 093d bfe7 38bd
00000170: f021 8a3c a1d5 a23d d08a 4b3d 4c87 2abb
00000180: d73c 843d 79f5 1abb 9321 d03c 24f3 5b3d
00000190: 9081 943b 6410 243c 0242 3c3d c15b 373c
000001a0: 6767 3f3c a763 023a 700d adbd 593b cebc
000001b0: bfac 20bc b61f a1bc 0ffb 8dbc 80d3 08bc
000001c0: 70dc a2bc a8d0 9cbd b273 babc 7932 04bc
000001d0: fa5e 9fbd c59e 18bc 219e f13c 039d e4bc
000001e0: 77bf 4abd e9a7 01bb ab3d 77bd dc61 843d
000001f0: 30d9 e73a 8631 6d3c ac0e 783d e5fd 9fbc
00000200: 3bd5 943d c76e 5c3c 5e8d a8bd 78ba b3bd
00000210: dda6 55bd bc42 54ba 7efe abbc 2579 23bd
00000220: 810c 92bd 13a4 813c d7dd 9dbd 84f7 3ebd
00000230: 5463 503a 3c01 8fbd 2047 1c3c b9c2 603b
00000240: 7515 52bd b6bf 10bd 79a8 c13c 740c 89bd
00000250: fb42 40bc dcec 283a cf4f 533d 5c28 143d
00000260: fd81 0a3d 7906 063d 2be3 a33d ca98 923b
00000270: d55a 11bd a29c 47bd ed16 d03c 5a42 2fbd
00000280: cb20 d53c ae0b 453d d2b5 2fbd 81bb 143d
00000290: aa60 cebc 643a 2cbc b720 5cbc 0b33 ef3c
000002a0: 2922 033d e775 0f3c fb7b e03c 3cee 65bd
000002b0: 1290 4abc 8d85 bd3c e856 2c3d b712 33bc
000002c0: 6136 17bd 8492 85bd 0f17 ce3c 80ee 433c
000002d0: a248 f53a 08d9 babd 91be 86bd e086 4d3b
000002e0: d744 2cbd 939b e3bd 3d7d a9bd f644 febd
000002f0: c7a5 cbbd 6118 b6bb 9df4 c8bd dfad 3cbc
00000300: 0796 c6bc 9b6c 18bd c21e 9cbd 3570 823c
00000310: 3b8f 58bd ee1f 9f3b e2ac 9fbd 39dc febc
00000320: dede 6c3c 9e21 10bd 1e9f 553d c645 a13d
00000330: 8984 013d ad60 94bc 039b 173c 2de0 33bd
00000340: 7422 773d 977b 643d 9258 4e3d 0a4d 5cbd
00000350: e460 0b3d e3d2 cb3b e724 bd3d 9caf 893c
00000360: 37a9 953c 483a f33a ad14 b53b 0ad8 6b3d
00000370: ec17 e83c 66fe 8c3d 7ba0 b03d 7947 f23c
00000380: 831f 833d a6f6 1f3d 7fed 913a 9c62 df3c
00000390: e847 52bd 4027 483d 09e1 79bd 4140 c13c
000003a0: 3ed0 4abc 30f2 51bc 1e34 9e3c ec6a c9bd
000003b0: f016 c7bd b9ab eebc 5368 5fbd 333f 073d
000003c0: 0fde c63c 01ba 26bd fa63 78bc 5298 afbc
000003d0: 130f 55bd 7878 43bd f2ac 83bc 9f9e de3c
000003e0: 6116 923c 9383 b2bc 80b8 5b3d c9e7 413d
000003f0: 6f8e 1bbd 1068 433c 5e79 733d c92d 283b
-0.07831762 -0.042340435 -0.06511087 0.05195093 0.05332172 0.020756915 -0.09940161 -0.019377306
-0.062668875 0.043163054 -0.10204153 -0.112828396 -0.089330465 0.025533559 0.05118421 -0.094080515
-0.023777962 -0.021079399 -0.002838332 -0.03117434 -0.046537496 0.0012069554 0.005537974 0.07475478
0.034399517 -0.020775825 -0.042570274 0.027527079 -0.0680697 0.05802251 -0.07083621 -0.052751724
-0.028042085 0.013595176 -0.02539 -0.070200115 -0.07264794 -0.00802634 -0.08281468 -0.023733785
-0.10683571 -0.012363901 -0.11002493 -0.03928289 -0.0052771955 -0.05148329 0.002717942 -0.0884904
0.02283739 0.02886022 0.012174777 -0.0031533951 0.0025690233 0.018985119 -0.0053361766 -0.07889979
0.0023248254 -0.015709765 0.018792132 -0.013696165 -0.044058442 -0.052656375 -0.07932004 -0.020781798
0.011088193 -0.06534599 -0.0072569805 -0.07540661 -0.055307556 -0.021172978 0.014417293 -0.012902351
-0.0023328143 0.07735031 0.095490076 -0.021773951 0.012446784 -0.032865327 -0.016712077 -0.0031904336
0.009844454 -0.05016999 0.041368593 -0.003216118 -0.012684414 -0.03915478 0.033853427 -0.014829358
-0.03433505 0.0005084035 0.03367995 -0.045142885 0.016861886 0.07950903 0.04969293 -0.0026020585
0.06456917 -0.0023644848 0.025406634 0.053698674 0.0045320466 0.010013673 0.045961387 0.011191309
0.011682368 0.0004973956 -0.084498286 -0.025174784 -0.009806811 -0.019668441 -0.017331628 -0.008351207
-0.019880503 -0.076569855 -0.022760246 -0.008068674 -0.07781787 -0.009315197 0.029494347 -0.0279069
-0.049499 -0.001978392 -0.060361546 0.06463978 0.0017688628 0.014477139 0.060560867 -0.019530246
0.07267233 0.013454146 -0.08230089 -0.087758005 -0.052161086 -0.00080971024 -0.020995375 -0.039910454
-0.07131291 0.015825307 -0.07708328 -0.046622768 0.00079493714 -0.06982657 0.009538442 0.0034295751
-0.051289994 -0.03533908 0.023639904 -0.06691828 -0.011734719 0.0006443986 0.051589783 0.036171302
0.033815373 0.032721017 0.08002313 0.0044737803 -0.035487015 -0.04873336 0.025401557 -0.042787887
0.026016613 0.04810684 -0.042898007 0.03631163 -0.025192577 -0.010511968 -0.013435534 0.029199144
0.032015 0.008756137 0.027402868 -0.0561354 -0.012363451 0.023134971 0.042075068 -0.010929755
-0.036917094 -0.06522086 0.02515748 0.011958718 0.0018713663 -0.09123427 -0.065793164 0.003136091
-0.04205784 -0.11113658 -0.082758404 -0.12415497 -0.09943729 -0.0055571054 -0.09812281 -0.0115160635
-0.02424146 -0.03721295 -0.07623054 0.015922645 -0.05287097 0.0048561012 -0.07796647 -0.03111087
0.014457433 -0.03518831 0.0521537 0.07874636 0.031620536 -0.018112505 0.009253266 -0.043914963
0.06033559 0.055781927 0.050377436 -0.053784408 0.03402795 0.006220208 0.09235554 0.01680737
0.018269164 0.0018556798 0.0055261464 0.057579078 0.02833172 0.0688446 0.08624359 0.029575096
0.06402495 0.03905358 0.0011133401 0.0272687 -0.051338106 0.048865557 -0.061005626 0.023590209
-0.01237875 -0.01281409 0.01931196 -0.09834847 -0.09721172 -0.029134618 -0.05454285 0.033019256
0.024275808 -0.04070473 -0.015160555 -0.021434937 -0.05201633 -0.04772231 -0.016073678 0.027175246
0.017832937 -0.021791255 0.05364275 0.04734019 -0.037977632 0.011926666 0.059441917 0.0025662056

conv3.bias f4 [20]
00000000: b307 8ebc 24f3 0dbc f9c5 eb3c 1939 583b
00000010: 7cab 92bd 9dbd 943d bfc5 d4bb 03b6 8a3c
00000020: 486f 813d 7d35 f7bc f6df 513d 1dc2 0a3d
00000030: 6f86 e93b 0bae 89bd cf12 223d e5e3 3b3a
00000040: d093 79bd 0b19 31bd 93f9 873d 9a6a 0e3d
-0.017337656 -0.008663926 0.028780924 0.0032993017 -0.07161614 0.07262728 -0.0064932997 0.016932493
0.06320053 -0.030176872 0.051238976 0.033876527 0.0071266214 -0.06722649 0.03956872 0.0007167443
-0.06093198 -0.043236773 0.066393994 0.034769632

conv4.weight f4 [20, 20, 5, 5]
00000000: 411a 693b f491 d3bc 0dac 253d 2c91 22bb
00000010: 23e6 21bc 0892 db3c 97d1 a83b 4643 3a3d
00000020: 2ee0 26bd edeb 583c 7a7b 123d 05cd aabb
00000030: 9257 ac3c d634 acba d861 1cbd b88d 3bbd
00000040: b7fe cabc 1983 d2bc 4e3c d43c c27f ccbc
00000050: d1b2 67bd 1c9e a7bc 5f48 c63c 2161 dabc
00000060: 0102 78ba 25ed c13c 08b1 4a3d abb0 b2bb
00000070: f36d cabb a795 bdbc 225d f13c 87e4 ef3b
00000080: 6bff a73c bb23 5c3d 593c 1f3c 4e58 a6bb
00000090: 4d10 293d 5a56 8d3d 76f6 dd3b 909c 203c
000000a0: f3e4 133c be1f 7c3d 2fb7 9b3c 0616 663d
000000b0: 9f1c 0ebd f1ff 4f3d 0c17 fdbc 4e0f e83c
000000c0: 4c05 ee3c c8cc 46bd 3625 143d add6 483d
000000d0: af86 613c bdfd 953b 0f2c 9cbb ab5c 963c
000000e0: 8554 f9bb 431f e33c aaa5 d83c d6e4 be3c
000000f0: f1f7 263d 86e3 3f3d 1ef5 3c3c a1b0 3f3d
00000100: 8012 0a3d 11d7 2c3d e803 343c 8f96 393d
00000110: 32cd 163d f221 2ebb d64d 0f3c 1072 d63c
00000120: 1ead ee3c 0e25 613d dcbf d33a 7b44 23bd
00000130: 3a24 473d 9c61 21bc 59a7 e3bc 36c4 33bd
00000140: 4263 2b3d cb1f 593c 4cb0 43bc a83a 0c3d
00000150: 240e 92bc ee53 95bc 7742 333c 0005 f83b
00000160: 3048 c03a 95a6 c0bc 19f6 3a3d 3bec ae3b
00000170: 45c0 89bc a8ea 483d 6d71 1e3c 1b35 21bd
00000180: b347 0e3d 88e9 e63c d9a0 263d c3b9 bb3c
00000190: e396 123d 523c fe3c 1c33 6bbc 1a9b 103d
000001a0: 3c1f f9bc 8a66 de3b 8d3a ad3c 6930 1c3d
000001b0: ad2a db3c 23a9 0f3d 9f99 203d f1cb a1bc
000001c0: 9daf 4e3d 07fb 05bc 3bc3 fbbc 7d30 3d3c
000001d0: a2af 743c 685f f33b d3da 8b3c 7dde 363d
000001e0: c20e b33c 92d5 e6bb 4769 17bd 1fc9 9bbc
000001f0: 7083 023c 476f d63c 1fc8 de3c 8068 9c3d
00000200: 6b5c 443d fef9 c53c 86e2 533c fab1 933d
00000210: 408b 1f3d f526 9e3d 06cd 693c f07a b93c
00000220: cb7a 2cbc de0f fa3c 7ae3 a43c 3f8e 58bd
00000230: c348 393d 9be6 043d 87cb 0e3d 9ad3 05bd
00000240: 01c2 0ebc 3270 e4bb 1f97 183c 3509 0f3d
00000250: 0e9a 12bd fb5e 3cbc a3d6 213d 8776 b93b
00000260: bd80 883c 1c2c 4e3d 595d b33c d777 863d
00000270: bf7f 493d 537b ae3b c662 943d 605f 653c
00000280: 007d cbbb 7006 553d f21f 823d dd34 ddbc
00000290: cfa9 8fbc b8da 233c 4f2a f93c 5c93 303d
000002a0: 50b0 383d ebbf 163d 82a0 2fbc ce5f 1e3d
000002b0: 724b f33c 41fc ba3c eaa9 47bb ed9f 6cba
000002c0: 9aaa 9dba c114 b03c 4929 61bd a27f 19bd
000002d0: a8ce aebc e527 a53c 6ceb 2cbd 9d3b 25bd
000002e0: c58c 5fbd f72c 35bd e329 4fbc 71d0 a23c
000002f0: 5a4a 02bd e19d eb3b 1234 94bb f2a8 a0bb
00000300: ca65 4ebd 30e5 eb3c 6edb b83c 9a0f 08bd
00000310: b561 60bd 11d3 47bd 2271 57bd 7ae5 e33c
00000320: 5fc7 a93c 5ace 7c3d 7eae aa3d ceed 793d
00000330: 16b4 123d f153 893d f58a 7e3c 0f07 743d
00000340: 1466 cc3c d9a3 fb3c cb7a 243d bf1b e23c
00000350: cbbb 02bd 643e 38bd 541b 31bd d877 123d
00000360: 0cdc 9d3a 8d1c ef3c 52ff d83c 2a6b 2a3c
00000370: 0a39 df3c a0c4 6fba 435d b7bc 920a 353d
00000380: 513b 4c3b 7c8f ccbc 8c6d 763c 6feb c83c
00000390: 62ea e03b eada e43c 5427 003c 9d25 093d
000003a0: 2b14 153d 2a48 123d 59c5 253c 2a43 473d
000003b0: 29b0 2d3d 43cc 39bb dee5 5e3c cd8d 85bc
000003c0: 40f7 2cbc ba07 e93c 5dc5 67bc 1218 5fbc
000003d0: c507 2f3d de11 61bc 3a16 b9bc 2621 033d
000003e0: 6fef c8bc 524e 393d 9aae 703d b092 cf3b
000003f0: bccf 733c 6695 dd3c f84f 473d 9215 87bc
0.0035568627 -0.025826432 0.040447284 -0.0024805767 -0.009881529 0.026803032 0.005151938 0.045474313
-0.04074114 0.013239843 0.035762288 -0.0052124285 0.02103785 -0.0013138305 -0.03817925 -0.04578945
-0.02477966 -0.025697278 0.025907662 -0.024963263 -0.056567017 -0.020461135 0.024204431 -0.026657643
-0.0009460748 0.02367265 0.049485236 -0.0054531894 -0.0061776577 -0.023142649 0.029463354 0.0073209438
0.020507535 0.053745013 0.009718978 -0.0050764447 0.04127531 0.06901236 0.006773765 0.009802952
0.009026754 0.06155371 0.019008247 0.056173347 -0.034695264 0.050781194 -0.030894779 0.02832761
0.02905526 -0.04853514 0.0361683 0.049032856 0.013765021 0.004577367 -0.0047659944 0.018354734
-0.0076089525 0.027724868 0.026446182 0.023302477 0.0407638 0.046847843 0.01153305 0.046799306
0.03370905 0.04219729 0.010987259 0.0453096 0.036816783 -0.0026570526 0.008746585 0.026177436
0.029135283 0.05496698 0.0016155201 -0.03986023 0.048618533 -0.009849932 -0.027789759 -0.043888293
0.041842707 0.013252209 -0.011943888 0.034235626 -0.017829008 -0.018228497 0.010941139 0.0075689554
0.0014669951 -0.023516933 0.045644853 0.0053382195 -0.016815314 0.04905191 0.0096705975 -0.039357286
0.034736346 0.028187528 0.04068074 0.022915727 0.035788428 0.031034622 -0.014355447 0.035304166
-0.030410402 0.006787126 0.021146083 0.038132105 0.026753748 0.03507341 0.039209004 -0.019750567
0.050460447 -0.008177525 -0.030732742 0.011547205 0.014934452 0.007427145 0.017072117 0.044645775
0.021857623 -0.0070445025 -0.036965635 -0.0190168 0.007965907 0.026176108 0.027195035 0.07637119
0.0479397 0.024167057 0.012932425 0.07211681 0.03895116 0.07722274 0.014270073 0.022641629
-0.010527323 0.030525144 0.020128 -0.05287003 0.045235407 0.032446485 0.034862068 -0.032672502
-0.008713246 -0.0069713825 0.009313374 0.03492089 -0.03579145 -0.0114972545 0.039511334 0.0056598815
0.01666295 0.050335035 0.021895098 0.065658264 0.049194094 0.00532476 0.07245402 0.01399979
-0.0062099695 0.052008092 0.06353749 -0.027002746 -0.017537026 0.010000877 0.030415682 0.043109283
0.04509002 0.03680412 -0.01071942 0.038665585 0.029699061 0.022825362 -0.0030466267 -0.00090265163
-0.0012028993 0.021494271 -0.054971013 -0.037475236 -0.021338776 0.020160625 -0.042216703 -0.040340055
-0.054577608 -0.044232335 -0.012644264 0.019874783 -0.03180919 0.0071904515 -0.004522809 -0.0049029524
-0.050390042 0.028795809 0.02256557 -0.033218004 -0.05478068 -0.048785273 -0.052598126 0.027819384
0.02072495 0.06172023 0.08334063 0.061017804 0.035816275 0.06705464 0.01553606 0.059577044
0.024951018 0.030717777 0.040156167 0.027601121 -0.031917375 -0.044981375 -0.043238953 0.035758823
0.0012043728 0.029188419 0.026488934 0.0104015265 0.027248878 -0.0009146426 -0.022383338 0.044199534
0.0031163285 -0.024970762 0.015040766 0.024526326 0.006863878 0.027936418 0.007821877 0.033483136
0.036396187 0.035713352 0.010117852 0.048648037 0.042404328 -0.002835051 0.013604609 -0.016302967
-0.010556996 0.028446067 -0.014146176 -0.013616579 0.04273202 -0.01373717 -0.022593606 0.032014035
-0.024528233 0.045240708 0.058760263 0.006334625 0.014881071 0.027048778 0.04866025 -0.016489778

conv4.bias f4 [20]
00000000: 6bb1 a03c e6ce 8ebc 2f00 aebc 20b4 80bd
00000010: 1f3a 263d 57f8 c73c 8903 d4ba a0a4 f3bc
00000020: 86ff 6fbc 5a77 af3c 7013 cfbc 443c d03c
00000030: 38f3 9abd 04d0 38bc 04d3 67bd 70fa fabc
00000040: 4c33 70bd 6fb8 543c 53fe 48bd 4125 a5bc
0.01961585 -0.017432641 -0.021240322 -0.06284356 0.040582772 0.02441041 -0.001617537 -0.029741585
-0.014648324 0.021419216 -0.025277823 0.025419362 -0.075659215 -0.011280064 -0.056597725 -0.030636996
-0.05864267 0.0129834255 -0.049070667 -0.020159366

conv5.weight f4 [30, 20, 5, 5]
00000000: 2351 ea3b 2cc8 473d 13c5 393d 23e7 453d
00000010: 773f 14bd f47d 1b3d 8e6e ab3b 3b6a afbc
00000020: 2447 01bc 71df 21bd 07f8 bd3c ee90 013c
00000030: b42c 9739 22e3 48bd 52f3 f8bc c348 b23c
00000040: 4680 353d a250 723c d8ef cdbc fcc4 e83b
00000050: 8997 febc 5d11 3ebc 670a 513d e8dc 5bbc
00000060: a685 7e3c bc63 dbbc 0881 183d be5b ad3c
00000070: afff 14bc eda6 dcbb 83a5 ee3c 0a16 cd3c
00000080: b5fe eb3c fba3 ac3c d7af 2dbd f5a8 d0bc
00000090: eecc f1bb 2cf2 ddbc c102 fd3b 7ea9 1fbd
000000a0: d0ef 63bc 9956 093d c943 093d 010a 0d3d
000000b0: b6e4 62bd d391 4c3c 0f56 99bc 8b84 18bc
000000c0: 44a1 53bd 170c 1ebc 52e1 32bd 7dbb 0fbd
000000d0: cc62 a2bb a3c2 ca3c 7b96 2a3d 7f7b 673d
000000e0: 5ea1 48b9 cbf6 983d 93a2 923d 7916 4abb
000000f0: 3887 803d a3a8 823d 2b3a 70bb fd4e a63c
00000100: 8630 883d 8503 123c dcbb e43c ed3c 3b3d
00000110: 1092 483d 653d 74bc 15a0 d1bc 7635 aa3c
00000120: 1f0e b93c 9424 2d3d 5dc8 14bd 57f7 0ebc
00000130: 9478 30bd 7160 dabc 5b69 a43c 3c42 d33c
00000140: f1a9 0c3c b0a9 97bc 2270 223d 82c1 833d
00000150: b227 cab9 a87d a3bc c69b 853c 12ac 03bc
00000160: 4c61 173d ecbd f63b c944 20bc 3c58 213d
00000170: 988f f23c efe5 463d 9444 de3b ff53 563a
00000180: 82af bcbb 3577 8abc 47f0 373d 3073 f23c
00000190: 2cc9 7d3d f4a6 a63d 57f2 013d 4482 cf3c
000001a0: 81b5 083c 99a2 6fbc c9b6 f83a 2b02 133c
000001b0: 7517 b6bc 18d4 bdbc 622d 81bd 9c73 4abd
000001c0: ed6b 863b 7ae3 98bc 3a31 26bd 65c6 bdbd
000001d0: a403 98bd e979 2cbc 1b95 52bd 88c9 ccbc
000001e0: e413 46bd aac0 b5bd 854b 61bd 049e 233b
000001f0: 90a0 23bc 8af4 0ebd cb64 33bc 997a 06bd
00000200: cc75 1c3b 8730 c3bc 7efe 27bd 9921 403d
00000210: 908f 93bb 4b55 6a3b bc36 50bb 6e4c fc3c
00000220: f48b a33b 3b12 87bc ee99 9d3c 7fbb cb3c
00000230: df45 1d3c 159c 3b3d aa0b e9bc ae48 89bc
00000240: 2ce2 8dbb 8572 08bc a686 213d 6e21 723c
00000250: 14f6 103d e57c 433c f056 6ebc 41d3 d0bc
00000260: 726b 07bb bcc7 ffb9 985b 59bc d6b3 93bb
00000270: 327a a63c 2418 fd39 f039 3fbd f53d 31bc
00000280: 730f f2bc b3ea dfbb cca4 623c 1552 1ebd
00000290: 4559 50bc 8d31 2e3d 8885 9bbb 9726 7abc
000002a0: 6ca4 41bd 0026 dd3c 5c82 f73a b29b c73c
000002b0: a5be 5fbc eb27 1abc 2601 e5bb 4f81 08bd
000002c0: 6ec7 f63c c864 b83c 7e57 b63c b71e 52bc
000002d0: 0a96 bcbb e8e1 d4bc 8db3 0ebc 2ddb 0abc
000002e0: 29ae 4cbb edb1 30bd 0f60 04bc 77d2 bebc
000002f0: f5f2 5dbd c5f6 b5bc a84c 353c 9a3d a3bc
00000300: f09c 42bc d9f5 0fbd bd17 05bd 9318 a6bc
00000310: 25bd 3d3d b2e0 403d 9106 8bba 2e6a a1bb
00000320: f691 933b e64e d03a d413 5ebb 3eeb ea3c
00000330: 3d7e 08bd e772 ffbb e551 1c3a c628 9dbc
00000340: ad4b cfbc 118c 15bd 0139 553d c0e8 89bc
00000350: 8335 1e3b f3fe 983c 80ed f13b df8f dbbc
00000360: 2528 b63c fc84 0d3d 69fc dabc db4d e9bc
00000370: 25e4 263a 7860 7fbc 681c 933c eec4 09bd
00000380: 135e 46bc 4ab7 e03c 2fc5 113b 794d e3bc
00000390: 71ad a7bc 7468 6bbb 34eb d93c e6a9 7abc
000003a0: 13e2 6c3d f00a e23c 080e 2f3d 62fc 033d
000003b0: 8588 75bc 8278 87bc 6aa1 ca3c 99e4 febc
000003c0: b396 183c 7b65 36bd ae32 bbbc a66f 42bc
000003d0: 5db2 da3c bd4e 4e3c e312 843b 51eb e4bc
000003e0: 75df 39bc b8ce 17bd eadb c4ba cac5 bfbc
000003f0: 7242 d63c a1d4 8fbc 2632 03bd b8ae 7a3d
0.0071507855 0.048774883 0.04535396 0.048316132 -0.036193337 0.037961915 0.005231685 -0.02141296
-0.007890496 -0.03951973 0.023189558 0.007908089 0.0002883427 -0.049044736 -0.030389462 0.021763211
0.044311784 0.014789732 -0.02513878 0.0071035605 -0.031078117 -0.011600819 0.05103531 -0.013419367
0.015534794 -0.026780955 0.03723243 0.02116191 -0.009094163 -0.0067337663 0.029131657 0.025034923
0.028807977 0.021074286 -0.042404022 -0.02547119 -0.007379166 -0.027093016 0.0077212756 -0.03898
-0.013912156 0.03352985 0.03351191 0.03443337 -0.055393897 0.012485939 -0.018717794 -0.009308944
-0.051667467 -0.009646437 -0.043671913 -0.035090912 -0.004955625 0.024751013 0.041647416 0.05651426
-0.000191336 0.07468947 0.07159915 -0.0030836149 0.06275791 0.06379821 -0.0036655765 0.020301336
0.0664988 0.008911972 0.02792161 0.0457124 0.04896742 -0.014907216 -0.025589028 0.020777445
0.022589741 0.04227121 -0.036323894 -0.008725963 -0.043083742 -0.026657315 0.020069769 0.025788419
0.008585439 -0.01851353 0.03965772 0.06433393 -0.00038558018 -0.019957379 0.01630963 -0.00803663
0.036958024 0.0075299647 -0.009782025 0.039390787 0.029609486 0.048559126 0.0067830775 0.00081759685
-0.005758227 -0.016902545 0.04490688 0.029595941 0.06195943 0.081373125 0.031725254 0.02533067
0.008344055 -0.014626169 0.0018975373 0.008972685 -0.022227982 -0.023172423 -0.06307484 -0.04942666
0.004102221 -0.018663157 -0.04057429 -0.092663564 -0.074225694 -0.0105271125 -0.05141173 -0.024998441
-0.048358813 -0.088746384 -0.05500366 0.002496601 -0.009987012 -0.03490118 -0.010949324 -0.032831762
0.0023873923 -0.02382685 -0.041014187 0.04690704 -0.004503198 0.0035756405 -0.0031770905 0.030798163
0.004991049 -0.016488185 0.019238438 0.024869679 0.009599178 0.04580315 -0.028447945 -0.01675829
-0.0043299403 -0.008328085 0.03943505 0.014778478 0.03539093 0.011931633 -0.014547095 -0.025491359
-0.0020663408 -0.00048786204 -0.013266467 -0.004507522 0.02032194 0.00048273907 -0.046686113 -0.010817994
-0.029548382 -0.0068333982 0.013833236 -0.0386525 -0.012716596 0.042527724 -0.004746143 -0.01526799
-0.047275946 0.026995659 0.0018883455 0.024366233 -0.013656293 -0.009408931 -0.0069886623 -0.033326443
0.030124392 0.022508994 0.022258516 -0.012824706 -0.0057551907 -0.025986627 -0.0087098 -0.008475107
-0.0031231737 -0.043138433 -0.008079543 -0.023293717 -0.05418678 -0.022212395 0.01106564 -0.019926835
-0.011878237 -0.035146568 -0.03249334 -0.02027539 0.04632296 0.047089286 -0.0010606815 -0.0049259877
0.004503484 0.0015892654 -0.003388633 0.028676625 -0.033323515 -0.00779568 0.0005963131 -0.019184481
-0.02530464 -0.03651053 0.052056316 -0.016834617 0.0024140782 0.018676257 0.0073830485 -0.026802002
0.02223594 0.034550652 -0.026731687 -0.028479507 0.00063663936 -0.015586965 0.017957881 -0.033635072
-0.01210739 0.027431149 0.0022242775 -0.027746903 -0.020468445 -0.0035920413 0.026601411 -0.015299296
0.05783279 0.027593106 0.04273799 0.032223113 -0.014986162 -0.016536955 0.024735171 -0.031114863
0.009313273 -0.044530373 -0.022851314 -0.011867439 0.026696378 0.012592015 0.004030572 -0.027944239
-0.01134478 -0.037062377 -0.0015019153 -0.023409743 0.02615473 -0.017557444 -0.032030247 0.06120178

conv5.bias f4 [30]
00000000: 07cb 85bb 7264 09bd 1d1b 3fbd 7672 57bc
00000010: d243 a9bc f920 8fbc f341 5cbc 640a f0bc
00000020: 4aad 313d f8da 523c 1fc0 ee3c dde4 573d
00000030: 8100 06bd 8dfd 4e3d 9da0 8dbd dccf 9fbb
00000040: 7636 dbbc 6d4c 0cbd 5d47 12bd ed97 bc3c
00000050: ddd5 18bd af86 b4bc 00c1 b2bb 6af4 8d3c
00000060: c9c4 203d c15d 0dbc 119e f8bc 1850 56bd
00000070: c47c 7b3c f533 463d
-0.0040830406 -0.033543058 -0.046656717 -0.013149848 -0.020662222 -0.017471777 -0.013443458 -0.02930183
0.043378152 0.012869589 0.029144345 0.052708495 -0.032715324 0.050534774 -0.069154 -0.0048770737
-0.026759367 -0.034252573 -0.03571259 0.023021663 -0.03731333 -0.022036878 -0.0054551363 0.01732846
0.03925017 -0.00862831 -0.03034881 -0.052322477 0.015349571 0.048389394

conv6.weight f4 [30, 30, 5, 5]
00000000: 483c 94bb 6e43 973c 9617 513d ae3c bf3c
00000010: 8c65 223d ff13 513c 0547 553d f87c 8d3c
00000020: 88f3 e13c 07ea 193d 60ee 6d3d 7e91 4c3d
00000030: b872 bd3c 4706 803d 1118 de3c cb40 193d
00000040: 8c65 423d 313f 623d a246 8cbb 17b1 c63c
00000050: a62b 303d 92ca a73c b0b0 c5bb 761b d3bc
00000060: 60ea acbc b4ef 7c3d a6e8 703d 4e03 123d
00000070: 6e18 223c 4c6a cbbc fb39 debc 3334 b5bc
00000080: 0e44 54bb 271e 7cbc 38b2 f8bc dc88 05bd
00000090: 9c53 a0bc b3aa 28bd 0758 79bd ddb5 aabc
000000a0: 7ac2 f13a 316b 173c f628 03bd 7b07 283b
000000b0: 3c87 093c b228 d33c e7a3 513d 6063 3b3d
000000c0: a519 b03c 29bd 253d 264b 66bc dddf 753d
000000d0: 2290 0a3d e3cf 91bc cbc5 a23c d0d7 da3c
000000e0: 37ae 113d 0b1e 593d aaaf e93c 8177 24bc
000000f0: 4528 dc3c c484 94bc 4819 b3bc 0802 debc
00000100: 0ad2 a2bc 587b 9a3c 9177 c83c a859 a9bc
00000110: eb15 393c a3ed 9ebc 2059 cbba a07a 9dbb
00000120: 40f5 043d bef0 51bc 147e 1d3d 96dc f8bc
00000130: 016c c1bc 1ac4 a93c e271 c8bb ee65 0dbd
00000140: 0858 c3bb 37ae 27bd 6576 8dbb fdf6 8ebc
00000150: 17c4 15bd 86d8 80bc 0a65 7b3a edfa b8bc
00000160: 1087 92bd a62c 9ebd bc96 92bc c8d5 68bd
00000170: f879 24bb 311d 07bd deac 6bbd 22c0 a03a
00000180: e4d9 5e3b 0c8a d7bb 96a0 c7bc b742 20bc
00000190: a32e 723d 9839 8a3d a354 1c3c 831c 0a3d
000001a0: 8414 1d3c 20a9 5ebc 2705 dabc 73d0 e6b9
000001b0: effd 9839 0ffb 0fbb 8dbd ef3b 8b76 9fbc
000001c0: d0e4 edbb 9ed1 99bd 9031 58bd f364 08bd
000001d0: ba36 6fbc e699 01bd f86d 38bd a9a1 a3bb
000001e0: 5811 d93b be37 98ba 376c 8bbd 4773 65bd
000001f0: a7f4 10bd 6629 063c 1639 b838 78bd c53c
00000200: 6864 7b3c 13c0 273c 179f a23c 24a2 263c
00000210: 73cd 083d 1fe3 1c3d e9da 9fbb 7bf8 eb3c
00000220: be3a 25bc 6fbb 35bc 0e0b c33c 887d e3ba
00000230: 672f 78ba 4635 4f3b fbee 8f3c e762 f7bc
00000240: 048d 503c 20da 9f3c da58 a33c 4357 c0bc
00000250: 5712 073d cbd9 14bd 3c0f 18bd df58 1ebd
00000260: 4481 f53c 02cb d3bc 00d2 183b da5e d5ba
00000270: 5299 24bc 241e 43bc 108f 163d 6da1 2ebc
00000280: 1afa 423c f955 063d b5eb c83b 4c1c 353d
00000290: b414 cd3c b360 1c3d 8038 a93c ad97 ab3d
000002a0: be4e 4d3d d3c8 fa3d 9961 aebc 8ef3 0e3b
000002b0: 0391 6dbd ee10 a4bc 08c9 de3c a02a a6bc
000002c0: 1299 c5bb 9a6f 8e3b c141 b63c 6241 793c
000002d0: 064d 3b3b 973c 14bd bb9e 22bd ec07 a2bd
000002e0: 6797 80bd e7be b9bc ed3b 1bbd 3ea1 b5bd
000002f0: 64f9 cabd 6bd3 b0bd f4d7 bd3b c718 a83a
00000300: 9fa1 6bbd 5060 70bd b2d8 83bd f936 523b
00000310: dd1e 1cbc 5b03 003d 46b7 ad3c 09ab 43bd
00000320: 6c0c 3d3d 15d5 d93c b066 883d 14ff 063c
00000330: 82bc d8bc b184 55bc e5ae 32bb 3d57 0dbc
00000340: b39b 28bd b253 92bd 12d8 ee3b b6d4 fd3c
00000350: 332a f6bb ce4a 82bd 34e8 01bd 211f 53bd
00000360: 48dd ed3c f4c3 82bc 8a02 90bc 2e6e eabc
00000370: 8933 d4bc b299 d13c 281f ba3b 9349 e0bc
00000380: cd81 6ebd 0eae c2bc 5ec6 133d a031 b83b
00000390: f1fe 70bb cdb9 bf3c 78b5 ad3c 390a f83c
000003a0: 2515 b63c c5e9 60bc 59e5 19bd 31b5 903c
000003b0: f3e3 da3b cee6 57bd cae6 78bd 1575 dbbc
000003c0: 82c1 cf3c aecb cdbc 6f98 5abd 499c 9ebd
000003d0: df76 bbbd 44f0 513c aff5 033d 644d 9cbc
000003e0: 745d a5bd b43a 46bd b0d7 de3c 602f 043c
000003f0: 28df 2c3c c516 a7bc c8fe 4f3c 5185 6c3c
-0.0045237876 0.01846477 0.051047884 0.023344364 0.039647624 0.012761115 0.052069683 0.017271504
0.027581945 0.0375767 0.05808866 0.04994344 0.023125991 0.06251197 0.027111085 0.037415307
0.047460124 0.055236045 -0.004280881 0.024254365 0.043010376 0.020482335 -0.0060330257 -0.02576993
-0.021107852 0.061752036 0.05881562 0.035647683 0.00989352 -0.02483096 -0.027127257 -0.022119617
-0.0032389197 -0.015388048 -0.030358419 -0.032601222 -0.019571118 -0.041178416 -0.060874965 -0.020838672
0.0018444799 0.009241865 -0.032021485 0.0025639224 0.008394059 0.025776241 0.0511817 0.04574907
0.021496603 0.0404636 -0.014056003 0.060027946 0.033828862 -0.017799323 0.019869706 0.026714236
0.035566535 0.053007167 0.028526146 -0.010038258 0.02687467 -0.018129714 -0.021862641 -0.027100578
-0.019875545 0.018857643 0.024471076 -0.020672634 0.01129673 -0.019400423 -0.0015514232 -0.004805878
0.03246045 -0.012813745 0.038450316 -0.030378621 -0.02361107 0.020723391 -0.0061170915 -0.034521036
-0.005961422 -0.04093763 -0.0043170922 -0.017451758 -0.03656396 -0.015728246 0.0009589946 -0.022580588
-0.071546674 -0.0772336 -0.017894141 -0.056844503 -0.0025097113 -0.032986823 -0.057537906 0.0012264291
0.0034004385 -0.0065777358 -0.024368566 -0.009781531 0.059126507 0.067492664 0.009541663 0.033718597
0.009587411 -0.013590127 -0.026613785 -0.00044024325 0.00029180894 -0.002196971 0.0073162974 -0.019465705
-0.0072599426 -0.075106844 -0.05278164 -0.033299398 -0.01460045 -0.03164091 -0.04502675 -0.0049936366
0.006624382 -0.0011613292 -0.0680775 -0.05601814 -0.03538957 0.008188581 8.784437e-05 0.024138197
0.015343763 0.010238665 0.01985125 0.010170493 0.033399057 0.038302537 -0.004878391 0.028805008
-0.010084806 -0.011092051 0.023808982 -0.0017356137 -0.0009467513 0.0031617447 0.01757001 -0.030198528
0.012728933 0.01951319 0.019939829 -0.02347911 0.032976475 -0.036340516 -0.037123904 -0.038658973
0.029968865 -0.025853638 0.002331853 -0.0016278878 -0.01004632 -0.011909042 0.03675753 -0.010658604
0.011900449 0.032796834 0.006131614 0.04421644 0.025034286 0.038178157 0.020656824 0.08378539
0.050123923 0.122453354 -0.021286773 0.002181265 -0.057999622 -0.020027604 0.027195469 -0.020283997
-0.0060302103 0.0043468 0.02224815 0.015213342 0.0028579845 -0.036190595 -0.03970216 -0.07911667
-0.06278878 -0.022674037 -0.037898947 -0.08868645 -0.09910849 -0.08634075 0.005793566 0.0012824767
-0.05752718 -0.0586856 -0.06437816 0.0032076223 -0.009528843 0.0312532 0.021205556 -0.047770534
0.046154425 0.026590863 0.06660211 0.008239526 -0.026457075 -0.013032124 -0.002726489 -0.008626756
-0.04116411 -0.0714487 0.007288941 0.030985218 -0.0075123548 -0.06361924 -0.031715587 -0.05154336
0.02903618 -0.015962578 -0.017579336 -0.02861699 -0.02590348 0.025585983 0.0056799836 -0.027378833
-0.058229256 -0.023764636 0.03607785 0.00562115 -0.003677305 0.023404026 0.021204695 0.030278312
0.02222688 -0.01372761 -0.03757224 0.017664524 0.0066800057 -0.052710347 -0.060766973 -0.026789228
0.025360826 -0.025121536 -0.05336803 -0.07744653 -0.09153532 0.012813631 0.032216724 -0.019079871
-0.080744654 -0.048395827 0.027202457 0.008067936 0.0105512515 -0.0203966 0.012695022 0.014436082

conv6.bias f4 [30]
00000000: 79b4 0b3d 2df9 923b c75a 843a b9ad 87bd
00000010: fc8f 0f3b c7de 693c 92af cbbb 0ceb cabc
00000020: 42f6 a13c 71ca 7d3c 173e a53c 1e1f 48bd
00000030: 544f a03c f5f3 c3bc 8d0b 8d3a 6d51 873c
00000040: e5d0 103d 096c af3c f36a 6f3c 54d0 343c
00000050: 2c56 033d 32c4 dd3c a609 f03b 8fc3 183c
00000060: 4126 44bc 53ba 903c bee4 efbc d060 cebb
00000070: 123d 82bc d791 16bc
0.03410766 0.0044852705 0.0010097855 -0.06624932 0.002190589 0.014274306 -0.006215998 -0.024770282
0.019770745 0.01549016 0.020171208 -0.0488578 0.019569077 -0.023920039 0.0010760889 0.016518319
0.035355467 0.02141382 0.014612901 0.011035997 0.0320646 0.027071092 0.007325369 0.009323969
-0.011972011 0.017666971 -0.029283877 -0.006298162 -0.015898261 -0.009190044

bn1.weight f4 [10]
00000000: 6a4a 8a3f a07a 823f 63e2 843f dfbf 713f
00000010: a810 6b3f 2756 823f d12a 7d3f 3ca6 7c3f
00000020: a3d6 733f 4267 833f
1.0803959 1.0193672 1.0381588 0.944334 0.9182229 1.0182542 0.9889346 0.98691154
0.95249385 1.0265887

bn1.bias f4 [10]
00000000: 4507 8f3c 4e44 193b 3491 23bd 6554 1cbd
00000010: 571a a3bd 8042 a7bc 2956 abbd f343 31bd
00000020: ff4b 4ebd 1633 c9bc
0.017459521 0.002338666 -0.0399334 -0.038166422 -0.07964008 -0.020417452 -0.08366043 -0.043277692
-0.050365444 -0.024560492

bn1.running_mean f4 [10]
00000000: 619b 06be ce91 873c edc8 83be 8713 bc3e
00000010: 412d 503f 5fe2 0abe c7c8 04be 25e0 e4bd
00000020: c0af e13e cefe f73d
-0.1314521 0.016549017 -0.25739232 0.36733648 0.8131905 -0.13562916 -0.12967215 -0.11175565
0.440794 0.12109147

bn1.running_var f4 [10]
00000000: d991 853e 8399 163e a5a3 6f3e 9035 c13f
00000010: 3235 a43f 7fbb 493f 052d 2840 46ee ce3e
00000020: 9869 5c3f a08f 8b3f
0.26087835 0.14706998 0.23402269 1.5094471 1.2828734 0.7880172 2.6277478 0.40416163
0.86098623 1.0903206

bn2.weight f4 [20]
00000000: 9b39 7a3f f887 6b3f 3843 843f d086 853f
00000010: e0dd 843f 8568 6b3f ade1 603f fd5c 783f
00000020: fb14 693f d60e 873f 71af 773f a3d8 653f
00000030: bc7d 933f 4d3c 743f 2944 833f aaff 843f
00000040: 166f 7d3f 3071 743f a0f8 773f a8cd 693f
0.9774415 0.92004347 1.0333014 1.0431767 1.0380211 0.9195636 0.87844354 0.9701689
0.9104764 1.0551403 0.9675208 0.89783686 1.1522746 0.9540451 1.0255176 1.0390522
0.9899763 0.9548521 0.96863747 0.9132943

bn2.bias f4 [20]
00000000: df14 733d 3412 29be 4c12 363e 19dc 603e
00000010: e906 033d 4192 41be 32a8 59be b3ef f5ba
00000020: 82d8 0bbe 03ec 433e ed51 783d c38a 58bb
00000030: f4f1 753e bcd9 cebc 5819 ca3d 5910 463e
00000040: c3f4 993d 5a3d 57be caff 373d ad58 aebc
0.059346076 -0.1651085 0.17780417 0.2195896 0.031989012 -0.18903448 -0.21255568 -0.0018763453
-0.1365681 0.19133 0.060625006 -0.0033041693 0.24018079 -0.025250308 0.09868115 0.19342174
0.07517388 -0.21019498 0.044921674 -0.021282518

bn2.running_mean f4 [20]
00000000: 729c c73e 2c7c a13f 1116 b0bf e8f2 b0bf
00000010: f748 d4bf 1bba c53f 46cc ee3f f63c 113f
00000020: 0403 b53f b1e5 efbf 2805 a4bf 3f0f 05be
00000030: 6f3a 52c0 bbaf c93d 93c0 2bbf 57cb b7bf
00000040: 24ab 11be c82c a73f a8c9 b2bf 16a7 853e
0.38986546 1.2616019 -1.3756734 -1.3824129 -1.6584767 1.544742 1.8656089 0.56733644
1.4141545 -1.8741971 -1.2814074 -0.12994097 -3.2848165 0.09847971 -0.6709072 -1.4358929
-0.14225441 1.3060541 -1.3967791 0.2610404

bn2.running_var f4 [20]
00000000: d8d8 3141 4824 b340 718a 7241 f80e 8e41
00000010: c3ae fc40 3cac bb40 46e9 dc40 d563 e740
00000020: 8673 fb40 660c c041 1333 3241 a374 5140
00000030: 9908 e540 a6ec c440 2bdd cc40 b572 1141
00000040: cbe1 e540 31c2 e440 83a1 8d40 4506 e240
11.11544 5.598179 15.158799 17.757309 7.896333 5.8647747 6.9034758 7.2309365
7.857852 24.006054 11.137469 3.272744 7.1572995 6.1538877 6.401998 9.090505
7.1838126 7.148705 4.425966 7.0632653

bn3.weight f4 [30]
00000000: 5f28 4e3f 7d4e 4c3f d446 4a3f 81ef 593f
00000010: e3f9 f13e 45a6 503f 9b55 523f 4598 5f3f
00000020: 32e6 4a3f e0df 503f ce15 513f c19e 4e3f
00000030: ac14 573f 58ab 563f 5232 523f 6a83 4d3f
00000040: c31d 563f 6f35 413f 034f 4f3f 56db 583f
00000050: 6ef7 4a3f b4e3 413f 6bdd 563f 1b56 4d3f
00000060: 5aa6 623f 3a59 4c3f 5da3 453f f928 4d3f
00000070: 6edd 503f c47d 493f
0.8053035 0.79807264 0.79014325 0.8513108 0.4726096 0.8150371 0.82161874 0.8734172
0.792575 0.81591606 0.81673896 0.8071099 0.8401592 0.838552 0.8210803 0.80278647
0.8363916 0.7547216 0.8097994 0.8470968 0.792838 0.7573807 0.83931607 0.8020951
0.8853508 0.7982365 0.772024 0.80140644 0.81587875 0.7870753

bn3.bias f4 [30]
00000000: 1c2b 4dbe 2ae6 4bbe 4550 4cbe e84f 7ebe
00000010: e31b 8abe 1a4a 55be a232 68bd 135b 6bbe
00000020: cd2d 5fbe 0e84 21be 1a4e 2cbe 2ff1 bfbd
00000030: e647 44bd 0f2f 57be 54cd 03be 777c 4fbe
00000040: 99e8 69be 1646 52be 8298 5dbe a6a2 e5bd
00000050: 0a21 cfbd 4dff 4bbe de6a 5bbe 7fb5 4abe
00000060: bba9 5cbe faf1 62be cf28 23be 5c10 67be
00000070: ecb2 49be aceb 02be
-0.20035976 -0.1991202 -0.19952495 -0.2483517 -0.269744 -0.20829049 -0.056688912 -0.22983961
-0.21794815 -0.15773031 -0.16826668 -0.09372174 -0.04792013 -0.21014045 -0.12871295 -0.20262323
-0.22842635 -0.20534548 -0.21640208 -0.11212663 -0.101137236 -0.19921608 -0.21427485 -0.19795798
-0.21549122 -0.22162619 -0.15933536 -0.22564834 -0.1969716 -0.12785214

bn3.running_mean f4 [30]
00000000: e6f6 49bf f89b f93b 08cf 5dbf cb90 5b3f
00000010: 4140 28bf e7d1 25bf 947f 4dbf f705 9e3e
00000020: 61f6 98be bcad 64bf 4dd9 57bf 24df 4abf
00000030: 0678 5abf 5048 ad3e 7c46 a8be 12de f43e
00000040: a4c4 d73e 4142 a33e bcff 85bf 8c82 d93d
00000050: 5ee7 8fbf 0a9a e7bf 8bc6 b9bf 3bd4 42bf
00000060: 9b65 553e dac1 313e f8a1 75bf 6d6d e9bf
00000070: 7048 d83e c8e8 50bf
-0.7889236 0.00761747 -0.8664403 0.8576781 -0.65723044 -0.6477341 -0.80272794 0.30863926
-0.29875472 -0.893276 -0.8431595 -0.79246736 -0.8533939 0.33844233 -0.32866275 0.47825676
0.42142212 0.31886485 -1.0468669 0.10620603 -1.1242483 -1.8093884 -1.4513716 -0.7610509
0.2083954 0.17359105 -0.9595027 -1.8236519 0.42242765 -0.81605196

bn3.running_var f4 [30]
00000000: b28f 1341 0f34 f540 d837 5441 cec8 2a41
00000010: 500c 4740 f43c 0a41 8eb0 6e41 9102 5441
00000020: f9e7 c840 d6f5 ff40 c0af 3141 45d0 e440
00000030: a73d 3641 1479 3f41 f72c 1941 a213 8a41
00000040: 5d9c 0c41 7666 0e41 2267 5441 14a5 0d41
00000050: 51b9 3441 244f 8841 a3ef 4941 a977 2141
00000060: b4fb 9541 5ae7 5241 d9ba 0f41 d044 5a41
00000070: 889a e640 dc23 6141
9.222582 7.662605 13.263634 10.674025 3.1101265 8.639881 14.918104 13.250627
6.278317 7.9987593 11.105408 7.1504235 11.390052 11.96706 9.573478 17.259586
8.788175 8.900015 13.275179 8.852802 11.295243 17.038643 12.621005 10.091714
18.747902 13.181482 8.983117 13.6418 7.2063637 14.071255
