mlops_project/outputs/2022-05-04/11-56-07/models/baseline.pth (torch, 356475 bytes, 14 tensors)

conv1.weight f4 [6, 3, 5, 5]
000000 66 ec a9 3c a9 0f 93 3d 5b 31 2c 3c 5e 58 e4 3d
       0.020742606 0.07180721 0.010509814 0.11149667
000010 73 78 f6 bc ac 0b 1c 3e 5b 55 82 bc ef 86 c2 bc
       -0.030086732 0.15238827 -0.015909841 -0.023745982
000020 29 fe 9c bb ac 07 f7 3d d2 16 ce 3c 96 c6 e3 3d
       -0.0047910404 0.1206201 0.025157366 0.11121862
000030 18 d8 f3 bc 27 f3 cf ba 68 3c d4 3c 1c be 38 3d
       -0.029766127 -0.0015865312 0.02590771 0.045103177
000040 9a be a4 bc e1 18 13 3e 9d a5 27 3d 27 2e d7 3d
       -0.020110417 0.1436496 0.040929426 0.1050685
000050 cc bd 18 3e 35 a2 b6 3d 17 8c cb 3d 1a 8d 37 3e
       0.14916152 0.08917657 0.099388294 0.1792492
000060 5a de 7f 3c 77 f7 d4 3d 2c d2 84 3c c2 9b 19 3e
       0.015616978 0.10398763 0.016213499 0.15000823
000070 7d a8 23 3e 3f 95 1d bd d5 e5 29 3e dc 76 fb 3d
       0.15982242 -0.03847241 0.1659158 0.1227853
000080 d8 b6 f1 3d cd 4d ec 3d d3 f4 27 3e db d0 55 3d
       0.11802453 0.11538277 0.16401987 0.052201133
000090 7b c5 f5 bc 72 67 0e 3d 1e 6a 57 bc 61 f2 9a 3d
       -0.030001393 0.034766622 -0.013147859 0.07565761
0000a0 4d e4 3b 3d e4 a3 ba 3b 51 5a 6a 3d eb 83 35 3e
       0.04587202 0.005695807 0.05721504 0.17726104
0000b0 28 13 70 3d cd 01 91 3d 19 f3 49 3d 55 67 af 3d
       0.05861202 0.070804216 0.0493041 0.08564631
0000c0 6b 74 2e 3e 46 50 0d 3e 14 09 de 3d fd dd bd 3d
       0.17036597 0.13800153 0.10841575 0.092708565
0000d0 0b 10 c2 3d a4 e3 e5 3d e9 6f 59 3d 56 c0 23 bd
       0.09475716 0.1122506 0.05308524 -0.039978348
0000e0 52 d6 76 bb dc 44 2a 3e 6a 1c 99 3d 41 ec d0 bc
       -0.0037664366 0.1662783 0.07476123 -0.02550328
0000f0 52 50 af 3d 47 e7 26 3e a1 fe 28 bd dd 30 1d bc
       0.08560242 0.16299163 -0.041258458 -0.009594169
000100 fb 57 b4 3c 2d 63 93 3d 89 41 26 3d 28 19 61 3d
       0.022014609 0.07196651 0.040589843 0.05495563
000110 80 5e 37 bd a5 4e f9 3d 59 68 2c 3e f5 0f 0d 3e
       -0.044767857 0.121732034 0.1683668 0.13775618
000120 a0 6d 6b bc 5a 52 d2 bc b7 0f ec 3d 98 c2 8b 3d
       -0.014369398 -0.025674034 0.11526435 0.06824225
000130 f7 67 e7 3d 9f fd 40 bd 18 28 71 3d 2a cc 16 3e
       0.112991266 -0.047116872 0.058876127 0.1472632
000140 ab 2d f4 3d e7 21 8f 3d a6 17 b5 3d e1 90 60 3d
       0.11922773 0.06988888 0.08842401 0.054825667
000150 20 f3 19 3b 32 87 b4 3c 17 64 97 bb 42 88 25 3e
       0.002349086 0.022037122 -0.004620086 0.1616526
000160 84 65 04 3e eb 79 d9 3d ec 42 bb bc 27 84 1e 3e
       0.1292935 0.10618957 -0.02285906 0.154801
000170 25 b9 d0 3d 24 20 15 3e 31 1e a7 3c 86 b3 b8 3d
       0.101915635 0.14563042 0.020400139 0.090186164
000180 04 b5 36 3e fa d4 12 3e d1 3b 22 3e 33 8a 2a 3d
       0.1784249 0.14339057 0.1584313 0.041635703
000190 e1 80 1d 3e fd af c9 bc 93 52 9b 3d db e6 61 3a
       0.15381195 -0.02462005 0.07584109 0.0008617469
0001a0 74 b8 1f 3d 1a 96 14 3d fa 82 98 3d 5a 0b 2f 3e
       0.038994268 0.03627596 0.07446857 0.17094174
0001b0 fb f7 fb 3d 6d 04 86 3d 79 60 17 3e 03 ee da 3b
       0.12303158 0.06543813 0.14782895 0.0066812052
0001c0 2f 62 00 3e 9b df 61 3d d3 94 3b 3d 1d 9b a2 3d
       0.12537454 0.055144887 0.045796227 0.07939742
0001d0 4e 35 b9 bc b5 26 a2 3d 6f 5f d6 3d 59 94 28 3e
       -0.022608425 0.07917539 0.10467421 0.1646284
0001e0 6b 45 f5 3c 7d f3 db 3d d3 9a 39 3e 8e 5e 86 3c
       0.029940328 0.10739801 0.18125467 0.016402509
0001f0 32 f6 33 3e 1a 56 0c 3c b7 2b ef 3d 85 a6 e3 3d
       0.17574385 0.00856545 0.1167826 0.111157455
000200 43 1d c9 3d 92 13 21 3e 4e 8e 9d 3c 52 19 c5 3d
       0.09820034 0.15730122 0.019232895 0.0962397
000210 6f 52 88 3d 11 5a ab bc d7 77 1b 3d 7d 62 37 bc
       0.06656348 -0.02091697 0.037956085 -0.011192915
000220 b5 8d ef 3d 2f 47 9c 3d a0 2a 9e 3d ef 57 fd 3c
       0.1169695 0.07630765 0.07722974 0.030925719
000230 45 2c 88 3d 00 b3 f5 3c e5 e4 ca 3d 09 53 36 3e
       0.06649069 0.02999258 0.099069394 0.17805113
000240 1a ee aa 3d 08 94 72 3c 39 45 98 bb 33 0a 99 3d
       0.083461955 0.014805801 -0.004646924 0.074726485
000250 13 18 a1 bc b0 05 aa bc a3 45 10 be f8 db d6 bd
       -0.0196648 -0.020754665 -0.14089064 -0.104911745
000260 5e e9 69 bd 21 bf 63 3c 58 26 ab bc 3b 4c ba 3c
       -0.057107322 0.013900549 -0.020892307 0.022741428
000270 52 80 0d be 42 18 65 bd b2 4b 2c be 61 f2 1d 3a
       -0.13818482 -0.055931337 -0.1682575 0.0006025192
000280 46 99 2a bd 34 6c 3c 3d b7 5c 17 be 6c ad dc 3c
       -0.04165008 0.046001628 -0.14781462 0.026938163
000290 37 53 02 3d 27 96 e2 3c 62 96 49 bd ad 0d 21 3d
       0.03181764 0.027659489 -0.04921568 0.039319683
0002a0 9f bd 3b 3c c9 9b a7 3c 7d f0 95 bd 22 06 1e be
       0.011458783 0.020460026 -0.0732126 -0.15432027
0002b0 c0 7c 89 bd 2b 4a 34 bd ba cd 13 be f5 17 07 be
       -0.06713247 -0.044016045 -0.14433947 -0.13192733
0002c0 64 99 34 be 13 50 d9 bd cd 4f 0f 3d 75 db 3b bd
       -0.17636639 -0.10610976 0.034988213 -0.045863587
0002d0 5b f5 94 bd de e6 79 bd c1 09 d0 3b 3f 96 2b be
       -0.0727336 -0.061011188 0.006348819 -0.16756533
0002e0 84 6e 1e be a5 21 d5 bd ee 46 07 be 3f 24 c8 bb
       -0.15471846 -0.10406808 -0.13210651 -0.0061078365
0002f0 56 b5 82 3c 44 f1 35 be 68 98 27 be 34 63 36 be
       0.015955608 -0.17767817 -0.16366732 -0.1781128
000300 9f fa b4 bc d9 b3 df 3c 87 ec 1e be fe fe f3 bd
       -0.022092162 0.027307438 -0.15519916 -0.1191387
000310 c2 0d ed bc a1 75 10 be 39 e3 04 3d b0 b3 1e bd
       -0.028937224 -0.14107372 0.03244326 -0.038745582
000320 90 6b c8 bd f4 4f 6e bd 11 e3 f2 bc 6f 00 da bd
       -0.09786141 -0.058181718 -0.02964929 -0.10644614
000330 d8 d1 1e be 51 f9 84 bd 29 31 82 bd ae ba 81 bd
       -0.15509737 -0.06492866 -0.06357033 -0.063344344
000340 59 e5 a8 bd 70 36 0b 3c 7b 8c c8 bd 8d 65 9d bd
       -0.082468696 0.008496866 -0.097924195 -0.07685385
000350 74 28 95 bc 6c a8 0d be be 54 0e bd 9c d3 ba bd
       -0.018207766 -0.13833779 -0.034748785 -0.091223925
000360 5a b2 28 bc 08 64 03 be 45 70 7b bd 24 c9 5e bd
       -0.010296429 -0.12831128 -0.061386365 -0.05439104
000370 ea 69 22 be 51 40 19 be 07 5b af bc e9 4f cb bd
       -0.15860716 -0.14965941 -0.02140571 -0.09927351
000380 0c d6 3d 3b c3 37 38 be 03 ce fb bd 2c b4 24 be
       0.0028966693 -0.17990021 -0.12295153 -0.16084355
000390 c1 d4 9f bc c5 58 8d bd 2d d4 b2 bd 6c 39 ae bd
       -0.019510629 -0.06901697 -0.087318756 -0.08507046
0003a0 2f c7 1f be 98 c7 06 bd 77 e5 2e bd 60 15 15 be
       -0.15603326 -0.03290519 -0.042699303 -0.14558935
0003b0 d7 a6 b6 bc 26 7d 8b bd 8a a6 35 be 1b a2 64 bb
       -0.022296352 -0.068109795 -0.17739311 -0.0034886661
0003c0 95 07 94 bb d2 19 b3 bd ee 45 00 be b4 3b 27 bd
       -0.0045175054 -0.08745159 -0.12526676 -0.04082842
0003d0 0e e5 ae 3c 55 5a 21 3d b4 82 1c be 6e 05 c8 bd
       0.021349456 0.039392788 -0.15284234 -0.09766661
0003e0 76 06 36 3d bd d8 1b bc 50 8a b9 3b f7 9a fc bd
       0.044439755 -0.009512124 0.00566224 -0.12334245
0003f0 25 76 0a 3d 64 d3 0f be da 6e 51 bd ca b0 81 bd
       0.033804078 -0.14045483 -0.051131107 -0.06332548

conv1.bias f4 [6]
000000 c2 05 54 3c 1a 74 15 bd 1c 49 e3 3d b8 df b0 3d
       0.012940826 -0.036487676 0.11097929 0.08636421
000010 cf c2 75 3d b6 ea 10 3e
       0.060000237 0.14152035

conv2.weight f4 [16, 6, 5, 5]
000000 5c 94 51 3c d5 a3 10 3e c4 f8 8f bc dd a4 f0 3d
       0.012791719 0.14124997 -0.017574675 0.11750195
000010 00 92 d1 3d 4a cd e8 bb da e3 77 3d 97 59 07 39
       0.102329254 -0.0071045505 0.06052003 0.00012907978
000020 46 a1 fc 3d 2e 64 1c 3d 9e 63 be 3d 71 36 0c 3e
       0.12335448 0.038181476 0.09296344 0.13692643
000030 ae 36 98 bc ca c8 ec 3d d7 10 ec bc 35 15 33 3d
       -0.01858076 0.11561735 -0.028816624 0.043721396
000040 b5 eb 4d 3c d3 b0 fb bc b2 f3 ff bb 2e 92 14 bd
       0.012568404 -0.030723965 -0.007811033 -0.03627222
000050 90 f9 4d 3b 97 92 b9 3c 36 c3 29 3d 95 d1 f1 3d
       0.0031429268 0.022652907 0.041445933 0.11807553
000060 4b 07 63 3d 7d 9a 12 bd e3 fc 79 bc 9c 2f d5 3d
       0.055426877 -0.035791863 -0.015258047 0.104094714
000070 d2 ef 51 bc fe 34 d9 3c 22 3b ef bc 34 4e b4 3d
       -0.012813525 0.026514526 -0.029203001 0.088039786
000080 c7 b9 ce 3d 05 5b 56 3d cf 95 cc 3c 39 0d c9 3c
       0.10094028 0.052332897 0.024973778 0.024542438
000090 5c f3 42 3d 39 e8 9e 3d 7d 7c 2d 3d e1 db e4 3c
       0.047595367 0.07759137 0.04235505 0.027936878
0000a0 58 29 44 3d 23 d6 2e 3d 05 5e 27 3d 60 77 8d 3d
       0.04789099 0.042684685 0.04086115 0.069075346
0000b0 1d a2 35 3c 4f dc 4a 3d 63 c5 23 3d 66 c3 95 3d
       0.011086014 0.04952651 0.039983165 0.0731266
0000c0 9d a9 ec bc e6 f5 c4 bc df 1c ab bc f3 8f cc 3d
       -0.028889472 -0.024043035 -0.02088779 0.09988394
0000d0 d0 c5 05 3e a7 37 16 3e 99 5b c2 3d 96 81 48 3d
       0.1306374 0.14669667 0.09490127 0.048951708
0000e0 fa 22 a5 3d 6a a9 76 bc a7 e3 99 3d 97 d3 1e 3d
       0.08063312 -0.01505504 0.07514124 0.038776007
0000f0 ab 5c 21 3d 51 6c e6 3d 26 f5 19 3d 0a f5 7a 3b
       0.039395016 0.112511285 0.037587307 0.0038293027
000100 10 bc 90 3d d5 a0 2f 3d 89 76 e1 3c 70 ca 26 3d
       0.0706712 0.04287799 0.027522342 0.040720403
000110 1b c2 9e 3c 4d bb 0c 3e aa e0 91 3d 10 df b6 3c
       0.019379666 0.13743325 0.071229294 0.022323161
000120 48 0d f1 3d bd 5e a0 3d 1e ae e6 3d e6 dd dd 3d
       0.11770111 0.0783057 0.11263679 0.108333394
000130 9d 2a 01 3e 66 a7 c6 3c 4a a1 8b 3d ed 42 fc ba
       0.12613912 0.024249744 0.06817873 -0.001924602
000140 a9 cf f4 3d e8 3a 92 3d 5d 2c 01 3d 6b 1e 85 3d
       0.119536705 0.07140142 0.03153645 0.064999424
000150 04 78 00 3e 37 6c 9f 3d b6 0c ae 3d c7 8a f5 3d
       0.12545782 0.07784312 0.08498518 0.1198936
000160 88 e0 42 3d 67 d4 36 3d 3a a8 84 3d 51 37 fa bc
       0.04757741 0.044636156 0.06477399 -0.030543955
000170 fa 04 95 3d f3 a5 34 3d 90 a9 27 3d 12 95 4b 3d
       0.0727634 0.044103574 0.04093319 0.04970271
000180 f8 1b f1 3d 8d c6 8b 3d b0 ff 05 bc f2 f7 f7 3d
       0.11772913 0.0682498 -0.008178636 0.12107839
000190 c1 de ec 3d e5 64 b1 3d 6b 43 a1 3d 89 bd 58 3d
       0.115659244 0.08661822 0.07874187 0.05291513
0001a0 82 74 a9 3c 83 9d f1 3d 8e bc 81 bc bb ce 9c bb
       0.020685438 0.11797621 -0.01583698 -0.0047853864
0001b0 74 2c 36 3d 39 2d 9a bc c2 31 f4 3d 33 7c 00 3e
       0.044475988 -0.018820392 0.11923553 0.12547378
0001c0 d8 ca ac 3d 49 6e be 3d a9 54 10 bd 10 f6 ec 3d
       0.08437127 0.09298379 -0.03523699 0.1157037
0001d0 ad 03 71 3d 5a cb 08 bc 0b 07 72 bc c8 de 7f 3d
       0.058841396 -0.008349264 -0.014772187 0.06246832
0001e0 89 45 c1 3d 4e 7b bb 3c f7 86 c4 3c 74 cd dd 3c
       0.09437091 0.022885945 0.023990138 0.027075507
0001f0 c6 f6 09 bd 1f dc fe 3d 5f 49 70 3d d5 52 18 bc
       -0.033682607 0.124443285 0.058663722 -0.009297092
000200 1b 3a 91 3b eb d1 ba 3d 3a 21 51 bc de 67 fc 3d
       0.0044319755 0.0912207 -0.0127642695 0.123244986
000210 cb d0 e4 ba a1 cf 80 3d 68 d4 b7 3d 22 c1 de 3c
       -0.0017457245 0.06289602 0.0897606 0.027191702
000220 85 75 4f 3c 7b ef 69 3d 0c b6 a4 3d 32 52 51 3d
       0.012662296 0.057113152 0.08042535 0.05110378
000230 6d 76 d1 3d 08 27 de 3d ec bf c9 3d 2c 8d 10 3e
       0.10227666 0.10847288 0.09851059 0.14116353
000240 cf 6a 83 3c d4 f4 87 39 54 a8 af 3d 5e e3 a4 3d
       0.016042141 0.00025931618 0.08577028 0.08051179
000250 b4 a1 13 3e 31 3d 14 3e 49 3d ce 3d d0 b6 e9 3d
       0.14417154 0.14476468 0.10070283 0.11411822
000260 6c 71 d3 3d 43 cd 78 3d 80 54 1f bc 46 a3 08 3d
       0.10324368 0.060742628 -0.009724736 0.033358835
000270 53 04 6f bb 7e 2f fe 3d 39 4a ba 3c c0 36 1b 3b
       -0.0036471083 0.12411402 0.02274047 0.0023683757
000280 d0 59 62 3d 88 b9 f9 3d 33 e2 d1 3d 9f f6 c5 3d
       0.055261433 0.121935904 0.10248222 0.0966618
000290 15 0a 7e 3d ab aa 0e bc e5 3c 8f 3c 28 61 46 bb
       0.062021334 -0.008707683 0.017485091 -0.0030270312
0002a0 03 df 29 3d b2 a6 f9 3d 36 66 0f bc 2f f2 ca 3c
       0.041472446 0.12189998 -0.008752396 0.024773685
0002b0 de 49 15 3e 5a 6d f9 3d 6c c2 c3 3d 6c f2 c6 3d
       0.1457896 0.1217906 0.095585674 0.09714207
0002c0 6a 30 e9 3c dd 91 93 3a 6a 0b b1 3d 81 94 89 3d
       0.028465468 0.0011258681 0.08644755 0.06717778
0002d0 5f a3 a4 3c bd 29 dd 3d 27 3b 5c bc 74 b5 31 3d
       0.020097433 0.107989766 -0.013441837 0.043385938
0002e0 cb 84 e3 3d ad 73 bc 3d e0 36 9b bc 9b 33 6e 3d
       0.111093126 0.09201751 -0.018947065 0.058154684
0002f0 fc bf 09 3d 07 ad a1 3d 16 e6 e4 3d d0 dc 4e bc
       0.033630356 0.078943305 0.11176698 -0.012625888
000300 87 e3 96 3c bb 24 e8 3d ac e0 65 bc 5c 8c dd 3c
       0.01841904 0.11335131 -0.014030617 0.027044468
000310 22 13 96 3c d9 45 d1 3c 4c 6d 0b 3d 58 e6 bc 3d
       0.01831967 0.025546001 0.03403978 0.09223622
000320 64 af bf 3d 79 be 78 3c ba cd 53 3d ed 01 01 bd
       0.09359625 0.015182131 0.051709868 -0.031495977
000330 c6 c1 58 3c 14 87 11 3d a8 d4 21 3d db 48 70 3d
       0.013229793 0.03552921 0.039509445 0.05866323
000340 eb 20 4b 3d 0c 07 a7 3c d4 c1 d4 3d 71 5d 59 3c
       0.04959194 0.020389102 0.10388532 0.013266907
000350 b4 f9 e2 3d ba 79 bf 3d e4 fe 2d 3d 0e 87 65 3c
       0.11082783 0.093493894 0.04247941 0.01400925
000360 df ad be 3d a8 ff 89 3d 86 29 b5 3c a1 e6 e0 3d
       0.09310507 0.06738216 0.022114526 0.10981489
000370 88 57 4a 3d cc 93 fa 3d ab 88 59 bc 03 b3 85 3d
       0.049399883 0.12235221 -0.013277213 0.065282844
000380 7e df ff bc b6 e7 09 3c bf 13 6d 3d 8a 22 e5 3d
       -0.031234499 0.008417061 0.05788016 0.111882284
000390 b0 cc 04 3d 6a 7c 9d 3c 62 48 23 3d 98 39 67 3d
       0.032421768 0.019224364 0.03986395 0.05645141
0003a0 c6 94 fb 3a bd a4 8d 3d 1f 70 e2 3d 72 7b fe 3c
       0.0019194118 0.06916187 0.11056542 0.031064723
0003b0 09 bf d8 3a 6f 44 19 3c 57 45 d9 3d f5 02 81 3d
       0.0016536425 0.009354695 0.10608929 0.06299392
0003c0 bd 43 01 3e 28 d1 74 3d ae ac 8d 3d ad 10 0a 3e
       0.12623496 0.05976978 0.06917702 0.13482924
0003d0 3e 79 c0 3d e6 fc 17 3c 84 b8 a6 3d dc 33 84 3d
       0.09398125 0.009276604 0.08140662 0.06455204
0003e0 74 2e 4f 3c 25 71 0b 3e 4b 52 d9 3d 51 3a 0c 3d
       0.012645353 0.1361738 0.10611399 0.034235302
0003f0 63 56 9d bb ba bf d2 3d ef fb 2d bb 86 78 ad 3d
       -0.004801558 0.10290475 -0.002654787 0.08470254

conv2.bias f4 [16]
000000 17 e7 40 3c b8 5c 17 3e 96 49 10 3e 59 05 f9 3c
       0.011773846 0.14781463 0.14090571 0.030398058
000010 0e 06 39 3d e3 98 06 3e a8 74 01 bc cf 49 cf bd
       0.04517179 0.13144259 -0.007901348 -0.101215
000020 2a cf eb 3d cd f6 b9 3d 35 ce 0d 3e bd c2 e2 3d
       0.11514123 0.09080277 0.13848193 0.110723
000030 5d a1 df 3d e3 40 5b 3d 8c 68 d6 3c 33 c4 72 b8
       0.109194495 0.053528678 0.026172899 -5.788002e-05

conv3.weight f4 [10, 16, 5, 5]
000000 df a2 9f 3c 76 7a 37 3d 7d 42 39 3d 41 1e d4 3c
       0.019486843 0.044794522 0.045229424 0.025893332
000010 7f 6f a4 3d 65 51 3f 3d cf 73 a5 3d fe 49 35 3d
       0.08029079 0.046708483 0.08078729 0.044260018
000020 b8 4d bd 3d 9a f8 c9 3a 05 68 b8 3d 48 be ef 3d
       0.09243339 0.0015409172 0.09004215 0.11706215
000030 30 be 46 3d 9c 8f b8 3d fa 86 8e 3d 26 64 e1 3c
       0.04852122 0.09011766 0.069593385 0.027513575
000040 8c 19 89 3c 67 db 84 3d 17 cc b0 3d 61 8a 10 3d
       0.016735815 0.0648716 0.08632677 0.03528822
000050 26 a0 9c 3d a8 43 7b 3d 37 dc f0 3c 7b 78 6e 3d
       0.076477334 0.06134382 0.029401882 0.058220368
000060 3c 56 1a 3d 56 70 9e 3d 90 c1 0a 3d c4 eb b9 3d
       0.037679896 0.0773627 0.033876 0.09078172
000070 e5 4a 4a 3d f9 c6 94 3d e4 69 b1 3d fb 2f 1e 3d
       0.04938783 0.072645135 0.08662775 0.038619976
000080 01 68 07 3d 78 6d 77 3d ef e8 36 3d 56 62 aa 3d
       0.03305817 0.060407132 0.044655737 0.08319537
000090 2d 05 23 3d 7a f1 c0 3d 46 98 9e 3d f3 8b ab 3d
       0.039799858 0.09421058 0.077438876 0.083763026
0000a0 8c 54 17 3d 96 b2 34 3d 2e 2f a8 3d de 50 f6 3c
       0.036945865 0.044115625 0.08212124 0.030067857
0000b0 a7 1b ae 3d 45 f9 46 3d f4 82 84 3d 7e 83 b1 3d
       0.08501368 0.048577566 0.0647029 0.08667658
0000c0 97 c4 d2 3d c5 b1 19 3c 6d 73 df 3d 44 8b ca 3d
       0.10291403 0.009380762 0.109106876 0.09889844
0000d0 29 24 81 3c af 2e d0 3d 84 38 a4 3d d2 30 9d 3d
       0.015764313 0.10165154 0.08018592 0.07675327
0000e0 42 b3 b9 3c 0d 54 5d 3d 2d 17 98 3d 18 b7 57 3d
       0.022668485 0.054035235 0.074262954 0.052664846
0000f0 82 dc 94 3d 1c a2 df 3c 7c 78 c9 3d 8d 53 9a 3d
       0.07268621 0.02729898 0.09837434 0.07535467
000100 1a 3b be 3d f3 3d dc 3d 51 27 9e 3d 32 97 8d 3d
       0.092886165 0.107540034 0.07722343 0.06913604
000110 b1 bf a1 3d 8c dd c6 3d 3c 38 7f 3d b0 a5 ba 3c
       0.0789789 0.097102255 0.06230949 0.022784084
000120 c5 c6 c7 3d 51 2f 94 3d a7 d4 78 3d 1e f4 93 3c
       0.09754709 0.072355874 0.060749676 0.01806074
000130 5f 85 5b 3d f8 e5 ec 3d 8d 1f 1c 3d ee 2d 6e 3d
       0.05359399 0.115673006 0.038116027 0.05814927
000140 d4 ef 8d 3d 6c 0d 25 3d 9c 09 db 3d 55 f1 e4 3d
       0.06930509 0.040296003 0.10695192 0.11178843
000150 bf af 16 3d 00 8a ab 3d e3 b2 d8 3c f6 38 dc 3c
       0.0367887 0.08375931 0.026452487 0.02688263
000160 32 8c 96 3d 36 4d 92 3b 39 f7 e9 3c 9e db ce 3d
       0.07350959 0.0044647707 0.028560268 0.101004824
000170 67 e6 eb 3d 94 c1 87 3d e1 7f 26 3d 1a 87 b9 3d
       0.11518555 0.06628719 0.0406493 0.09058972
000180 52 26 1d b8 e5 a1 ba 3d de 93 c3 3c 13 76 45 3d
       -3.7467405e-05 0.0911291 0.02387422 0.048208307
000190 6c 9e 33 3d d7 27 c5 3c f7 83 83 3d fe 22 1f 3d
       0.043852255 0.024066849 0.06421655 0.03885173
0001a0 66 26 46 3d 4e 39 13 3d 8f 3e 8a 3d 27 46 6d 3c
       0.048376463 0.035943322 0.06750213 0.014482058
0001b0 f0 00 ce 3b 12 d5 ac 3c 56 af c1 3d 72 79 4d 3d
       0.006286733 0.021097694 0.09457271 0.050164647
0001c0 65 6d 7b 3d 3e c1 94 3d db 7c 19 3d 3f 77 9f 3d
       0.061383624 0.072634205 0.037472587 0.07786416
0001d0 97 11 80 3b 27 33 b6 3c ef 9c b3 3d 6e a7 d8 3c
       0.003908347 0.022241188 0.08770167 0.026447024
0001e0 cd 33 6f 3c 5d 6b 35 bb 4f ea 23 bb 43 82 52 3d
       0.014599753 -0.0027682402 -0.0025011485 0.05139376
0001f0 94 d8 f7 3c 74 34 76 bb 6b 1d ea 3d 7f e1 ab 3d
       0.03025464 -0.0037567886 0.11431392 0.08392619
000200 9f 89 d2 3d 3d 84 9f 3d 28 a2 15 3d 24 ef 07 3d
       0.102801554 0.07788894 0.036531597 0.033187047
000210 a1 53 20 bb b8 ae a9 3a 91 74 8c 3c fb f3 73 3d
       -0.002446391 0.0012945747 0.017145427 0.05955885
000220 16 04 92 3d 6f 1e df 3d 44 6c 66 3d fd 45 3b b8
       0.071296856 0.108944766 0.056255594 -4.4649456e-05
000230 f8 c8 3f 3c ed 76 b6 3d fe 25 a6 3d e6 36 aa 3d
       0.0117056295 0.08909402 0.08112715 0.08311252
000240 8d 43 00 3d b1 2c 97 3d be 94 bd 3c 0d 36 8e 3d
       0.03131442 0.07381571 0.023142215 0.06943903
000250 a5 f3 a1 3d c6 d5 9e 3d d1 ed 72 3d d8 0a ec 3d
       0.079078 0.07755618 0.05930883 0.11525506
000260 7e b2 70 3d 95 1d d6 3d 13 c4 89 3d 0f 5d 96 3d
       0.058763973 0.10454861 0.06726851 0.07341968
000270 32 90 a6 3d cf 35 59 3d f5 96 dc 3d 32 e7 bc 3c
       0.08132972 0.05302983 0.1077098 0.023059461
000280 12 b4 76 3d 12 1b 6c 3d eb 63 82 3d 9c 5a a8 3d
       0.060230322 0.057643004 0.06366714 0.08220407
000290 e3 5d 58 3d dc 6f 0c 3d e9 85 c9 3d e6 e5 ef 3c
       0.052823912 0.034286365 0.098399945 0.029284429
0002a0 b1 f7 7f 3d 23 97 d2 3d e5 0d e3 3d 9b 6b c5 3c
       0.062492076 0.10282733 0.110866345 0.024099162
0002b0 c5 95 a6 3d b9 d7 b0 3d 54 bc 99 3d 0f e3 78 3d
       0.08134035 0.08634896 0.07506624 0.060763415
0002c0 bd 8c d3 3c 90 8a 5d 3d 52 36 65 3d 39 da a8 3d
       0.025823945 0.05408722 0.055960007 0.08244748
0002d0 1d db 9c 3d 94 19 7c 3c a6 e8 4f 3d 43 d0 3b 3d
       0.0765898 0.015386958 0.05075898 0.04585291
0002e0 4e c0 c3 3d f7 6f d2 3d c4 90 db ba bb 38 1a 3c
       0.095581636 0.10275262 -0.0016751518 0.00941294
0002f0 9b b2 14 3d ab 71 2b 3d ad 15 88 3d ac 7d 61 3c
       0.036303144 0.04185645 0.06644759 0.013762873
000300 64 52 e6 3d ef 00 a4 3c 87 eb 26 3d b6 41 b0 3c
       0.112461835 0.020019976 0.04075196 0.021515708
000310 93 ea c1 3d a2 40 7a 3d e8 76 a3 3d 14 76 98 3d
       0.094685696 0.061096795 0.07981664 0.074443966
000320 52 d8 96 3d 58 7b df 3d ec 7b 4c 3d c4 cf 97 3c
       0.073654786 0.10912198 0.04992287 0.018531688
000330 dd 5c aa 3d bf 51 cc 3d c7 95 0a 3d 7f c5 bb 3c
       0.083184935 0.09976529 0.033834245 0.022921322
000340 31 81 12 3d a5 ea cd 3d 3d 22 74 3d 60 fe dd 3c
       0.035767738 0.100545205 0.059602965 0.027098835
000350 c9 b3 f1 3c 08 af 41 3d 8a 9c 95 3d ad 66 db 3d
       0.029504674 0.047286063 0.07305248 0.10712943
000360 89 7a 9b 3c 5a 4e c7 3d 9e 68 45 3d 89 d7 ca 3c
       0.018979328 0.09731741 0.048195474 0.024760978
000370 cd 89 c0 3c fe f1 0b 3d c9 45 33 3c 7e 49 81 3d
       0.023503209 0.03416633 0.010941931 0.06312846
000380 f9 91 ca 3d 3b f4 0a 3d cd 19 ec 3d 95 f6 c5 3c
       0.09891123 0.033924323 0.115283586 0.024165431
000390 ea d4 1d 3d 2d 7d 4c 3d ed d9 88 3d b1 d1 0a 3d
       0.03853313 0.049924064 0.06682191 0.033891384
0003a0 32 49 d9 3d 72 72 9a 3d 16 ef fc 3c bb fe a5 bc
       0.10609664 0.0754136 0.030875724 -0.020263067
0003b0 2a 7d 07 3d 2f de 85 3d f9 0e c5 3d cc 03 af 3d
       0.03307835 0.06536519 0.096219964 0.08545646
0003c0 43 90 e8 3b 05 40 98 3d 87 cf 7f 3d 4d c3 e6 3d
       0.0070972755 0.07434086 0.062453773 0.112677194
0003d0 f9 81 34 bd 8a cf 33 bd 6f 11 32 bc 63 ec d1 bc
       -0.044069264 -0.043899097 -0.010868414 -0.025625413
0003e0 2a 9c cd 3d fe aa 90 3d 6b 9a 80 3d e7 89 7c 3d
       0.100395516 0.07063864 0.06279453 0.06165495
0003f0 88 01 ef 3c d4 6f 4b 3d 5c 7e 9b 3d ba 09 90 3c
       0.029175535 0.049667194 0.075924605 0.017582763

conv3.bias f4 [10]
000000 7d 22 19 3d 92 6a 9f bc d9 d8 87 3d b0 64 9e bd
       0.037386406 -0.019459996 0.06633157 -0.07734048
000010 eb b1 c4 bd 7e 58 51 3d ea dc ce 3d 47 be e1 3c
       -0.09604248 0.051109783 0.1010073 0.027556552
000020 ef 5c d1 3d 63 4f 9b bd
       0.10222804 -0.07583501

conv4.weight f4 [4, 10, 5, 5]
000000 49 3a 99 bd 46 0d 36 bc 16 36 65 bd 9a b1 92 bd
       -0.0748182 -0.011111563 -0.055959783 -0.07162781
000010 65 03 1d bd 45 93 bf bd 35 c6 7f bd 14 56 9c bc
       -0.038333315 -0.09354261 -0.062444884 -0.019084014
000020 9c 16 92 bc af 24 b4 bd 82 f2 25 3d 24 06 b0 3c
       -0.017833047 -0.08796059 0.040514477 0.021487303
000030 b7 e7 69 bd 0c 1f ef bd d8 14 ca bd c9 64 96 3c
       -0.057105746 -0.116758436 -0.09867257 0.018358605
000040 9b 93 84 bc 81 73 ee bd 97 d2 ca bb 18 da 10 bd
       -0.016183665 -0.11643124 -0.006189655 -0.03536424
000050 d9 e1 e8 39 50 67 b3 bb 13 aa 9b bd b8 26 91 bd
       0.00044418758 -0.0054749623 -0.076007985 -0.07087463
000060 59 dd 78 bd 2e 1b e5 bc 26 fc dc bc f2 2c 8d bd
       -0.06075797 -0.027967062 -0.026975702 -0.06893338
000070 ca 1b 89 bd c2 e0 f2 bd bc ca 8c bd ec 39 2f bb
       -0.066947535 -0.118592754 -0.06874606 -0.0026737405
000080 88 74 cd bd 7e c8 97 bd 5f 7a c3 bd 5f fe 74 bd
       -0.10031992 -0.07411288 -0.09544825 -0.0598129
000090 f3 15 81 bc 53 28 81 bd 3f f4 63 bd b1 5c d9 bd
       -0.015757537 -0.06306519 -0.055652853 -0.106133826
0000a0 46 0a 97 bd 0b 81 ac bd e7 25 04 bd 69 d9 04 3b
       -0.073750064 -0.084230505 -0.03226271 0.0020271188
0000b0 5b c8 ac bd 2c 32 5d bd 93 4f 3c 3b 61 9a 1e bd
       -0.08436652 -0.054002926 0.0028733953 -0.038721446
0000c0 83 10 6e bb a6 11 b2 bd 98 db bb bd 9b e4 98 bc
       -0.003632576 -0.086947724 -0.091727436 -0.018663695
0000d0 49 9e dd bc a3 ae d5 bd f1 e1 68 bd ae fb 31 bb
       -0.027053015 -0.104337 -0.0568561 -0.002715807
0000e0 bb 0a ee bc 18 a9 cb bd 91 97 a5 bd c8 92 8b bc
       -0.029057851 -0.099443614 -0.080855496 -0.017037764
0000f0 d3 27 bd bd c7 e0 ac bb 37 3e 83 bc a9 f9 4b bd
       -0.092361115 -0.005275819 -0.016020877 -0.04979864
000100 7b 34 9e bd 0e 92 a9 bd 2a 2e dd bd 7c 71 29 bd
       -0.077248536 -0.08279811 -0.10799821 -0.041367993
000110 19 ec 42 3a 4c f8 81 bd 17 2c dd bd ae 8e bb bd
       0.0007435694 -0.06346187 -0.10799425 -0.09158073
000120 9c 05 cd bd aa a1 cb bd b4 12 df bd e2 ef 80 bd
       -0.100108355 -0.09942944 -0.10892239 -0.06295754
000130 9f 9a 1c bd 8b e4 2c bd d2 e7 26 ba 29 84 dd bc
       -0.038233396 -0.042210143 -0.00063669414 -0.027040558
000140 a4 0f 93 bd 66 4b f1 3a d3 c7 e3 bd 34 f6 ab bd
       -0.071807176 0.0018409311 -0.11122098 -0.08396569
000150 1a b0 c0 bd 33 79 f9 bd cf a3 bc bd 3f 12 65 bd
       -0.09408589 -0.1218132 -0.092109315 -0.055925604
000160 6e 34 30 bd 41 bd 97 bc 2c 38 86 bd 65 3c 4c bd
       -0.04301875 -0.01852286 -0.06553683 -0.049862284
000170 ad e4 b9 bd e5 2e 40 bc d0 e5 9b bd 4a d8 d9 bd
       -0.090768196 -0.0117299305 -0.07612193 -0.10636957
000180 28 47 95 bb 59 40 af bd 12 f7 77 bd 7b 47 c6 bd
       -0.0045556016 -0.08557195 -0.06053836 -0.096816026
000190 a2 c9 93 bd 92 ae 85 bd cd cd 5b bd 54 c4 d9 bc
       -0.07216193 -0.06527437 -0.053663064 -0.026582874
0001a0 56 e2 c2 bd 5c bd 61 bc 7c d2 0e bd 80 60 25 bd
       -0.095158264 -0.013778057 -0.034868702 -0.040375233
0001b0 7a 5d 97 bd e0 53 19 3b ee f0 4e bd e0 db dd bb
       -0.07390876 0.002339594 -0.050522737 -0.006770596
0001c0 d3 a0 4a bd 8b 7d e0 bd 09 2d f4 bd b0 7f e6 bc
       -0.04946978 -0.109614454 -0.11922652 -0.028137058
0001d0 87 5d df bd db 95 d6 bd df 10 2c bd 17 ce 43 bc
       -0.10906511 -0.104778014 -0.042008277 -0.011950991
0001e0 71 e7 4e bd f8 a2 b2 bd 24 db 6d bd 76 c5 5f bd
       -0.05051369 -0.0872249 -0.058070317 -0.054631673
0001f0 a1 90 99 bd d5 4a f5 bd df 7c 98 bc 18 7a 64 bd
       -0.07498289 -0.11977164 -0.01861423 -0.0557805
000200 09 19 b4 bd 65 fe 63 bd d0 16 3c bc cc ab c9 bd
       -0.087938376 -0.05566253 -0.011480048 -0.09847221
000210 32 ec 40 bc ec de b6 bd e4 73 89 bc 43 aa 96 bd
       -0.011775063 -0.08929238 -0.016778894 -0.073566936
000220 94 e3 c2 bd 3b 60 c6 bb e7 a7 c0 bd 5d 05 12 bd
       -0.09516063 -0.006053952 -0.09407025 -0.035649646
000230 c6 2f a9 bd 0c 0c 06 bd 88 ba 04 bc 35 f4 83 bd
       -0.08261065 -0.032726333 -0.008101113 -0.06443063
000240 33 ab 5f bd 27 0d 0c bd 8f d8 1f ba 87 3d fa bc
       -0.054606628 -0.03419223 -0.00060976384 -0.030546917
000250 d0 29 f2 bd 16 63 27 bb 9b d5 f8 bd 2d cd 93 bd
       -0.11824381 -0.0025541238 -0.12150117 -0.072168685
000260 82 74 69 bd 08 08 c3 bd 27 96 10 3a 7d 48 3d bd
       -0.056995876 -0.09523016 0.00055155385 -0.04621171
000270 32 27 89 bd 9e 11 02 bd 26 5b 5a bd a1 19 84 bb
       -0.06696929 -0.031755082 -0.053309582 -0.0040313755
000280 05 55 ff bc 2d 5c 1f bd 37 53 f3 bd 9a b0 d1 bd
       -0.03116847 -0.038906265 -0.11881106 -0.10238762
000290 63 b8 7d bc 50 2f bc bd 45 52 fb bd e3 8e 10 bd
       -0.015485856 -0.09188712 -0.12271551 -0.035292517
0002a0 e5 93 ea bd 70 ae 1e bd 0c fa c6 bd b0 92 0a bd
       -0.1145399 -0.038740575 -0.097156614 -0.0338313
0002b0 bc c5 d7 bd f0 4d ae bd ed 9c 56 bd 5d 49 ae bb
       -0.10535762 -0.08510959 -0.05239575 -0.005318804
0002c0 f6 5d d0 bd dc 50 b6 bc 27 dc da bd 88 b5 8f bc
       -0.101741716 -0.022255354 -0.10686522 -0.017542616
0002d0 60 46 ab bd 53 3c f5 bd 3f b9 db bd f6 ef 14 3b
       -0.08363032 -0.119743966 -0.10728692 0.0022726036
0002e0 24 90 e4 bd 19 70 c4 bc b5 a3 a9 bd 67 b7 e7 bc
       -0.11160305 -0.023979234 -0.08283178 -0.028285695
0002f0 02 59 fa bc 7a 1a fa bd c8 4c 7d bd 2f 45 87 bc
       -0.03056002 -0.12212081 -0.061840802 -0.016512481
000300 08 11 84 bd 8b ef e7 bd 63 3d 14 bd f0 5b cd 3d
       -0.06448561 -0.11324986 -0.036191355 0.10027301
000310 95 a7 88 bd f2 45 cb bc e7 3b 9b bd 21 91 9d bc
       -0.06672589 -0.024813626 -0.07579785 -0.019234242
000320 19 9c 01 bd ed 24 9c bd e6 f6 e4 bd 38 7f 58 bd
       -0.031643007 -0.076242305 -0.11179905 -0.0528557
000330 5b 42 af bd ab 82 83 bb b0 fc a7 ba 07 e0 db bd
       -0.08557578 -0.0040133796 -0.0012816396 -0.10736089
000340 6f 73 8c bc 21 f6 f4 bd 8e a6 da bd fa 7e 91 bd
       -0.017144887 -0.11961008 -0.10676299 -0.07104297
000350 ea 3d b7 bd e4 e5 ce bc 6f 1a 9e bd ee b4 cf bc
       -0.08947356 -0.025256105 -0.077198856 -0.025354829
000360 c8 6e f2 bd ea 44 c4 bd fd ef cd bd 57 cd 2e bd
       -0.11837536 -0.09583457 -0.1005554 -0.042676296
000370 62 d8 d3 bd 9d 67 de bc 33 b9 c0 bd 91 bb 7d bd
       -0.10344006 -0.027149016 -0.09410324 -0.061946455
000380 61 d0 56 bd 19 fe 3d bd d8 f8 7e bd 53 b6 c5 bb
       -0.05244482 -0.046384905 -0.062249035 -0.0060336976
000390 29 c7 f6 bd 25 ab 22 bd 1e 60 32 bc 1a 3e 9c bd
       -0.120497055 -0.039713997 -0.010887174 -0.076290324
0003a0 b6 19 a2 bd c0 20 80 bd 46 a3 c6 bd 0e 3d 99 bd
       -0.0791506 -0.062562466 -0.09699111 -0.074823484
0003b0 b3 55 b1 bc d4 57 29 bd de 24 ba bd 6e 70 fa bd
       -0.02164731 -0.041343525 -0.09089063 -0.122284755
0003c0 7d 33 36 bd c4 a4 0f bd 5f 8a eb bd a1 f5 dc bb
       -0.044482697 -0.035069242 -0.115010016 -0.0067431484
0003d0 24 84 ce bd 1e 8e c5 bd b9 12 6a bd b6 e4 bd bd
       -0.100837976 -0.09646247 -0.05714676 -0.09272139
0003e0 86 17 8c bd 77 77 23 bb 5e ba ea 3b 58 4b df 3d
       -0.06840424 -0.0024943033 0.00716333 0.109030426
0003f0 f0 99 18 3d 10 24 8d 3d 97 0b a0 3d 8a 57 bf 3d
       0.03725618 0.06891644 0.078147106 0.093428686

conv4.bias f4 [4]
000000 6b ec e0 bc 81 cc d5 3d ef e3 7a bd 3f 57 cb 3d
       -0.027456483 0.10439397 -0.06125253 0.0992875

fc1.weight f4 [120, 576]
000000 e3 80 61 3d 20 c0 0c 3d 91 f3 4f 3d b1 ca cb 3c
       0.055054557 0.034362912 0.050769392 0.024876924
000010 be 5b 20 3d 11 71 81 3d 54 a6 ee 3c e6 b3 81 3d
       0.039149992 0.06320394 0.029132046 0.06333141
000020 30 59 b3 3d c8 84 b8 3d 8b c9 90 3d b6 28 4a 3d
       0.087572455 0.09009701 0.07069691 0.04935523
000030 ba 15 07 3d f4 11 0b 3d 61 c1 d2 3c a9 69 4c 3d
       0.032979704 0.03395267 0.025726976 0.049905453
000040 63 0a e4 3c 0e c2 a6 3c dd 4b 36 3d 94 d2 c4 3d
       0.027836984 0.020356204 0.044505943 0.09610477
000050 14 b9 10 3d 34 3b 77 3d 41 40 64 3d 88 c5 cf 3d
       0.035332754 0.060359195 0.05572534 0.10145098
000060 0d 86 b6 3d fb 28 bb 3d bd 74 7b 3d 9d 02 98 3d
       0.08912287 0.09138676 0.061390627 0.074223734
000070 8e aa 5c 3d 08 81 cb 3d e0 27 9d 3d 8b 6d a5 3d
       0.05387359 0.0993672 0.07673621 0.08077534
000080 9b cb 8a 3d b0 4b 91 3d f5 f2 be 3d 4f 1a 4c 3d
       0.06777116 0.07094514 0.09323684 0.049829777
000090 1d de 1f 3d c4 4c 3f 3d 31 95 b5 3d 16 5a 9d 3d
       0.039030183 0.04670407 0.08866347 0.07683198
0000a0 2c 4d 73 3d 8c f2 af 3d f1 b8 a3 3d e5 ed 23 3d
       0.05939977 0.08591184 0.07994259 0.040021796
0000b0 61 1f 97 3c 8c 3f b3 3c e2 97 32 3d e4 e0 b1 3d
       0.01844758 0.021880887 0.043601878 0.086854726
0000c0 6b 74 8b 3d da be 9a 3d 22 bb ab 3d b6 91 7a 3d
       0.06809314 0.07555933 0.08385302 0.061174117
0000d0 57 e7 ec 3c b9 b5 1b 3d 02 96 29 3d e1 bf 58 3d
       0.028918905 0.0380151 0.041402824 0.052917365
0000e0 0d 68 b8 3d 73 22 90 3d d4 61 c9 3d 3c 5f 9f 3c
       0.09004221 0.07037821 0.09833112 0.019454591
0000f0 fb 08 68 3d 26 43 3b 3d ee e3 d4 3c 74 a5 79 3d
       0.05664919 0.045718335 0.025987592 0.060948804
000100 0d d8 a3 3d 90 bb 8a 3d 5e 02 a5 3d 53 14 88 3d
       0.08000193 0.06774056 0.08057092 0.066445015
000110 a3 3b b6 3d e5 62 a7 3d 82 5e c8 3d dc e1 c6 3d
       0.088980936 0.081731595 0.09783651 0.09711048
000120 46 da 4c 3d b9 89 7a 3d 36 d1 8c 3d 1e 53 2f 3d
       0.05001285 0.0611665 0.06875841 0.042803876
000130 1b a7 b1 3d 77 4c cc 3d f7 04 d0 3c 24 d7 09 3d
       0.08674451 0.09975522 0.025392992 0.03365244
000140 df d1 b0 3d 2a a7 cb 3c 7a 0f c8 3d 55 6f a0 3d
       0.0863378 0.024859983 0.09768577 0.07833735
000150 1b bc c7 3c f6 31 b3 3d d0 b0 02 3d ae fc ee 3c
       0.024381688 0.08749764 0.031906903 0.029173221
000160 8e c0 a3 3d 4b cc a6 3c d1 95 aa 3d df bf 83 3d
       0.07995711 0.020361086 0.083293565 0.06433081
000170 66 12 24 3d 1c e5 48 3d 85 67 95 3d 2e 49 81 3d
       0.04005661 0.04904662 0.072951354 0.06312786
000180 ce bb 8a 3d a2 55 78 3d b1 0c 4e 3d 55 1c 95 3d
       0.06774102 0.06062854 0.050305072 0.072807945
000190 ac 1c 0a 3d 78 db 39 3d 7f ed bd 3d cb 5f 52 3d
       0.03371875 0.045375317 0.092738144 0.051360887
0001a0 d4 11 22 3d a8 84 d7 3c 0e 7b 62 3d c8 7f a3 3d
       0.039567783 0.026308373 0.055293135 0.07983357
0001b0 24 f1 ae 3d e5 c4 b6 3d 8e 36 cf 3d 79 43 16 3d
       0.08542088 0.089242734 0.10117827 0.03668544
0001c0 9a 3f 67 3d 4a b8 0f 3d 2c ad 9d 3d f6 9a 39 3d
       0.05645714 0.03508786 0.076990455 0.045313798
0001d0 42 61 9c 3c 6d dd 3f 3d ac 4a c7 3d 77 f9 a8 3d
       0.019089345 0.046842027 0.097310394 0.08250707
0001e0 89 da c2 3d ec 2d 9b 3d e6 f8 b8 3d 38 9a a0 3d
       0.095143385 0.07577118 0.090318486 0.07841915
0001f0 1b 2b f5 3c 5c 05 97 3d e7 0a 44 3d 11 c4 ba 3d
       0.02992778 0.07374069 0.04786196 0.09119428
000200 bd 31 e5 3c e5 e0 be 3d f5 83 cb 3d 63 27 c2 3d
       0.027977819 0.09320239 0.09937278 0.09480169
000210 e2 5d 14 3d 2e 20 04 3d 93 18 ed 3c 7c 7b ac 3d
       0.036222346 0.03225725 0.028942382 0.0842199
000220 37 1f 94 3d ba f9 c4 3c 50 0c a5 3d cc 1c 6a 3d
       0.07232516 0.02404486 0.08058989 0.05715637
000230 96 31 b7 3d a0 7a a8 3d 52 2c 7c 3d 80 c4 65 3d
       0.08945005 0.08226514 0.061565705 0.0560956
000240 10 c6 3c 3d 3e 8b 26 3d f1 55 ae 3d c2 81 b4 3d
       0.046087325 0.040660135 0.08512486 0.08813812
000250 bc 2a c4 3d ae 14 5d 3d 70 f7 aa 3d 03 9a ae 3d
       0.095784634 0.0539748 0.08347976 0.08525469
000260 ba c5 31 3d 16 fd cf 3d e3 86 a4 3d cb ef c3 3d
       0.043401457 0.10155694 0.0803354 0.09567221
000270 c1 3d d0 3d d0 dc d1 3c 18 fe fd 3c d7 38 6f 3d
       0.101680286 0.025617987 0.03100495 0.058403816
000280 ce 8a 0d 3d 4e 22 8f 3d a1 dd 68 3d 07 bc 3f 3d
       0.034556203 0.06988965 0.056851987 0.046810176
000290 0c 0b 07 3d de a2 cb 3d da c3 5b 3d 72 b6 ab 3d
       0.03296952 0.09943174 0.053653575 0.08384408
0002a0 d4 bc 1f 3d 67 a6 21 3d 7b ab ee 3c 66 e4 d6 3d
       0.03899844 0.039465334 0.029134503 0.10492782
0002b0 9c e6 91 3d 2c 48 a0 3d c9 16 a3 3d 1e 9c bd 3d
       0.071240634 0.07826266 0.0796333 0.092582926
0002c0 ef 06 39 3d ae b5 d0 3d 1e 88 88 3d c6 de d3 3d
       0.045172628 0.10190903 0.06666587 0.10345225
0002d0 21 98 d7 3d 3a 7b c3 3d 93 75 29 3d d0 c0 2b 3d
       0.10527063 0.09544988 0.041371893 0.041931927
0002e0 32 7d 91 3d e1 a1 2e 3d 0e 70 37 3d 75 ed 73 3d
       0.07103957 0.04263485 0.044784598 0.05955263
0002f0 fc 79 a6 3d d8 20 90 3d ca e3 a8 3d c8 d3 0c 3d
       0.081287354 0.070375144 0.08246572 0.034381658
000300 ee 62 80 3d 88 ca 6a 3d fa 1f d9 3d cd 37 13 3d
       0.06268869 0.057322055 0.10601802 0.035941888
000310 1b df 63 3d ca f5 f4 3c b4 98 8f 3d 21 af 35 3d
       0.05563269 0.029902358 0.07011548 0.04435647
000320 9f cf a0 3d cb 3b 9f 3d 35 e1 d0 3d 4e d4 51 3d
       0.078521006 0.077750765 0.10199205 0.05122786
000330 be 56 7f 3d a2 df 86 3d a3 08 b1 3d 5a c0 8f 3d
       0.062338583 0.06585623 0.086442254 0.0701911
000340 02 35 94 3d 35 04 a9 3d 6e 45 2c 3d cc a8 f1 3c
       0.07236673 0.082527556 0.0420584 0.029499434
000350 d6 32 14 3d 5c 03 b5 3d 59 1d b0 3d 78 ef d7 3d
       0.036181293 0.088385314 0.085993476 0.10543722
000360 58 4e 94 3d 61 96 7e 3d d9 57 c7 3d 4a 09 a8 3d
       0.072415054 0.06215513 0.097335525 0.08204897
000370 12 d1 a4 3d 3c b6 a9 3d 06 0d b2 3d 35 73 8f 3d
       0.080476895 0.082867116 0.0869389 0.07004396
000380 0b 9c 91 3d 93 76 71 3d 3b 90 9e 3d e0 8f 5d 3d
       0.07109841 0.05895097 0.077423535 0.054092288
000390 9e 48 d3 3d c8 27 3e 3d 1c c5 12 3d 47 f0 dc 3c
       0.10316585 0.046424657 0.03583251 0.026970042
0003a0 2a be 0a 3d 5b b8 c6 3d b6 88 7e 3d c2 37 0c 3d
       0.03387276 0.09703132 0.062142096 0.034232862
0003b0 56 e1 32 3d 93 7c 12 3d 64 40 c1 3d 59 bb 04 3d
       0.04367193 0.035763334 0.0943611 0.03240523
0003c0 3e a7 b8 3d 46 2f bd 3d 47 ef ae 3d c7 a0 d1 3d
       0.09016274 0.09237532 0.08541732 0.10235744
0003d0 01 31 c1 3d a4 45 db 3d 36 56 63 3d 8d 27 35 3d
       0.09433175 0.10706642 0.05550214 0.04422717
0003e0 ee 8f 1a 3d 83 e0 8d 3d 49 1c b7 3d e9 08 dc 3d
       0.03773492 0.06927588 0.08940942 0.10743887
0003f0 bc d6 6d 3d 2a 00 ce 3d 9a 1a 5f 3d b6 c4 ab 3d
       0.058066115 0.10058625 0.05446873 0.08387129

fc1.bias f4 [120]
000000 dd ec 00 3e 6e d0 95 bd 67 f4 90 bd 99 10 98 bc
       0.12590356 -0.073151454 -0.07077866 -0.018562602
000010 d3 fd 92 3d 94 4c c2 bd b0 d2 2f bc 97 89 13 bd
       0.071773194 -0.09487262 -0.010731384 -0.036019888
000020 ce e6 8d bc c0 c1 fc bb 3b 77 8f bc b0 dc 78 bd
       -0.01732197 -0.0077135265 -0.017512908 -0.06075734
000030 35 3d 29 3d 57 85 1f bd 2b 26 83 bc 72 75 c6 bc
       0.041318137 -0.038945522 -0.01600941 -0.024225924
000040 52 60 b4 3d bb 02 3f 3d b6 28 25 bd 76 f9 aa bd
       0.08807434 0.046633463 -0.040322028 -0.08348362
000050 5c 16 78 bd 84 2b b0 3d 39 06 84 bd a6 c5 28 3d
       -0.0605682 0.0860205 -0.064464994 0.041204117
000060 5a cf ef 3d 68 47 99 bd de 7b 58 3d 89 87 97 bd
       0.11709471 -0.07484323 0.052852504 -0.07398898
000070 6d e5 a6 bd d9 c5 a7 bd b1 b5 8e 3d da 4f d2 3d
       -0.08149228 -0.08192033 0.06968249 0.10269137
000080 1b d7 98 3d 25 4a 9b bd e2 db d6 3d 62 d3 eb bc
       0.07462903 -0.07582501 0.10491158 -0.028787319
000090 fe fd 98 3d f1 e6 26 3d 85 a2 a5 bd b6 da e7 3d
       0.0747032 0.040747587 -0.08087639 0.11321013
0000a0 7f 7c c6 3c 97 09 38 bd 2a 09 71 3d ee d3 dc bc
       0.024229286 -0.04493102 0.05884663 -0.026956525
0000b0 87 25 e7 3d 0c 71 af 3d 06 c6 af 3d 90 c0 fd 3d
       0.11286455 0.08566484 0.08582692 0.12390244
0000c0 2d a0 a8 3d 20 60 0f bd b3 29 ed bc 26 cc ae 3c
       0.08233676 -0.03500378 -0.028950548 0.02133758
0000d0 96 2b a8 bc d2 7b 80 3d fb a9 9a 3d 43 8b 26 bd
       -0.020528596 0.06273617 0.075519525 -0.040660154
0000e0 d6 81 99 bd e7 4f 8f bd 24 69 96 bd 5b 00 87 3d
       -0.07495467 -0.06997662 -0.07344273 0.06591865
0000f0 8e de e7 3d da 7b 18 bd b8 a0 ce 3d 6c c8 25 bd
       0.11321746 -0.03722749 0.100892484 -0.04047434
000100 d8 22 d7 bb 7e ae e7 bc b9 18 67 3c 15 87 a5 bd
       -0.006565433 -0.028281447 0.014105015 -0.080824055
000110 f3 63 f1 3d d6 73 f5 bc d8 16 ff bc 11 ab 03 bd
       0.11786642 -0.029962461 -0.031138822 -0.032145564
000120 3c fd 7f 3c 1d e3 d4 bc a0 89 99 bd 1f ce 28 bd
       0.015624341 -0.025987202 -0.07496953 -0.041212197
000130 4e 1b ef bc da 37 a9 bd bf b0 93 bd 88 c6 a5 3d
       -0.029187825 -0.08262606 -0.07211446 0.080945075
000140 e4 31 05 bd 33 ca c5 3d b4 0b 9b bd 3d c5 1d bd
       -0.032518283 0.09657707 -0.075705916 -0.03851818
000150 5f 17 dd 3d c4 d7 dc bc c5 e2 9d 3d b3 44 1f bd
       0.10795473 -0.026958354 0.077092685 -0.038883876
000160 58 6c c6 bc d7 b8 c3 3c 5c f9 a3 bd 46 cc 29 bd
       -0.024221584 0.02389185 -0.08006546 -0.041454576
000170 03 b5 2e 3d 30 c9 af 3c 9f f6 bf 3c cf a3 77 bd
       0.042653095 0.021458238 0.023433028 -0.060458954
000180 45 ad e0 bc 6c fd ec 3d d8 38 e3 3d 02 90 82 bd
       -0.027426371 0.11571774 0.110948265 -0.063751236
000190 ab 6e e9 bc 95 b9 3c bd 43 d5 d0 3d 05 d3 a4 bd
       -0.028495153 -0.046075422 0.101969264 -0.08048061
0001a0 b7 2e a5 bd 36 c1 67 3d c1 4f 1a bd 67 95 bb 3d
       -0.08065551 0.056580745 -0.037673716 0.091593556
0001b0 74 82 c6 3d 51 2d 44 bd 21 28 bc 3d b0 5c dd bc
       0.09692851 -0.04789478 0.091873415 -0.027021736
0001c0 fc fd a2 bd 34 ef 73 3d c3 fc 74 3d d0 4e 6d bd
       -0.079586 0.059554294 0.059811365 -0.05793649
0001d0 88 43 94 bb 7b 70 ca bc 63 8f cb bc ff cb 20 bd
       -0.004524652 -0.024711838 -0.024848646 -0.039257046

fc2.weight f4 [84, 120]
000000 27 9b a7 3d d3 80 f5 3d 0a cd 89 bd 41 1c 3e bd
       0.0818389 0.11987462 -0.06728561 -0.046413664
000010 f2 37 15 3e af bd 13 3c bc 3c a0 3d 48 f1 64 3d
       0.14572123 0.009017392 0.07824084 0.055894166
000020 04 5e ef bc e0 ef a2 bb c8 03 8e 3d 50 37 b5 bd
       -0.029219635 -0.004972443 0.06934315 -0.08848441
000030 d3 e5 0e bc 24 f0 90 3c 7d 2f 0f bd 98 ec 7c 3d
       -0.008721787 0.017692633 -0.034957398 0.06174907
000040 ce 48 9b bc c8 ba c4 bc a4 20 af 3d 40 bd 11 bb
       -0.018955614 -0.024014845 0.085511476 -0.0022238046
000050 50 1d c2 bc 84 25 50 3c 56 f7 ab bd 0f 08 91 3c
       -0.023695618 0.012704257 -0.08396785 0.017704038
000060 d5 56 68 3a 6c 34 b3 3d 53 7d a7 3d 22 f9 c2 3d
       0.00088630366 0.08750233 0.081782006 0.095201746
000070 bc 9e b8 3d ee 9d c1 3d 1a 6c 0b bd 25 12 9f 3c
       0.09014651 0.09453951 -0.03403864 0.019417832
000080 33 0a 84 3d 11 d9 61 bd 69 be 14 3e c0 8b 4f 3d
       0.06447258 -0.05513865 0.1452576 0.050670385
000090 32 eb 08 3e d9 15 68 3d 00 ee ae 3c 7d 47 ae 3c
       0.1337097 0.05666146 0.021353722 0.021274323
0000a0 aa 2c 00 3e 38 fd 03 3c b4 13 10 3e c4 35 1e bd
       0.12517038 0.0080559775 0.14070016 -0.038625494
0000b0 b1 86 08 3e 27 62 68 3c e4 19 37 3d 0b 05 f8 3d
       0.1333263 0.014183558 0.044702426 0.12110337
0000c0 49 2e c9 3c 94 c6 6a 3d 28 07 94 3d ff 94 01 3e
       0.024558203 0.057318285 0.072279274 0.12654494
0000d0 32 93 08 3d 19 b0 c5 3d 87 73 fc 3d 49 8c 50 bd
       0.0333435 0.096527286 0.123267226 -0.050915036
0000e0 e0 b3 3e bc 88 0d 2d 3d a4 cc 7a 3d 29 c8 84 3d
       -0.011639565 0.042249233 0.061230317 0.0648349
0000f0 2d f7 c1 bc 84 61 a0 bd 2f 42 fa 3d 38 21 24 bc
       -0.023677433 -0.078311 0.12219655 -0.010017686
000100 d8 e6 26 3c 80 19 6d 3d 17 53 f8 3d fe c6 e5 bc
       0.010186873 0.057885647 0.12125223 -0.028048988
000110 14 c8 7b 3d 8a 64 98 3d ee be 9d 3d 8a 3c b0 3d
       0.061470106 0.07441051 0.077024326 0.08605297
000120 c0 59 39 bc 98 1b c4 bc 84 a2 89 3d 9a e1 ab 3d
       -0.011312902 -0.023938939 0.067204505 0.083926395
000130 40 49 1e bb fe 89 0f 3e 80 3a ab ba c9 fc dd bb
       -0.0024152547 0.14017484 -0.0013063699 -0.006774519
000140 6f 52 4d bd b6 ff 74 3c 66 b7 a6 bd a0 6b 8b bd
       -0.050127443 0.014953544 -0.08140449 -0.06807637
000150 da f2 01 3e 8c b7 d6 bc b4 33 4e bc 42 26 a1 bd
       0.12690297 -0.026210569 -0.012585569 -0.07868625
000160 d0 ac d3 bc dc e9 10 3e 8a 83 e8 3d f4 44 29 3d
       -0.02583924 0.1415171 0.11353214 0.041325524
000170 ec 25 ac 3b ab af 04 3d fc 35 81 bc e0 27 b4 bc
       0.005253544 0.032394093 -0.015772812 -0.02199167
000180 00 30 39 ba f4 66 58 bc f0 22 a0 3d 2f 24 bc 3d
       -0.00070643425 -0.01320814 0.07819164 0.09186589
000190 c8 04 a5 3d 0a b1 2d bd 38 26 3a 3d c4 b2 84 3d
       0.080575526 -0.042405166 0.045446604 0.06479409
0001a0 e5 22 f5 3d 70 28 fb 3d 5a 25 20 bd 23 49 ce 3d
       0.11969546 0.12263572 -0.03909812 0.100725435
0001b0 22 47 16 3e 0b 83 c3 3d c6 df f5 3d a7 46 3d bd
       0.14675573 0.09546479 0.12005572 -0.046209957
0001c0 5b ee 4a 3d 58 f3 bb 3d f5 ec b9 bc 28 8c 89 3d
       0.04954372 0.091772735 -0.022695998 0.06716186
0001d0 d1 97 a1 bd 28 99 6f bd c1 1a 44 bd a8 31 2c 3c
       -0.07890285 -0.05849567 -0.047877077 0.010509886
0001e0 90 c5 b8 3b f7 4b 18 bd 42 4c b2 bd 70 cb 4d bc
       0.0056387857 -0.03718182 -0.08705951 -0.01256071
0001f0 e0 c9 72 bb d0 03 ad 3d 25 72 0d bd 9c 19 94 3c
       -0.0037046596 0.08447993 -0.034532685 0.018078618
000200 f4 71 d4 bc f0 f8 74 3d bc df 23 bd 6c d1 d3 3c
       -0.025933243 0.059807718 -0.04000829 0.025856696
000210 6c 79 76 bd 90 11 a7 3d 78 2b 6e bd 40 22 a1 bd
       -0.06017439 0.08157647 -0.058146924 -0.07867861
000220 88 7d 17 3c 48 22 6e bc e2 e9 63 bd a0 af 82 3d
       0.009246238 -0.0145345405 -0.05564297 0.06381154
000230 9a 4f 50 bd 60 24 3a 3b 8a fd 96 bd 7b d5 55 bd
       -0.050857164 0.002840303 -0.073725775 -0.052205544
000240 20 7b b4 bb 00 81 84 39 44 06 fa bc f4 24 45 3d
       -0.0055078417 0.00025273114 -0.030520566 0.048130944
000250 41 3d 70 bd 72 4f 74 bd c8 ad 01 bd 18 5a 7b 3d
       -0.058652166 -0.059646077 -0.03165987 0.061365217
000260 08 90 42 bc b8 2c 30 3c f4 5d 32 3d b8 ac 90 3d
       -0.01187516 0.010752849 0.043546632 0.070641935
000270 d5 fe 0b bd 18 f8 50 3c 02 14 9a 3d 5e bf 9f bd
       -0.034178574 0.012754463 0.075233474 -0.07800172
000280 14 21 39 3d 10 6f a6 bb 1c f3 83 3d ec 8e a1 bd
       0.04519756 -0.0050791577 0.06442854 -0.07888588
000290 60 62 78 3d a0 b5 f1 3c de 2b 46 bd 05 2c ac bd
       0.060640693 0.02950555 -0.04838168 -0.084068336
0002a0 f0 60 af 3b eb 91 8c bd 82 72 02 3d f8 3b f3 3c
       0.005352132 -0.06863769 0.031847484 0.029691681
0002b0 d0 1f 33 3d fc 09 63 3d 1d 7d 84 bd 80 5d 0b bc
       0.04373151 0.055429444 -0.06469176 -0.008506179
0002c0 f2 b7 a3 bd 00 b2 e4 bc 50 fa aa 3d cc 22 94 3c
       -0.07994069 -0.027916908 0.083485246 0.018082999
0002d0 00 ac 2c ba ec a1 6f 3d ec 18 0c 3d 44 77 d9 3c
       -0.00065869093 0.05850403 0.034203455 0.026546128
0002e0 dc 7a 1c 3d 20 0f 19 bd 18 bc 87 3c d4 e5 6b 3d
       0.038203105 -0.03736794 0.016569182 0.057592228
0002f0 10 6a a0 3b 08 04 aa 3d 10 e2 6a 3d 1d d7 56 bd
       0.004895456 0.0830155 0.057344496 -0.05245124
000300 00 38 65 3d 9e fb f8 bc 84 cd 2d 3d ac 66 95 3c
       0.05596161 -0.030393418 0.042432323 0.018237434
000310 7c 1f 8c 3c 20 65 b2 3d 34 e1 b9 3c 48 05 0f bc
       0.017104857 0.08710694 0.022690393 -0.0087292865
000320 68 0f 96 3d 18 93 1e bd 88 51 76 3c f8 98 4e bc
       0.07327157 -0.0387145 0.015034087 -0.012609713
000330 30 cf f9 3b ac 65 ae 3d 60 f0 6f 3d 14 0c 8e bd
       0.0076235756 0.08515486 0.05857885 -0.069358975
000340 2c fc 63 3d 11 a1 00 bd a3 30 07 bd 9e 78 83 3d
       0.05566041 -0.031403605 -0.033005368 0.0641949
000350 84 08 07 bd 20 3a b5 bc 70 05 ed 3b b6 58 f0 bc
       -0.032967106 -0.022122443 0.007233314 -0.029339176
000360 00 fa 2f b9 f0 a9 6b 3c fe 58 9a bd 70 69 64 3d
       -0.00016782433 0.014383778 -0.07536505 0.055764616
000370 a0 c5 a5 bb 0e 88 91 3d 76 fb 88 bd c6 36 b1 3d
       -0.005058959 0.071060285 -0.06688587 0.08653025
000380 2e 6e 9c 3d 0c e6 ae 3d 10 84 38 3c 4c 1b ad 3c
       0.076382026 0.08539972 0.011261955 0.02113118
000390 a5 18 8e bd b3 0c a9 bd fc f8 92 bc 44 46 7a 3d
       -0.06938294 -0.08254375 -0.01794099 0.061102167
0003a0 e4 45 0f 3d d0 27 d1 3b f0 0c 9e bd 3c 5a a8 bc
       0.034978762 0.00638292 -0.077173114 -0.02055084
0003b0 91 31 b1 bd 6c a9 1d bd 04 2d e1 3c 84 09 f9 3c
       -0.08652032 -0.03849165 0.027487285 0.030400045
0003c0 bc b6 5a bd e6 17 ab 3d 66 85 68 bd e6 22 32 bd
       -0.053396925 0.08354168 -0.056767844 -0.043490313
0003d0 9a 0e ee bd b1 01 90 bd fe a9 b0 3d b1 84 83 bc
       -0.11623879 -0.070315726 0.086261734 -0.016054483
0003e0 a6 eb 9c 3d f0 d9 69 bd 28 0d a5 bd 81 f2 ae bd
       0.07662134 -0.057092607 -0.0805915 -0.08542348
0003f0 81 20 6d bd ee d5 de bd 3c d2 b3 bc 2f 50 e2 3c
       -0.057892326 -0.108806476 -0.021950833 0.027626125

fc2.bias f4 [84]
000000 62 02 09 bc 32 7a 41 bd f3 7c 67 bc 9c 2b 2c 3e
       -0.0083623845 -0.047235675 -0.014128911 0.1681351
000010 9f cf b8 3d 04 67 ca 3c 5f 8a 09 3e 98 87 50 bc
       0.090239756 0.024707325 0.1343169 -0.012727641
000020 75 5b 20 3e 60 c0 81 3c f2 69 fa 3d 05 b5 aa bd
       0.15659888 0.015838802 0.12227239 -0.08335308
000030 8c ad 03 3e 20 05 81 bd d1 1f 71 bc 96 a8 e5 bc
       0.12859172 -0.06299806 -0.014717058 -0.02803449
000040 f4 55 29 bd ae 6b cf 3d c2 50 e7 3d 11 89 06 bd
       -0.041341737 0.1012796 0.112947 -0.03284556
000050 b5 14 30 3e 14 fe b6 3b 02 55 a8 bd d1 7f 0a 3e
       0.17195399 0.0055844877 -0.08219339 0.1352532
000060 84 f4 57 bc 09 fd 73 bd 7e 84 ac 3d de 2d bd bc
       -0.013180856 -0.059567485 0.084237084 -0.02309316
000070 94 49 85 3c 3a 9a 1e 3d 1d 3f 92 bd 9e 60 a7 3d
       0.016270436 0.0387213 -0.07140944 0.08172725
000080 9f aa 46 bd 69 ae 81 bd 68 73 bb bc a2 ef 9b bd
       -0.04850256 -0.06332094 -0.022882178 -0.07614066
000090 bf 53 ab bd 02 3b 9f 3d 6d 8a 98 3d ef 36 2f bd
       -0.08365583 0.07774927 0.074482776 -0.042776998
0000a0 35 3d 6c bd 9a 3b 0f 3e ea bb 81 bd ba 39 bb bd
       -0.05767556 0.1398758 -0.0633467 -0.0914187
0000b0 54 a4 ad bd 97 6b 4f bd 6a 05 25 3e e0 92 f8 bb
       -0.08478609 -0.050639715 0.16115347 -0.0075858682
0000c0 26 f1 f6 3d e0 91 6f 3d 97 b3 1b bd 95 7b a1 3d
       0.12057714 0.058488727 -0.038013067 0.078848995
0000d0 8a 04 0f bd 1b 41 13 bd 4b 29 1a ba 40 a8 bc 3b
       -0.03491644 -0.03595076 -0.0005880787 0.0057573617
0000e0 29 de 13 3e a1 cc b3 3b eb 55 7d 3d 4d ad 0e 3e
       0.14440216 0.00548704 0.061849516 0.13933297
0000f0 fc 15 d6 bd ee 9b 0b 3e f1 b0 6e 3c 55 5e e9 3d
       -0.10453412 0.13633701 0.014568553 0.113949455
000100 b1 19 57 bd 45 0c d9 bc e8 78 ae bc 4a 7c e4 bd
       -0.052514736 -0.026495108 -0.021297887 -0.11156519
000110 88 e8 b2 bc 6f 86 a9 bd 68 48 18 3e 05 c3 24 bd
       -0.021839395 -0.08277594 0.14871371 -0.040225048
000120 2b f5 c6 3d 38 89 2a 3e ce 42 d0 3d 6d ca 11 3e
       0.09714731 0.16653907 0.10168992 0.14237376
000130 f6 7a b0 bd 26 0d 03 bd 26 7a 2b bd c0 20 34 3c
       -0.08617203 -0.03199496 -0.041864537 0.010994136
000140 39 b7 ce 3d 06 06 f2 bc 01 10 b7 3c 3d 54 11 3b
       0.10093541 -0.029543888 0.022346498 0.0022175454
