mlops_project/outputs/2022-05-04/12-42-03/models/baseline.pth (torch, 356475 bytes, 14 tensors)

conv1.weight f4 [6, 3, 5, 5]
0	0xbc2fe214	-0.010735054
1	0x3d77c6d6	0.06049236
2	0xba5dd4f3	-0.0008462213
3	0x3da3a110	0.079897046
4	0xbd7dff16	-0.062010847
5	0x3df7c1d4	0.12097517
6	0xbcdedf5c	-0.027206115
7	0xbd101f05	-0.035185833
8	0xbd15ae2e	-0.036543064
9	0x3db5d94d	0.088793375
10	0xbbd16233	-0.00638988
11	0x3dcc8aa0	0.09987378
12	0xbd2909cf	-0.04126912
13	0xbc5d6d68	-0.013514854
14	0x3c67f818	0.014158271
15	0x3c60c46f	0.013718708
16	0xbd0068ba	-0.031349875
17	0x3e076faa	0.1322619
18	0x3cf0a8e4	0.029377408
19	0x3d96ae3c	0.07357451
20	0x3df1d3f6	0.118080065
21	0x3da019ef	0.078174464
22	0x3db498d4	0.08818212
23	0x3e2c44ab	0.1682307
24	0x3b96382b	0.0045843325
25	0x3d94a746	0.072584674
26	0xbc76787d	-0.015043375
27	0x3df320ee	0.11871515
28	0x3e036233	0.12830429
29	0xbd90073d	-0.070326306
30	0x3e09d946	0.1346179
31	0x3dbb8e11	0.091579564
32	0x3db176e3	0.08665254
33	0x3dab6b34	0.08370057
34	0x3e076478	0.1322192
35	0x3caa4961	0.020786943
36	0xbd7ad3d6	-0.06123718
37	0x3b5a6ca4	0.0033328915
38	0xbd387245	-0.04503085
39	0x3d33cc39	0.043895934
40	0x3c6e391f	0.014539986
41	0xbcd0e6aa	-0.025500614
42	0x3cd3afa1	0.025840582
43	0x3e152b2c	0.1456725
44	0x3cdd7a78	0.027035937
45	0x3d225de5	0.039640326
46	0x3c956040	0.018234372
47	0x3d5ea04c	0.05435209
48	0x3e0e8288	0.13916981
49	0x3ddaac33	0.10677376
50	0x3d9e9287	0.077427916
51	0x3d7d07be	0.06177496
52	0x3d82a774	0.063795954
53	0x3da61a6b	0.081105076
54	0x3cb1304b	0.021629473
55	0xbd911ded	-0.07085786
56	0xbd0dfa4a	-0.034662522
57	0x3e0a7759	0.1352209
58	0x3d31e393	0.043429922
59	0xbd692c5b	-0.056927066
60	0x3d5feebf	0.054671045
61	0x3e074c31	0.13212658
62	0xbd94361c	-0.07236883
63	0xbd2867ba	-0.041114546
64	0xbc1955c0	-0.009358823
65	0x3d28ace1	0.041180495
66	0x3c20f57c	0.009824153
67	0x3cc458aa	0.02396806
68	0xbd9b9103	-0.07596018
69	0x3db994e4	0.09061602
70	0x3e0d32ff	0.13788985
71	0x3ddba617	0.107250385
72	0xbd38f97b	-0.045159798
73	0xbd671314	-0.05641468
74	0x3dad24aa	0.08454259
75	0xbd0194fc	-0.031636223
76	0x3c5dec7d	0.013545153
77	0xbe166051	-0.1468518
78	0xbd279391	-0.040912215
79	0x3d3ffe01	0.046873096
80	0x3c9f383c	0.019435994
81	0xbcf445e1	-0.029818477
82	0xbc3a00ac	-0.011352699
83	0xbd37c687	-0.044867065
84	0xbdc8b520	-0.09800172
85	0xbd9f41bc	-0.0777621
86	0xbdd5f88f	-0.104477994
87	0x3d7c581f	0.061607476
88	0x3cef24e0	0.029192388
89	0x3bb8760e	0.0056293076
90	0xbdfbe95a	-0.12300368
91	0x3d5f4b2a	0.05451504
92	0x3adb4afe	0.0016730723
93	0x3d391e3e	0.045194857
94	0xbda3c963	-0.07997396
95	0xbcfa8088	-0.030578867
96	0x3d9f83d0	0.07788813
97	0x3d31954e	0.04335528
98	0x3d6e00c5	0.058106203
99	0xbd6f2e84	-0.05839397
100	0x3d6244bb	0.055241328
101	0xbdfb1a00	-0.122608185
102	0xbcb7b5f8	-0.022425637
103	0xbdc7d169	-0.09756739
104	0xbda446f9	-0.080213495
105	0xbd7e1d8b	-0.062039893
106	0xbcc35d58	-0.02384822
107	0x3d947e9c	0.07250711
108	0x3ccacbe7	0.024755431
109	0xbd5b5aa9	-0.053553257
110	0x3d4b1465	0.049579997
111	0xbdbbfe30	-0.09179342
112	0x3cd960d5	0.02653543
113	0xbd32c64a	-0.043646134
114	0xbd96471e	-0.07337783
115	0xbd20caa5	-0.039255757
116	0xbe10ff82	-0.14159968
117	0xbca2db55	-0.019879976
118	0x3bb21c95	0.005435536
119	0x3d868b3b	0.06569525
120	0xbdb7393d	-0.08946464
121	0xbc4223dd	-0.011849371
122	0x3da8f3cf	0.08249628
123	0xbda91faa	-0.082579926
124	0x3d9e41c5	0.07727388
125	0xbdaedb19	-0.08537883
126	0x3cbb8367	0.022889806
127	0x3c8b38d6	0.016994875
128	0x3b85a5c3	0.004078598
129	0x3d7fb791	0.062430922
130	0xbd98e87b	-0.07466217
131	0x3b0560e8	0.002035195
132	0xbce60008	-0.028076187
133	0xbdec3321	-0.115331896
134	0xbd68ffb8	-0.056884497
135	0xbdd6a00d	-0.10479746
136	0x3cb95f31	0.022628399
137	0xbc992436	-0.018694025
138	0xbc9208bc	-0.01782643
139	0xbd83eb47	-0.0644136
140	0xbce28877	-0.027652962
141	0xbd856625	-0.06513623
142	0x3b741a94	0.0037247287
143	0x3da8c9a7	0.08241587
144	0xbc3f7f13	-0.011688012
145	0xbda5482e	-0.08070408
146	0xbdcd489f	-0.10023617
147	0xbca523bc	-0.020158641
148	0xbdeb3564	-0.11484793
149	0xbdeb8941	-0.115007885
150	0xbe2ab74b	-0.16671483
151	0xbe034cc6	-0.12822255
152	0xbd98e5fb	-0.0746574
153	0xbb581d11	-0.003297631
154	0xbd1f945e	-0.038959853
155	0x3cd7d946	0.026348721
156	0xbe09984f	-0.13437007
157	0xbd905f03	-0.07049372
158	0xbe3d3f88	-0.18481266
159	0xbc7e97a0	-0.01553908
160	0xbd0c35c2	-0.034230955
161	0x3d5f521c	0.054521665
162	0xbe0e967b	-0.13924591
163	0x3c6f5a0b	0.01460887
164	0x3c93fe18	0.018065497
165	0x3d10d27a	0.035356976
166	0xbd2274d1	-0.039662186
167	0x3d47ab7f	0.048747536
168	0x3ca80978	0.020512328
169	0x3ce5b9d4	0.028042711
170	0xbd8a6dcd	-0.06759224
171	0xbe16e081	-0.14734079
172	0xbd71fde0	-0.059080005
173	0xbd10e1e4	-0.035371676
174	0xbe0af966	-0.135717
175	0xbe26f816	-0.16305575
176	0xbe50384b	-0.20333974
177	0xbdfde67a	-0.123974755
178	0x3c9390c1	0.01801336
179	0xbd828822	-0.063736215
180	0xbd8d1e13	-0.06890502
181	0xbd69944b	-0.05702619
182	0xbbf2a09f	-0.0074044014
183	0xbe3c0dce	-0.18364641
184	0xbe190f7c	-0.14947313
185	0xbdc086c7	-0.09400707
186	0xbdf67177	-0.120333605
187	0x3bae0b21	0.0053113853
188	0x3cd40556	0.02588145
189	0xbe2d3240	-0.169137
190	0xbe1c28ab	-0.15249889
191	0xbe2783e6	-0.16358909
192	0xbc202bf2	-0.009776102
193	0x3d1d5bc9	0.03841761
194	0xbe149052	-0.14508179
195	0xbde48a17	-0.11159151
196	0xbca6a407	-0.020341886
197	0xbe075f4b	-0.13219945
198	0x3d2f105a	0.042740203
199	0xbcd87f02	-0.02642775
200	0xbd9df0cc	-0.07711944
201	0xbd17048d	-0.036869574
202	0xbbc116c9	-0.005892609
203	0xbdd33eba	-0.103146985
204	0xbe1ba0ac	-0.1519801
205	0xbd20c5d9	-0.039251182
206	0xbd1cef61	-0.038314227
207	0xbd18e5ed	-0.03732865
208	0xbd6dad13	-0.058026385
209	0x3d0cef6a	0.03440801
210	0xbd90bcd2	-0.070672646
211	0xbd48ee56	-0.04905542
212	0x3c1b3995	0.009474178
213	0xbde31f19	-0.11089916
214	0xbbfb63ed	-0.007671824
215	0xbd8352ef	-0.06412303
216	0x3c8f7378	0.017511114
217	0xbdcd6592	-0.100291386
218	0xbd07ee50	-0.033186257
219	0xbcd9c93c	-0.026585214
220	0xbe07bda8	-0.13255942
221	0xbdfbc981	-0.12294293
222	0x3bc27b25	0.00593509
223	0xbd915117	-0.07095545
224	0x3cff8c35	0.031194786
225	0xbd9fb4de	-0.077981696
226	0xbcab5aed	-0.02091738
227	0xbd71829d	-0.058962453
228	0x3da8802e	0.08227573
229	0x3d067144	0.032822862
230	0x3c6e9edb	0.014564241
231	0x3c8c17be	0.017101165
232	0xbd5d694b	-0.054055493
233	0x3d8cbba0	0.06871724
234	0x3d1eed34	0.038800433
235	0xbd321615	-0.04347809
236	0x3dccd496	0.10001485
237	0x3d5e697d	0.05429982
238	0xbd9a6938	-0.075396
239	0x3dc81849	0.09770257
240	0x3dc86301	0.097845085
241	0x3d0e7a3c	0.03478454
242	0xbd30f913	-0.043206286
243	0x3d284286	0.041079067
244	0x3dfac4be	0.12244557
245	0x3e10d804	0.14144903
246	0xbd503eb5	-0.050841052
247	0xbc85e2e4	-0.016343541
248	0x3e0081f5	0.12549575
249	0x3dbcae41	0.09212924
250	0x3ddca580	0.10773754
251	0xbcad51aa	-0.021157105
252	0x3e0b0dc9	0.13579477
253	0xbd6ffe06	-0.058591865
254	0x3cfccde8	0.030859903
255	0x3d1e5b5d	0.03866135

conv1.bias f4 [6]
0	0xbdb5bc06	-0.08873753
1	0xbe14060d	-0.14455433
2	0xbcc74be0	-0.024328172
3	0xbc9e369b	-0.019313147
4	0xbd31ef9a	-0.043441392
5	0x3ab6ca44	0.0013945778

conv2.weight f4 [16, 6, 5, 5]
0	0xbdc7f0fb	-0.0976276
1	0x3c13c537	0.009019188
2	0xbdf67806	-0.120346114
3	0x3c916596	0.017748635
4	0xbad75cbb	-0.0016430834
5	0xbe0ac5d1	-0.13552023
6	0xbd1a80b5	-0.0377204
7	0xbd94852a	-0.072519615
8	0x3c5fa599	0.013650321
9	0xbd968eb7	-0.073514394
10	0xbc43de42	-0.011954846
11	0xbb0b4281	-0.0021249356
12	0xbe088893	-0.13333349
13	0xbccdbdb3	-0.02511487
14	0xbe15d1b1	-0.14630772
15	0xbdcd579d	-0.100264765
16	0xbdd9ed1a	-0.10640927
17	0xbe186585	-0.14882477
18	0xbe21d7f9	-0.15805043
19	0xbe1e4c40	-0.15458775
20	0xbe16ceb9	-0.14727296
21	0xbe05c5d4	-0.13063747
22	0xbde226f0	-0.11042583
23	0xbcf05c84	-0.02934099
24	0xbda26c45	-0.07930807
25	0xbe11d03a	-0.14239588
26	0xbdf9bdbd	-0.12194393
27	0xbbc919ec	-0.0061371233
28	0xbe129409	-0.14314283
29	0xbdd7cb43	-0.10536816
30	0xbe0bfe6c	-0.13671273
31	0xbc828120	-0.015930712
32	0xbc24596c	-0.010031085
33	0xbd8b5bb0	-0.068045974
34	0xbdee346d	-0.11631093
35	0xbdb7934e	-0.08963643
36	0xbd8ee16d	-0.0697659
37	0xbd2e0f21	-0.042494897
38	0xbd9c6d74	-0.07638064
39	0xbde84756	-0.11341731
40	0xbd9de30a	-0.0770932
41	0xbda4fa45	-0.080555476
42	0xbda366cf	-0.079785936
43	0xbd2ca9ce	-0.042154126
44	0xbdda6fc0	-0.10665846
45	0xbda3756f	-0.07981383
46	0xbda6ebe3	-0.081504606
47	0xbd3ccc69	-0.04609338
48	0xbe067846	-0.13131818
49	0xbe105c56	-0.14097723
50	0xbe101410	-0.14070153
51	0xbd483255	-0.048876125
52	0x3d0d7ba3	0.034541737
53	0x3c3e05ab	0.011598031
54	0xbd52170f	-0.05129152
55	0xbda9e487	-0.08295541
56	0xbd81ba1b	-0.06334325
57	0xbde19e49	-0.110165186
58	0xbc81cfbc	-0.015846126
59	0xbdd6b988	-0.10484606
60	0xbd9ff795	-0.078108944
61	0xbce17093	-0.0275195
62	0xbd3decdf	-0.046368476
63	0xbdeda9de	-0.11604665
64	0xbd97c4f9	-0.074106164
65	0xbdc4239f	-0.09577107
66	0xbde64ea4	-0.11245468
67	0xbda7b12c	-0.0818809
68	0xbde1229d	-0.1099293
69	0xbbb19dba	-0.005420414
70	0xbd8f22f8	-0.06989092
71	0xbdddad46	-0.10824065
72	0xbcab1b9a	-0.020887185
73	0xbd6a89b4	-0.05726023
74	0xbd06c5cc	-0.032903478
75	0xbbc3b353	-0.005972305
76	0x3c7aae60	0.015300363
77	0xbda045f9	-0.07825846
78	0xbd5a9c5a	-0.053371765
79	0xbde43b94	-0.11144176
80	0x3c4178e9	0.011808612
81	0xbd0c98eb	-0.03432552
82	0xbd99b5cf	-0.0750538
83	0xbd2a255a	-0.041539527
84	0x3c853db7	0.01626478
85	0xbcb43f4e	-0.022002842
86	0xbcbcae96	-0.023032468
87	0x3cbc85d5	0.023013035
88	0xbd886649	-0.06660134
89	0xbd93ab01	-0.07210351
90	0xbd5797f0	-0.052635133
91	0xbe15a9f7	-0.14615618
92	0xbd35ac42	-0.04435373
93	0xbda1245d	-0.07868264
94	0xbdace570	-0.08442199
95	0xbda5031d	-0.080572344
96	0xbc5031d7	-0.012707195
97	0xbd7f3cc4	-0.06231381
98	0xbe1f704d	-0.15570183
99	0xbbbf805b	-0.0058441586
100	0xbcfe61da	-0.031052519
101	0xbd10a19a	-0.035310365
102	0xbd58258b	-0.05277018
103	0xbd9679d4	-0.073474556
104	0xbdf2b239	-0.118503995
105	0xbcbe4453	-0.023225939
106	0xbe0d616a	-0.13806692
107	0xbe0483d0	-0.12940907
108	0xbda06825	-0.07832364
109	0xbe0b339b	-0.13593905
110	0xbb5c5495	-0.003361975
111	0x3c4a82f2	0.012360321
112	0xbd0834c7	-0.033253457
113	0xbcd201af	-0.025635568
114	0xbe1c6de0	-0.15276289
115	0xbafaf8c7	-0.0019147628
116	0xbd49d8bc	-0.04927896
117	0xbdf96b6f	-0.121786945
118	0xbe07e2db	-0.13270132
119	0xbd6eb6fe	-0.058279984
120	0xbca46693	-0.020068442
121	0xbdb8d290	-0.090245366
122	0xbdb8ad61	-0.090174444
123	0xbdb74d22	-0.08950259
124	0xbe1c14d9	-0.15242328
125	0xbca78e4e	-0.020453598
126	0x3d2c4578	0.042058438
127	0xbe16c20b	-0.14722459
128	0xbe059626	-0.13045558
129	0xbd324dfe	-0.04353141
130	0xbe0f3173	-0.13983707
131	0xbc1a6418	-0.009423278
132	0xbe065f81	-0.1312237
133	0xbd983930	-0.07432783
134	0xbd7c475c	-0.06159149
135	0xbdd61d5e	-0.1045482
136	0xbdf76ef7	-0.12081712
137	0xbdaee742	-0.08540203
138	0xbd944bcc	-0.072410196
139	0xbcf8b682	-0.030360464
140	0xbd2fab54	-0.042888
141	0xbd09510f	-0.03352457
142	0xbd3e1ab7	-0.046412196
143	0xbb41ebb6	-0.0029589958
144	0xbdf92477	-0.12165158
145	0xbe0cefea	-0.13763395
146	0xbd47c421	-0.048771027
147	0xbd3df15e	-0.046372764
148	0x3ba24197	0.0049516666
149	0x3b376399	0.0027982949
150	0xbd373b31	-0.044734184
151	0xbcfaf170	-0.030632704
152	0xbd26d121	-0.040726785
153	0xbd69c94f	-0.05707675
154	0xbe1960cc	-0.14978331
155	0xbddb5d32	-0.10711135
156	0xbe1396b1	-0.14412953
157	0x3bcc9f8f	0.006244607
158	0xbdbd73ee	-0.092506275
159	0xbe0c820d	-0.13721485
160	0xbdb4aa4f	-0.08821546
161	0xbcc49cde	-0.024000581
162	0xbd2ed58a	-0.042684115
163	0xbd4e51f1	-0.050371114
164	0xbda38861	-0.079849966
165	0xbe1de961	-0.15421058
166	0xbdfee466	-0.12445907
167	0xbe15ed9b	-0.1464142
168	0xbda72785	-0.081618346
169	0xbbbb17c5	-0.0057096207
170	0xbe09bfc5	-0.1345206
171	0xbda3a77d	-0.0799093
172	0xbbe603b3	-0.007019484
173	0xbcee271c	-0.029071383
174	0xbd68692c	-0.056740925
175	0xbb9e220a	-0.004825835
176	0xbd973619	-0.07383365
177	0xbdd6aeb0	-0.10482538
178	0xbcb1bace	-0.02169552
179	0xbd2d44d7	-0.04230198
180	0xbda78833	-0.08180275
181	0x3bb739f5	0.005591626
182	0xbdf3ce96	-0.119046375
183	0xbd84bbc7	-0.06481128
184	0x392d0960	0.00016502058
185	0xbd03bba2	-0.032161362
186	0xbdfa319f	-0.12216496
187	0xbd3d82f9	-0.046267483
188	0xbd9bc2a0	-0.07605481
189	0xbd58a899	-0.052895162
190	0xbc690eea	-0.014224747
191	0xbdeb71bd	-0.11496303
192	0xbdaf07f6	-0.0854644
193	0x3b9ff89e	0.0048819324
194	0xbdff6de5	-0.124721326
195	0xbda329f5	-0.07966987
196	0xbdaceef0	-0.08444011
197	0xbda033dd	-0.07822392
198	0xbd95f5e9	-0.07322294
199	0xbd20cb9b	-0.039256673
200	0xbc0c16db	-0.008550371
201	0xbdbf278d	-0.093337156
202	0xbda3257b	-0.07966133
203	0xbe29a116	-0.16565356
204	0xbdf56c65	-0.11983565
205	0xbd887ffd	-0.06665037
206	0xbd89ede0	-0.06734824
207	0xbd95947e	-0.07303713
208	0xbdab7922	-0.083727136
209	0xbdeab245	-0.114597835
210	0x3a6bfe19	0.0009002402
211	0xbdb81857	-0.089890175
212	0xba3ac5ef	-0.00071248313
213	0xbc909802	-0.017650608
214	0xbdb5823f	-0.08862733
215	0xbdb7a205	-0.0896645
216	0xbc3ca3a4	-0.011513624
217	0xbdaf3e99	-0.085568614
218	0xbde234c7	-0.11045223
219	0xbd2ea9ee	-0.042642526
220	0xbd58b6f0	-0.052908838
221	0x3c7d8b14	0.015475053
222	0xbe15a996	-0.14615473
223	0xbd42ef7c	-0.04759167
224	0xbe284cbf	-0.16435526
225	0xbdbaf515	-0.09128777
226	0xbd88aac2	-0.066731945
227	0xbc4f0096	-0.012634417
228	0xbde83309	-0.11337859
229	0xbdfa09f6	-0.12208931
230	0xbd6aba61	-0.05730665
231	0xbdb1cf3f	-0.08682107
232	0xbe10cb15	-0.1413997
233	0xbd94f8f4	-0.072740465
234	0xbd05153a	-0.032490946
235	0xbddf3ddb	-0.1090047
236	0xbe11ed0d	-0.14250584
237	0xbe08a2bc	-0.13343328
238	0xbd1eb5d5	-0.038747627
239	0xbda04737	-0.07826083
240	0xbc83154a	-0.016001362
241	0xbdb2946a	-0.08719714
242	0xbda292ea	-0.07938178
243	0xbc483d9f	-0.012221723
244	0xbd5902f1	-0.05298132
245	0xbe0a366b	-0.13497321
246	0xbd8341b4	-0.06409016
247	0xbd7c7eb0	-0.061644256
248	0xbe0ea34e	-0.13929483
249	0xbc7e1ec4	-0.015510265
250	0xbce9ac53	-0.028524553
251	0xbdbe0ea3	-0.092801355
252	0xbdf4ecb7	-0.11959212
253	0xbc8c9d29	-0.017164784
254	0xbdffa89d	-0.12483332
255	0xbd33259b	-0.043737035

conv2.bias f4 [16]
0	0xbe049dec	-0.12950867
1	0x3c24497e	0.0100272875
2	0x3c4d0b3f	0.012514888
3	0xbd92e0fb	-0.07171818
4	0xbda14678	-0.07874769
5	0x3bfb9f2a	0.007678886
6	0xbdff805b	-0.12475654
7	0xbdf2d780	-0.118575096
8	0x3c67640b	0.014122973
9	0x3c9c0283	0.019044166
10	0xbd07a447	-0.03311565
11	0x3d272282	0.040804394
12	0x3d24eb20	0.040263295
13	0xbd2cfe77	-0.042234864
14	0xbd26425d	-0.040590633
15	0xbd135440	-0.03596902

conv3.weight f4 [10, 16, 5, 5]
0	0xbbb9fac2	-0.0056756446
1	0x3ca79817	0.020458264
2	0xbdab5bd8	-0.08367127
3	0xbda548c7	-0.08070522
4	0xbcc575d5	-0.024104038
5	0x3cde7c13	0.027158773
6	0xbd85bf04	-0.06530574
7	0xbda481eb	-0.080325924
8	0xbcd03e1f	-0.025420247
9	0x3a13434f	0.0005617635
10	0x3d885e77	0.06658643
11	0x3d10b030	0.035324275
12	0xbdb16395	-0.08661572
13	0x3db6f26a	0.089329556
14	0x3d4291f3	0.04750247
15	0xbe11615f	-0.141973
16	0xbcd9430a	-0.026521225
17	0xbd86e2ca	-0.06586225
18	0x3d36234f	0.044467267
19	0xbdcf07cc	-0.10108909
20	0x3dc3db9b	0.09563371
21	0xbd368f16	-0.04457005
22	0x3a6e0c37	0.00090807996
23	0xbda5d9fc	-0.08098218
24	0xbdcda218	-0.100406826
25	0xbd3aad33	-0.045575332
26	0xbd71a404	-0.058994308
27	0xbaae4685	-0.0013296163
28	0xbd83a9fb	-0.064289056
29	0xbcac848d	-0.021059299
30	0xbcecf686	-0.028926145
31	0xbd537e35	-0.051634032
32	0xbd56e51e	-0.052464597
33	0xbcbbaa0c	-0.022908233
34	0xbd95a52c	-0.07306895
35	0xbcfec2d8	-0.031098768
36	0xbd99c6f5	-0.07508651
37	0x3c37049d	0.0111705335
38	0xbd183bd5	-0.037166435
39	0xbd0a0786	-0.03369858
40	0xbd506017	-0.05087289
41	0xbd14c7ef	-0.036323484
42	0xbc05fdb2	-0.008178161
43	0xbd6cced1	-0.057814423
44	0xbbf682e9	-0.00752293
45	0xbd8a3f51	-0.06750358
46	0xbd416216	-0.047212683
47	0xbba24239	-0.004951742
48	0xbd0b4bfd	-0.034008015
49	0xbd9da9ac	-0.07698378
50	0xbcd9c52d	-0.026583279
51	0xbc153577	-0.009106985
52	0xbdc13e65	-0.09435729
53	0xbc4a24ac	-0.012337845
54	0xbcc63ce0	-0.02419895
55	0xbd13068a	-0.035894908
56	0xbdbe50b4	-0.09292737
57	0xbd67950e	-0.056538634
58	0xbd36a923	-0.044594895
59	0xbd80a191	-0.06280816
60	0xbc171c48	-0.009223051
61	0xbdab0fcd	-0.08352623
62	0xbd22ad31	-0.03971595
63	0xbcc3731c	-0.0238586
64	0xbd38bbce	-0.04510098
65	0xbcffa86c	-0.03120824
66	0xbd2c3052	-0.04203827
67	0xbd81ac7c	-0.06331727
68	0xbd355aa3	-0.04427589
69	0xbc01f23b	-0.007931287
70	0xbd49d2b9	-0.049273226
71	0xbdc22bf9	-0.09481043
72	0xbc8ad5ab	-0.016947588
73	0xbd855bb1	-0.065116294
74	0xbd4f098b	-0.05054621
75	0xbdc81f7c	-0.0977163
76	0xbd74ce25	-0.059766907
77	0xbabbd9ff	-0.0014331936
78	0xbd6e57c0	-0.058189154
79	0xbd1dc47e	-0.038517468
80	0xbccd3c46	-0.025053155
81	0xbd9a0d34	-0.075220495
82	0xbc0f361f	-0.008740931
83	0xbcd52695	-0.026019374
84	0xbd6ef793	-0.058341574
85	0xbcff5f6f	-0.031173436
86	0xbdb714ad	-0.089394905
87	0xbde347c2	-0.11097671
88	0xbd2afdc5	-0.04174592
89	0xbde52fb7	-0.111907415
90	0xbd82d7b7	-0.063888006
91	0xbc6ce61e	-0.014459161
92	0xba8a7718	-0.0010564057
93	0xbd446813	-0.047950815
94	0xbd5fe063	-0.05465735
95	0xbba9864e	-0.005173481
96	0xbdc11c6c	-0.09429249
97	0xbb0a05be	-0.0021060552
98	0xbd91aeb9	-0.07113404
99	0xbd3fef2d	-0.046858955
100	0xbd5867d7	-0.052833404
101	0xbd9894cc	-0.07450256
102	0xbd154f84	-0.036452785
103	0xbdb15730	-0.08659208
104	0xbd48ae51	-0.048994366
105	0xbd856fe8	-0.06515485
106	0xbd163653	-0.0366729
107	0xbdb87384	-0.09006408
108	0xbdc3ad4f	-0.0955454
109	0xbda29275	-0.07938091
110	0xbcf1185f	-0.029430566
111	0xbda11cce	-0.07866822
112	0xbd32f75c	-0.04369293
113	0xbce5d057	-0.028053446
114	0xbd73bcf5	-0.059506375
115	0xbd3ac57b	-0.04559849
116	0xbdff933d	-0.12479255
117	0xbdb18a2d	-0.08668933
118	0xbc5ef6e9	-0.013608673
119	0xbd90f8a1	-0.07078672
120	0xbddd4bf1	-0.108055
121	0xbe02c10a	-0.12768951
122	0xbe04cda7	-0.12969075
123	0xbd3c9844	-0.04604365
124	0xbdb556d6	-0.08854453
125	0xbdb17b18	-0.086660564
126	0x3bccf112	0.0062543238
127	0xbc848616	-0.016177218
128	0xbc3559c0	-0.011068761
129	0xbd0de846	-0.03464534
130	0xbd49882b	-0.049202126
131	0xbd98931a	-0.074499324
132	0xbdbcbbe1	-0.092155226
133	0xbdb9ad10	-0.09066212
134	0xbdcc2f2f	-0.09969937
135	0xbd210b71	-0.039317552
136	0xbce69394	-0.028146543
137	0x3bd8be34	0.006614471
138	0xbd70f076	-0.05882307
139	0xbdc38669	-0.09547121
140	0xbd8f1603	-0.0698662
141	0x3c1b0c92	0.009463446
142	0x3ad86a28	0.0016511129
143	0xbc97fa9b	-0.018552115
144	0xbd987389	-0.074439116
145	0xbd27a1ce	-0.040925793
146	0xbd8e04a6	-0.0693448
147	0xbc5bc4cb	-0.013413618
148	0xbd762200	-0.06009102
149	0xbd218cfd	-0.039441098
150	0xbd6ed0c6	-0.05830457
151	0xbcc6ae05	-0.0242529
152	0xbd746285	-0.059664268
153	0xbc5f09f9	-0.0136132175
154	0xbd4bd8cd	-0.049767304
155	0xbd3c5a50	-0.045984566
156	0xbd1a20ef	-0.037629064
157	0xbd866248	-0.065617144
158	0xbc39c215	-0.011337777
159	0xbdef71cb	-0.11691626
160	0xbda236b0	-0.07920587
161	0xbda63981	-0.08116437
162	0xbd9bffac	-0.07617125
163	0xbd6c803e	-0.05773949
164	0xbdb2b150	-0.08725226
165	0xbdae14e0	-0.08500075
166	0xbd28c2d8	-0.041201442
167	0xbde21394	-0.110388905
168	0xbd69158c	-0.056905314
169	0xbc7c6ac9	-0.015406319
170	0xbcec0f5e	-0.028815921
171	0xbdead452	-0.11466278
172	0xbd1aa8c9	-0.037758622
173	0xbd070292	-0.032961436
174	0xbd32e41b	-0.04367457
175	0xbcd7a9da	-0.026326109
176	0xbd9a53fc	-0.0753555
177	0xbd897310	-0.067113996
178	0xbcd4d72b	-0.025981506
179	0xbd070325	-0.032961983
180	0xbca7ba54	-0.02047459
181	0xbd6a2e94	-0.057173327
182	0xbd84fec6	-0.06493907
183	0xbdc13518	-0.09433955
184	0xbcba9652	-0.022776756
185	0x3b23c471	0.0024988914
186	0xbdf624b5	-0.1201872
187	0xbd857516	-0.06516473
188	0xbdb42871	-0.08796776
189	0xbd8a9166	-0.06766014
190	0xbd908f87	-0.07058626
191	0xbdb756af	-0.089520805
192	0x3c713705	0.01472259
193	0xbdc3d3e0	-0.09561896
194	0xbdcb2933	-0.099199675
195	0xbdde5ca1	-0.10857511
196	0xbd0ff656	-0.035147034
197	0xbcfa9290	-0.030587465
198	0xbcd15511	-0.025553258
199	0xbceaee1c	-0.028677993
200	0xbd32116f	-0.043473657
201	0xbcdf6813	-0.027271306
202	0xbdb74d06	-0.08950238
203	0xbdc5d500	-0.09659767
204	0xbd0262f5	-0.031832654
205	0xbd2605d5	-0.040532906
206	0xbdcb66c0	-0.099317074
207	0xbdc35897	-0.095383815
208	0xbd9e5767	-0.077315144
209	0xbbfdec55	-0.0077491202
210	0xbd5b9d93	-0.05361707
211	0xbdc94614	-0.098278195
212	0xbdde9894	-0.10868946
213	0xbdb9749f	-0.09055447
214	0xbd86150f	-0.06546985
215	0xbb17b64f	-0.0023149436
216	0xbda72835	-0.08161966
217	0xbd0b01d9	-0.03393731
218	0xbd9ab90b	-0.075548254
219	0xbde71446	-0.11283164
220	0xbdec05d2	-0.11524548
221	0xbdd6e9e3	-0.10493829
222	0xbddd0e1d	-0.107937075
223	0xbcc7ae3f	-0.02437508
224	0xbc0c21fa	-0.0085530225
225	0xbd8904fe	-0.06690405
226	0x3c245047	0.010028905
227	0xbda4878d	-0.08033667
228	0xbd818303	-0.063238166
229	0xbd70a5f1	-0.058752004
230	0xbd450967	-0.04810467
231	0xbda26b6b	-0.079306446
232	0xbc50546d	-0.012715441
233	0xbd02cfef	-0.031936582
234	0xbd96a60a	-0.07355888
235	0xbd696534	-0.05698128
236	0xbdaad685	-0.083416976
237	0xbd44a9f3	-0.04801364
238	0xbcc8c518	-0.024508044
239	0xbcfb54bc	-0.030680053
240	0xbb93665c	-0.004498286
241	0xbd2007a9	-0.039069805
242	0xbd310e1a	-0.04322634
243	0x3a849037	0.001011378
244	0xbda3e629	-0.08002884
245	0xbd6f4f96	-0.05842551
246	0xbd04bac8	-0.03240469
247	0xbd4ea6ec	-0.050452158
248	0xbcadff26	-0.021239828
249	0xbb6d8e5a	-0.0036248178
250	0xbcb40c1c	-0.02197843
251	0xbd7b7037	-0.061386313
252	0xbd3d16fd	-0.0461645
253	0xbd8f9d30	-0.07012403
254	0x3d462558	0.048375458
255	0xbdc034a1	-0.09385038

conv3.bias f4 [10]
0	0xbd6bd4a8	-0.05757585
1	0xbd825565	-0.06363944
2	0xbd52a2de	-0.051424854
3	0xbd50841b	-0.050907236
4	0xbda4cce2	-0.08046891
5	0xbd5eb565	-0.05437221
6	0x3e59ad8d	0.2125761
7	0xbd82ab7f	-0.063803665
8	0x3e5ae2d7	0.21375595
9	0xbd5020e8	-0.05081263

conv4.weight f4 [4, 10, 5, 5]
0	0x3d39706c	0.04527323
1	0xbc33e001	-0.0109787
2	0xbd653834	-0.055961803
3	0xbd92ad48	-0.07161957
4	0xbd1d056b	-0.038335245
5	0xbdbf79f5	-0.09349433
6	0xbd7fcc5a	-0.062450744
7	0xbc9c59bf	-0.019085763
8	0xbc92155e	-0.017832454
9	0xbdb42301	-0.08795739
10	0xbda2859a	-0.07935639
11	0x3caf1c55	0.021375814
12	0x3d80e6d2	0.062940255
13	0xbdef142f	-0.116737716
14	0xbdca0f89	-0.09866244
15	0xbdd02710	-0.101637006
16	0xbc83b7cf	-0.016078858
17	0xbdee7142	-0.11642696
18	0xbbcad023	-0.0061893626
19	0xbd10d41f	-0.035358544
20	0x3a0656ee	0.0005124648
21	0x3deaac8d	0.11458693
22	0x3d340521	0.043950204
23	0xbd910a6d	-0.07082067
24	0xbd78d713	-0.060751986
25	0xbce4ac37	-0.02791415
26	0x3dbeb6e8	0.0931223
27	0xbd8d2d70	-0.06893432
28	0xbd86b2e0	-0.065770864
29	0xbdf2de0d	-0.11858759
30	0xbd8ccb94	-0.06874767
31	0xbb2f62b7	-0.002676172
32	0xbdcd7535	-0.10032121
33	0xbd97c88c	-0.07411298
34	0x3cc9cc25	0.024633477
35	0xbd75013c	-0.05981563
36	0xbc811b7b	-0.015760174
37	0xbd8129b5	-0.06306783
38	0xbd63f63f	-0.05565476
39	0xbdd958e4	-0.10612658
40	0xbd970bc3	-0.0737529
41	0xbdac8260	-0.084233046
42	0xbd0427f4	-0.032264665
43	0x3b04b877	0.0020251551
44	0xbdacc735	-0.08436433
45	0xbd5d35be	-0.05400633
46	0x3b3c1e38	0.0028704535
47	0xbd1e9cd0	-0.038723767
48	0xbb6e25cf	-0.0036338454
49	0xbdb21172	-0.08694734
50	0xbdbbb185	-0.091647185
51	0x3dcfac72	0.10140313
52	0x3dbe7f4a	0.09301622
53	0xbdd58171	-0.104250796
54	0xbd68d73a	-0.05684588
55	0xbb2daaac	-0.0026499433
56	0x3dba61b3	0.09100666
57	0x3ca8b754	0.02059523
58	0xbda51fb3	-0.08062687
59	0x3dd2eed7	0.10299461
60	0xbdbd28a1	-0.09236265
61	0xbbad0c8d	-0.005281037
62	0xbc836f69	-0.016044335
63	0x3d8fbffd	0.07019041
64	0xbd9c72dd	-0.07639096
65	0xbda98911	-0.082780965
66	0xbddca923	-0.10774448
67	0xbd29b1f2	-0.041429467
68	0x3df73101	0.12069894
69	0x3d67d2d0	0.05659753
70	0xbddd0ac2	-0.107930675
71	0xbdbb7f32	-0.0915512
72	0xbdcc136b	-0.09964641
73	0x3ca5d42f	0.020242779
74	0xbddef9ea	-0.10887511
75	0xbd80f064	-0.06295851
76	0x3da797df	0.08183264
77	0xbd2ce54e	-0.04221087
78	0xba207e92	-0.0006122376
79	0xbcdd8893	-0.027042663
80	0xbd931100	-0.07180977
81	0x3af11709	0.0018393706
82	0xbde3c942	-0.11122371
83	0xbdabf727	-0.0839675
84	0xbdc0b21a	-0.0940897
85	0xbdf97a7d	-0.12181566
86	0xbdbca570	-0.09211242
87	0xbd651596	-0.05592879
88	0xbd303789	-0.043021712
89	0xbc97c4de	-0.01852649
90	0xbd8639a3	-0.06553962
91	0xbd4c3f61	-0.04986513
92	0xbdb9d4e6	-0.0907381
93	0xbc401a6b	-0.011725049
94	0xbd9be6e6	-0.076124
95	0xbdd9d9db	-0.10637256
96	0xbb955c47	-0.0045581195
97	0xbdaf41c7	-0.08557468
98	0xbd77f09f	-0.06053221
99	0xbdc647e0	-0.09681678
100	0x3d4455d1	0.047933403
101	0x3d608413	0.054813456
102	0x3d880e21	0.0664332
103	0x3dbf84f1	0.093515284
104	0x3ccc4d3e	0.024939176
105	0x3dd9bf7e	0.10632227
106	0x3dae8cd5	0.08522955
107	0x3da34746	0.07972579
108	0x3d3d338c	0.046191737
109	0x3dfabe15	0.122432865
110	0x3d8e7e5d	0.06957696
111	0x3de81a18	0.11333102
112	0x3d90a756	0.07063167
113	0x3c2bc4fe	0.010483978
114	0x3a64b9ac	0.0008725177
115	0x3dbc57da	0.09196444
116	0x3c34c48a	0.011033187
117	0x3c7b0388	0.015320666
118	0x3d9fee64	0.07809141
119	0x3ddd7cc4	0.10814813
120	0x3d8e8103	0.06958201
121	0x3d06a556	0.03287252
122	0x3d7e11b8	0.062028617
123	0x3d8614bb	0.06546923
124	0x3d38ccb0	0.04511708
125	0xbdf54c2f	-0.119774215
126	0xbc98838d	-0.018617416
127	0xbd647de3	-0.055784117
128	0xbdb41af9	-0.08794207
129	0xbd6401f2	-0.055665918
130	0xbc3c2780	-0.011484027
131	0xbdc9add8	-0.09847611
132	0xbc40fb9f	-0.011778741
133	0xbdb6e0dd	-0.08929608
134	0xbc897ae0	-0.016782224
135	0xbd96ac45	-0.073570766
136	0xbdc2e577	-0.09516423
137	0xbbc67a77	-0.0060570794
138	0xbdc0a9af	-0.094073646
139	0xbd120927	-0.03565326
140	0xbda93142	-0.08261348
141	0xbd060fff	-0.0327301
142	0xbc04c9f6	-0.008104792
143	0xbd83f62a	-0.064434364
144	0xbd5faf4d	-0.05461054
145	0xbd0c110d	-0.03419595
146	0xba20d666	-0.00061354635
147	0xbcfa4584	-0.030550726
148	0xbdf22ba9	-0.11824734
149	0xbb27904a	-0.002556818
150	0xbdf8d75f	-0.12150454
151	0xbd93ced4	-0.07217184
152	0xbd6977ef	-0.056999143
153	0xbdc30979	-0.09523291
154	0x3a0fe49a	0.00054890814
155	0xbd3d4b5a	-0.04621444
156	0xbd8928d6	-0.06697242
157	0xbd0214d6	-0.031758152
158	0xbd5a5e89	-0.053312812
159	0xbb842dd1	-0.004033782
160	0xbcff5b6b	-0.031171521
161	0xbd1f5e18	-0.038908094
162	0xbdf35481	-0.11881352
163	0xbdd1b230	-0.10239065
164	0xbc7dc48c	-0.015488755
165	0xbdbc30f0	-0.091890216
166	0xbdfb5402	-0.122718826
167	0xbd10916c	-0.035294935
168	0xbdea954f	-0.114542596
169	0xbd1eb17d	-0.038743485
170	0xbdc6fb1c	-0.09715864
171	0xbd0a956a	-0.0338339
172	0xbdd7c699	-0.10535926
173	0xbdae4f36	-0.08511202
174	0xbd56a059	-0.052399013
175	0xbbae178d	-0.005312866
176	0xbdd06164	-0.10174826
177	0x3dc84d66	0.097803876
178	0xbddaa078	-0.10675138
179	0xbc8fb10a	-0.017540473
180	0x3d153369	0.03642598
181	0xbdf53c8e	-0.119744405
182	0x3c51179d	0.0127619775
183	0x3dfa86b5	0.122327246
184	0xbde49193	-0.111605786
185	0x3dc4beff	0.09606742
186	0xbda9a2b8	-0.08282989
187	0xbce7b7ce	-0.028285887
188	0xbcf4a7e1	-0.029865207
189	0xbb059ee5	-0.0020388898
190	0xbd7d5d3b	-0.06185649
191	0xbc874190	-0.016510755
192	0xbd840f38	-0.06448215
193	0xbde7eeb5	-0.11324827
194	0xbd13f8c6	-0.03612592
195	0xbca1e14c	-0.01976075
196	0xbd88a6a8	-0.06672412
197	0xbccb4fda	-0.02481835
198	0xbd9b3cb0	-0.075799346
199	0x3dce801a	0.10083027
200	0xbd01999c	-0.031640634
201	0xbd9c22ef	-0.076238506
202	0x3c07944d	0.008275104
203	0xbd58800e	-0.052856497
204	0xbdaf414f	-0.085573785
205	0xbb81d712	-0.003962406
206	0xbaa8469b	-0.0012838425
207	0xbddbdff0	-0.10736072
208	0xbc8c61f2	-0.017136548
209	0xbde7e2ea	-0.11322577
210	0xbdda9d9e	-0.10674594
211	0xbd917daf	-0.0710405
212	0xbdb73ceb	-0.08947166
213	0x3dc1f99e	0.09471439
214	0xbd9e1a48	-0.077198565
215	0xbccd85e9	-0.025088267
216	0x3ae23002	0.0017256739
217	0x3cc6bb75	0.024259308
218	0xbdcdefd4	-0.10055509
219	0x3d9e86f4	0.07740584
220	0xbdd3d52f	-0.10343396
221	0xbcde58e5	-0.027141998
222	0xbdc0b8d8	-0.09410256
223	0xbd7d30db	-0.06181417
224	0xbd56a08f	-0.052399214
225	0xbd3e0725	-0.046393532
226	0xbd7ed72c	-0.062216923
227	0xbbc5aa36	-0.0060322536
228	0xbdf6c875	-0.12049953
229	0xbd22aefb	-0.039717656
230	0xbc3258c3	-0.01088542
231	0xbd9c3fad	-0.07629333
232	0xbda21d96	-0.07915799
233	0xbd801fc9	-0.062560625
234	0xbdc6a33e	-0.09699105
235	0xbd993d8a	-0.07482441
236	0xbcb1632a	-0.02165373
237	0xbd295f08	-0.041350394
238	0xbdba289e	-0.09089778
239	0xbdfa7636	-0.12229578
240	0xbd364a0d	-0.044504214
241	0xbd0faf70	-0.03507942
242	0xbdeb8cb1	-0.11501444
243	0xbbdd033f	-0.0067447717
244	0xbdce871e	-0.10084365
245	0x3cc13659	0.023585485
246	0xbd69aeec	-0.057051584
247	0xbdbdc837	-0.092667036
248	0xbd8c17f1	-0.06840504
249	0xbb23e8eb	-0.0025010656
250	0xbdf2dadb	-0.118581496
251	0xbc89995a	-0.016796757
252	0xbdb514bb	-0.08841845
253	0xbd685238	-0.056719035
254	0x3d946944	0.0724664
255	0xbd04f36d	-0.03245871

conv4.bias f4 [4]
0	0xbce0f4fc	-0.027460568
1	0xbccd0054	-0.02502457
2	0xbe2cf1bd	-0.16889091
3	0xbcddbd26	-0.027067732

fc1.weight f4 [120, 576]
0	0xbd853591	-0.065043576
1	0xbdaf9533	-0.08573379
2	0xbd8dfc0f	-0.06932842
3	0xbdc30377	-0.09522145
4	0xbda5c83d	-0.08094833
5	0xbd6908ac	-0.056893036
6	0xbdba4c22	-0.090965524
7	0xbd68855c	-0.056767806
8	0xbd053a9c	-0.032526597
9	0xbcf5c743	-0.030002242
10	0xbd4a580c	-0.049400374
11	0xbd90e12a	-0.07074197
12	0xbdb26b80	-0.0871191
13	0xbdb06c1b	-0.086143695
14	0xbdc14601	-0.0943718
15	0xbd8fc1a0	-0.07019353
16	0xbdbcf364	-0.092261106
17	0xbdcc4514	-0.09974113
18	0xbd9ad026	-0.075592324
19	0xbcc48cbf	-0.023992894
20	0xbdad9a59	-0.08476705
21	0xbd74b1b8	-0.0597398
22	0xbd83d62a	-0.06437333
23	0xbc98bf7a	-0.01864599
24	0xbcfdc143	-0.030975943
25	0xbceb33b7	-0.028711183
26	0xbd70782b	-0.05870835
27	0xbd3be823	-0.04587568
28	0xbd87a13f	-0.06622552
29	0xbca9d362	-0.020730678
30	0xbd319cc6	-0.0433624
31	0xbd211253	-0.039324116
32	0xbd5655d5	-0.05232795
33	0xbd495502	-0.049153335
34	0xbcdc0cf5	-0.026861647
35	0xbd8fe876	-0.0702676
36	0xbda6075b	-0.08106872
37	0xbd964f7a	-0.07339378
38	0xbd00c11b	-0.03143416
39	0xbd3138f0	-0.04326719
40	0xbd789e28	-0.060697705
41	0xbd0c0633	-0.0341856
42	0xbd247a01	-0.040155414
43	0xbda3ff24	-0.080076486
44	0xbdd02e32	-0.10165061
45	0xbdc9261d	-0.09821723
46	0xbd9ca95e	-0.07649492
47	0xbd08276e	-0.033240728
48	0xbd55047c	-0.05200623
49	0xbd366de5	-0.044538397
50	0xbd14773e	-0.03624653
51	0xbd715ba1	-0.058925275
52	0xbdbabb8a	-0.091178015
53	0xbda81a30	-0.0820812
54	0xbda12acc	-0.07869491
55	0xbd89959c	-0.06717989
56	0xbcf63965	-0.030056665
57	0xbd4ba66d	-0.049719263
58	0xbcb24fe2	-0.021766607
59	0xbdce1d33	-0.10064163
60	0xbd81f242	-0.06345035
61	0xbd985442	-0.07437946
62	0xbdc0bdd3	-0.09411206
63	0xbd724800	-0.059150696
64	0xbd243b2b	-0.04009549
65	0xbd567373	-0.052356195
66	0xbd21e6f1	-0.039526884
67	0xbd5bc36a	-0.05365316
68	0xbcfeeb9a	-0.031118203
69	0xbd1d20db	-0.03836141
70	0xbcb65a5e	-0.022259887
71	0xbcbc4c14	-0.022985496
72	0xbd8f8920	-0.070085764
73	0xbd716267	-0.058931734
74	0xbd524a7f	-0.051340576
75	0xbd9e4caf	-0.0772947
76	0xbd089c59	-0.03335223
77	0xbca69ea7	-0.020339323
78	0xbdc1f43f	-0.09470414
79	0xbdb10ab7	-0.08644622
80	0xbd0a48ac	-0.03376071
81	0xbdc30af4	-0.095235735
82	0xbcb794cc	-0.022409819
83	0xbd2b0a50	-0.04175788
84	0xbdc4073f	-0.095716946
85	0xbd058806	-0.032600425
86	0xbdb49dfd	-0.088191964
87	0xbdba375f	-0.090925924
88	0xbd246ac3	-0.04014088
89	0xbdcc4207	-0.09973531
90	0xbd16bc84	-0.036800876
91	0xbd646bcf	-0.055766877
92	0xbda3edb1	-0.080043204
93	0xbd91835f	-0.07105135
94	0xbd411adb	-0.047144752
95	0xbd6958da	-0.0569695
96	0xbd5673ae	-0.052356414
97	0xbd7394ec	-0.059468195
98	0xbd8eefc9	-0.06979329
99	0xbd41b50c	-0.0472918
100	0xbdb0e779	-0.086379
101	0xbd9907ed	-0.07472215
102	0xbce01fca	-0.027358908
103	0xbd8cc549	-0.06873567
104	0xbda4ed87	-0.08053117
105	0xbdc014a3	-0.09378936
106	0xbd84b875	-0.06480495
107	0xbd24ea72	-0.040262647
108	0xbd0e0931	-0.034676734
109	0xbcfcc02e	-0.030853357
110	0xbc9afd6c	-0.01891967
111	0xbdaad4f7	-0.08341401
112	0xbd8256e3	-0.063642286
113	0xbdae19d0	-0.08501017
114	0xbd3090f4	-0.043106988
115	0xbd99289e	-0.0747845
116	0xbdcede0f	-0.10100948
117	0xbd9606be	-0.07325505
118	0xbcbaaa20	-0.0227862
119	0xbd19f824	-0.03759016
120	0xbccc6bf8	-0.024953827
121	0xbd358ca0	-0.044323564
122	0xbcf3f176	-0.029778223
123	0xbd2ab7a4	-0.04167904
124	0xbdb8ab21	-0.09017015
125	0xbd3de184	-0.046357647
126	0xbd93f0e4	-0.072236806
127	0xbcecc82d	-0.028904045
128	0xbdbca92a	-0.09211953
129	0xbcdc530d	-0.02689507
130	0xbca9c73a	-0.020724881
131	0xbccf36aa	-0.02529462
132	0xbdabc6fc	-0.08387563
133	0xbdb3e4ec	-0.08783898
134	0xbdbaad91	-0.091151364
135	0xbd12f427	-0.035877373
136	0xbd43ac50	-0.047771752
137	0xbdc4b789	-0.09605319
138	0xbd21d2c8	-0.039507657
139	0xbd80e778	-0.06294149
140	0xbcfb1158	-0.030647919
141	0xbd1af631	-0.037832443
142	0xbd6fbf74	-0.058532193
143	0xbd831328	-0.06400138
144	0xbddc1de1	-0.107478864
145	0xbe151ec4	-0.14562517
146	0x3cc7ba28	0.024380758
147	0xbdbc79f9	-0.09202952
148	0xbd6f9b38	-0.058497638
149	0xbde5d6d1	-0.112226136
150	0xbd9b8255	-0.07593218
151	0xbd81210d	-0.06305132
152	0xbdc6e7a4	-0.09712151
153	0xbd67dfc6	-0.05660989
154	0xbd7ebff1	-0.06219477
155	0xbd68067e	-0.056646816
156	0xbd31c2e5	-0.043398757
157	0xbe1999c6	-0.15000066
158	0xbd80570d	-0.062666036
159	0xbde55ad3	-0.11198964
160	0xbe0c9b03	-0.13731007
161	0xbdde504b	-0.108551584
162	0xbe00c588	-0.12575352
163	0xbe02d310	-0.12775826
164	0xbe003f8a	-0.12524238
165	0xbd386230	-0.045015514
166	0xbdcbd036	-0.099518225
167	0xbbf744d7	-0.007546048
168	0xbdece8db	-0.11567851
169	0xbe031ba1	-0.12803508
170	0xbd4241a6	-0.04742589
171	0x3d781a0a	0.060571708
172	0x3c501abb	0.012701686
173	0xbda7ddaf	-0.0819658
174	0xbdab44be	-0.08362721
175	0x3b17f0a9	0.0023184216
176	0xbdd8a9fa	-0.105792955
177	0xbd480e02	-0.048841484
178	0xbdb3947c	-0.087685555
179	0x3c142417	0.009041808
180	0xbcfe4681	-0.031039478
181	0x3d3dfd8b	0.046384376
182	0xbdb555a6	-0.08854227
183	0xbdc85e76	-0.09783642
184	0xbda3daeb	-0.0800074
185	0xbdef4f8e	-0.11685096
186	0xbdc5f0a0	-0.09665036
187	0xbdb92b6f	-0.090414874
188	0xbdba6094	-0.09100452
189	0xbda27bfb	-0.07933804
190	0xbde96622	-0.113964334
191	0xbe16bb91	-0.14719988
192	0xbd8b73c8	-0.06809193
193	0xbdb38c85	-0.08767036
194	0xbd193f95	-0.037414152
195	0xbdce28fb	-0.1006641
196	0xbdafdcda	-0.08587046
197	0xbdd7cac2	-0.1053672
198	0xbd92c1bb	-0.071658574
199	0xbdce654b	-0.10077914
200	0xbd87f3bb	-0.06638285
201	0xbd9c1682	-0.076214805
202	0xbd6e0e83	-0.05811931
203	0xbdc5a80c	-0.09651193
204	0xbd95dbce	-0.07317315
205	0xbd9d7c31	-0.07689703
206	0xbd9866c7	-0.07441478
207	0xbd98d546	-0.07462554
208	0xbd7fa679	-0.06241462
209	0xbdbf1e63	-0.09331968
210	0xbdeb73af	-0.11496674
211	0xbdfca752	-0.12336601
212	0xbdd307ea	-0.10304244
213	0xbd65e199	-0.05612335
214	0xbd61f14e	-0.055161767
215	0xbd566d11	-0.052350108
216	0xbd7125e0	-0.05887401
217	0xbd8bb3cf	-0.06821405
218	0xbd3c4223	-0.04596151
219	0xbd5e39b0	-0.054254234
220	0xbd5ff182	-0.05467368
221	0xbd5bed4e	-0.05369311
222	0xbd54e953	-0.051980328
223	0xbd8d897b	-0.06910988
224	0xbd91ee5c	-0.071255416
225	0xbda759d2	-0.08171429
226	0xbd89636b	-0.067084156
227	0xbdad725d	-0.08469079
228	0xbd16bf2d	-0.036803413
229	0xbdd13372	-0.102148905
230	0xbdd74d59	-0.105128
231	0xbde8fe32	-0.11376609
232	0xbdd8c7bb	-0.105849706
233	0xbd2adc1a	-0.04171381
234	0xbd94316b	-0.07235988
235	0xbdd247da	-0.10267611
236	0xbdc1b8ef	-0.094591014
237	0xbdcbf2f9	-0.09958453
238	0xbd40c13e	-0.04705929
239	0xbde088a6	-0.109635636
240	0xbd340762	-0.043952353
241	0xbd5c983e	-0.053856127
242	0xbd7f7147	-0.06236389
243	0xbd1e2d10	-0.038617194
244	0xbd31aaa0	-0.04337561
245	0xbce7086b	-0.028202256
246	0xbda6aea2	-0.08138777
247	0xbdbbed47	-0.091761164
248	0xbdde9ca2	-0.10869719
249	0xbd9576be	-0.07298039
250	0xbd51b94d	-0.051202107
251	0xbd0da16a	-0.034577765
252	0xbd95710f	-0.07296955
253	0xbd26d2cc	-0.040728375
254	0xbdbee9c8	-0.09321934
255	0xbd82bb82	-0.063834205

fc1.bias f4 [120]
0	0xbd3713a6	-0.044696473
1	0xbd74b329	-0.059741173
2	0xbceb8f13	-0.028754747
3	0xbba9943a	-0.0051751407
4	0xbccac413	-0.024751699
5	0xbdc24f33	-0.09487762
6	0xbd87d1fa	-0.06631847
7	0xbc9c1d0d	-0.019056821
8	0xbc8de6ce	-0.01732197
9	0xbd81a23e	-0.06329773
10	0xbd95b5d1	-0.07310069
11	0xbd78e0ec	-0.060761377
12	0xbdbfd094	-0.09365955
13	0xbcca5333	-0.024697876
14	0xbd560781	-0.05225325
15	0xbc1486fc	-0.009065386
16	0xbc39aaad	-0.011332196
17	0xbce06e0c	-0.027396224
18	0xbd2528b6	-0.040322028
19	0xbdaafb0f	-0.08348667
20	0xbd781b09	-0.060572658
21	0xbd59bd65	-0.053159136
22	0xbd69958d	-0.05702739
23	0xbd96d23d	-0.073643185
24	0xbd26e57e	-0.040746205
25	0xbda42346	-0.080145404
26	0xbd80861e	-0.06275581
27	0xbda0ae2f	-0.07845723
28	0xbdb00975	-0.08595554
29	0xbdc09ee8	-0.09405309
30	0xbd997b54	-0.07494226
31	0xbd337508	-0.04381278
32	0xbd923fae	-0.07141052
33	0xbd5fd1c7	-0.05464342
34	0xbd22d45d	-0.039753307
35	0xbbc4b69f	-0.0060032154
36	0xbe0fb74c	-0.14034766
37	0xbd903995	-0.07042233
38	0xbd8e22db	-0.06940242
39	0xbd461047	-0.048355367
40	0xbd006dd3	-0.031354737
41	0xbd380dce	-0.04493504
42	0xbceb6111	-0.028732808
43	0xbd8e640d	-0.06952677
44	0x3cb73875	0.022365788
45	0xbccb1d84	-0.024794348
46	0xbdee0d16	-0.1162359
47	0xbd02ec57	-0.031963672
48	0xbd515ec1	-0.051115755
49	0xbd72a059	-0.05923495
50	0xbd819c94	-0.06328693
51	0xbd81ccbb	-0.06337877
52	0xbca82b96	-0.020528596
53	0xbd8a2065	-0.0674446
54	0xbd41d0b2	-0.047318168
55	0xbcb1c641	-0.02170098
56	0xbd998410	-0.07495892
57	0xbd355722	-0.04427255
58	0xbd614202	-0.05499459
59	0xbd31e8e0	-0.043434978
60	0xbcdf4c28	-0.027257994
61	0xbdac1a61	-0.08403469
62	0xbd65baea	-0.05608646
63	0xbd011069	-0.03150979
64	0xbd75e730	-0.06003493
65	0xbca1d437	-0.019754512
66	0xbd29dbf4	-0.04146953
67	0xbccecbc3	-0.025243646
68	0xbd222458	-0.03958544
69	0xbdaf34d4	-0.08554998
70	0xbd9b3af6	-0.07579605
71	0xbd5e16ec	-0.05422108
72	0xbd23ac13	-0.039959025
73	0xbc466e62	-0.012111278
74	0xbd998b75	-0.074973024
75	0xbe07f207	-0.1327592
76	0xbd412155	-0.04715093
77	0xbcde5d5b	-0.027144125
78	0xbd93b2e3	-0.07211854
79	0xbcd85a2e	-0.026410189
80	0xbd5ea3e2	-0.05435551
81	0xbc111b6b	-0.008856635
82	0xbdc2e937	-0.095171385
83	0xbd1dc919	-0.03852186
84	0xbd11c5fc	-0.035589203
85	0xbd3c5629	-0.045980606
86	0xbcb0bbfd	-0.021574015
87	0xbd1f44b3	-0.038883876
88	0xbca37706	-0.019954216
89	0xbdb2becf	-0.087278
90	0xbcff7f51	-0.031188639
91	0xbe2810d1	-0.16412665
92	0xbda82044	-0.08209279
93	0xbd9cede2	-0.0766256
94	0xbd03b087	-0.03215077
95	0xbcfe529a	-0.031045247
96	0xbc8e8d99	-0.017401503
97	0xbba0d06f	-0.0049076597
98	0xbc96e8f4	-0.018421628
99	0xbd4dd45d	-0.050251354
100	0xbce96eab	-0.028495153
101	0xbd7fdbe2	-0.062465556
102	0xbd08201f	-0.033233758
103	0xbdac49b1	-0.08412493
104	0xbda52eef	-0.080655925
105	0xbe036872	-0.12832811
106	0xbdabcf60	-0.08389163
107	0xbcf8a315	-0.030351201
108	0xbd29be6d	-0.04144137
109	0xbd443fe5	-0.047912497
110	0xbd699bf6	-0.0570335
111	0xbd915fd2	-0.070983544
112	0xbd827cb4	-0.063714415
113	0xbd75a45a	-0.05997119
114	0xbd80b3ad	-0.062842704
115	0xbd2003ee	-0.039066248
116	0xbe11c169	-0.14233936
117	0xbda46a5e	-0.080281004
118	0xbccb8f63	-0.024848646
119	0xbd20cffc	-0.03926085

fc2.weight f4 [84, 120]
0	0x3cd714b8	0.026254997
1	0x3d83b084	0.06430152
2	0xbd89cd0a	-0.06728561
3	0xbdd266cd	-0.10273514
4	0x3db899f0	0.09013736
5	0xbd3ebae3	-0.046564948
6	0x3da03cbc	0.07824084
7	0x3d64f148	0.055894166
8	0xbcef5e04	-0.029219635
9	0xbba2efe0	-0.004972443
10	0x3d8e03c8	0.06934315
11	0xbdb53750	-0.08848441
12	0xbd83b2ae	-0.06430565
13	0x3c90f024	0.017692633
14	0xbdb2abb0	-0.08724153
15	0xbb6bf8c8	-0.003600644
16	0xbe03e6c9	-0.12881006
17	0xbe070bb2	-0.13188055
18	0x3daf20a4	0.085511476
19	0xbb11bd40	-0.0022238046
20	0xbcc21d50	-0.023695618
21	0xbd2fa28e	-0.042879634
22	0xbd01c646	-0.03168323
23	0xbdbc7f80	-0.09204006
24	0xbd600a9b	-0.054697614
25	0x3db3346c	0.08750233
26	0x3cd6ad1c	0.026205592
27	0x3d224944	0.039620653
28	0x3d0da4a4	0.03458084
29	0xbc866650	-0.016406208
30	0xbdb78c03	-0.08962252
31	0xbd2117f8	-0.0393295
32	0x3c11a228	0.008888759
33	0xbd61d911	-0.05513865
34	0x3db7a6de	0.08967374
35	0x3d4f8bc0	0.050670385
36	0x3dad40c2	0.08459617
37	0x3aade780	0.0013267845
38	0x3d96c591	0.073619016
39	0xbd0c882d	-0.034309555
40	0x3d8e8894	0.06959644
41	0x3c03fd38	0.0080559775
42	0x3dae516e	0.08511625
43	0xbdba2e92	-0.09090914
44	0x3bda896d	0.0066692145
45	0x3c2be4a4	0.010491524
46	0xbd8c329d	-0.06845591
47	0x3d862f1a	0.06551953
48	0x3cae22a9	0.021256762
49	0x3d6ac694	0.057318285
50	0x3c7ac1cf	0.015304997
51	0x3c99075a	0.018680263
52	0x3d089332	0.0333435
53	0x3d27b478	0.040943593
54	0x3b3d0e7a	0.002884774
55	0xbdd769a1	-0.10518194
56	0xbc3eb3e0	-0.011639565
57	0x3d94324b	0.07236155
58	0x3bc08670	0.005875401
59	0xbd302a17	-0.04300889
60	0xbe06b13c	-0.13153547
61	0xbe095ba0	-0.13413858
62	0x3d886c3a	0.066612676
63	0xbc242138	-0.010017686
64	0x3c26e6d8	0.010186873
65	0x3d6d1980	0.057885647
66	0x3d86c6cc	0.06580886
67	0xbdab44b9	-0.08362717
68	0x3bc0e200	0.0058863163
69	0x3d98648a	0.07441051
70	0x3ccaada4	0.024741001
71	0x3cf7525f	0.030190645
72	0xbd88f8de	-0.06688093
73	0xbcc41b98	-0.023938939
74	0x3d89a284	0.067204505
75	0x3cc598de	0.024120744
76	0x3d4c37f8	0.049858063
77	0x3dae8d96	0.08523099
78	0xbaab3a80	-0.0013063699
79	0xbdef1431	-0.11673773
80	0xbdd46798	-0.103713214
81	0xbd266bf3	-0.040630292
82	0xbda6b766	-0.08140449
83	0xbd8b6ba0	-0.06807637
84	0x3d920fc4	0.07131913
85	0xbcd6b78c	-0.026210569
86	0xbd8b9c56	-0.06816928
87	0xbda12642	-0.07868625
88	0x3cd8a37d	0.026445145
89	0x3db0088c	0.0859538
90	0x3bb9a34b	0.005665218
91	0xbc835e6b	-0.016036233
92	0xbd4e272b	-0.050330322
93	0xbd9a89c7	-0.0754581
94	0xbd9220b0	-0.07135141
95	0xbd9a82f5	-0.07544509
96	0xbd6f7fce	-0.058471493
97	0xbd8ce2da	-0.06879206
98	0xbd24ddee	-0.04025071
99	0xbc82facd	-0.015988732
100	0x3da504c8	0.080575526
101	0xbdba1476	-0.09085934
102	0xbc2616d8	-0.010137282
103	0x3d84b2c4	0.06479409
104	0x3d834f94	0.06411663
105	0x3bdbbdf5	0.0067059943
106	0x3d12df02	0.035857208
107	0x3d38e668	0.045141608
108	0x3dbab84c	0.09117183
109	0x3d267794	0.040641382
110	0x3c08ec09	0.008357056
111	0xbdc9b347	-0.098486476
112	0x3d3c68c4	0.04599835
113	0xbc89d9b8	-0.01682745
114	0xbe0a0d14	-0.13481551
115	0x3b9d91f4	0.0048086587
116	0xbe102eec	-0.140804
117	0xbd6f9928	-0.05849567
118	0xbd441ac1	-0.047877077
119	0x3c2c31a8	0.010509886
120	0x3bb8c590	0.0056387857
121	0xbd184bf7	-0.03718182
122	0xbdb24c42	-0.08705951
123	0xbc4dcb70	-0.01256071
124	0xbb72c9e0	-0.0037046596
125	0x3dad03d0	0.08447993
126	0xbd0d7225	-0.034532685
127	0x3c94199c	0.018078618
128	0xbcd471f4	-0.025933243
129	0x3d74f8f0	0.059807718
130	0xbd23dfbc	-0.04000829
131	0x3cd3d16c	0.025856696
132	0xbd76796c	-0.06017439
133	0x3da71190	0.08157647
134	0xbd6e2b78	-0.058146924
135	0xbda12240	-0.07867861
136	0x3c177d88	0.009246238
137	0xbc6e2248	-0.0145345405
138	0xbd63e9e2	-0.05564297
139	0x3d82afa0	0.06381154
140	0xbd504f9a	-0.050857164
141	0x3b3a2460	0.002840303
142	0xbd96fd8a	-0.073725775
143	0xbd55d57b	-0.052205544
144	0xbbb47b20	-0.0055078417
145	0x39848100	0.00025273114
146	0xbcfa0644	-0.030520566
147	0x3d4524f4	0.048130944
148	0xbd703d41	-0.058652166
149	0xbd744f72	-0.059646077
150	0xbd01adc8	-0.03165987
151	0x3d7b5a18	0.061365217
152	0xbc429008	-0.01187516
153	0x3c302cb8	0.010752849
154	0x3d325df4	0.043546632
155	0x3d90acb8	0.070641935
156	0xbd0bfed5	-0.034178574
157	0x3c50f818	0.012754463
158	0x3d9a1402	0.075233474
159	0xbd9fbf5e	-0.07800172
160	0x3d392114	0.04519756
161	0xbba66f10	-0.0050791577
162	0x3d83f31c	0.06442854
163	0xbda18eec	-0.07888588
164	0x3d786260	0.060640693
165	0x3cf1b5a0	0.02950555
166	0xbd462bde	-0.04838168
167	0xbdac2c05	-0.084068336
168	0x3baf60f0	0.005352132
169	0xbd8c91eb	-0.06863769
170	0x3d027282	0.031847484
171	0x3cf33bf8	0.029691681
172	0x3d331fd0	0.04373151
173	0x3d6309fc	0.055429444
174	0xbd847d1d	-0.06469176
175	0xbc0b5d80	-0.008506179
176	0xbda3b7f2	-0.07994069
177	0xbce4b200	-0.027916908
178	0x3daafa50	0.083485246
179	0x3c9422cc	0.018082999
180	0xba2cac00	-0.00065869093
181	0x3d6fa1ec	0.05850403
182	0x3d0c18ec	0.034203455
183	0x3cd97744	0.026546128
184	0x3d1c7adc	0.038203105
185	0xbd190f20	-0.03736794
186	0x3c87bc18	0.016569182
187	0x3d6be5d4	0.057592228
188	0x3ba06a10	0.004895456
189	0x3daa0408	0.0830155
190	0x3d6ae210	0.057344496
191	0xbd56d71d	-0.05245124
192	0x3d653800	0.05596161
193	0xbcf8fb9e	-0.030393418
194	0x3d2dcd84	0.042432323
195	0x3c9566ac	0.018237434
196	0x3c8c1f7c	0.017104857
197	0x3db26520	0.08710694
198	0x3cb9e134	0.022690393
199	0xbc0f0548	-0.0087292865
200	0x3d960f68	0.07327157
201	0xbd1e9318	-0.0387145
202	0x3c765188	0.015034087
203	0xbc4e98f8	-0.012609713
204	0x3bf9cf30	0.0076235756
205	0x3dae65ac	0.08515486
206	0x3d6ff060	0.05857885
207	0xbd8e0c14	-0.069358975
208	0x3d63fc2c	0.05566041
209	0xbd00a111	-0.031403605
210	0xbd0730a3	-0.033005368
211	0x3d83789e	0.0641949
212	0xbd070884	-0.032967106
213	0xbcb53a20	-0.022122443
214	0x3bed0570	0.007233314
215	0xbcf058b6	-0.029339176
216	0xb92ffa00	-0.00016782433
217	0x3c6ba9f0	0.014383778
218	0xbd9a58fe	-0.07536505
219	0x3d646970	0.055764616
220	0xbba5c5a0	-0.005058959
221	0x3d91880e	0.071060285
222	0xbd88fb76	-0.06688587
223	0x3db136c6	0.08653025
224	0x3d9c6e2e	0.076382026
225	0x3daee60c	0.08539972
226	0x3c388410	0.011261955
227	0x3cad1b4c	0.02113118
228	0xbd8e18a5	-0.06938294
229	0xbda90cb3	-0.08254375
230	0xbc92f8fc	-0.01794099
231	0x3d7a4644	0.061102167
232	0x3d0f45e4	0.034978762
233	0x3bd127d0	0.00638292
234	0xbd9e0cf0	-0.077173114
235	0xbca85a3c	-0.02055084
236	0xbdb13191	-0.08652032
237	0xbd1da96c	-0.03849165
238	0x3ce12d04	0.027487285
239	0x3cf90984	0.030400045
240	0x3ae6cda3	0.0017608892
241	0x3c87403e	0.016510125
242	0x3c49f34f	0.012326076
243	0x3db0bec1	0.086301334
244	0xbe22ebf0	-0.15910316
245	0xbc719982	-0.014746072
246	0x3cfb82a5	0.030701945
247	0xbcd70c53	-0.026250994
248	0x3d9ceba6	0.07662134
249	0xbac66b19	-0.0015138119
250	0xbe0b6be5	-0.13615377
251	0x3d0de835	0.034645278
252	0x3d7e7b9d	0.062129606
253	0xbe1bc7c2	-0.1521292
254	0x3d1f33bb	0.038867693
255	0x3e23da99	0.16001357

fc2.bias f4 [84]
0	0xbdfe4312	-0.124151364
1	0xbd417a32	-0.047235675
2	0x3d3b298a	0.04569391
3	0x3d99b65b	0.07505485
4	0xbd35c2c4	-0.044375196
5	0x3d7f7ff8	0.0623779
6	0x3d2337f2	0.039848275
7	0xbc7ac0fa	-0.015304798
8	0x3e346ad9	0.17618884
9	0x3a136d36	0.00056238787
10	0xbc6f2638	-0.014596514
11	0xbd88018d	-0.06640921
12	0x3e54973a	0.20760813
13	0xbd810520	-0.06299806
14	0xbd8ffa0b	-0.07030114
15	0xbdab4033	-0.083618544
16	0xbd4e8ecd	-0.050429154
17	0x3e417853	0.18893556
18	0xbcb5e496	-0.022203725
19	0xbc27e35a	-0.010247076
20	0x3da5ccbf	0.08095693
21	0xbbf75814	-0.0075483415
22	0xbd3f96f3	-0.046774816
23	0xbcc9509d	-0.024574572
24	0xbc23288c	-0.009958398
25	0xbd7826c4	-0.060583845
26	0xbd529a73	-0.051416826
27	0xbe67eebd	-0.22649665
28	0x3e2fee12	0.1718066
29	0x3dc29c8b	0.095025145
30	0xbdc74993	-0.0973083
31	0x3e11ca3d	0.14237304
32	0xbd46af0d	-0.048506785
33	0xbd81ae69	-0.06332094
34	0xbcbb7368	-0.022882178
35	0xbd9befa2	-0.07614066
36	0xbe0c6acf	-0.13712619
37	0xbd6e0608	-0.05811122
38	0xbd76e422	-0.06027616
39	0x3d9db2c8	0.077001154
40	0xbd6c4122	-0.057679303
41	0xbcca0fb7	-0.024665697
42	0xbd81bbea	-0.0633467
43	0xbdcbc2a9	-0.09949238
44	0xbdada454	-0.08478609
45	0xbd3b67e7	-0.045753386
46	0x3d9b8e19	0.07595462
47	0xbd80ca6f	-0.06288611
48	0x3da8c0b2	0.08239879
49	0xbdc325d5	-0.095287
50	0xbd1bb7e4	-0.03801717
51	0xbdc9d2ed	-0.09854684
52	0x3dcaf814	0.099105984
53	0xbd90018f	-0.07031547
54	0xbcc13e0b	-0.023589155
55	0xbd172cbe	-0.036907904
56	0x3d36f630	0.044668376
57	0xbbb52a73	-0.005528742
58	0xbd74215c	-0.059602126
59	0x3dc2bf87	0.09509187
60	0xbdcf7c83	-0.101311706
61	0x3d0326bc	0.03201936
62	0xbd27ffb0	-0.041015327
63	0x3e0bcdb9	0.13652696
64	0xbcbd7a12	-0.023129497
65	0xbcd9152a	-0.02649935
66	0xbcae78e8	-0.021297887
67	0xbde02821	-0.10945154
68	0xbcb2e888	-0.021839395
69	0xbd978fe9	-0.074004956
70	0x3c9123fe	0.017717358
71	0xbd849567	-0.06473809
72	0xbd03c033	-0.032165717
73	0xbcc386b4	-0.023867942
74	0x3dddced2	0.108304635
75	0xbc069fc7	-0.008216805
76	0xbe03d9c7	-0.12876044
77	0xbc960f16	-0.01831774
78	0xbdc0d28b	-0.09415158
79	0xbdd4a6cc	-0.103833765
80	0xbd1d90d5	-0.0384682
81	0xbd2e46db	-0.04254804
82	0x3d6507cb	0.055915635
83	0xbce6a551	-0.028155
