mlops_project/outputs/2022-05-04/13-32-50/models/baseline.pth (torch, 50299 bytes, 14 tensors)

conv1.weight f4 [4, 3, 5, 5]
-0.34549946 -0.31180182 -0.29994288 -0.28844488 -0.5263128 -0.27432168 -0.34942767 -0.30544338
-0.33493835 -0.34952307 -0.44167584 -0.24992801 -0.28149694 -0.29612708 -0.38740766 -0.4369864
-0.390633 -0.11344092 -0.28311762 -0.2536479 -0.34427404 -0.31539416 -0.19435294 -0.16970922
-0.32246828 -0.2302333 -0.34296998 -0.19833837 -0.23208241 -0.5221624 -0.20674443 -0.17737181
-0.1689493 -0.1987175 -0.278225 -0.34786642 -0.3391667 -0.2044177 -0.28064945 -0.2954953
-0.37118357 -0.30362654 -0.1818819 -0.10580921 -0.277059 -0.38834867 -0.31209445 -0.21524936
-0.16312452 -0.2057649 -0.162844 -0.19779254 -0.18368144 -0.20060423 -0.33865565 -0.35197163
-0.24262884 -0.05648715 -0.16249444 -0.38656485 -0.2468707 -0.085213944 -0.21792036 -0.20275359
-0.26371157 -0.2772747 -0.19704433 -0.100328274 -0.23531139 -0.1414245 -0.25452906 -0.18093173
-0.26309922 -0.3052912 -0.18445052 0.10881381 0.1016374 -0.078038 0.065527745 0.025310075
0.18489076 0.053409074 0.02824754 0.061160028 -0.03925541 0.07323605 -0.009508606 0.093015656
0.124222934 0.10065503 0.05368605 0.19499385 0.08499219 0.123624206 0.0078604035 0.1986297
0.24834622 0.15203856 0.21232077 0.0753625 0.23919594 0.025836414 0.10221587 0.054423664
0.06522749 0.10072803 0.0687894 0.17010601 0.14350502 0.11854614 0.18262738 -0.0031194035
0.099061795 0.06576717 0.100261874 0.12753536 -0.00052930595 0.081021056 0.12279518 0.21158598
0.109936945 0.16575427 0.22973678 0.086398356 0.25071698 0.03636387 0.11071653 0.085970365
0.09841589 0.1339812 0.029542582 0.046296593 0.020747561 -0.044359684 0.034582373 -0.027199205
0.058682837 0.026860075 0.06137727 0.02942066 0.062145256 0.0027189334 0.07735755 0.16518885
0.08783285 0.03692407 0.014848578 0.086980954 0.0033206113 0.0025119067 0.022256913 -0.01161563
-0.060168304 0.041104846 0.053289723 0.18698703 -0.0013414834 -0.05555143 -0.023936568 0.07822657
0.15359291 0.15982302 -0.06947268 0.14413927 0.16753882 0.24908267 0.13061303 0.16234882
0.13010317 0.19767846 0.17636661 0.07081648 0.10015969 0.108354785 0.06884146 0.040909585
-0.025827121 0.028908769 0.18544352 0.114590645 0.092608266 0.0903122 0.13934907 0.024107724
0.025647195 0.093623035 0.008928944 0.15691273 0.19383371 0.021093486 0.04623857 -0.010237027
0.15441257 0.19907133 0.06864547 0.10801264 0.1915138 0.068135135 0.24520907 0.21420012
0.018776547 0.04531141 0.0644733 0.0039001661 -0.033745777 0.047164004 0.033846926 0.0029487296
0.05695188 0.14680019 0.032717455 0.008640716 0.089898445 -0.009460494 0.09830895 0.050092887
0.10204914 -0.005555868 0.0656504 0.11799764 1.2446482e-06 0.003070777 0.1257461 0.0588473
0.17874901 -0.17653556 -0.1407121 -0.12492513 0.12473289 0.064945236 -0.15819041 -0.0108352555
-0.091347046 0.13118063 0.14011769 -0.21922757 0.07733295 0.09239304 0.06538509 0.2324569
-0.12330891 0.016138285 -0.022257615 0.15192509 0.20655324 -0.11865766 -0.13688722 -0.06515547
0.15322669 0.13131417 0.12802926 -0.001023771 0.21919225 0.093202926 0.14219679 0.0026938405
00000000: 4ee5 b0be 7da4 9fbe 1d92 99be 0caf 93be
00000010: 70bc 06bf e473 8cbe 2fe8 b2be 1363 9cbe
00000020: 0a7d abbe b0f4 b2be 5623 e2be 21ed 7fbe
00000030: 5e20 90be f89d 97be 4c5a c6be aebc dfbe
00000040: 0c01 c8be b753 e8bd cbf4 90be 23de 81be
00000050: b044 b0be 587b a1be 7504 47be 41c8 2dbe
00000060: 901a a5be 47c2 6bbe c399 afbe 3719 4bbe
00000070: 03a7 6dbe 6fac 05bf d0b4 53be f5a0 35be
00000080: 0c01 2dbe 9a7c 4bbe 8273 8ebe 8c1b b2be
00000090: 42a7 adbe e052 51be 49b1 8fbe 294b 97be
000000a0: c60b bebe f074 9bbe 403f 3abe 80b2 d8bd
000000b0: adda 8dbe a3d5 c6be d8ca 9fbe 546a 5cbe
000000c0: 1d0a 27be 09b4 52be 94c0 26be 218a 4abe
000000d0: fd16 3cbe 326b 4dbe 4664 adbe a035 b4be
000000e0: b273 78be 125f 67bd f164 26be d4eb c5be
000000f0: accb 7cbe a684 aebd 8426 5fbe a39e 4fbe
00000100: 3405 87be f3f6 8dbe fdc5 49be e978 cdbd
00000110: 78f5 70be 96d1 10be a251 82be 2b46 39be
00000120: f1b4 86be 214f 9cbe 99e0 3cbe c6d9 de3d
00000130: 4527 d03d 63d2 9fbd 6933 863d 1357 cf3c
00000140: 0154 3d3e 79c3 5a3d 6367 e73c f082 7a3d
00000150: 48ca 20bd c8fc 953d fcc9 1bbc fe7e be3d
00000160: 9868 fe3d 3924 ce3d e7e5 5b3d 78ac 473e
00000170: 6310 ae3d b02e fd3d ecc8 003c 9665 4b3e
00000180: 794e 7e3e ffaf 1b3e 9e6a 593e a857 9a3d
00000190: c8ef 743e e3a6 d33c 8e56 d13d 59eb 5e3d
000001a0: fe95 853d 7f4a ce3d 75e1 8c3d 4530 2e3e
000001b0: fbf2 123e 52c8 f23d ac02 3b3e e86e 4cbb
000001c0: e9e0 ca3d f0b0 863d 1956 cd3d a198 023e
000001d0: 1fc1 0aba 5eee a53d 0a7c fb3d ffa9 583e
000001e0: 9f26 e13d 7dbb 293e 1e40 6b3e 9ff1 b03d
000001f0: fa5d 803e 48f2 143d 59bf e23d 3b11 b03d
00000200: 458e c93d 5e32 093e 4903 f23c 7fa1 3d3d
00000210: caf6 a93c 80b2 35bd 3fa6 0d3d ded0 debc
00000220: 6a5d 703d a909 dc3c bb66 7b3d 9903 f13c
00000230: 068c 7e3d 2230 323b a36d 9e3d 4427 293e
00000240: b6e1 b33d b23d 173d 7347 733c 1223 b23d
00000250: 9d9e 593b cd9e 243b 2154 b63c 7c4f 3ebc
00000260: 0a73 76bd 8e5d 283d 5346 5a3d 8779 3f3e
00000270: b7d4 afba e589 63bd 9f16 c4bc 4035 a03d
00000280: 7647 1d3e a5a8 233e b147 8ebd 3f99 133e
00000290: 4c8f 2b3e 870f 7f3e 6cbf 053e c53e 263e
000002a0: c439 053e 396c 4a3e 7399 343e 3b08 913d
000002b0: 8620 cd3d 1de9 dd3d c0fc 8c3d cf90 273d
000002c0: 6693 d3bc 15d2 ec3c e8e4 3d3e 80ae ea3d
000002d0: 67a9 bd3d 9af5 b83d 86b1 0e3e 907d c53c
000002e0: 111a d23c 6fbd bf3d b54a 123c bbad 203e
000002f0: 587c 463e 3fcc ac3c a864 3d3d 34b9 27bc
00000300: 541e 1e3e 5bd9 4b3e ff95 8c3d bb35 dd3d
00000310: 321c 443e 6f8a 8b3d 1618 7b3e 4757 5b3e
00000320: 46d1 993c 7598 393d 940a 843d ee99 7f3b
00000330: 0339 0abd 0b2f 413d 13a3 0a3d 793f 413b
00000340: 6046 693d ca52 163e bd02 063d ca91 0d3c
00000350: ad1c b83d 3000 1bbc 3456 c93d 332e 4d3d
00000360: 24ff d03d 000e b6bb b873 863d bfa8 f13d
00000370: c90d a735 173f 493b 96c3 003e de09 713d
00000380: fb09 373e bdc5 34be d516 10be bfd8 ffbd
00000390: f573 ff3d 0202 853d abfc 21be 5b86 31bc
000003a0: 2914 bbbd 3754 063e 037b 0f3e 317d 60be
000003b0: bd60 9e3d 9038 bd3d 9ee8 853d 2e09 6e3e
000003c0: 6289 fcbd 7034 843c 9a55 b6bc 4092 1b3e
000003d0: b182 533e ca02 f3bd 2a2c 0cbe 3b70 85bd
000003e0: 75e7 1c3e 3977 063e 1a1a 033e 0e30 86ba
000003f0: ef73 603e 2de1 be3d 099c 113e 258b 303b

conv1.bias f4 [4]
-6.002145e-05 -0.26507238 -0.20987111 -0.25157762
00000000: 8bbf 7bb8 91b7 87be 74e8 56be c8ce 80be

conv2.weight f4 [6, 4, 5, 5]
-0.08470187 -0.0076918025 -0.052397054 -0.13209306 -0.09995563 -0.014765545 -0.053478476 -0.038653005
-0.11907154 0.042315535 -0.11496872 -0.043429278 -0.10398734 -0.10226603 -0.010367034 -0.10334834
-0.12502484 -0.10859357 0.017636862 -0.00411281 -0.021720737 -0.14477031 0.0033796148 -0.037204646
-0.12951602 -0.022010455 -0.0062815403 -0.07911683 -0.06704332 0.056734554 -0.033115577 -0.026269924
-0.08933873 -0.084831916 0.067690946 0.012726504 -0.0405117 0.03517641 -0.07316814 -0.111190245
-0.12205731 0.015425675 -0.06475646 0.036215063 0.061627608 0.010642881 0.061687585 -0.048498623
0.062265564 -0.07193038 -0.045419708 0.032963846 -0.08455246 0.041912924 -0.009871289 -0.034372076
0.05221393 0.04068356 -0.09651392 -0.044556994 -0.019127006 0.047354195 0.022414403 0.025519209
0.005753145 -0.118500076 0.030673975 -0.06070124 0.025625482 0.029874302 -0.11230185 -0.047751866
-0.020143349 -0.027680404 -0.14802374 -0.03232713 0.015357041 0.022381598 0.014550634 -0.018420225
-0.13207577 0.028730309 -0.11477028 -0.09483123 -0.03397008 -0.0045514177 0.019279266 -0.048595298
-0.086256996 -0.04295843 -0.0047724214 -0.09778034 -0.14259748 -0.007694825 -0.101343974 -0.094922595
0.03938833 -0.10059161 -0.118897445 0.038197402 0.07802753 0.14420639 0.24352469 0.12148176
0.22576214 0.2054258 0.23554899 0.1803069 0.13418809 0.22390236 0.07131698 0.103996255
0.11446898 0.2516656 0.18515532 0.22451657 0.23099816 0.17975047 0.26814795 0.10513369
0.07973446 0.098810874 0.24493772 0.28292832 0.1616167 -0.08029743 -0.25018942 -0.22544153
-0.20225964 -0.12599206 -0.17427813 -0.12771755 -0.1289613 -0.10221458 -0.0045735575 -0.0769396
0.025518378 -0.0296024 -0.14114876 -0.08834948 0.07267542 -0.1968417 -0.09479864 -0.13051528
-0.1748979 0.07786086 -0.12387774 -0.15481614 0.03252744 -0.12723655 -0.18725684 -0.21558192
-0.26269484 -0.20601752 -0.31072664 -0.026958616 -0.20215888 -0.25791174 -0.18457218 -0.2538317
0.052133564 -0.22772741 -0.14288054 0.017189583 -0.16902421 0.11083018 -0.24053124 -0.18539949
-0.08837056 -0.15455063 -0.079514906 -0.2564979 -0.16176446 -0.08426164 -0.17163076 0.20849188
0.075439565 -0.082358316 -0.10086586 -0.053686123 -0.00044924102 -0.11442983 -0.08583268 -0.0004826202
-0.07661996 0.050124552 -0.018314611 -0.08995561 -0.089075685 -0.11119535 0.04202446 -0.079383686
-0.14809065 -0.11809069 -0.12006041 0.019964302 -0.14762415 -0.19450349 -0.12828246 -0.059064116
-0.13003139 -0.14639825 -0.14841685 -0.019885559 0.0418518 0.057316866 -0.023932343 -0.08610941
-0.049209636 -0.12021923 -0.011759546 -0.09109466 -0.0723414 -0.011437464 -0.08587697 -0.12481055
-0.070393614 -0.094614305 -0.10068378 -0.050683957 -0.13464645 0.009356018 -0.060991958 -0.114429735
0.045881927 -0.08032306 -0.047207624 -0.023523994 0.00053471955 -0.12956147 -0.098483175 -0.15985098
-0.0083374735 -0.06773273 -0.113268554 -0.07181134 0.0038474815 -0.051708575 -0.04042835 0.006596049
-0.090342574 -0.091260254 -0.06581401 -0.18036766 -0.05006537 -0.0929352 -0.09549374 -0.08520481
-0.0004620447 -0.056974765 -0.10532229 -0.00589121 -0.03479771 -0.05245733 -0.05240716 -0.026807984
00000000: 2d78 adbd 840b fcbb 4b9e 56bd 6743 07be
00000010: 8ab5 ccbd 2feb 71bc 3f0c 5bbd 9d52 1ebd
00000020: c8db f3bd 0e53 2d3d b874 ebbd e6e2 31bd
00000030: 51f7 d4bd da70 d1bd 7eda 29bc 4ba8 d3bd
00000040: 8306 00be 4e66 debd 2e7b 903c c0c4 86bb
00000050: b0ef b1bc ab3e 14be 877c 5d3b e663 18bd
00000060: d99f 04be 454f b4bc 61d5 cdbb 0108 a2bd
00000070: 024e 89bd 7e62 683d 33a4 07bd 0634 d7bc
00000080: 39f7 b6bd 5bbc adbd 8da1 8a3d d482 503c
00000090: 99ef 25bd 2415 103d 2ed9 95bd b6b7 e3bd
000000a0: 2ff9 f9bd f8bb 7c3c 099f 84bd 3f56 143d
000000b0: 3b6d 7c3d 7a5f 2e3c 1fac 7c3d 7ea6 46bd
000000c0: 2d0a 7f3d 3c50 93bd 040a 3abd 1905 073d
000000d0: d729 adbd e3ac 2b3d 30bb 21bc bcc9 0cbd
000000e0: 46de 553d cea3 263d 17a9 c5bd 6581 36bd
000000f0: 3db0 9cbc 79f6 413d 699e b73c a90d d13c
00000100: e184 bc3b 2bb0 f2bd fd47 fb3c dda1 78bd
00000110: 88ec d13c f4ba f43c 83fe e5bd 7697 43bd
00000120: aa03 a5bc 04c2 e2bc 8993 17be 7469 04bd
00000130: 199c 7b3c 9d59 b73c c865 6e3c 03e6 96bc
00000140: df3e 07be d35b eb3c ae0c ebbd e036 c2bd
00000150: 3624 0bbd 0f24 95bb 8def 9d3c dd0b 47bd
00000160: 82a7 b0bd 2ef5 2fbd f961 9cbb 0f41 c8bd
00000170: 1305 12be df24 fcbb 6e8d cfbd c766 c2bd
00000180: a855 213d f902 cebd 8180 f3bd e174 1c3d
00000190: e6cc 9f3d d7aa 133e 895e 793e 6ecb f83d
000001a0: 312e 673e 245b 523e c133 713e 5fa2 383e
000001b0: 9a68 093e a946 653e a30e 923d fdfb d43d
000001c0: b66e ea3d 50da 803e 5b99 3d3e ace7 653e
000001d0: c88a 6c3e 8210 383e b04a 893e 5550 d73d
000001e0: d24b a33d 5b5d ca3d f4d0 7a3e fbdb 903e
000001f0: d97e 253e fb72 a4bd d418 80be 25da 66be
00000200: 271d 4fbe 1004 01be f775 32be 64c8 02be
00000210: 6e0e 04be e155 d1bd c8dd 95bb 8292 9dbd
00000220: eb0b d13c bb80 f2bc 4d89 10be 92f0 b4bd
00000230: dad6 943d df90 49be ca25 c2bd cca5 05be
00000240: 6f18 33be 8475 9f3d 9db3 fdbd 1f88 1ebe
00000250: 7e3b 053d 4c4a 02be 42c0 3fbe 82c1 5cbe
00000260: f07f 86be 42f6 52be 9017 9fbe 51d8 dcbc
00000270: bd02 4fbe 020d 84be 7d00 3dbe 3bf6 81be
00000280: 018a 553d 6031 69be 474f 12be 2bd1 8c3c
00000290: af14 2dbe effa e23d d24d 76be 5dd9 3dbe
000002a0: a0fb b4bd 8542 1ebe b6d8 a2bd b153 83be
000002b0: 95a5 25be 5e91 acbd f9bf 2fbe e57e 553e
000002c0: 0f80 9a3d 7aab a8bd c392 cebd fbe5 5bbd
000002d0: 1c88 ebb9 305a eabd 0bc9 afbd 3008 fdb9
000002e0: edea 9cbd 674f 4d3d 8608 96bc a63a b8bd
000002f0: 506d b6bd 63ba e3bd d721 2c3d ea93 a2bd
00000300: 13a5 17be 88d9 f1bd 3be2 f5bd 2d8c a33c
00000310: c92a 17be ec2b 47be 7a5c 03be 37ed 71bd
00000320: f326 05be 6ce9 15be 96fa 17be 0ae7 a2bc
00000330: cb6c 2b3d 17c5 6a3d c30d c4bc 215a b0bd
00000340: 0b90 49bd 8035 f6bd 1cab 40bc d68f babd
00000350: ba27 94bd 3364 3bbc 44e0 afbd ac9c ffbd
00000360: 872a 90bd 25c5 c1bd 4c33 cebd fb99 4fbd
00000370: c2e0 09be fc49 193c b4d2 79bd 235a eabd
00000380: b0ee 3b3d 6b80 a4bd c85c 41bd 64b5 c0bc
00000390: 6c2c 0c3a c3ab 04be 8cb1 c9bd faaf 23be
000003a0: e699 08bc 75b7 8abd 58f9 e7bd d311 93bd
000003b0: 0726 7c3b 5fcc 53bd 3398 25bd ab23 d83b
000003c0: 8705 b9bd a8e6 babd 7fc9 86bd 4db2 38be
000003d0: 5811 4dbd cf54 bebd 3992 c3bd dc7f aebd
000003e0: 973e f2b9 5f5e 69bd 36b3 d7bd 0d0b c1bb
000003f0: 0b88 0ebd 7fdd 56bd e4a8 56bd 6b9c dbbc

conv2.bias f4 [6]
-0.15136847 -0.019789226 -0.11513902 -0.31121168 -0.12572467 -0.054049104
00000000: 5600 1bbe 041d a2bc 02ce ebbd 2357 9fbe
00000010: f8bd 00be 9862 5dbd

conv3.weight f4 [8, 6, 5, 5]
0.009451866 -0.10702346 -0.075504035 -0.095095046 -0.08478625 0.004148488 -0.016675353 0.04455863
-0.002807479 -0.09023533 -0.03233817 -0.087550096 -0.13162573 -0.10390566 0.044349466 -0.0942261
0.007555325 -0.08957486 0.038367327 -0.08085554 -0.010658352 -0.13866888 -0.0930448 -0.08101081
-0.061496034 -0.009214291 -0.03797808 -0.022995844 0.06316435 -0.10174823 -0.05912079 0.04031939
-0.021164447 -0.0054061073 0.0049557197 0.058637828 -0.08695789 0.03413426 0.056201637 -0.038995646
-0.05700068 -0.038053278 -0.053979125 -0.091601714 -0.087557405 0.033762127 0.0063964864 0.058260355
-0.09455755 -0.105014555 0.15817423 0.11757246 -0.038794104 0.060953725 0.058567293 0.043666042
0.106290825 0.013577895 0.033333816 0.046797324 0.05725683 0.034444384 0.07199269 0.15293151
0.04176792 0.0938926 0.09526584 0.027939105 0.076412655 0.024802446 0.105299324 0.15270333
0.16919096 0.052992072 -0.01871936 -0.038438696 0.006003134 -0.028218862 -0.17220062 -0.09994999
-0.122227296 -0.030699989 0.03346781 -0.08947284 -0.16379224 -0.032890573 -0.0713745 -0.00325984
-0.028946428 -0.08795115 -0.051223848 -0.07930685 -0.05690654 -0.12979406 -0.041747406 -0.05454445
-0.043224897 -0.038184598 -0.087382756 -0.22807316 -0.13080579 0.043190576 -0.078997485 0.011220486
0.0037012491 -0.12724997 0.114176884 0.033724826 0.059926778 0.13187492 0.008370989 0.027655598
-0.06591755 0.04817254 -0.03626614 -0.132292 -0.021793304 -0.009334169 0.1814637 -0.011675966
-0.07608889 0.14121412 0.11553696 0.10809668 0.09259438 0.029314855 0.007142868 -3.932257e-05
-0.06786105 -0.02657891 0.050861605 -0.07049161 0.03579879 0.004895846 -0.015071147 -0.0032855703
-0.041322395 0.04569979 -0.033029657 0.05182949 0.047529303 -0.056685876 -0.009063455 -0.0016375651
0.040758867 -0.00040992873 -0.04943582 -0.04785256 0.042118594 -0.09116506 0.026575359 -0.13279231
-0.044991698 -0.004032966 0.019523187 -0.06260385 -0.12601385 -0.09644456 -0.094876885 -0.14945906
0.04060315 -0.05286845 0.026751738 -0.060012892 -0.13839865 -0.08929787 -0.14031787 -0.014169482
-0.044751577 -0.12193777 -0.094856106 -0.0060357186 -0.101334505 -0.1143387 -0.072358854 -0.09176367
-0.01840493 0.04585983 -0.07651581 0.018257104 -0.10012053 -0.06361735 0.02316225 0.0046650534
0.0005061193 -0.03928519 0.043539554 -0.08517746 0.0074945274 -0.090665296 -0.05113626 0.0058459775
-0.102122314 -0.011193153 0.011020685 -0.074816115 0.021247916 0.0403346 -0.067278825 0.01881842
0.0084925685 0.026154548 0.14259934 -0.0102209905 -0.022203786 -0.009988993 -0.027680073 -0.011755706
-0.035049345 -0.017680444 -0.019744735 0.007612714 -0.048322875 -0.06662894 -0.04835717 -0.07632386
-0.0027865 -0.080663316 -0.1086834 -0.05781829 -0.0932035 0.0028398368 0.0119561255 -0.13575155
-0.01672166 -0.06862077 0.013131763 -0.10312994 0.06154563 -0.09302678 -0.12083244 -0.0029809575
-0.023091186 0.020392343 0.02666575 -0.09193315 -0.094158806 -0.04089703 0.0528014 -0.077474885
-0.086783305 -0.10148759 0.045684904 -0.1110323 0.06836954 -0.001032182 -0.10328158 -0.041557066
0.0042030867 -0.09755461 -0.042548794 0.013683061 0.021955658 -0.05607297 -0.032008056 0.055962786
00000000: 00dc 1a3c 1e2f dbbd dca1 9abd 31c1 c2bd
00000010: 6aa4 adbd 0af0 873b c09a 88bc 1c83 363d
00000020: aefd 37bb 4dcd b8bd 0775 04bd 774d b3bd
00000030: e5c8 06be 7ecc d4bd c9a7 353d 9df9 c0bd
00000040: a992 f73b 0673 b7bd 0f27 1d3d 9797 a5bd
00000050: 5ea0 2ebc 37ff 0dbe 468e bebd ffe8 a5bd
00000060: 44e3 7bbd 8af7 16bc e78e 1bbd c861 bcbc
00000070: 505c 813d 6061 d0bd a428 72bd f225 253d
00000080: 1061 adbc b725 b1bb 9763 a23b 382e 703d
00000090: fa16 b2bd 5ed0 0b3d b033 663d e6b9 1fbd
000000a0: 8c79 69bd c1dd 1bbd 3719 5dbd ae99 bbbd
000000b0: 4c51 b3bd 284a 0a3d 9e99 d13b 69a2 6e3d
000000c0: 64a7 c1bd df11 d7bd 6df8 213e d4c9 f03d
000000d0: 91e6 1ebd 9daa 793d 42e4 6f3d 2adb 323d
000000e0: 01af d93d d275 5e3c 0a89 083d 8dae 3f3d
000000f0: 2386 6a3d 8e15 0d3d e770 933d 149a 1c3e
00000100: d714 2b3d c34a c03d bd1a c33d 8de0 e43c
00000110: 3d7e 9c3d 802e cb3c 2ca7 d73d 435e 1c3e
00000120: 6540 2d3e 370e 593d 5859 99bc e571 1dbd
00000130: f0b5 c43b 3e2b e7bc 5c55 30be 95b2 ccbd
00000140: 4e52 fabd 8b7e fbbc 8b15 093d 893d b7bd
00000150: 27b9 27be 44b8 06bd cb2c 92bd 0aa3 55bb
00000160: 0f21 edbc bc1f b4bd 19d0 51bd a16b a2bd
00000170: d516 69bd bce8 04be 54ff 2abd 006a 5fbd
00000180: 970c 31bd 7467 1cbd bbf5 b2bd 038c 69be
00000190: f4f1 05be 9ae8 303d 6fc9 a1bd 21d6 373c
000001a0: a890 723b d14d 02be 92d5 e93d 0b23 0a3d
000001b0: c875 753d 380a 073e 7926 093c fe8d e23c
000001c0: c8ff 86bd 9250 453d ce8b 14bd 8e77 07be
000001d0: df87 b2bc 58ee 18bc 9fd1 393e 8d4c 3fbc
000001e0: 7ed4 9bbd 6f9a 103e a49e ec3d cb61 dd3d
000001f0: 1fa2 bd3d b525 f03c b80e ea3b 4aee 24b8
00000200: bcfa 8abd 04bc d9bc 4254 503d e85d 90bd
00000210: c1a1 123d 556d a03b f9ec 76bc b952 57bb
00000220: ac41 29bd b42f 3b3d 1b4a 07bd 294b 543d
00000230: 16ae 423d 732f 68bd e37e 14bc 91a3 d6ba
00000240: c5f2 263d b4eb d6b9 377d 4abd 0c01 44bd
00000250: 8c84 2c3d bfb4 babd 91b4 d93c b5fa 07be
00000260: 3749 38bd f926 84bb 17ef 9f3c 7336 80bd
00000270: c609 01be ba84 c5bd d04e c2bd cc0b 19be
00000280: 7d4f 263d 968c 58bd 7626 db3c 14d0 75bd
00000290: 60b8 0dbe cde1 b6bd 7daf 0fbe 1d27 68bc
000002a0: 6e4d 37bd 82ba f9bd eb43 c2bd 47c7 c5bb
000002b0: 7788 cfbd 692a eabd e130 94bd 97ee bbbd
000002c0: f0c5 96bc 84d7 3b3d 52b4 9cbd ec8f 953c
000002d0: fe0b cdbd d049 82bd c2be bd3c 4edd 983b
000002e0: 17ad 043a 82e9 20bd 8856 323d 8571 aebd
000002f0: a794 f53b baae b9bd 4174 51bd 9d8f bf3b
00000300: 8125 d1bd 7d63 37bc 1a90 343c 3139 99bd
00000310: 1c10 ae3c e535 253d 7bc9 89bd 1629 9a3c
00000320: 6a24 0b3c 1042 d63c 9005 123e f175 27bc
00000330: b7e4 b5bc e0a8 23bc 52c1 e2bc 019b 40bc
00000340: e78f 0fbd 94d6 90bc b6bf a1bc 1374 f93b
00000350: 35ee 45bd c174 88bd 2b12 46bd af4f 9cbd
00000360: b69d 36bb cf32 a5bd 6795 debd dfd2 6cbd
00000370: 7ae1 bebd 8e1c 3a3b a0e3 433c 7402 0bbe
00000380: ddfb 88bc 0c89 8cbd 9b26 573c ca35 d3bd
00000390: 4517 7c3d d384 bebd 0077 f7bd 2b5c 43bb
000003a0: ba29 bdbc d80d a73c 2272 da3c 7347 bcbd
000003b0: 55d6 c0bd a583 27bd 4846 583d 27ab 9ebd
000003c0: 72bb b1bd bad8 cfbd 1820 3b3d e764 e3bd
000003d0: 5405 8c3d 484a 87ba 4b85 d3bd be37 2abd
000003e0: 0cba 893b b6ca c7bd a547 2ebd eb2e 603c
000003f0: 5adc b33c c5ac 65bd e11a 03bd 3c39 653d

conv3.bias f4 [8]
-0.16692793 -0.0404458 -0.2092852 -0.09821254 -0.4035341 0.3329366 -0.11977649 -0.09036967
00000000: 28ef 2abe 7faa 25bd dc4e 56be a823 c9bd
00000010: 069c cebe ab76 aa3e 604d f5bd bc13 b9bd

conv4.weight f4 [10, 8, 5, 5]
-0.06371882 -0.09118839 0.02176068 -0.06526515 -0.049756184 -0.030430902 -0.02234017 0.0101708155
-0.0034368986 -0.02802231 -0.121236876 -0.0061025694 -0.06880014 -0.040846977 0.022070775 -0.06388534
-0.056589466 -0.11277783 -0.023652513 -0.070574686 -0.07728404 -0.049045183 -0.05152283 -0.042178642
0.0066314954 0.017041555 0.025617376 -0.07650895 -0.11363673 -0.014602342 0.032298207 -0.00622978
-0.099066176 -0.062483143 0.0014334305 -0.07527591 -0.10120547 -0.03537573 0.0127516845 -0.10488777
-0.06216404 -0.080350935 -0.08446584 -0.01956549 -0.076654725 -0.012981315 -0.088663176 -0.05118389
-0.096888974 -0.12374302 -0.22115268 -0.16672978 0.06480389 -0.22067465 -0.25597838 -0.2403199
-0.2604526 -0.40279767 -0.19017409 -0.27887413 -0.26248014 -0.22544846 -0.13925348 0.040612042
0.07502006 0.09372579 -0.092454635 -0.098813154 -0.236754 -0.16331047 0.112872705 -0.2671318
-0.097442485 -0.073210396 -0.13686408 -0.080143556 -0.11022721 -0.11511581 -0.049073625 0.0098911645
-0.10802872 -0.09700454 -0.114949346 0.016599365 -0.01298385 -0.025007015 -0.0004723388 -0.031172125
-0.0059143407 -0.06413477 -0.040684298 -0.09256514 -0.0714615 -0.048676264 -0.082351 -0.08813219
-0.079313025 -0.0067270794 -0.018818133 -0.078493096 -0.026707605 -0.095760345 0.32354477 0.01740738
-0.1708092 0.03946751 0.0018600966 0.3018827 -0.09412445 -0.079382725 -0.050463542 -0.043770716
-0.4405634 -0.206525 0.24967846 -0.09440461 0.23269106 0.15613905 0.15519209 0.20775265
0.18173963 0.2135831 0.25137937 0.01194728 0.18335304 0.006487418 -0.11814388 -0.029216757
-0.049691822 -0.0052148467 -0.06959333 0.0231608 0.022450764 -0.011687713 -0.08200953 0.0037877501
-0.1196246 -0.010450639 -0.011064543 -0.011376775 -0.024625517 0.0067175548 -0.09096737 -0.0022553313
-0.027863443 -0.044565294 -0.02081276 -0.0602427 0.0007803847 -0.05672055 0.010148762 0.03413605
-0.0056338944 -0.027900694 -0.055181723 -0.08829705 -0.08538806 -0.0067572743 -0.045168854 -0.033367027
-0.1153641 -0.012461915 -0.05984654 -0.02504728 -0.09248211 -0.015910499 0.0052727326 -0.106049046
-0.04766738 -0.077750646 0.0080885785 -0.045952335 -0.094844595 -0.099480875 -0.06157311 -0.029876385
-0.02948603 0.013669303 -0.012522677 -0.020276085 -0.04004518 -0.08120279 -0.0141990185 -0.000111012945
-0.05341655 -0.046454716 -0.11570179 0.003423732 0.0027954748 0.008186962 -0.025975404 -0.051436212
-0.036874574 -0.097521804 -0.090799056 0.022757709 -0.053659618 -0.09333861 -0.043752287 -0.023265004
-0.0442074 0.04530877 0.015551704 -0.08229539 -0.0796884 -0.011626673 -0.037854604 0.017771889
0.04568894 -0.102446534 -0.016032834 -0.073085055 -0.14416622 -0.087852515 -0.07018657 0.023911705
-0.07125779 0.011702936 0.05204759 0.027300768 -0.0659403 -0.08504254 0.007885589 0.032730006
0.05404577 0.027416434 0.015108752 -0.02653214 0.014620912 -0.0047972184 -0.019255439 0.011423851
0.046370834 -0.063001454 0.0730978 0.03091837 -0.111510284 0.029079815 -0.019146983 -0.029952578
-0.06863409 0.010087275 -0.011247716 -0.04245647 -0.08665908 -0.030658197 0.019361591 0.07048625
0.10732534 -0.012109603 -0.2364926 -0.35329178 -0.33034247 0.017017806 -0.029153515 0.06750492
00000000: 037f 82bd fbc0 babd 7443 b23c bca9 85bd
00000010: 24cd 4bbd 3a4a f9bc bb02 b7bc 7ea3 263c
00000020: 973d 61bb 0b8f e5bc 0a4b f8bd 10f8 c7bb
00000030: 16e7 8cbd 294f 27bd c5cd b43c 51d6 82bd
00000040: 5bca 67bd 10f8 e6bd eac2 c1bc 7689 90bd
00000050: 1847 9ebd 9ae3 48bd 9a09 53bd 83c3 2cbd
00000060: 044d d93b bb9a 8b3c 88db d13c b9b0 9cbd
00000070: 60ba e8bd a93e 6fbc 204b 043d 2f23 ccbb
00000080: 35e3 cabd 53ee 7fbd f2e1 bb3a 422a 9abd
00000090: d044 cfbd 24e6 10bd 71ec 503c 66cf d6bd
000000a0: b89f 7ebd 088f a4bd 6dfc acbd ce47 a0bc
000000b0: 27fd 9cbd 95af 54bc 0a95 b5bd 33a6 51bd
000000c0: ba6d c6bd fb6c fdbd d975 62be 36bb 2abe
000000d0: e7b7 843d 89f8 61be 990f 83be 6b16 76be
000000e0: 0b5a 85be 7f3b cebe ffbc 42be 97c8 8ebe
000000f0: cc63 86be f6db 66be 7798 0ebe d058 263d
00000100: 1ea4 993d 4ff3 bf3d db58 bdbd 8d5e cabd
00000110: a46f 72be dc3a 27be ce29 e73d 80c5 88be
00000120: ed8f c7bd 55ef 95bd 1926 0cbe 4e22 a4bd
00000130: cebe e1bd d6c1 ebbd 6d01 49bd 8d0e 223c
00000140: 293e ddbd 51aa c6bd 906a ebbd 64fb 873c
00000150: 37ba 54bc 83db ccbc 3ea4 f7b9 af5c ffbc
00000160: 16cd c1bb 1759 83bd 94a4 26bd cb92 bdbd
00000170: 685a 92bd c360 47bd a4a7 a8bd a67e b4bd
00000180: de6e a2bd d56e dcbb 7c28 9abc fdc0 a0bd
00000190: e8c9 dabc 001e c4bd a9a7 a53e ec99 8e3c
000001a0: 9be8 2ebe afa8 213d 7cce f33a 5f90 9a3e
000001b0: 52c4 c0bd 6993 a2bd dcb2 4ebd ec48 33bd
000001c0: 8791 e1be 4a7b 53be b6ab 7f3e 3457 c1bd
000001d0: 9146 6e3e eae2 1f3e adea 1e3e 1cbd 543e
000001e0: f419 3a3e 87b5 5a3e ccb4 803e 86be 433c
000001f0: e6c0 3b3e 6894 d43b 6bf5 f1bd fb57 efbc
00000200: a789 4bbd 4ee1 aabb f386 8ebd b8bb bd3c
00000210: aaea b73c d27d 3fbc 9df4 a7bd e73b 783b
00000220: befd f4bd 2839 2bbc 0f48 35bc a765 3abc
00000230: 74bb c9bc ef1e dc3b 1a4d babd 2ece 13bb
00000240: e041 e4bc 198a 36bd 857f aabc 0dc1 76bd
00000250: bb92 4c3a cf53 68bd fe46 263c 3ed2 0b3d
00000260: 889c b8bb ff8f e4bc 3b06 62bd 15d5 b4bd
00000270: efdf aebd 206c ddbb fa02 39bd ddab 08bd
00000280: 0344 ecbd 0f2d 4cbc a521 75bd f42f cdbc
00000290: 4367 bdbd bc56 82bc e3c6 ac3b 3e30 d9bd
000002a0: df3e 43bd bb3b 9fbd f585 043c 8438 3cbd
000002b0: e23d c2bd a1bc cbbd 1634 7cbd 52bf f4bc
000002c0: b08c f1bc 36f5 5f3c ea2b 4dbc 081a a6bc
000002d0: 6a06 24bd a64d a6bd 00a3 68bc 9fcf e8b8
000002e0: 50cb 5abd 4d47 3ebd 0ff5 ecbd b160 603b
000002f0: 4934 373b 9c22 063c 5fca d4bc c7ae 52bd
00000300: cb09 17bd 83b9 c7bd dbf4 b9bd 606e ba3c
00000310: 30ca 5bbd 5028 bfbd 9935 33bd 4096 bebc
00000320: d212 35bd b095 393d 93cc 7e3c 7c8a a8bd
00000330: ac33 a3bd cd7d 3ebc 6e0d 1bbd 5a96 913c
00000340: 5324 3b3d 7dcf d1bd 4a57 83bc 9ead 95bd
00000350: 4fa0 13be 05ec b3bd fabd 8fbd 7be2 c33c
00000360: 9bef 91bd acbd 3f3c db2f 553d dca5 df3c
00000370: b50b 87bd c92a aebd 8f32 013c e60f 063d
00000380: 195f 5d3d 6e98 e03c b38a 773c ee59 d9bc
00000390: 8d8c 6f3c fc31 9dbb 95bd 9dbc 1b2b 3b3c
000003a0: 58ef 3d3d e806 81bd 4db4 953d 8548 fd3c
000003b0: 815f e4bd cb38 ee3c 22da 9cbc 1c5f f5bc
000003c0: 0890 8cbd 1945 253c 5748 38bc d6e6 2dbd
000003d0: 517a b1bd e626 fbbc 339c 9e3c 185b 903d
000003e0: 63cd db3d 5b67 46bc 1e2b 72be a9e2 b4be
000003f0: a622 a9be ed68 8b3c 5ad3 eebc 0540 8a3d

conv4.bias f4 [10]
-0.18426356 0.20610641 0.24113788 -0.00022706042 -0.15535009 -0.58850974 -0.52786565 -0.24965534
-0.1316856 0.34708917
00000000: 96af 3cbe 8f0d 533e d9ec 763e 1117 6eb9
00000010: 1814 1fbe 93a8 16bf 3422 07bf a6a5 7fbe
00000020: 97d8 06be acb5 b13e

fc1.weight f4 [40, 160]
-0.09865529 -0.058500435 -0.06764664 -0.008657284 0.004355204 -0.13389517 -0.08747655 -0.07818507
-0.046824817 -0.069675475 -0.115305796 -0.006772626 -0.06263831 -0.107454255 -0.12569323 -0.12259155
-0.1330109 -0.097102694 -0.108101085 -0.085340865 -0.06192431 -0.03958457 0.003764295 -0.105147325
-0.055204663 -0.04639765 -0.1052278 -0.033597324 -0.12751059 -0.13585518 -0.050935272 -0.11719543
-0.019668266 -0.077187344 0.016206805 -0.095561005 -0.09356163 -0.02646992 -0.04589883 -0.031018417
-0.0371489 -0.08138368 -0.012053074 -0.013342102 -0.09346006 -0.04267075 -0.03724018 -0.109005146
-0.078384064 -0.13670252 -0.093859404 -0.075837255 -0.095447056 -0.038028166 0.004465418 -0.07027971
-0.013753887 0.11651089 0.049867067 0.11831477 0.032724287 0.00252971 0.041482907 0.07516249
-0.024052193 0.008318278 -0.038770407 -0.032369923 -0.09072989 -0.06488511 -0.03734933 -0.05240077
-0.0010681822 -0.018894745 -0.049108602 0.008454296 -0.1245578 -0.0072491793 -0.018705193 -0.10200889
0.050018735 0.0060962737 0.010647722 -0.029290885 -0.01026433 -0.07286269 0.047559313 -0.0778431
0.042086728 0.07063944 0.07088935 0.0735567 -0.02134835 -0.0681193 0.019155242 0.021370016
0.022218712 -0.049901776 0.06296762 0.053761892 -0.02073856 -0.023882635 -0.0074712187 0.02655211
-0.04346299 -0.06599201 -0.018221457 -0.040627215 -0.066858776 -0.04662342 0.0012231842 -0.0023893267
-0.03393443 -0.025199808 0.014222555 0.06739911 0.017847037 0.050934277 -0.05322247 -0.017310426
0.13103479 -0.03031839 -0.05821099 -0.03805351 0.07053561 -0.010727096 0.03677546 -0.049016923
-0.054590944 -0.018748457 0.017774088 -0.015420673 0.016024053 -0.08286805 0.002157395 -0.13307567
-0.022411399 -0.1362853 -0.08634624 -0.055651285 -0.0663807 -0.033555336 -0.03731309 -0.096634015
-0.04727291 -0.011163614 -0.11240598 -0.023546357 -0.114284344 -0.068777844 -0.0018884075 -0.004674883
-0.036496595 -0.0686039 -0.12947457 0.010195338 -0.10204911 -0.008997481 -0.009453085 -0.011024667
0.05508338 0.07098713 0.12558119 0.036525656 0.06552973 0.06236804 0.18199731 0.022469543
0.08974059 0.14470473 0.10489361 0.067140214 0.09583826 0.03420649 0.01212323 0.08667848
-0.053531397 -0.016093362 -0.05276938 -0.046263043 -0.0022241804 0.09181165 0.017339919 -0.055734042
-0.002335231 -0.09257392 -0.037392724 0.0040466995 0.041203395 -0.06605205 -0.13125321 0.0018674121
0.008762493 -0.02814668 -0.039646953 -0.025392525 0.016592989 -0.0029306074 -0.028667662 -0.0443553
-0.056449827 -0.041757327 -0.0163935 -0.14709823 -0.09976315 -0.0012343322 -0.18702261 -0.012924139
-0.06410387 0.035801027 0.034069035 0.076815076 -0.0401567 -0.039278463 -0.010281063 -0.12307335
-0.0037295874 -0.033267695 0.010624881 0.009448167 -0.13146763 -0.038694862 0.036337607 0.049314395
0.25699311 0.14502302 0.29272762 0.25001398 0.18104431 0.08044673 0.16455133 0.18168359
0.12523136 0.07649776 -0.12305145 -0.10221894 0.016622737 0.12533239 -0.17211057 -0.073350735
0.124133386 0.2700855 0.0043468922 0.0006505698 -0.041217923 0.26071292 -0.030554611 -0.14358951
-0.06568364 -0.078186326 0.06093193 0.057222046 0.20643303 -0.043708373 -0.0645898 0.0076306276
00000000: c90b cabd 279e 6fbd 528a 8abd 48d7 0dbc
00000010: 19b6 8e3b d11b 09be e826 b3bd 7e1f a0bd
00000020: 61cb 3fbd 04b2 8ebd 7225 ecbd e8ec ddbb
00000030: 8448 80bd fa10 dcbd bab5 00be 4711 fbbd
00000040: 0234 08be c7dd c6bd 1a64 ddbd 31c7 aebd
00000050: 58a4 7dbd 6e23 22bd 64b2 763b 7b57 d7bd
00000060: 491e 62bd 760b 3ebd ac81 d7bd 599d 09bd
00000070: 2392 02be 9f1d 0bbe 81a1 50bd 2804 f0bd
00000080: 581f a1bc 6614 9ebd 22c4 843c 7db5 c3bd
00000090: 3d9d bfbd 72d7 d8bc 6900 3cbd 561a febc
000000a0: 7229 18bd 7dac a6bd 427a 45bc d598 5abc
000000b0: fd67 bfbd 86c7 2ebd 2989 18bd 173e dfbd
000000c0: d387 a0bd bffb 0bbe 5c39 c0bd 9050 9bbd
000000d0: bf79 c3bd 6cc3 1bbd a452 923b cfee 8fbd
000000e0: fc57 61bc 439d ee3d 6941 4c3d 044f f23d
000000f0: e709 063d 7ec9 253b fbe9 293d cbee 993d
00000100: 1b09 c5bc 6349 083c b8cd 1ebd 5396 04bd
00000110: 98d0 b9bd 7ce2 84bd 9cfb 18bd 31a2 56bd
00000120: 3f02 8cba 27c9 9abc 1a26 49bd e383 0a3c
00000130: 2918 ffbd 868a edbb a23b 99bc 09ea d0bd
00000140: 72e0 4c3d 40c3 c73b c873 2e3c 70f3 efbc
00000150: b82b 28bc 0939 95bd 8ecd 423d 346c 9fbd
00000160: 2263 2c3d 69ab 903d 6f2e 913d e5a4 963d
00000170: bce2 aebc 2282 8bbd 74eb 9c3c 2c10 af3c
00000180: 0404 b63c ce65 4cbd 2bf5 803d 6e35 5c3d
00000190: eae3 a9bc 84a5 c3bc 20d1 f4bb d083 d93c
000001a0: 4006 32bd d226 87bd 2a45 95bc b968 26bd
000001b0: 41ed 88bd 33f8 3ebd 4053 a03a 4096 1cbb
000001c0: d4fe 0abd d46f cebc b805 693c 8b08 8a3d
000001d0: f333 923c 76a0 503d ceff 59bd 98ce 8dbc
000001e0: fc2d 063e 465e f8bc a66e 6ebd ffdd 1bbd
000001f0: f974 903d b4c0 2fbc dda1 163d f8c5 48bd
00000200: c19a 5fbd 5d96 99bc f79a 913c fea6 7cbc
00000210: e044 833c b9b6 a9bd 1563 0d3b fd44 08be
00000220: 1c98 b7bc 608e 0bbe 4cd6 b0bd 9af2 63bd
00000230: 9bf2 87bd 5271 09bd 9cd5 18bd 0ee8 c5bd
00000240: 3da1 41bd 97e7 36bc 1b35 e6bd 4ae4 c0bc
00000250: e90d eabd 66db 8cbd 7184 f7ba c32f 99bb
00000260: 747d 15bd 3480 8cbd fb94 04be 590a 273c
00000270: 20ff d0bd 2c6a 13bc 1de1 1abc cea0 34bc
00000280: 1c9f 613d b361 913d 5b98 003e ed9b 153d
00000290: 7334 863d a175 7f3d 815d 3a3e 0c12 b83c
000002a0: eac9 b73d 7a2d 143e 76d2 d63d cf80 893d
000002b0: da46 c43d 1b1c 0c3d 83a0 463c 7d84 b13d
000002c0: bd43 5bbd 3ad6 83bc b524 58bd 517e 3dbd
000002d0: 8ec3 11bb bf07 bc3d 720c 8e3c 6149 64bd
000002e0: ad0a 19bb 6597 bdbd 1d29 19bd 2d9a 843b
000002f0: e4c4 283d 4c46 87bd 3e67 06be f4c3 f43a
00000300: 8f90 0f3c de93 e6bc d864 22bd fc03 d0bc
00000310: 05ee 873c 6f0f 40bb 72d8 eabc e7ad 35bd
00000320: ef37 67bd bb09 2bbd a94b 86bc eba0 16be
00000330: 9f50 ccbd 51c9 a1ba db82 3fbe c5bf 53bc
00000340: e448 83bd 19a4 123d f98b 0b3d 3951 9d3d
00000350: 5a7b 24bd 74e2 20bd e771 28bc e10d fcbd
00000360: 186c 74bb b543 08bd fb13 2e3c 7ccc 1a3c
00000370: 739f 06be 817e 1ebd bed6 143d e4fd 493d
00000380: 9a94 833e ea80 143e 65e0 953e d501 803e
00000390: ae63 393e 41c1 a43d 2580 283e 430b 3a3e
000003a0: a63c 003e dcaa 9c3d 6602 fcbd 2a58 d1bd
000003b0: 682c 883c 2257 003e c13d 30be e938 96bd
000003c0: a539 fe3d a648 8a3e 6070 8e3b 008b 2a3a
000003d0: 20d4 28bd 2a7c 853e aa4d fabc 2109 13be
000003e0: 2585 86bd 2720 a0bd c293 793d aa61 6a3d
000003f0: 2e63 533e 8d07 33bd a847 84bd 580a fa3b

fc1.bias f4 [40]
-0.025082719 -0.029568447 -0.18986349 -0.065398574 -0.21274975 -0.12824762 -0.104704894 0.14574975
-0.056962367 0.3185923 -0.11939672 0.02841332 -0.09724072 -0.08770839 -0.030666757 -0.06523539
-0.010838614 -0.037802298 -0.034179673 0.32276157 0.034028832 -0.12686884 -0.020302901 -0.02004062
-0.2705208 0.167643 -0.011081418 -0.32254395 -0.07915031 -0.012028865 0.06276999 -0.12738937
0.12465945 0.19845869 -0.04291357 0.2731961 -0.25200835 -0.054447256 -0.069769636 -0.1004238
00000000: 467a cdbc 8739 f2bc 936b 42be b0ef 85bd
00000010: 12db 59be 5853 03be 856f d6bd 6c3f 153e
00000020: 5f51 69bd 881e a33e 4486 f4bd 0dc3 e83c
00000030: 2526 c7bd 75a0 b3bd da38 fbbc 229a 85bd
00000040: 7194 31bc 95d6 1abd fcff 0bbd 0141 a53e
00000050: d161 0b3d e8e9 01be 4552 a6bc 3a2c a4bc
00000060: b481 8abe 9baa 2b3e d68e 35bc 7b24 a5be
00000070: 8f19 a2bd b714 45bc 8d8d 803d 5c72 02be
00000080: 744d ff3d c138 4b3e 24c6 2fbd 5ce0 8b3e
00000090: 3d07 81be 1604 5fbd 62e3 8ebd feaa cdbd

fc2.weight f4 [20, 40]
-0.12590395 0.010778675 0.062812045 0.018139735 -0.029582292 0.043660834 -0.059288114 -0.111290745
0.0028143674 0.06667275 -0.048663177 -0.14162596 0.00053064525 -0.035301268 -0.06649274 0.15753762
0.046783403 -0.11407708 -0.04245303 -0.06867051 -0.016984781 -0.093483806 -0.031474743 0.093511954
-0.08547802 -0.19512382 0.08731006 -0.0033515692 0.027829736 -0.067103736 -0.15034933 0.030069917
0.011665183 -0.04452089 0.096237525 -0.008694962 -0.017667174 0.13555403 -0.031324804 0.030845895
0.04677378 -0.21438606 0.0155135365 -0.09855036 -0.06713874 -0.0631319 -0.1670617 0.023664689
0.15427595 -0.21389219 0.008850221 -0.21193087 0.12345749 0.124169365 0.18289924 0.1367289
-0.087964095 -0.061172586 0.17213167 -0.10551234 0.063870914 -0.08417583 0.04013398 -0.20225489
0.021711979 0.03671497 -0.07075225 -0.07608786 -0.014031885 -0.08437922 0.024210721 0.09626105
-0.11842681 0.056439076 0.053784102 -0.07284822 -0.14249785 0.09699646 0.049107723 -0.1602831
-0.11873388 0.06455353 0.010861678 0.1693156 -0.06768456 0.08849535 -0.027722327 -0.0683472
-0.11403305 0.2513832 -0.20198767 -0.12394735 0.09139884 -0.04148061 -0.07023974 0.06952942
-0.032022502 -0.022855226 0.027459288 0.112278 0.012521262 0.021747982 0.054788645 -0.10577642
-0.14563045 0.07222468 -0.046466608 0.027130542 0.15329002 0.19002128 -0.14796093 0.012050371
0.05017532 -0.02953897 -0.066592515 0.038955085 -0.059486203 -0.09414068 -0.17701066 0.010213529
-0.09304229 0.1487905 -0.1671821 0.06547562 0.1255414 0.12526669 0.17888615 0.0389258
-0.06517795 0.010015002 0.03990028 -0.17616281 -0.010424927 -0.15652262 0.15130849 -0.08248157
0.07778467 0.08328882 0.089976236 -0.065661006 -0.08904103 -0.21212125 0.10558199 -0.004158134
-0.07394807 -0.13463925 -0.32896507 -0.19047265 -0.081369534 -0.027134463 -0.09052342 -0.04250177
-0.03589815 -0.02993552 0.07149111 -0.030303754 0.08151756 -0.1779689 -0.09828041 -0.047164395
-0.08101769 0.010899108 -0.18558058 -0.01300554 -0.036068745 -0.042697094 0.14646527 -0.029379485
0.10949321 0.04335897 0.02844482 -0.13870248 0.09668657 -0.27089885 -0.0014234483 -0.09766568
-0.051552437 -0.062346265 -0.034782946 -0.14985593 0.17624936 -0.00015757531 -0.06330854 -0.08308983
-0.078275144 -0.07311654 0.14010003 -0.22684284 -0.0938142 0.008199692 -0.006234192 -0.041556887
0.051070746 -0.012478616 0.055088233 -0.009970148 -0.13056889 -0.1279401 0.035883144 0.06914853
-0.04806893 -0.1331342 -0.038345385 0.07523087 -0.06881296 -0.06570761 -0.08776659 -0.0025718266
0.04265991 0.035442542 -0.10385711 0.08701039 -0.088665366 0.04610292 -0.08327738 -0.034926537
0.026498988 0.21771328 0.06761111 -0.007296791 0.06072387 -0.010635202 0.06596263 -0.15934046
-0.13161483 0.05088747 0.0791079 -0.11514351 -0.112452745 -0.02951304 0.011008053 0.11900092
-0.046295907 0.055616006 0.07131186 0.003993091 -0.28063586 0.18070704 0.094093814 0.09434313
-0.15005878 -0.28147185 -0.063698515 0.03650768 0.02734311 -0.038490362 -0.08417486 -0.27052304
-0.0929695 -0.2557796 -0.33173412 -0.0619881 -0.039223634 0.21507889 0.057749376 0.11035533
00000000: f7ec 00be 0a99 303c 9aa3 803d c899 943c
00000010: 9056 f2bc b4d5 323d 18d8 72bd 67ec e3bd
00000020: 4071 383b b98b 883d 0a53 47bd 6506 11be
00000030: 001b 0b3a 1098 10bd 582d 88bd 8b51 213e
00000040: f49f 3f3d 3ea1 e9bd 3ae3 2dbd 20a3 8cbd
00000050: ab23 8bbc 7074 bfbd a9eb 00bd 3283 bf3d
00000060: 1a0f afbd 8ace 47be 9ecf b23d 00a6 5bbb
00000070: 30fb e33c af6d 89bd 2df5 19be 3055 f63c
00000080: 531f 3f3c 895b 36bd 2e18 c53d 5075 0ebc
00000090: c0ba 90bc adce 0a3e 704e 00bd 88b0 fc3c
000000a0: dd95 3f3d 0588 5bbe 7d2c 7e3c c5d4 c9bd
000000b0: 0980 89bd 4c4b 81bd 3912 2bbe 73dc c13c
000000c0: 84fa 1d3e 8e06 5bbe 8400 113c 6804 59be
000000d0: 48d7 fc3d 824c fe3d f049 3b3e a902 0c3e
000000e0: 8526 b4bd 1b90 7abd 4943 303e db16 d8bd
000000f0: c1ce 823d 6164 acbd 8763 243d e81b 4fbe
00000100: 52dd b13c 7062 163d 8ee6 90bd f4d3 9bbd
00000110: fee5 65bc 03cf acbd 9055 c63c 8324 c53d
00000120: c189 f2bd a92c 673d b84c 5c3d 7331 95bd
00000130: f5ea 11be 14a6 c63d 2e25 493d 4121 24be
00000140: c02a f3bd a434 843d 2ef5 313c 1261 2d3e
00000150: 349e 8abd 0d3d b53d ef19 e3bc 9ef9 8bbd
00000160: 298a e9bd 4cb5 803e dbd5 4ebe 1cd8 fdbd
00000170: 512f bb3d 92e7 29bd dad9 8fbd 7165 8e3d
00000180: 072a 03bd e23a bbbc 4df2 e03c 02f2 e53d
00000190: fb25 4d3c d328 b23c 0f6a 603d 4fa1 d8bd
000001a0: 2620 15be 88ea 933d c553 3ebd df40 de3c
000001b0: 0ff8 1c3e f094 423e 1283 17be eb6e 453c
000001c0: a384 4d3d b6fb f1bc a861 88bd 5e8f 1f3d
000001d0: cea7 73bd d4cc c0bd 4842 35be a556 273c
000001e0: f58c bebd 895c 183e c931 2bbe 1518 863d
000001f0: ed8d 003e e945 003e ee2d 373e a970 1f3d
00000200: 047c 85bd f715 243c 7a6e 233d 0664 34be
00000210: 50cd 2abc 7747 20be 9df0 1a3e 19ec a8bd
00000220: 924d 9f3d 5493 aa3d 7645 b83d 4779 86bd
00000230: 255b b6bd 5036 59be 5f3b d83d f540 88bb
00000240: 1672 97bd dfde 09be 1c6e a8be 430b 43be
00000250: 12a5 a6bd 1849 debc 5864 b9bd 5616 2ebd
00000260: f009 13bd 563b f5bc ee69 923d 943f f8bc
00000270: aef2 a63d 7b3d 36be 3d47 c9bd 742f 41bd
00000280: 9aec a5bd 2c92 323c d608 3ebe 3015 55bc
00000290: d2bc 13bd 26e3 2ebd fefa 153e 3fad f0bc
000002a0: fa3d e03d 2d99 313d 1c05 e93c 0608 0ebe
000002b0: 9c03 c63d 41b3 8abe 0093 baba f204 c8bd
000002c0: a628 53bd cc5e 7fbd 9078 0ebd d573 19be
000002d0: b67a 343e cd3a 25b9 e8a7 81bd 002b aabd
000002e0: b84e a0bd 20be 95bd 6276 0f3e 7d49 68be
000002f0: a921 c0bd 0058 063c 3148 ccbb 8e37 2abd
00000300: 8f2f 513d 1c73 4cbc 33a4 613d d559 23bc
00000310: dab3 05be bb02 03be 34fa 123d bf9d 8d3d
00000320: ede3 44bd 5554 08be 0d10 1dbd a412 9a3d
00000330: cfed 8cbd b691 86bd f8be b3bd 178c 28bb
00000340: 28bc 2e3d 332c 113d 09b3 d4bd 8132 b23d
00000350: 3096 b5bd 6ad6 3c3d 558d aabd 210f 0fbd
00000360: 6814 d93c 3bf0 5e3e b277 8a3d eb19 efbb
00000370: 98b9 783d 453f 2ebc 6a17 873d 252a 23be
00000380: 0ac6 06be 616f 503d 5303 a23d 5cd0 ebbd
00000390: a04d e6bd 55c5 f1bc 1f5b 343c c1b6 f33d
000003a0: c7a0 3dbd 9ccd 633d f40b 923d 7ad8 823b
000003b0: 81af 8fbe 440b 393e 42b4 c03d f936 c13d
000003c0: 02a9 19be 141d 90be 5e74 82bd 1489 153d
000003d0: a8fe df3c 12a8 1dbd de63 acbd ff81 8abe
000003e0: cb66 bebd 8bf5 82be 0ed9 a9be 3ce7 7dbd
000003f0: f6a8 20bd a43d 5c3e 9c8a 6c3d fa01 e23d

fc2.bias f4 [20]
-0.10055119 -0.027993456 -0.016818268 -0.09269491 -0.1004383 0.1215806 -0.14877833 -0.12543556
0.1746268 0.2686567 -0.034503702 -0.23243019 -0.045781497 -0.016587773 -0.06099284 -0.13011321
-0.11937601 -0.149617 -0.029702364 -0.06254564
00000000: c8ed cdbd 8852 e5bc 77c6 89bc d4d6 bdbd
00000010: 98b2 cdbd 40ff f83d 5959 18be 2e72 00be
00000020: 5ed1 323e 5f8d 893e c153 0dbd 2e02 6ebe
00000030: 6185 3bbd 15e3 87bc a1d3 79bd 663c 05be
00000040: 697b f4bd 3335 19be 5f52 f3bc ee17 80bd

fc3.weight f4 [10, 20]
-0.13350153 -0.013930878 0.13518511 -0.038831417 -0.11684541 0.21974488 0.18894468 0.092509896
0.33377302 0.23608787 0.185416 -0.37172863 0.018749349 0.030135367 -0.06087621 -0.14581497
-0.040090382 0.052623786 -0.104926065 0.09264389 -0.088461645 0.12139997 -0.03238263 -0.004488992
0.012912266 0.09104533 0.10000252 -0.083325796 -0.193934 0.03650849 0.10120423 -0.03966562
-0.074229345 -0.01385821 0.073965356 -0.22602676 0.07351036 -0.1351378 -0.07614931 -0.054502465
-0.083330065 -0.21155019 -0.054949198 -0.13655928 -0.10509877 -0.21921688 -0.18413147 -0.25870317
-0.052635435 -0.29638255 -0.057763893 -0.20145626 0.061033163 -0.09018423 -0.07957739 -0.23121709
0.22110215 -0.10687442 -0.02662348 -0.026134286 0.12547608 0.037563514 -0.10864612 0.010695381
-0.065725006 0.09573247 0.08267185 -0.024290359 0.16348773 -0.13622865 0.067424424 -0.24276768
-0.07399069 -0.00093983614 0.11380532 -0.14858152 0.1687242 -0.28231356 -0.16248299 -0.038537066
-0.05642415 -0.11199224 -0.088261 -0.02478272 0.14168511 0.028099477 -0.2351985 0.15432453
0.18637727 -0.15265703 0.10686544 -0.23477346 -0.12600015 -0.19771758 -0.14946248 0.16592874
0.09233959 -0.030642685 -0.048403356 -0.16316354 0.060379967 0.26427794 0.07651764 -0.26261544
-0.009468997 -0.28377202 -0.06351072 -0.26168987 -0.1864541 -0.13526803 0.057654407 -0.2081828
-0.13557735 -0.16788901 -0.15803503 -0.11354789 0.045850653 0.12260034 -0.15248549 0.16226836
-0.10814871 0.02270003 -0.11628385 0.15062302 0.013223871 -0.044009376 0.32183915 -0.37281138
0.062935606 -0.23250924 -0.0010773485 -0.075796604 -0.3232088 0.34325343 -0.046431947 -0.23795365
-0.26502484 -0.2349166 -0.060360067 -0.16465406 -0.029921245 0.21556465 -0.15638436 -0.22436754
-0.15957172 -0.21172515 -0.08459716 0.083389714 -0.049716145 -0.42246634 -0.099075824 -0.1156932
-0.32276306 -0.06906055 -0.13416566 -0.34524575 -0.13798147 0.18613487 -0.15158118 0.09184478
0.219898 -0.13660635 -0.04170806 -0.14394161 0.20068526 -0.008469823 -0.009882075 -0.03922278
-0.06621413 -0.11175794 -0.049234428 -0.20024902 -0.09745334 -0.008316979 0.15981638 -0.34099838
0.089145236 0.08947609 -0.20237258 -0.2253492 0.11366293 0.08818027 0.032444604 0.09716459
0.004160157 0.3400742 -0.1955427 -0.12570605 0.17042008 0.33881822 0.1344498 0.012497616
0.5450254 -0.10794565 -0.064186074 -0.058681592 0.103401795 -0.064233445 0.0008957657 -0.14058593
00000000: a0b4 08be 563e 64bc f76d 0a3e b10d 1fbd
00000010: a54c efbd cd04 613e b77a 413e d475 bd3d
00000020: 4ce4 aa3e 05c1 713e b1dd 3d3e 3753 bebe
00000030: 3c98 993c 72de f63c 5559 79bd 8550 15be
00000040: d035 24bd 0a8c 573d 7ae3 d6bd 14bc bd3d
00000050: 612b b5bd 8ca0 f83d a6a3 04bd 6518 93bb
00000060: f88d 533c f975 ba3d 1fce cc3d b7a6 aabd
00000070: a296 46be ed89 153d 2a44 cf3d 6b78 22bd
00000080: 8e05 98bd 8c0d 63bc 267b 973d 8f73 67be
00000090: 9a8c 963d 9061 0abe 2bf4 9bbd fa3d 5fbd
000000a0: f4a8 aabd 9da0 58be 6912 61bd 32d6 0bbe
000000b0: 063e d7bd 647a 60be f68c 3cbe be74 84be
000000c0: 4198 57bd 74bf 97be d599 6cbd 8d4a 4ebe
000000d0: e9fd 793d 82b2 b8bd 78f9 a2bd 2cc4 6cbe
000000e0: 9a68 623e fae0 dabd 7c19 dabc 9217 d6bc
000000f0: cd7c 003e 33dc 193d db81 debd ae3b 2f3c
00000100: d59a 86bd 630f c43d dc4f a93d 93fc c6bc
00000110: 5469 273e 867f 0bbe d115 8a3d 1798 78be
00000120: 6e88 97bd 565f 76ba c312 e93d c125 18be
00000130: 09c6 2c3e 678b 90be f161 26be 0bd9 1dbd
00000140: 021d 67bd 305c e5bd 2fc2 b4bd 2105 cbbc
00000150: e715 113e e030 e63c e0d7 70be 4007 1e3e
00000160: afd9 3e3e 2052 1cbe 45dc da3d 7468 70be
00000170: 2f06 01be 7a76 4abe b10c 19be 39e9 293e
00000180: 8a1c bd3d 5e06 fbbc 9942 46bd 5814 27be
00000190: fc50 773d 704f 873e 48b5 9c3d 8875 86be
000001a0: da23 1bbc 914a 91be e911 82bd 37fc 85be
000001b0: d3ed 3ebe b483 0abe 0727 6c3d df2d 55be
000001c0: cad4 0abe 19eb 2bbe efd3 21be cc8b e8bd
000001d0: e5cd 3b3d e315 fb3d 2825 1cbe ad29 263e
000001e0: 127d ddbd 6af5 b93c 3a26 eebd ec3c 1a3e
000001f0: efa8 583c 2d43 34bd 1ac8 a43e 22e1 bebe
00000200: 62e4 803d e716 6ebe d135 8dba 403b 9bbd
00000210: a07b a5be eabe af3e 6d2f 3ebd 1faa 73be
00000220: 56b1 87be fa8d 70be 1e3c 77bd 139b 28be
00000230: 661d f5bc fbbc 5c3e 3923 20be 9bc0 65be
00000240: c566 23be 7ace 58be 4741 adbd 3ac8 aa3d
00000250: 28a3 4bbd 824d d8be 44e8 cabd 8ef0 ecbd
00000260: 3341 a5be 9e6f 8dbd b962 09be 0dc4 b0be
00000270: 044b 0dbe 249a 3e3e 1938 1bbe 1e19 bc3d
00000280: f12c 613e 89e2 0bbe 12d6 2abd 6e65 13be
00000290: 7080 4d3e 03c5 0abc 6de8 21bc 11a8 20bd
000002a0: 469b 87bd 59e1 e4bd 0aaa 49bd 140e 4dbe
000002b0: 9e95 c7bd f043 08bc e8a6 233e 5797 aebe
000002c0: c791 b63d 3e3f b73d c23a 4fbe f1c1 66be
000002d0: 1cc8 e83d db97 b43d a2e4 043d 3bfe c63d
000002e0: ed51 883b 351e ae3e 583c 48be 16b9 00be
000002f0: 9a82 2e3e 9579 ad3e 35ad 093e cdc2 4c3c
00000300: c986 0b3f 9c12 ddbd fd73 83bd 1c5c 70bd
00000310: 52c4 d33d d38c 83bd d2d1 6a3a c2f5 0fbe

fc3.bias f4 [10]
0.47426733 -0.118850194 -0.46848133 -0.20939806 0.22969295 -0.27516887 -0.20811424 -0.23132354
-0.26051468 0.37254265
00000000: 2bd3 f23e bb67 f3bd c9dc efbe 726c 56be
00000010: a134 6b3e efe2 8cbe e61b 55be 14e0 6cbe
00000020: 2e62 85be e9bd be3e
