mlops_project/outputs/2022-05-04/13-32-50/models/epoch=2-step=393.ckpt (torch, 153697 bytes, 42 tensors)

conv1.weight f4 [4, 3, 5, 5]
00000000: 94d3 55be aaf7 16be 2e1c 55be 7ccd afbd
00000010: 54aa 79be e629 88bd 8780 48be dbd5 3bbe
00000020: ce5a 16be 9c66 abbd 788a 36be d906 19bd
00000030: 2ceb 0fbe 3c66 dabd 2c95 1ebe 28ea 32be
00000040: 7a89 2cbe dc51 a03a 1ff8 eabd edd8 ccbd
00000050: 6d90 c6bd 2f4e 03be 91ae cebd 4f74 e4bc
00000060: 6ab4 4fbe b62c 1bbd d8cc e7bd 5489 bd3c
00000070: c508 5b3d 892b 2dbe 324c 173d 9b11 033d
00000080: 9182 413d 15fc 663d 5139 243d ba90 5fbd
00000090: 05e8 b6bd a657 843b c963 23bd 7009 a3bc
000000a0: c64e 96bd 32ba 40bd 4e42 3f3c 7d36 f13d
000000b0: ad9f 7abd eb40 c0bd 149c 9ebd eba8 d9bc
000000c0: bf53 403d 1fe2 ecbb c482 7d3b d4a3 c93b
000000d0: b87d 603c 1eb5 673d ea90 13bd 4ce1 0abe
000000e0: 12c6 54bd 88ab 0d3e 7504 713d 8773 f9bd
000000f0: 3d23 2c3c 1fc4 0e3e 98be 21bd e281 73bb
00000100: f569 38bd cfaa a5bc ef6f e13c 00dc 523d
00000110: 99ce 8bbd 7519 6c3c e6c2 f63b 3683 a53c
00000120: f9aa efbd 73a7 16be a865 20bd cc9d 513d
00000130: a808 963d ec30 d3bd 4ca3 be3a c7b7 d63d
00000140: 342a a03d 1444 3b3b b12d c33c 9c8b 5fbc
00000150: f948 3ebd 3a90 1fbd de60 aebd 3aaa 913d
00000160: 5636 3a3d 3e2f 733d 1fca 96bd c078 ba3d
00000170: 1d2e b33c cb4f a83d 2b7d ddbc bbfb 6d3d
00000180: 6c9f f93d 717e b53d b3e0 e43d d8b3 ca3b
00000190: 6a3e db3d 9567 cabd 28ac 8abc 038b bfbd
000001a0: fef3 1abd fd11 20bd 7bb8 e7bc c595 943d
000001b0: a441 9c3c 3a49 96bc 5248 563d e922 ddbd
000001c0: 7e06 593b 5fb6 77bd d247 05bd 8ef9 e9bb
000001d0: 54f4 f8bd 05c3 10bd 2291 1b3c 261d af3d
000001e0: 5bfd 23bd f0aa 523c 24df b93d 1557 8fbd
000001f0: 467e d13d ab18 47bd 35e2 183d 4546 7e3c
00000200: 1572 193b 4876 9c3d d250 71bd 32ca c6bb
00000210: e835 05bd 1f68 fcbd 9c67 43bd 34d0 d3bd
00000220: 1a78 e53b 3946 bcbc 0aea 84bc 290a 46bd
00000230: 70d7 85bc e643 83bd a236 133c d772 d13d
00000240: 4909 a63c 188f 5fbd 02fa a0bd ee56 513b
00000250: 567b b8bd 0610 a2bd 138d 93bd 5160 28bd
00000260: ed58 8b3b 6b91 9c3d 572c 023d 1ebb c23d
00000270: 5c14 92bd ca34 3d3c 8b12 bcbd ae1c ae3d
00000280: e493 143d fcb9 f23d 379d 89bd fd1b df3d
00000290: 8eb7 003e 1523 dc3d 2153 013d 826e f13d
000002a0: bbad cd3d 81e0 f03d ab8e 7f3c 3f37 81bd
000002b0: b005 a43c b906 553d e5c9 2ebd 08a8 c4bd
000002c0: bb0e 17be 67fd 9ebd 5b2f 893d aaa1 c8bc
000002d0: 12dd fbbc 8bfc e0bc af77 333d a57d fbbd
000002e0: 0596 c6bd 9c74 65bd a5f5 b9bd 7f42 393d
000002f0: 61c6 913d 6b19 dfbd 186d e6bd 6721 03be
00000300: fcdd e43c 21ae b93d 837d a8bd 1da1 73bd
00000310: 2721 083d b528 a6bd 77fb d43d 309d 1e3d
00000320: 6146 5fbd d803 a8bc f877 df3b 9126 8bbd
00000330: 0590 03be 6a00 87bc 000e b1bc 0268 1dbd
00000340: a6bd 02bd a462 8d3d e69d 34bd adc6 e5bc
00000350: 2dbb 1c3d b7d3 a1bd cc07 813c c7e7 09bd
00000360: 5ae1 403d a779 92bd 6e26 a83b 5183 a33c
00000370: abf2 bfbd 15cc a8bd 474a 303d 4adb d3bc
00000380: 5335 7a3d c399 40be d250 ebbd a2b8 12be
00000390: 6660 bc3a c9a6 bdbd 0745 edbd 4b0d 3cbd
000003a0: 5e63 c8bd 9ce0 23bc 849a cfbd 5eca 2bbe
000003b0: a2e7 c63c 909c f93c 5b32 0dbe 51db 45bd
000003c0: 20de 96bd 5913 8ebd 0897 c1bd de04 6dbd
000003d0: 5303 2cbd 3cc4 6fbd c401 4abe 32e2 13be
000003e0: 7438 14bd 82e6 e6bd 9a91 30bd 730e e7bd
000003f0: 19ed 843d 94b0 ffbd c3ac c2bd 1a03 f9bd
-0.20881492 -0.14742914 -0.20811531 -0.08584115 -0.24381381 -0.066486165 -0.1958028 -0.18343298
-0.14683077 -0.083691806 -0.17826259 -0.037360046 -0.14054555 -0.10664031 -0.15486592 -0.17472136
-0.16849318 0.0012231427 -0.114731066 -0.10002313 -0.09695516 -0.12822793 -0.1009189 -0.027887492
-0.20283666 -0.037884437 -0.11318368 0.023136772 0.05347516 -0.16911139 0.0369379 0.03199921
0.04724366 0.056392748 0.040093724 -0.05458138 -0.08930973 0.004038769 -0.039890084 -0.019901961
-0.073392436 -0.04705257 0.011673523 0.11777971 -0.061187435 -0.09387382 -0.07744613 -0.026569804
0.046954866 -0.007229104 0.0038682679 0.006153563 0.013701849 0.05656921 -0.036026873 -0.13562506
-0.051946707 0.13834965 0.05884214 -0.12180238 0.010506448 0.13942002 -0.039488405 -0.0037156274
-0.045022923 -0.02022305 0.027519194 0.05147934 -0.06826515 0.014410366 0.007530558 0.020204168
-0.11702532 -0.14712314 -0.039159447 0.051175877 0.0732587 -0.103120655 0.0014544516 0.104842715
0.078205496 0.0028574513 0.023825498 -0.013644125 -0.04645631 -0.038955905 -0.0851457 0.07112546
0.045461975 0.059371226 -0.0736277 0.091050625 0.021872574 0.08218344 -0.027037224 0.058101397
0.121886104 0.088620074 0.111756705 0.00618599 0.10705264 -0.09883038 -0.016927794 -0.09352686
-0.037830345 -0.039079655 -0.02828621 0.07255129 0.019074269 -0.018345464 0.052315064 -0.10797674
0.0033115442 -0.060476657 -0.032539196 -0.007140345 -0.12155977 -0.035342235 0.009495052 0.085504815
-0.04003654 0.0128581375 0.09075764 -0.069990315 0.10229163 -0.04860751 0.037325103 0.015519683
0.0023413945 0.07639748 -0.058914967 -0.006066584 -0.032522112 -0.12324547 -0.04770623 -0.10342446
0.0070028426 -0.022982704 -0.01622488 -0.048349533 -0.01633808 -0.06409435 0.008985193 0.10226982
0.0202681 -0.054579824 -0.07860185 0.0031942683 -0.090078995 -0.079132125 -0.07204642 -0.04110748
0.004252544 0.07644924 0.031780567 0.09508346 -0.071327895 0.01154823 -0.09183224 0.08501564
0.036273852 0.1185188 -0.067194395 0.1089401 0.1257002 0.10748879 0.03157342 0.11788656
0.10042902 0.11761571 0.01559798 -0.063093655 0.020022243 0.052008364 -0.04267301 -0.09602362
-0.14751713 -0.077631764 0.066984855 -0.02449115 -0.030745063 -0.027464172 0.04381531 -0.12279824
-0.09696583 -0.05601941 -0.09080056 0.04522943 0.07117916 -0.1089352 -0.11251277 -0.1280571
0.027937882 0.090664156 -0.082270645 -0.05947982 0.03323474 -0.08113233 0.103995256 0.038724124
-0.054510478 -0.020509645 0.0068197213 -0.06794465 -0.12847908 -0.01647969 -0.021613121 -0.038429268
-0.031919144 0.0690358 -0.044095896 -0.028048838 0.038264442 -0.079017095 0.015750788 -0.033668306
0.047089912 -0.071521096 0.0051315343 0.019960077 -0.09372457 -0.082420506 0.043039586 -0.025861401
0.06108601 -0.18808655 -0.114900246 -0.14328244 0.0014371991 -0.09260327 -0.115854315 -0.045911115
-0.09784578 -0.0100022815 -0.101368934 -0.16776416 0.024280373 0.030470163 -0.1378874 -0.04830486
-0.07366586 -0.06937284 -0.09452635 -0.05786597 -0.041995358 -0.058536753 -0.19727236 -0.14441755
-0.03618665 -0.112744346 -0.043107606 -0.11282053 0.06490535 -0.124848515 -0.09505608 -0.12158795

conv1.bias f4 [4]
00000000: 7952 2fbe cba6 943d 83e7 fe3d 73ac bbbe
-0.17121305 0.07258376 0.12446501 -0.36655006

conv2.weight f4 [6, 4, 5, 5]
00000000: 2d78 adbd 840b fcbb 4b9e 56bd 6743 07be
00000010: 8ab5 ccbd 2feb 71bc 3f0c 5bbd 9d52 1ebd
00000020: c8db f3bd 0e53 2d3d b874 ebbd e6e2 31bd
00000030: 51f7 d4bd da70 d1bd 7eda 29bc 4ba8 d3bd
00000040: 8306 00be 4e66 debd 2e7b 903c c0c4 86bb
00000050: b0ef b1bc ab3e 14be 877c 5d3b e663 18bd
00000060: d99f 04be 454f b4bc c0b4 cdbb 0108 a2bd
00000070: 024e 89bd 7e62 683d 33a4 07bd 3c2f d7bc
00000080: c4f6 b6bd 5bbc adbd 8da1 8a3d 7183 503c
00000090: 08eb 25bd 5f18 103d 2ed9 95bd b6b7 e3bd
000000a0: 2ff9 f9bd edca 7c3c 099f 84bd 3f56 143d
000000b0: 3b6d 7c3d 7a5f 2e3c 1fac 7c3d 7ea6 46bd
000000c0: 2d0a 7f3d 3c50 93bd 040a 3abd da0e 073d
000000d0: 6129 adbd e3ac 2b3d 30bb 21bc bcc9 0cbd
000000e0: 41f1 553d eaa7 263d 17a9 c5bd 6581 36bd
000000f0: 3db0 9cbc 5602 423d dca8 b73c a90d d13c
00000100: e184 bc3b 2bb0 f2bd a259 fb3c 5d9c 78bd
00000110: 88ec d13c f4ba f43c 83fe e5bd 7697 43bd
00000120: aa03 a5bc 04c2 e2bc 8993 17be 7469 04bd
00000130: 199c 7b3c 9d59 b73c c865 6e3c 03e6 96bc
00000140: df3e 07be 9671 eb3c ae0c ebbd e036 c2bd
00000150: 3624 0bbd 0f24 95bb 8def 9d3c dd0b 47bd
00000160: 82a7 b0bd 2ef5 2fbd f961 9cbb 0f41 c8bd
00000170: 1305 12be df24 fcbb 6e8d cfbd c766 c2bd
00000180: a855 213d f902 cebd 8180 f3bd e174 1c3d
00000190: 04c9 63bd 6c8b 10ba 9e93 e63d 63d2 e5bc
000001a0: 72b8 d33d 1476 913d 5ee7 8d3d 22e5 af3c
000001b0: 9f80 5abd 271b 5b3d 6d06 a1bd c384 8bbd
000001c0: d520 6ebd 2238 583d 4520 623b 2a88 5d3d
000001d0: aa52 663d 5d60 85bb dcdf 8a3d 8727 abbd
000001e0: 3ae0 d6bd 0c92 babd bd63 383d 5296 a43d
000001f0: ad2c 1fbd bf27 cf3c 8542 eebd f9e5 41bd
00000200: a420 3cbd a478 8dbd 6f5b c3bd e3cb 783c
00000210: 308f 0ebd 587c 95bd 0438 453d 5d1e 00be
00000220: cc00 d73c 5dde 833d b9d2 dfbd 0d8e 24be
00000230: 5294 a2bc 815d f8bd 22b4 2bbb 2bf3 ebbd
00000240: 17cf 01be 251f 59bc c986 93bd 6229 0cbe
00000250: f00e eaba ccec 67bd 7aa0 15bd 7ef2 1ebc
00000260: b985 fdbd 2da8 91bc 8e37 42be 5051 e73c
00000270: cce3 c7ba ca29 3dbe d581 c8bd 6ccd 17be
00000280: 636b 0f3d 2247 a2bd b2b6 debc da99 973c
00000290: 2e3e 24be 5482 d8bb eaaf 0fbe 896c d8bd
000002a0: a82a fcbd 4ba4 3dbe 5426 29be 4d0c 2abe
000002b0: e73b eebd 7c99 f8bd 2265 f7bd 5f32 623c
000002c0: 8963 54bd 09be 00be 214b ccbd 3917 3bbd
000002d0: 59c1 09be e56b 98bd 63b5 3cbd 8ce6 b83d
000002e0: dc49 cc3a fac8 41bd 9dad 8ebd 8b69 64bc
000002f0: b742 593c 6c94 95bb 4b10 ebbc bd81 56bd
00000300: f088 883b 23d8 2c3b 0d6a 56bd be3e 1fbc
00000310: b3fd 66bd 568b 03bd 1ae4 e4bc 3a76 62bc
00000320: f326 05be 6ce9 15be 96fa 17be 0ae7 a2bc
00000330: cb6c 2b3d 17c5 6a3d c30d c4bc 215a b0bd
00000340: 0b90 49bd 8035 f6bd 1cab 40bc d68f babd
00000350: ba27 94bd 3364 3bbc 44e0 afbd ac9c ffbd
00000360: 872a 90bd 25c5 c1bd 4c33 cebd fb99 4fbd
00000370: c2e0 09be fc49 193c b4d2 79bd 235a eabd
00000380: b0ee 3b3d 6b80 a4bd c85c 41bd 64b5 c0bc
00000390: 6c2c 0c3a c3ab 04be 8cb1 c9bd faaf 23be
000003a0: e699 08bc 75b7 8abd 58f9 e7bd d311 93bd
000003b0: 0726 7c3b 5fcc 53bd 3398 25bd ab23 d83b
000003c0: 8705 b9bd a8e6 babd 7fc9 86bd 4db2 38be
000003d0: 5811 4dbd cf54 bebd 3992 c3bd dc7f aebd
000003e0: 973e f2b9 5f5e 69bd 36b3 d7bd 0d0b c1bb
000003f0: 0b88 0ebd 7fdd 56bd e4a8 56bd 6b9c dbbc
-0.08470187 -0.0076918025 -0.052397054 -0.13209306 -0.09995563 -0.014765545 -0.053478476 -0.038653005
-0.11907154 0.042315535 -0.11496872 -0.043429278 -0.10398734 -0.10226603 -0.010367034 -0.10334834
-0.12502484 -0.10859357 0.017636862 -0.00411281 -0.021720737 -0.14477031 0.0033796148 -0.037204646
-0.12951602 -0.022010455 -0.0062776506 -0.07911683 -0.06704332 0.056734554 -0.033115577 -0.02626764
-0.089337856 -0.084831916 0.067690946 0.012726651 -0.040507346 0.035179492 -0.07316814 -0.111190245
-0.12205731 0.015429241 -0.06475646 0.036215063 0.061627608 0.010642881 0.061687585 -0.048498623
0.062265564 -0.07193038 -0.045419708 0.032973148 -0.08455158 0.041912924 -0.009871289 -0.034372076
0.05223203 0.04068748 -0.09651392 -0.044556994 -0.019127006 0.04736551 0.022419386 0.025519209
0.005753145 -0.118500076 0.030682389 -0.060695995 0.025625482 0.029874302 -0.11230185 -0.047751866
-0.020143349 -0.027680404 -0.14802374 -0.03232713 0.015357041 0.022381598 0.014550634 -0.018420225
-0.13207577 0.028740685 -0.11477028 -0.09483123 -0.03397008 -0.0045514177 0.019279266 -0.048595298
-0.086256996 -0.04295843 -0.0047724214 -0.09778034 -0.14259748 -0.007694825 -0.101343974 -0.094922595
0.03938833 -0.10059161 -0.118897445 0.038197402 -0.055611625 -0.00055139395 0.112586245 -0.028054422
0.103379145 0.071026 0.069288954 0.021471564 -0.05334532 0.05349269 -0.07862554 -0.06812432
-0.05813678 0.052787907 0.0034504097 0.054084934 0.05623118 -0.0040703253 0.06780979 -0.083571486
-0.104919866 -0.091098875 0.045016993 0.08036484 -0.038860966 0.025287507 -0.11633781 -0.04733846
-0.045929566 -0.06907776 -0.09538924 0.015185329 -0.034804523 -0.07299107 0.048149124 -0.12511583
0.026245497 0.06438897 -0.10928864 -0.16069813 -0.019846115 -0.121272095 -0.0026199897 -0.1152099
-0.12676655 -0.013252054 -0.072034426 -0.13687661 -0.0017857235 -0.05662231 -0.036529996 -0.009701369
-0.12379021 -0.017780388 -0.18966505 0.028237015 -0.0015250384 -0.18472973 -0.097903885 -0.14824456
0.03501452 -0.07923724 -0.027186725 0.01850598 -0.16039345 -0.006607333 -0.1403195 -0.105675764
-0.123128235 -0.18519704 -0.16518527 -0.16606255 -0.11632519 -0.1213865 -0.120798364 0.013805955
-0.051852737 -0.12572493 -0.09975267 -0.045676444 -0.13452663 -0.07442454 -0.04607142 0.09028348
0.0015585977 -0.047310807 -0.06966708 -0.013941179 0.013260535 -0.0045648124 -0.028694293 -0.05236982
0.004166715 0.0026373945 -0.05234723 -0.009719549 -0.05639429 -0.032115303 -0.027940799 -0.013822133
-0.13003139 -0.14639825 -0.14841685 -0.019885559 0.0418518 0.057316866 -0.023932343 -0.08610941
-0.049209636 -0.12021923 -0.011759546 -0.09109466 -0.0723414 -0.011437464 -0.08587697 -0.12481055
-0.070393614 -0.094614305 -0.10068378 -0.050683957 -0.13464645 0.009356018 -0.060991958 -0.114429735
0.045881927 -0.08032306 -0.047207624 -0.023523994 0.00053471955 -0.12956147 -0.098483175 -0.15985098
-0.0083374735 -0.06773273 -0.113268554 -0.07181134 0.0038474815 -0.051708575 -0.04042835 0.006596049
-0.090342574 -0.091260254 -0.06581401 -0.18036766 -0.05006537 -0.0929352 -0.09549374 -0.08520481
-0.0004620447 -0.056974765 -0.10532229 -0.00589121 -0.03479771 -0.05245733 -0.05240716 -0.026807984

conv2.bias f4 [6]
00000000: 60fb 1abe f016 bdbd 02ce ebbd 710d c6be
00000010: f8bd 00be 7ef2 61bd
-0.15134954 -0.092328906 -0.11513902 -0.3868213 -0.12572467 -0.0551629

conv3.weight f4 [8, 6, 5, 5]
00000000: 00dc 1a3c 1e2f dbbd dca1 9abd 31c1 c2bd
00000010: 6aa4 adbd 0af0 873b c09a 88bc 1c83 363d
00000020: aefd 37bb 4dcd b8bd 0775 04bd 774d b3bd
00000030: e5c8 06be 7ecc d4bd c9a7 353d 9df9 c0bd
00000040: a992 f73b 0673 b7bd 0f27 1d3d 9797 a5bd
00000050: 5ea0 2ebc 37ff 0dbe 468e bebd ffe8 a5bd
00000060: 44e3 7bbd e6a2 dbbc fb8a 1bbd c861 bcbc
00000070: 505c 813d 6061 d0bd 2416 3ebd f225 253d
00000080: 1061 adbc b725 b1bb 9763 a23b 4509 b83d
00000090: fa16 b2bd f913 583d 5138 663d 5cde 1ebd
000000a0: 0abd a7bb 0521 1bbd fb88 0fbd ab72 c4bc
000000b0: e0ff 7c3d 029a be3d 7bcd b53b f85b 633d
000000c0: 5b70 823d 506f a43d 6df8 213e d4c9 f03d
000000d0: 91e6 1ebd 9daa 793d 42e4 6f3d 2adb 323d
000000e0: 01af d93d d275 5e3c 0a89 083d 8dae 3f3d
000000f0: 2386 6a3d 8e15 0d3d e770 933d 149a 1c3e
00000100: d714 2b3d c34a c03d bd1a c33d 8de0 e43c
00000110: 3d7e 9c3d 802e cb3c 2ca7 d73d 435e 1c3e
00000120: 6540 2d3e 370e 593d 5859 99bc c4d2 03bd
00000130: 6847 673c ebd8 e1bc 830d 00be 5c70 093d
00000140: 7e6e fabd 083b fcbc bae3 083d 633d b7bd
00000150: 4e51 aebd d70e 02bd cb2c 92bd 0aa3 55bb
00000160: 0f21 edbc c732 57bd 7c60 4ebd a16b a2bd
00000170: d516 69bd 06bd dcbd 0e7a 083d 64b3 6ebd
00000180: 6cea 2fbd cb36 21bd f1cc 3e3b c37d 94bd
00000190: f4f1 05be 9ae8 303d 6fc9 a1bd 21d6 373c
000001a0: a890 723b d14d 02be 92d5 e93d 0b23 0a3d
000001b0: c875 753d 380a 073e 7926 093c fe8d e23c
000001c0: c8ff 86bd 9250 453d ce8b 14bd 8e77 07be
000001d0: df87 b2bc 58ee 18bc 9fd1 393e 8d4c 3fbc
000001e0: 7ed4 9bbd 6f9a 103e a49e ec3d cb61 dd3d
000001f0: 1fa2 bd3d b525 f03c b80e ea3b 4aee 24b8
00000200: bcfa 8abd 04bc d9bc 4254 503d e85d 90bd
00000210: c1a1 123d 556d a03b f9ec 76bc b952 57bb
00000220: ac41 29bd b42f 3b3d 1b4a 07bd 294b 543d
00000230: 16ae 423d 732f 68bd e37e 14bc 91a3 d6ba
00000240: c5f2 263d b4eb d6b9 377d 4abd 0c01 44bd
00000250: 8c84 2c3d bfb4 babd 91b4 d93c b5fa 07be
00000260: 3749 38bd f926 84bb 17ef 9f3c 7336 80bd
00000270: c609 01be ba84 c5bd d04e c2bd cc0b 19be
00000280: 7d4f 263d 968c 58bd 7626 db3c 14d0 75bd
00000290: 60b8 0dbe cde1 b6bd 7daf 0fbe 1d27 68bc
000002a0: 6e4d 37bd 82ba f9bd eb43 c2bd 47c7 c5bb
000002b0: 7788 cfbd 692a eabd e130 94bd 97ee bbbd
000002c0: f0c5 96bc 39f1 3b3d 52b4 9cbd ec8f 953c
000002d0: fe0b cdbd d049 82bd c2be bd3c 4edd 983b
000002e0: 17ad 043a 82e9 20bd 8856 323d 8571 aebd
000002f0: a794 f53b baae b9bd 4174 51bd 9d8f bf3b
00000300: 8125 d1bd 7d63 37bc 1a90 343c 3139 99bd
00000310: 1c10 ae3c e535 253d 7bc9 89bd 1629 9a3c
00000320: 6a24 0b3c 1042 d63c 9005 123e f175 27bc
00000330: b7e4 b5bc e0a8 23bc 52c1 e2bc 019b 40bc
00000340: e78f 0fbd 94d6 90bc b6bf a1bc 1374 f93b
00000350: 35ee 45bd c174 88bd 2b12 46bd af4f 9cbd
00000360: b69d 36bb cf32 a5bd 6795 debd dfd2 6cbd
00000370: 7ae1 bebd 8e1c 3a3b a0e3 433c 7402 0bbe
00000380: ddfb 88bc 1cd2 8cbd 38a9 553c eb51 a5bd
00000390: 3e3e 9b3d 1266 d9bd 0077 f7bd ad50 74bb
000003a0: 6355 bbbc 01eb b8bc 22eb 8a3c 7347 bcbd
000003b0: 55d6 c0bd 1dd6 28bd 565c 383d d852 a5bd
000003c0: 72bb b1bd bad8 cfbd 1820 3b3d 2a7e e4bd
000003d0: 9c58 0b3d 76f0 adba 4b85 d3bd 250b 2bbd
000003e0: 3d20 623b 3bef c7bd a547 2ebd eb2e 603c
000003f0: 5adc b33c c5ac 65bd e11a 03bd 3c39 653d
0.009451866 -0.10702346 -0.075504035 -0.095095046 -0.08478625 0.004148488 -0.016675353 0.04455863
-0.002807479 -0.09023533 -0.03233817 -0.087550096 -0.13162573 -0.10390566 0.044349466 -0.0942261
0.007555325 -0.08957486 0.038367327 -0.08085554 -0.010658352 -0.13866888 -0.0930448 -0.08101081
-0.061496034 -0.026811074 -0.03797434 -0.022995844 0.06316435 -0.10174823 -0.046407834 0.04031939
-0.021164447 -0.0054061073 0.0049557197 0.08986143 -0.08695789 0.052753422 0.05620605 -0.038786277
-0.0051189708 -0.037873287 -0.035042744 -0.02398046 0.06176746 0.093067184 0.005548177 0.05550763
0.06369086 0.08029044 0.15817423 0.11757246 -0.038794104 0.060953725 0.058567293 0.043666042
0.106290825 0.013577895 0.033333816 0.046797324 0.05725683 0.034444384 0.07199269 0.15293151
0.04176792 0.0938926 0.09526584 0.027939105 0.076412655 0.024802446 0.105299324 0.15270333
0.16919096 0.052992072 -0.01871936 -0.032183424 0.014116146 -0.027569255 -0.12505154 0.03355442
-0.12228106 -0.030789867 0.033420302 -0.089472555 -0.085116014 -0.031752434 -0.0713745 -0.00325984
-0.028946428 -0.05253866 -0.050384983 -0.07930685 -0.05690654 -0.10778241 0.033319525 -0.05827655
-0.04294817 -0.039358895 0.0029113854 -0.0725055 -0.13080579 0.043190576 -0.078997485 0.011220486
0.0037012491 -0.12724997 0.114176884 0.033724826 0.059926778 0.13187492 0.008370989 0.027655598
-0.06591755 0.04817254 -0.03626614 -0.132292 -0.021793304 -0.009334169 0.1814637 -0.011675966
-0.07608889 0.14121412 0.11553696 0.10809668 0.09259438 0.029314855 0.007142868 -3.932257e-05
-0.06786105 -0.02657891 0.050861605 -0.07049161 0.03579879 0.004895846 -0.015071147 -0.0032855703
-0.041322395 0.04569979 -0.033029657 0.05182949 0.047529303 -0.056685876 -0.009063455 -0.0016375651
0.040758867 -0.00040992873 -0.04943582 -0.04785256 0.042118594 -0.09116506 0.026575359 -0.13279231
-0.044991698 -0.004032966 0.019523187 -0.06260385 -0.12601385 -0.09644456 -0.094876885 -0.14945906
0.04060315 -0.05286845 0.026751738 -0.060012892 -0.13839865 -0.08929787 -0.14031787 -0.014169482
-0.044751577 -0.12193777 -0.094856106 -0.0060357186 -0.101334505 -0.1143387 -0.072358854 -0.09176367
-0.01840493 0.045884345 -0.07651581 0.018257104 -0.10012053 -0.06361735 0.02316225 0.0046650534
0.0005061193 -0.03928519 0.043539554 -0.08517746 0.0074945274 -0.090665296 -0.05113626 0.0058459775
-0.102122314 -0.011193153 0.011020685 -0.074816115 0.021247916 0.0403346 -0.067278825 0.01881842
0.0084925685 0.026154548 0.14259934 -0.0102209905 -0.022203786 -0.009988993 -0.027680073 -0.011755706
-0.035049345 -0.017680444 -0.019744735 0.007612714 -0.048322875 -0.06662894 -0.04835717 -0.07632386
-0.0027865 -0.080663316 -0.1086834 -0.05781829 -0.0932035 0.0028398368 0.0119561255 -0.13575155
-0.01672166 -0.06876013 0.013040833 -0.08072265 0.07580231 -0.106151715 -0.12083244 -0.0037279532
-0.022867864 -0.022572996 0.016957823 -0.09193315 -0.094158806 -0.04121982 0.045009933 -0.08072442
-0.086783305 -0.10148759 0.045684904 -0.111568764 0.03402005 -0.0013270515 -0.10328158 -0.041758675
0.0034504079 -0.097624265 -0.042548794 0.013683061 0.021955658 -0.05607297 -0.032008056 0.055962786

conv3.bias f4 [8]
00000000: c05f f9bd 9548 30bd 5de5 82bd 5781 ecbd
00000010: 53a6 f7bd 8958 733e 604d f5bd 045b 23be
-0.12176466 -0.04303797 -0.06391404 -0.11548107 -0.12092271 0.23764242 -0.11977649 -0.15952688

conv4.weight f4 [10, 8, 5, 5]
00000000: 037f 82bd fbc0 babd faa8 a13c bca9 85bd
00000010: cd82 53bd 3a4a f9bc bb02 b7bc 7ea3 263c
00000020: 973d 61bb 6738 e9bc 0a4b f8bd 10f8 c7bb
00000030: 16e7 8cbd 294f 27bd c5cd b43c 51d6 82bd
00000040: 5bca 67bd 10f8 e6bd 5574 f0bc 7689 90bd
00000050: 1847 9ebd 9ae3 48bd 9a09 53bd 83c3 2cbd
00000060: 044d d93b bb9a 8b3c 88db d13c b9b0 9cbd
00000070: 60ba e8bd a93e 6fbc 204b 043d 2f23 ccbb
00000080: 35e3 cabd 53ee 7fbd f2e1 bb3a 422a 9abd
00000090: d044 cfbd 24e6 10bd 71ec 503c 66cf d6bd
000000a0: b89f 7ebd 088f a4bd 6dfc acbd ce47 a0bc
000000b0: 27fd 9cbd 95af 54bc 0a95 b5bd 33a6 51bd
000000c0: ba6d c6bd fb6c fdbd 93c4 ecbc 9d84 8dbc
000000d0: 6413 bbbd 91b3 5e3d 4e53 1f3d 2d53 ae3b
000000e0: 8f96 9abc d00a 13be f013 0d3d 8da3 bcbd
000000f0: e9c6 133d 37c8 96bb 0fa0 81bd 3107 a83d
00000100: 35b1 60bd a99a 08bd c8c8 c0bd 4383 8dbc
00000110: 84ba aabd 5a73 0abd 499c 693d f532 86bd
00000120: 97f1 c6bd eb1e 93bd 3364 803c 211a a6bd
00000130: 99ad e7bd aebe f0bd 3521 72bd 3e9d 173c
00000140: 146a dbbd 9363 c4bd 906a ebbd a557 883c
00000150: 23d5 7cbc d348 b3bc 85b9 293b 681a fbbc
00000160: 16cd c1bb da96 90bd ffa6 23bd 18f4 babd
00000170: ac3d 91bd c360 47bd 90ea b1bd da08 b2bd
00000180: f292 a0bd f6d7 0cbc 2879 a0bc bb96 a0bd
00000190: f098 853d 1f94 973c fb08 2bbc 2fdb a83c
000001a0: 5e1e 953c 05c9 80bc 9add a03b 3746 123d
000001b0: 45bb 84bc 6993 a2bd ecfc 133d 655f f83d
000001c0: 3dbf 2dbd feb0 03bb fa55 a0bd ca31 c6bd
000001d0: 9bc1 84bb ba6f 1e3c 4d9a 033c 061e babc
000001e0: 6b62 dbbd 8c53 16bd f59d 303c bfce 023e
000001f0: 0a62 3fbd d5b0 973b 75f0 fabd 6299 06bd
00000200: 317e 5ebd dd7f 8fbc 1fbb 96bd 0d2d 8d3c
00000210: dc47 853c 3a08 95bc be2e c1bd 50f7 443a
00000220: 8b68 fbbd d3c7 85bc 7e42 96bc 0f47 90bc
00000230: af45 febc 375a 883b dd3d c0bd b380 04bb
00000240: 8d2b e4bc 4745 52bd 39b7 c1bc 6c2a 77bd
00000250: 74a5 783a 91e9 67bd fe46 263c 3ed2 0b3d
00000260: 889c b8bb ff8f e4bc 3b06 62bd 15d5 b4bd
00000270: efdf aebd 206c ddbb fa02 39bd ddab 08bd
00000280: 0344 ecbd 0f2d 4cbc a521 75bd f42f cdbc
00000290: 4367 bdbd bc56 82bc e3c6 ac3b 3e30 d9bd
000002a0: df3e 43bd bb3b 9fbd f585 043c 8438 3cbd
000002b0: e23d c2bd a1bc cbbd 1634 7cbd 1ff0 e7bc
000002c0: 72cc 08bd b4aa 3c3c b577 0cba ebd8 b2bc
000002d0: 61de 1cbd 65e2 b3bd bc8e c8bb b220 5c39
000002e0: c4cd 6cbd d914 42bd a186 ebbd 0013 be3b
000002f0: 5ba2 153b 76c9 b63b 1777 d3bc 44cc 80bd
00000300: db30 5cbd fe7e b3bd e1f8 b9bd d72f 363c
00000310: 3b83 51bd f003 d9bd f760 36bd 2509 c4bc
00000320: 0666 58bd 402b 413c b371 c93b 927c f2bd
00000330: 7458 98bd e05c f7bc d341 67bd 34b6 a13c
00000340: 9f4d 953b 1deb cabd 5a37 0ebd 0d1c a8bd
00000350: a719 f5bd 0ae6 f2bd 137e 6dbd 15ae e8bc
00000360: d285 7abd bec2 5ebd 173e d43b 58bf 093d
00000370: d476 86bd 1fb4 89bd 9a90 a73c 9e66 35bd
00000380: 29ad 063d 7b7d 2e3d 3f71 e03c fb9f 2dbc
00000390: 38de 953c 9c25 71bc db0b 763d 7131 3e3c
000003a0: 9641 5c3d a3ae 7ebd 5ba0 283d bdf0 ea3c
000003b0: 8318 5ebd 2fb9 e23c c984 9e3c 7552 0cbd
000003c0: a00e 90bd 292e 823b 2a2e b4bb c8ef 25bd
000003d0: fbb6 5bbd 121e 0bbd 4b71 223c 5eb8 693d
000003e0: 46f4 8e3d 0172 f9bc 7a99 d23c 84ee 41bd
000003f0: f3ad febd 8f9d 6dbd 633c b23d 42ed 89bd
-0.06371882 -0.09118839 0.019733895 -0.06526515 -0.051638413 -0.030430902 -0.02234017 0.0101708155
-0.0034368986 -0.028469278 -0.121236876 -0.0061025694 -0.06880014 -0.040846977 0.022070775 -0.06388534
-0.056589466 -0.11277783 -0.029352346 -0.070574686 -0.07728404 -0.049045183 -0.05152283 -0.042178642
0.0066314954 0.017041555 0.025617376 -0.07650895 -0.11363673 -0.014602342 0.032298207 -0.00622978
-0.099066176 -0.062483143 0.0014334305 -0.07527591 -0.10120547 -0.03537573 0.0127516845 -0.10488777
-0.06216404 -0.080350935 -0.08446584 -0.01956549 -0.076654725 -0.012981315 -0.088663176 -0.05118389
-0.096888974 -0.12374302 -0.028902328 -0.017275149 -0.09134558 0.054370467 0.038897805 0.005319974
-0.01887062 -0.14359593 0.034442842 -0.09210882 0.036078367 -0.004601504 -0.06329357 0.08204497
-0.054856498 -0.03335062 -0.09413296 -0.017274505 -0.08336356 -0.033801414 0.05703381 -0.06552688
-0.09714048 -0.071836315 0.015672779 -0.081104524 -0.11312408 -0.11755119 -0.0591137 0.009253798
-0.10713592 -0.09589305 -0.114949346 0.016643355 -0.015431675 -0.021885311 0.0025897932 -0.03065224
-0.0059143407 -0.07060023 -0.03995418 -0.091285884 -0.07091841 -0.048676264 -0.08687317 -0.086930946
-0.078405276 -0.008596411 -0.019589022 -0.078412496 0.06523311 0.018503247 -0.010439153 0.020612327
0.018202957 -0.015720854 0.0049092295 0.035711493 -0.016202578 -0.079382725 0.036129877 0.1212757
-0.042418707 -0.002009451 -0.07828899 -0.09677465 -0.0040514 0.009670192 0.008032394 -0.022719394
-0.10712131 -0.03670077 0.010779847 0.1277418 -0.046724357 0.0046292343 -0.12252895 -0.03286112
-0.054319564 -0.017517025 -0.07359909 0.017233396 0.016269617 -0.0181924 -0.094327435 0.0007513659
-0.12275799 -0.016330635 -0.018342253 -0.017612008 -0.031039087 0.004161145 -0.093867995 -0.0020218312
-0.027852798 -0.0513356 -0.023646938 -0.06034319 0.00094851037 -0.05661923 0.010148762 0.03413605
-0.0056338944 -0.027900694 -0.055181723 -0.08829705 -0.08538806 -0.0067572743 -0.045168854 -0.033367027
-0.1153641 -0.012461915 -0.05984654 -0.02504728 -0.09248211 -0.015910499 0.0052727326 -0.106049046
-0.04766738 -0.077750646 0.0080885785 -0.045952335 -0.094844595 -0.099480875 -0.06157311 -0.02831274
-0.0333981 0.011515308 -0.0005358414 -0.02183195 -0.038298015 -0.08783416 -0.006120531 0.00020993015
-0.05781342 -0.047383163 -0.11500288 0.005800605 0.0022832367 0.0055782152 -0.025813622 -0.062889606
-0.05375753 -0.08764456 -0.09080673 0.011119804 -0.05115054 -0.10596454 -0.044526067 -0.023930142
-0.052831672 0.011790097 0.006147587 -0.11840166 -0.07438746 -0.030195653 -0.05645926 0.019740202
0.0045563723 -0.099081255 -0.034720756 -0.08208475 -0.119677834 -0.11860283 -0.057981562 -0.028403321
-0.061162777 -0.05438494 0.0064771282 0.033629745 -0.065656334 -0.067238085 0.020454694 -0.044287317
0.032879982 0.042600136 0.02739775 -0.010597224 0.018294439 -0.014718439 0.0600699 0.011608467
0.053773485 -0.062178265 0.041168552 0.028679246 -0.054222595 0.027676193 0.019350426 -0.034258325
-0.070340395 0.003972788 -0.0054986672 -0.040511876 -0.0536413 -0.033964224 0.009914706 0.057060592
0.06980185 -0.03044987 0.025707949 -0.047346607 -0.12435522 -0.058011588 0.08702924 -0.067347065

conv4.bias f4 [10]
00000000: 94bd 67bd c6b8 023e 2baf f33d 1a5e 84bc
00000010: c01b edbc c3b0 03be 1835 9fbd 81c3 16be
00000020: e31a 38bd 90c7 133e
-0.05657728 0.12765798 0.11898645 -0.016158152 -0.028943896 -0.12860398 -0.07773799 -0.14723016
-0.044947516 0.14431596

fc1.weight f4 [40, 160]
00000000: c90b cabd 279e 6fbd 528a 8abd 48d7 0dbc
00000010: 19b6 8e3b d11b 09be e826 b3bd 7e1f a0bd
00000020: 61cb 3fbd 04b2 8ebd 7225 ecbd e8ec ddbb
00000030: 8448 80bd fa10 dcbd bab5 00be 4711 fbbd
00000040: 0234 08be c7dd c6bd 1a64 ddbd 31c7 aebd
00000050: 58a4 7dbd 6e23 22bd 64b2 763b 7b57 d7bd
00000060: 491e 62bd 760b 3ebd ac81 d7bd 599d 09bd
00000070: 2392 02be 9f1d 0bbe 81a1 50bd 2804 f0bd
00000080: 581f a1bc 6614 9ebd 22c4 843c 7db5 c3bd
00000090: 3d9d bfbd 72d7 d8bc 6900 3cbd 561a febc
000000a0: 7229 18bd 7dac a6bd 427a 45bc d598 5abc
000000b0: fd67 bfbd 86c7 2ebd 2989 18bd 173e dfbd
000000c0: d387 a0bd bffb 0bbe 5c39 c0bd 9050 9bbd
000000d0: bf79 c3bd 6cc3 1bbd a452 923b cfee 8fbd
000000e0: fc57 61bc 439d ee3d 6941 4c3d 044f f23d
000000f0: e709 063d 7ec9 253b fbe9 293d cbee 993d
00000100: 1b09 c5bc 6349 083c b8cd 1ebd 5396 04bd
00000110: 98d0 b9bd 7ce2 84bd 9cfb 18bd 31a2 56bd
00000120: 3f02 8cba 27c9 9abc 1a26 49bd e383 0a3c
00000130: 2918 ffbd 868a edbb a23b 99bc 09ea d0bd
00000140: 72e0 4c3d 40c3 c73b c873 2e3c 70f3 efbc
00000150: b82b 28bc 0939 95bd 8ecd 423d 346c 9fbd
00000160: 2263 2c3d 69ab 903d 6f2e 913d e5a4 963d
00000170: bce2 aebc 2282 8bbd 74eb 9c3c 2c10 af3c
00000180: 0404 b63c ce65 4cbd 2bf5 803d 6e35 5c3d
00000190: eae3 a9bc 84a5 c3bc 20d1 f4bb d083 d93c
000001a0: 4006 32bd d226 87bd 2a45 95bc b968 26bd
000001b0: 41ed 88bd 33f8 3ebd 4053 a03a 4096 1cbb
000001c0: d4fe 0abd d46f cebc b805 693c 8b08 8a3d
000001d0: f333 923c 76a0 503d ceff 59bd 98ce 8dbc
000001e0: fc2d 063e 465e f8bc a66e 6ebd ffdd 1bbd
000001f0: f974 903d b4c0 2fbc dda1 163d f8c5 48bd
00000200: c19a 5fbd 5d96 99bc f79a 913c fea6 7cbc
00000210: e044 833c b9b6 a9bd 1563 0d3b fd44 08be
00000220: 1c98 b7bc 608e 0bbe 4cd6 b0bd 9af2 63bd
00000230: 9bf2 87bd 5271 09bd 9cd5 18bd 0ee8 c5bd
00000240: 3da1 41bd 97e7 36bc 1b35 e6bd 4ae4 c0bc
00000250: e90d eabd 66db 8cbd 7184 f7ba c32f 99bb
00000260: 747d 15bd 3480 8cbd fb94 04be 590a 273c
00000270: 20ff d0bd 2c6a 13bc 1de1 1abc cea0 34bc
00000280: 2a56 3b3d a538 833d ff85 c23d 4784 e73c
00000290: 8e4d 543d 52ea 7e3d be23 0b3e b228 943c
000002a0: eac9 b73d 7a2d 143e 2ee9 d53d cf80 893d
000002b0: 1a77 bd3d 1b1c 0c3d 83a0 463c c35f c23d
000002c0: 8476 81bd 6631 0cbd 3dbb 3dbd b662 3dbc
000002d0: 3ef8 84bb 0559 7b3d e7b8 6f39 2ca2 02bd
000002e0: d220 98bc 0694 b3bd cafe 45bd 4fc8 733c
000002f0: e85d 003d 23fc 8ebd 8610 c3bd 497c d13c
00000300: 7596 e23c fb11 cf3a a196 1abd ea06 7ebb
00000310: e8ee 9e3c 84a1 6fbc fa86 83bd 8345 8dbc
00000320: a87c acbd 3530 6cbd da79 f23b a7b3 d3bd
00000330: 5dec b7bd 16cd aabc c65b 14be 5029 c93b
00000340: 0461 32bd 361b a23d 9fc9 b63c 3d62 6a3d
00000350: 421f 45bd fae1 acbd 63fd a2bd 0f5d afbd
00000360: 2631 62bb 271d 9cbd f943 96bd 16ba 42ba
00000370: a9b3 afbd 9943 9cbb 4ff5 e53b 0923 dcbc
00000380: 0c97 e53d 88c7 153d 940a fe3c e13d fb3d
00000390: bf07 533c 1ee3 ec3d 6771 34bd 4146 3b3d
000003a0: 8fb1 ae3d d9ef dd3b 8ebd 723d 638e 973d
000003b0: 0ef3 6b3d ed24 1a3d cb42 9d3c 9bfd 813d
000003c0: 31fd 7dbd 8f96 a03d 6070 8e3b 008b 2a3a
000003d0: 20d4 28bd 8d32 953d aa4d fabc 8c7d 343d
000003e0: 2585 86bd 2720 a0bd c293 793d aa61 6a3d
000003f0: 484c f93c 8d07 33bd a847 84bd 580a fa3b
-0.09865529 -0.058500435 -0.06764664 -0.008657284 0.004355204 -0.13389517 -0.08747655 -0.07818507
-0.046824817 -0.069675475 -0.115305796 -0.006772626 -0.06263831 -0.107454255 -0.12569323 -0.12259155
-0.1330109 -0.097102694 -0.108101085 -0.085340865 -0.06192431 -0.03958457 0.003764295 -0.105147325
-0.055204663 -0.04639765 -0.1052278 -0.033597324 -0.12751059 -0.13585518 -0.050935272 -0.11719543
-0.019668266 -0.077187344 0.016206805 -0.095561005 -0.09356163 -0.02646992 -0.04589883 -0.031018417
-0.0371489 -0.08138368 -0.012053074 -0.013342102 -0.09346006 -0.04267075 -0.03724018 -0.109005146
-0.078384064 -0.13670252 -0.093859404 -0.075837255 -0.095447056 -0.038028166 0.004465418 -0.07027971
-0.013753887 0.11651089 0.049867067 0.11831477 0.032724287 0.00252971 0.041482907 0.07516249
-0.024052193 0.008318278 -0.038770407 -0.032369923 -0.09072989 -0.06488511 -0.03734933 -0.05240077
-0.0010681822 -0.018894745 -0.049108602 0.008454296 -0.1245578 -0.0072491793 -0.018705193 -0.10200889
0.050018735 0.0060962737 0.010647722 -0.029290885 -0.01026433 -0.07286269 0.047559313 -0.0778431
0.042086728 0.07063944 0.07088935 0.0735567 -0.02134835 -0.0681193 0.019155242 0.021370016
0.022218712 -0.049901776 0.06296762 0.053761892 -0.02073856 -0.023882635 -0.0074712187 0.02655211
-0.04346299 -0.06599201 -0.018221457 -0.040627215 -0.066858776 -0.04662342 0.0012231842 -0.0023893267
-0.03393443 -0.025199808 0.014222555 0.06739911 0.017847037 0.050934277 -0.05322247 -0.017310426
0.13103479 -0.03031839 -0.05821099 -0.03805351 0.07053561 -0.010727096 0.03677546 -0.049016923
-0.054590944 -0.018748457 0.017774088 -0.015420673 0.016024053 -0.08286805 0.002157395 -0.13307567
-0.022411399 -0.1362853 -0.08634624 -0.055651285 -0.0663807 -0.033555336 -0.03731309 -0.096634015
-0.04727291 -0.011163614 -0.11240598 -0.023546357 -0.114284344 -0.068777844 -0.0018884075 -0.004674883
-0.036496595 -0.0686039 -0.12947457 0.010195338 -0.10204911 -0.008997481 -0.009453085 -0.011024667
0.04573647 0.064072885 0.09498214 0.028261317 0.051831774 0.062235184 0.13587853 0.018085811
0.08974059 0.14470473 0.10444866 0.067140214 0.092512324 0.03420649 0.01212323 0.09490921
-0.06321433 -0.034226798 -0.046321142 -0.011559179 -0.004057913 0.061364193 0.00022861698 -0.03189294
-0.018570337 -0.087684676 -0.04833869 0.0148793 0.031339556 -0.06981685 -0.09524636 0.02557196
0.027659634 0.0015798205 -0.037741307 -0.0038761445 0.019401029 -0.014625911 -0.06422229 -0.01724506
-0.08422214 -0.05766316 0.0073997797 -0.10337 -0.089806296 -0.020849746 -0.14488134 0.006138958
-0.043549553 0.07915346 0.022312937 0.057222594 -0.048125513 -0.08441539 -0.07958486 -0.085626714
-0.0034514158 -0.07622748 -0.073371835 -0.00074282417 -0.08579189 -0.0047688005 0.0070177685 -0.026872175
0.112104505 0.03656724 0.031010903 0.12267662 0.012880265 0.11566757 -0.04405346 0.045721296
0.0852996 0.006772977 0.059262805 0.07400205 0.057604842 0.03763287 0.019196888 0.063471995
-0.06200904 0.07841217 0.0043468922 0.0006505698 -0.041217923 0.072850324 -0.030554611 0.044065043
-0.06568364 -0.078186326 0.06093193 0.057222046 0.030431882 -0.043708373 -0.0645898 0.0076306276

fc1.bias f4 [40]
00000000: 467a cdbc 7ed2 95bc f6cf 72bd b0ef 85bd
00000010: 23cb 57be 5853 03be 856f d6bd 8792 ff3d
00000020: 5f51 69bd 5125 903e bab4 e4bd 6578 db3d
00000030: 2526 c7bd 3e4d afbd da38 fbbc 229a 85bd
00000040: 7194 31bc 95d6 1abd fcff 0bbd 24bb 653e
00000050: 7510 2c3d f49d 923b 4552 a6bc 7489 24bc
00000060: c877 64be 0ec2 c83d 2e4a bfbc c815 efbd
00000070: 8f19 a2bd b714 45bc 902f ce3d 5c72 02be
00000080: d998 c63d 9ada 3e3e 24c6 2fbd a87f 273e
00000090: 87f0 88bd ed01 4cbd 62e3 8ebd feaa cdbd
-0.025082719 -0.018288847 -0.05928036 -0.065398574 -0.21073584 -0.12824762 -0.104704894 0.1247912
-0.056962367 0.2815347 -0.11167283 0.10716323 -0.09724072 -0.08559655 -0.030666757 -0.06523539
-0.010838614 -0.037802298 -0.034179673 0.2243467 0.042007882 0.004474396 -0.020302901 -0.010042537
-0.22311318 0.09802638 -0.023350801 -0.11674076 -0.07915031 -0.012028865 0.100676656 -0.12738937
0.09697122 0.18638077 -0.04291357 0.1635729 -0.06686502 -0.049806524 -0.069769636 -0.1004238

fc2.weight f4 [20, 40]
00000000: f7ec 00be d61a 373d 9aa3 803d c899 943c
00000010: 9056 f2bc b4d5 323d 18d8 72bd 67ec e3bd
00000020: 4071 383b b98b 883d 0a53 47bd 6506 11be
00000030: 001b 0b3a 1098 10bd 582d 88bd 8b51 213e
00000040: f49f 3f3d 3ea1 e9bd 3ae3 2dbd 20a3 8cbd
00000050: ab23 8bbc 7074 bfbd a9eb 00bd 3283 bf3d
00000060: ad0e a7bd 8ace 47be 9ecf b23d 00a6 5bbb
00000070: 30fb e33c af6d 89bd 2df5 19be 3055 f63c
00000080: 531f 3f3c 895b 36bd 2e18 c53d 5075 0ebc
00000090: c0ba 90bc adce 0a3e 704e 00bd 88b0 fc3c
000000a0: dd95 3f3d 0588 5bbe 7d2c 7e3c c5d4 c9bd
000000b0: 0980 89bd 4c4b 81bd 3912 2bbe 933e 0e3d
000000c0: 84fa 1d3e 8e06 5bbe 8400 113c 6804 59be
000000d0: 48d7 fc3d 824c fe3d f049 3b3e a902 0c3e
000000e0: 8526 b4bd 1b90 7abd 4943 303e db16 d8bd
000000f0: c1ce 823d 2d6f a9bc 8763 243d e81b 4fbe
00000100: 52dd b13c 8c8c 383d 1def 133e f4d3 9bbd
00000110: fee5 65bc 03cf acbd 9055 c63c 8324 c53d
00000120: 7da4 dbbd a92c 673d b84c 5c3d 7331 95bd
00000130: f5ea 11be 14a6 c63d 2e25 493d 4121 24be
00000140: c02a f3bd 4a90 bc3d cd8d 023e 1261 2d3e
00000150: b331 87bd 0d3d b53d ef19 e3bc a1e3 6fbd
00000160: 298a e9bd ad05 0e3e 7f5b ebbd 6c77 debd
00000170: 512f bb3d 57f2 1bbe dad9 8fbd 7165 8e3d
00000180: 072a 03bd e23a bbbc 4df2 e03c 8dc5 ca3d
00000190: 2e38 503c df75 2a3d 0f6a 603d 0194 66bd
000001a0: 945c 4fbb e33c 9b3d 20b6 aa3d 7eee a63d
000001b0: 0ff8 1c3e f094 423e 1fc9 e2bd eb6e 453c
000001c0: 212a b73d 19fa 6bbd a861 88bd 1086 85bc
000001d0: cea7 73bd de46 b43d 4842 35be a556 273c
000001e0: f58c bebd 9425 833e 599f 5d3d 1518 863d
000001f0: ed8d 003e e945 003e ee2d 373e 005f b93d
00000200: 047c 85bd e555 813c a01d 693d c1ce 85bd
00000210: 50cd 2abc dcca 003d 9df0 1a3e 19ec a8bd
00000220: 924d 9f3d 5493 aa3d 7645 b83d 1d31 273c
00000230: 255b b6bd 2c67 0abd 5f3b d83d ceef 5c3d
00000240: 9745 103e f8dd 06be 9097 e5bd 40cc 153d
00000250: 12a5 a6bd 1849 debc d859 e0bc 5616 2ebd
00000260: 2d49 593d 2f1e edbc ee69 923d 943f f8bc
00000270: aef2 a63d d044 243c 3d47 c9bd 742f 41bd
00000280: 9aec a5bd aad9 8c3c 53f4 c2bd 3015 55bc
00000290: d2bc 13bd 26e3 2ebd fefa 153e 454d 873c
000002a0: fa3d e03d c1a2 d73d 5fc8 8abd 8aa9 32bd
000002b0: 9c03 c63d d7f0 acbd 0093 baba f204 c8bd
000002c0: a628 53bd cc5e 7fbd 9078 0ebd aedc debd
000002d0: b67a 343e 8a21 883d e8a7 81bd ee68 1fbd
000002e0: 69a4 d43d afc2 91bd 7079 dabc ee42 1fbd
000002f0: a921 c0bd 0058 063c 86a1 113c 8e37 2abd
00000300: e506 e83c 7314 623a 33a4 613d 8e7d dabb
00000310: dab3 05be 7ced 753d 34fa 123d bf9d 8d3d
00000320: ede3 44bd 52e4 00be 8426 42bd a412 9a3d
00000330: c6d7 88bd b691 86bd f8be b3bd 3993 d9bb
00000340: 28bc 2e3d 2911 923d cb96 a4bd 2b7f 2d3d
00000350: 3096 b5bd 6ad6 3c3d 558d aabd 210f 0fbd
00000360: 6814 d93c 3bf0 5e3e b277 8a3d a312 4c3d
00000370: 50a9 7e3d ec85 dabd 6a17 873d dd55 25be
00000380: a82b d1bd 629a 753d d276 02be 4d17 32be
00000390: a04d e6bd 55c5 f1bc e9a4 c03c c1b6 f33d
000003a0: d8ec 5ebd 10c6 e33d f40b 923d 5a05 05bd
000003b0: f08c c4bd 22dc 363e 42b4 c03d f936 c13d
000003c0: 02a9 19be a873 bfbd ae8c fe3d 1489 153d
000003d0: a8fe df3c 12a8 1dbd de63 acbd c693 06be
000003e0: cb66 bebd 36c2 bbbd 0631 13be 3c2e 273e
000003f0: f6a8 20bd 3021 de3c 9c8a 6c3d fa01 e23d
-0.12590395 0.044703327 0.062812045 0.018139735 -0.029582292 0.043660834 -0.059288114 -0.111290745
0.0028143674 0.06667275 -0.048663177 -0.14162596 0.00053064525 -0.035301268 -0.06649274 0.15753762
0.046783403 -0.11407708 -0.04245303 -0.06867051 -0.016984781 -0.093483806 -0.031474743 0.093511954
-0.08157096 -0.19512382 0.08731006 -0.0033515692 0.027829736 -0.067103736 -0.15034933 0.030069917
0.011665183 -0.04452089 0.096237525 -0.008694962 -0.017667174 0.13555403 -0.031324804 0.030845895
0.04677378 -0.21438606 0.0155135365 -0.09855036 -0.06713874 -0.0631319 -0.1670617 0.034727644
0.15427595 -0.21389219 0.008850221 -0.21193087 0.12345749 0.124169365 0.18289924 0.1367289
-0.087964095 -0.061172586 0.17213167 -0.10551234 0.063870914 -0.020682896 0.04013398 -0.20225489
0.021711979 0.04505591 0.14446683 -0.07608786 -0.014031885 -0.08437922 0.024210721 0.09626105
-0.10724733 0.056439076 0.053784102 -0.07284822 -0.14249785 0.09699646 0.049107723 -0.1602831
-0.11873388 0.092072085 0.12749405 0.1693156 -0.06601276 0.08849535 -0.027722327 -0.058566693
-0.11403305 0.13869353 -0.11492061 -0.10862622 0.09139884 -0.15229164 -0.07023974 0.06952942
-0.032022502 -0.022855226 0.027459288 0.09900961 0.012708707 0.041616317 0.054788645 -0.05629349
-0.0031640874 0.075799726 0.08335519 0.081509575 0.15329002 0.19002128 -0.11073517 0.012050371
0.08943582 -0.05761156 -0.066592515 -0.016299278 -0.059486203 0.08802579 -0.17701066 0.010213529
-0.09304229 0.25614607 0.054107044 0.06547562 0.1255414 0.12526669 0.17888615 0.09051323
-0.06517795 0.015788028 0.05691302 -0.06533576 -0.010424927 0.03144346 0.15130849 -0.08248157
0.07778467 0.08328882 0.089976236 0.010204581 -0.08904103 -0.0337898 0.10558199 0.053939633
0.14089046 -0.13170612 -0.11210549 0.03657174 -0.081369534 -0.027134463 -0.02738659 -0.04250177
0.0530483 -0.028945057 0.07149111 -0.030303754 0.08151756 0.010026172 -0.09828041 -0.047164395
-0.08101769 0.017193634 -0.095192574 -0.01300554 -0.036068745 -0.042697094 0.14646527 0.016516337
0.10949321 0.1052909 -0.06776499 -0.043618716 0.09668657 -0.08444374 -0.0014234483 -0.09766568
-0.051552437 -0.062346265 -0.034782946 -0.10881935 0.17624936 0.06647022 -0.06330854 -0.038918428
0.10382921 -0.07117211 -0.026669234 -0.03888219 -0.0938142 0.008199692 0.008888608 -0.041556887
0.0283236 0.0008624263 0.055088233 -0.0066677993 -0.13056889 0.060040936 0.035883144 0.06914853
-0.04806893 -0.12587097 -0.047400013 0.07523087 -0.066817805 -0.06570761 -0.08776659 -0.0066398648
0.04265991 0.07132179 -0.08036574 0.042357605 -0.088665366 0.04610292 -0.08327738 -0.034926537
0.026498988 0.21771328 0.06761111 0.04982246 0.062173188 -0.10670075 0.06596263 -0.16146035
-0.10213405 0.059961684 -0.12740639 -0.17391701 -0.112452745 -0.02951304 0.023516135 0.11900092
-0.05442509 0.11121762 0.07131186 -0.032475807 -0.09597194 0.17857412 0.094093814 0.09434313
-0.15005878 -0.093482316 0.12429176 0.03650768 0.02734311 -0.038490362 -0.08417486 -0.13142309
-0.0929695 -0.09167902 -0.1437417 0.16326231 -0.039223634 0.027115434 0.057749376 0.11035533

fc2.bias f4 [20]
00000000: b56c 79bd ad2b 0abb b105 993b 661f 76bd
00000010: 6f06 a3bd 2934 403e b004 b33a b5ff dbbd
00000020: 93c3 573e 8df9 843e bb4d 4a3d 381a 49bd
00000030: ac82 a83d 4ec2 87bc c733 14bd 56ab 42be
00000040: 697b f4bd b9f5 d9bd 844e f3bc 0ca8 0cbd
-0.060894687 -0.0021083162 0.004669868 -0.060088538 -0.079602115 0.18769898 0.0013658013 -0.107421316
0.210707 0.25971642 0.049390536 -0.04909727 0.08228049 -0.016572144 -0.03618219 -0.19010672
-0.11937601 -0.10642571 -0.029700525 -0.03433995

fc3.weight f4 [10, 20]
00000000: 180f 00be 3858 5fbc 7ad8 0b3e 93ef 47bd
00000010: 4494 e5bd 3205 423e bc57 393e ab4f d93d
00000020: f09e ad3e 278a 4a3e e9cd 4b3e 2e3c 41be
00000030: d236 34bb eacd f63c 8fd9 6ebd d5f9 9cbd
00000040: d035 24bd 084b 543e 83e3 d6bd b7ae 0b3e
00000050: 7092 6ebd 694a fb3d e1a2 43bd 4c95 463b
00000060: 809a 5c3d 749a 303e f48a b93d c06e 20bd
00000070: 0f52 1dbe 56c2 1c3e c76d de3d 8082 123e
00000080: 55cf 523d 6907 63bc 02de bb3d 7d29 11be
00000090: 9a8c 963d 46e1 be3c 34f4 9bbd a67b d1bc
000000a0: d717 a4bd aaf8 57be 7789 f3bd ba90 05be
000000b0: aa35 c4bd 622e 36be 84d0 133c 1413 57be
000000c0: db14 e63c 7c27 9cbe d282 03bd 286d 9fbc
000000d0: 39cc 69bd f2b8 b8bd 20d0 efbd a694 15be
000000e0: 9a68 623e dd5d d3bd e618 dabc 353a 30be
000000f0: ab49 053e 5845 223d 5edd f1bc 021f d03a
00000100: c792 b7bc 20b7 153e c6ac 643e a19f 043d
00000110: ca70 373e d9a5 05be 222f d73d b4ea 76bd
00000120: 6e8b b0bd 4968 79ba 96b8 ff3d c8bf fbbd
00000130: 09c6 2c3e f982 d0bd e661 26be 3d88 b4bd
00000140: e357 e8bd 21d9 f3bd 04fe 55bd d412 e0bc
00000150: 231f 4b3e 0fd7 853c d175 f9bc 34ce 5ebd
00000160: c79e 613e 8204 16be 12db d93d 401a 55bd
00000170: 99d2 92bd 3d70 4abe 438f 5ebe a620 03bd
00000180: 8a1c bd3d 2273 203e dc42 46bd 433c 39be
00000190: 20fd 7e3d 7172 873e 8681 84bc f776 85be
000001a0: eb36 5cbd b430 a2be 3483 6ebe c2fe 5dbe
000001b0: d0ae 93be 786c 44be 7099 6c3d 68ce d7bc
000001c0: d1a5 85be 07e7 2bbe 4a1e 1fbe 2124 d9bd
000001d0: e5cd 3b3d 15b8 7fbd 0e25 1cbe 7394 e83d
000001e0: 4dd0 d9bd 5431 c33c c2be 04be 8f61 1b3e
000001f0: 5741 203b 3cdc aabd 40be a93d 440d 76be
00000200: a56b 3d3d 7018 89be a298 d0ba 244e d93d
00000210: c36e c4be bdbd af3e 3576 1dbd 6e26 27be
00000220: 56b1 87be 1265 50be 303c 77bd eb26 27be
00000230: 3505 d3bc a40a 5f3e ed80 86bd 2be9 73be
00000240: 4c5d 74be 7502 0bbe 74f3 36bd 2d4e f43d
00000250: b3a7 c1bc cb82 a1be 9ca2 9cbd ac0d 883d
00000260: 52ec 45be 7c6f 8dbd 7f6f eabd 36ad 8cbe
00000270: 044b 0dbe 2b50 3abb 3138 1bbe 2385 1c3c
00000280: 8ac5 643e f7dd 0abe aa2d 41bd be11 0ebe
00000290: 5201 f43d 02ca e73b 8ad6 a33d b240 693c
000002a0: b042 e8bd e117 acbd 92ed cdbd 887c 92bc
000002b0: 5254 933c cd2d 08bc 9526 303e a57c 81be
000002c0: c791 b63d e61a c2bd cd3a 4fbe 40eb 51be
000002d0: 3964 003e 0e52 b63d 098c 873d 0e1f e53d
000002e0: 2cb1 4d3d 5223 823e e437 42be 2e7b 8ebd
000002f0: 707b 1c3e 06a1 8e3e cba2 c63d 8ddb 2ebe
00000300: 7b1c fe3e 4f10 ddbd 5711 18bd 12e8 49bc
00000310: 52c4 d33d f5f0 fb3d 59da 6a3a 022a dbbb
-0.12505758 -0.013631873 0.13656798 -0.04881246 -0.1120992 0.18947294 0.18099874 0.106108986
0.33910322 0.19779263 0.19902767 -0.18870613 -0.0027498496 0.030127484 -0.05831295 -0.07664839
-0.040090382 0.20731747 -0.10492613 0.13640867 -0.058245122 0.12270052 -0.047762755 0.003030139
0.05385828 0.17246419 0.09059706 -0.03916812 -0.15363334 0.15308508 0.10860782 0.14307594
0.05146726 -0.013856747 0.09173204 -0.14175983 0.07351036 0.023300778 -0.076149374 -0.025571655
-0.080123596 -0.21090952 -0.11891454 -0.1304349 -0.09580548 -0.17791131 0.009021882 -0.21003371
0.028086117 -0.30498874 -0.03210718 -0.01946123 -0.057079528 -0.090196505 -0.117096186 -0.14607486
0.22110215 -0.103206374 -0.0266232 -0.17209704 0.13016383 0.039616913 -0.029524501 0.0015878382
-0.022408856 0.14620638 0.22331533 0.032378796 0.1791412 -0.13051547 0.10507037 -0.060282424
-0.08620344 -0.0009514136 0.12486379 -0.12292439 0.1687242 -0.10181231 -0.16248283 -0.08815048
-0.11344888 -0.119066484 -0.0522442 -0.027352728 0.19836096 0.0163379 -0.030451687 -0.05439587
0.22033225 -0.14650157 0.106374875 -0.052026987 -0.071690746 -0.19769378 -0.21734338 -0.032013558
0.09233959 0.1566892 -0.048403606 -0.18089394 0.062253118 0.264545 -0.016175043 -0.26067325
-0.05376331 -0.31677783 -0.23292238 -0.21679214 -0.2884431 -0.19182003 0.057763517 -0.02634354
-0.2610307 -0.16787349 -0.15538898 -0.10602594 0.045850653 -0.062431414 -0.1524851 0.113564394
-0.10635433 0.023827232 -0.12963393 0.15173934 0.0024453008 -0.083427876 0.082882404 -0.24028498
0.046245236 -0.26776457 -0.0015914629 0.10610607 -0.38365754 0.34324446 -0.03844281 -0.16323254
-0.26502484 -0.20351055 -0.060360134 -0.1632344 -0.025759319 0.21781403 -0.065675594 -0.23819415
-0.23863715 -0.13575156 -0.04466577 0.11928973 -0.023639536 -0.315451 -0.07648203 0.06643233
-0.1932843 -0.069060296 -0.114470474 -0.274759 -0.13798147 -0.0028429131 -0.15158154 0.009553227
0.2234098 -0.13561235 -0.04716269 -0.13873956 0.11914314 0.0070736418 0.079999045 0.014236616
-0.11340845 -0.08402992 -0.100550786 -0.017881647 0.017984543 -0.008311701 0.17202218 -0.2529041
0.089145236 -0.09477787 -0.20237274 -0.20499897 0.12538232 0.089023694 0.066185065 0.11187564
0.050217792 0.25417572 -0.18966633 -0.069570884 0.15281463 0.27857226 0.09699019 -0.1707594
0.49631104 -0.10794126 -0.03712591 -0.012323396 0.103401795 0.12301818 0.0008958928 -0.0066883573

fc3.bias f4 [10]
00000000: 80cf c43e 59a9 97bd b6a7 a5be 807c 33be
00000010: 65a5 713e 4388 84be deec 79be 789a 10be
00000020: 8c50 84be 975e 8a3e
0.3843956 -0.074053474 -0.32354516 -0.17527962 0.2359825 -0.2588521 -0.24406764 -0.14121425
-0.25842702 0.2702529
