mlops_project/outputs/2022-05-27/13-17-52/models/baseline.pth (torch, 726201 bytes, 32 tensors)

conv1.weight f4 [10, 3, 5, 5]
000000 fb cc cc bc 0b 61 11 3d 9d 69 c5 bc d2 ef 88 3d
       -0.025000086 0.035492938 -0.024098212 0.06686367
000010 f1 4d 8e bd 37 e8 da 3d eb 48 87 bd 6e 1e 82 bd
       -0.0694846 0.10688823 -0.06605705 -0.0635346
000020 48 b1 1d bd 00 e7 b8 3d 07 b1 61 bc b5 4e a8 3d
       -0.038499147 0.09028435 -0.013775117 0.08218137
000030 3e 10 90 bd ff 8b 40 bd 1b cb 53 bc 52 d2 52 bb
       -0.07034348 -0.04700851 -0.012926842 -0.0032168818
000040 37 5b 82 bd 8e d5 dd 3d 4f b9 d6 bb c0 6c 81 3d
       -0.06365054 0.10831748 -0.006552852 0.063195705
000050 08 61 b2 3d bd 93 06 3d 02 3a 4a 3d 56 3c fd 3d
       0.087099135 0.032855738 0.049371727 0.12365024
000060 2c f8 18 bd ad 95 38 3d e1 d2 32 bd 16 8e c5 3d
       -0.03734605 0.045064617 -0.04365814 0.09646241
000070 1b 48 cb 3d fc c1 dd bd 96 c8 d1 3d 93 71 90 3d
       0.099258624 -0.10828015 0.10243337 0.070529126
000080 06 8b 8a 3d 7e aa 80 3d 9d 33 d8 3d 1e 76 0b 3c
       0.06764798 0.06282519 0.105567195 0.008512048
000090 f6 6b 9a bd 5e d5 bb bc 4f e1 a1 bd cf c7 b8 3c
       -0.07540123 -0.02292889 -0.07904302 0.022556214
0000a0 2a f4 36 bc 3a 50 4b bd f5 28 25 3c 97 dd f5 3d
       -0.011166612 -0.049637057 0.010080566 0.120051555
0000b0 20 dd 7e 3b 62 1c f9 39 d8 dd ae bc 8f 3c 90 3c
       0.0038889125 0.00047514128 -0.021346018 0.017607002
0000c0 39 ac c9 3d 07 e1 9a 3d b0 ec 83 3d 71 83 1c 3d
       0.09847302 0.07562452 0.06441629 0.03821129
0000d0 d8 0b 1e 3d bb a7 00 3d 02 c0 f2 bc d4 04 14 be
       0.038585514 0.03140996 -0.029632572 -0.14454967
0000e0 4c df f5 bd fe bb d4 3d 28 b0 2d 3b fa 30 f6 bd
       -0.12005481 0.10387419 0.0026502702 -0.1202106
0000f0 ad a0 43 3d fb f4 e7 3d 0a 39 5a be d8 61 00 be
       0.047760654 0.11326023 -0.21310821 -0.12537324
000100 6f ad 3b bd 6e ea 85 bb e5 b4 ac bc ed 34 9a bc
       -0.045819696 -0.004086784 -0.021082351 -0.018824065
000110 79 89 4c be be 4d 71 3d e8 86 c1 3d 4d dc 74 3d
       -0.19974317 0.05891203 0.094495595 0.059780408
000120 45 ab e7 bd 8a cd 20 be 25 4c 64 3d 84 66 9d 3c
       -0.11311964 -0.15703407 0.05573668 0.019213922
000130 4f 02 14 3d 19 ac 0b be 89 d4 81 3b c4 99 bf 3d
       0.036135014 -0.13639869 0.0039621037 0.093555
000140 9d d3 99 3d c8 f7 4a 3c 54 40 38 bb 40 c0 40 bd
       0.07511065 0.012388177 -0.0028114514 -0.047058344
000150 c2 4f 99 bd d4 b5 29 bd 2e 5b d1 bd 35 19 5d 3d
       -0.07485916 -0.04143317 -0.10222469 0.053979117
000160 8a ec 65 3d 75 3f 95 3d 48 7b 4c bd cd 3e 9c 3d
       0.056133784 0.07287494 -0.049922258 0.07629166
000170 05 a3 c6 bc f9 71 4d 3d d1 e2 be bc e7 35 6b 3d
       -0.024247656 0.05015752 -0.023301514 0.057424452
000180 84 e4 dd 3d 7d 0f 78 3d 7e 47 a6 3d 2f 0b 6c bd
       0.108346015 0.060561646 0.08119105 -0.057627853
000190 2f 87 e7 3d 19 b7 41 be 48 e1 01 3d eb cc c1 bd
       0.11305081 -0.18917502 0.031708986 -0.09462913
0001a0 5b 34 0a bd 46 16 98 bc ac 76 12 3d 91 0e b8 3d
       -0.033741336 -0.018565308 0.035757706 0.08987153
0001b0 d7 8a 07 3b 92 85 6b 3c 5a bb c0 3d 58 cf a6 bd
       0.002068212 0.014375107 0.094107345 -0.081450164
0001c0 fa 1e 1e 3d 31 82 7a bb 80 80 3f bd cc 5a 89 3d
       0.03860376 -0.0038224573 -0.046753407 0.06706771
0001d0 48 17 17 be d8 49 2b 3b 96 6a c9 3c 16 e8 e5 3d
       -0.14754975 0.0026136544 0.024586957 0.112259075
0001e0 9c c7 b3 3b a8 18 8b 3d c3 41 e3 3d 21 f2 e1 bd
       0.005486442 0.06791812 0.110965274 -0.110325105
0001f0 5d c9 da 3d b1 da 4b bc 8c 02 61 3d fb 66 a1 3d
       0.10682938 -0.012442277 0.05493407 0.0788097
000200 bf 0e 9b 3d 01 07 04 3e ad cb a1 3b 8b 7b 94 3d
       0.07571172 0.12893297 0.00493761 0.072501265
000210 25 46 67 3c 11 05 90 be 14 0b ad b8 17 24 27 be
       0.014115845 -0.28128865 -8.251346e-05 -0.16322361
000220 3a 94 fc 3d 68 d8 1d 3d 3f 27 a1 3d 39 d3 8c bc
       0.123329595 0.03853646 0.07868814 -0.017190563
000230 2b 34 e1 3d 39 3b e1 bd e5 d6 72 3d 9b b9 15 3e
       0.109962784 -0.10997624 0.05928697 0.14621584
000240 b4 e0 d5 3d 81 61 0b 3d 55 1f 84 38 b1 6e ae 3d
       0.10443249 0.034028534 6.3000865e-05 0.085172065
000250 40 c5 20 be 95 73 13 be 68 43 4b bd 5d 58 c1 bc
       -0.15700245 -0.1439956 -0.04962483 -0.023601705
000260 1a 86 04 3d 40 31 c1 3d 2b 0a 82 3d 1c 92 e5 3d
       0.03235445 0.09433222 0.06349596 0.11209509
000270 e6 8f af bd 03 27 6f 3c 97 eb e4 bd e4 94 a8 3d
       -0.08572368 0.014596703 -0.11177748 0.08231524
000280 d7 2b 2c 3d a1 ca eb 3d d5 18 d1 bd 59 82 88 3d
       0.042033996 0.11513258 -0.102098145 0.06665487
000290 a0 69 d7 3d 05 7d fe 3d d1 7c 46 3c 6b de c9 3d
       0.10518193 0.12426189 0.0121147195 0.09856876
0002a0 8c 71 87 3d 4a 69 b1 3d 02 3f 82 3c 1f 0c f2 bd
       0.06613454 0.086626604 0.015899185 -0.11818718
0002b0 fd aa f7 3b 45 38 f5 3c b7 77 9d bd a7 2f 27 bd
       0.007558225 0.029934058 -0.076888494 -0.04081693
0002c0 39 bd db bd 87 2d 99 bc 58 5a f4 3d 65 8a 41 3d
       -0.10729451 -0.018698467 0.11931294 0.047251124
0002d0 69 c3 8b 3a 52 b1 ce bb 97 4b a4 3d 78 0d d3 bd
       0.0010663095 -0.0063077593 0.0802223 -0.10305303
0002e0 26 17 ad bd ed 17 f1 bc 75 9d 7c bd 94 c8 54 3d
       -0.08451681 -0.029430354 -0.0616736 0.0519491
0002f0 87 06 ab 3d cf a7 d8 bd ec 3e b1 bd 26 26 11 be
       0.08350854 -0.10578882 -0.086545795 -0.14174709
000300 fa 35 3a 3d d2 7e ec 3d 8d dc 96 bd a3 3a 7c bc
       0.045461632 0.115476266 -0.073662855 -0.015394839
000310 1a d0 51 3d 35 2d 92 bd 74 51 fe 3d 86 dc 62 3d
       0.05122385 -0.07137529 0.1241788 0.05538609
000320 8d de e1 bc 4b 05 5f 3d ed 6b 96 3d b7 27 1f bc
       -0.02757194 0.054448407 0.07344804 -0.009714059
000330 30 f5 c3 bd 15 8b f7 3c e8 94 a9 3c 5f cf e9 3c
       -0.0956825 0.030217687 0.020700887 0.028541265
000340 85 fe 25 bd 6f 92 e3 3d c9 86 82 bd 90 8b 4a bc
       -0.040525932 0.11111914 -0.063733645 -0.012362376
000350 05 03 81 3d 47 70 12 be 91 e5 59 3d dc ab 88 bc
       0.06299404 -0.14300643 0.053197447 -0.016683511
000360 73 c2 95 3d a4 40 8a bd 74 39 06 3d b8 c6 05 3d
       0.07312479 -0.067506105 0.032769635 0.032660216
000370 65 0d 18 be 66 f7 2e be 56 fd 98 3d f2 7d da bb
       -0.1484886 -0.17086563 0.07470195 -0.006667846
000380 f1 f9 f2 3d 64 1f 0e be 30 1b 80 bd f7 eb ca bd
       0.11864079 -0.13879162 -0.062551856 -0.09908288
000390 73 cb 4d 3d 90 86 f6 bb 4a b6 e3 bb 07 38 41 bd
       0.050242852 -0.0075233653 -0.006949221 -0.047172572
0003a0 87 22 ca bd ab ea 5e 3d 48 4d e8 3b 1e 68 a4 bd
       -0.09869867 0.054423016 0.007089291 -0.08027671
0003b0 e8 63 75 3d a1 df dc 3c 06 44 f9 bd d7 0d ab 3d
       0.05990973 0.026962103 -0.121711776 0.08352249
0003c0 fe d7 95 3d e1 b4 f3 bb e7 18 44 bd a2 90 1d 3d
       0.07316588 -0.007437334 -0.04787531 0.03846801
0003d0 be d2 db 3d b9 65 f3 3d 03 03 9e bd 91 55 38 bd
       0.10733555 0.118846364 -0.07715418 -0.045003477
0003e0 b2 cb f9 3d fa 08 af 3d 66 13 52 3d ba 25 b5 bd
       0.12197055 0.08546634 0.05128803 -0.088450864
0003f0 c7 89 a8 3d c4 88 fe bd 7d 6c 2d bd 72 0e 6d 3b
       0.08229404 -0.1242843 -0.04233979 0.003617194

conv1.bias f4 [10]
000000 ed d3 59 3c 54 aa bf bd 34 d9 eb bd ec 5f 63 3d
       0.013295156 -0.093586594 -0.115160376 0.0555114
000010 ef 96 84 bd b6 21 74 3c c8 e2 05 3d 16 55 4a bd
       -0.06474101 0.014900615 0.03268698 -0.04939755
000020 d7 ec 1e 3d 25 4d ab 3d
       0.038800087 0.083643235

conv2.weight f4 [10, 10, 5, 5]
000000 99 4d cb bd 71 fe b5 3a fa 30 a9 bd 1c 4a bc bd
       -0.0992691 0.0013885034 -0.08261295 -0.09193823
000010 c3 c1 16 bd ac 6a b1 3b 7c 51 4a 3c 40 6b 39 bd
       -0.03680588 0.0054143276 0.012348529 -0.045268297
000020 5a a7 aa bd 98 0c 88 bd 22 1f 89 bd 22 0c bc bc
       -0.08332701 -0.06643027 -0.06695391 -0.022955004
000030 d8 00 1e bd 92 6a 3d bd 84 d6 91 bd 87 a6 06 bd
       -0.038575023 -0.04624421 -0.07120994 -0.032873657
000040 53 60 e5 3b 5e e8 f5 39 7a ed b9 bc c8 df 0b 3d
       0.007000008 0.0004690317 -0.022696245 0.03414896
000050 c7 5a 8d bd 8d a7 40 3c 4c e5 21 3c 0c 30 14 3d
       -0.0690208 0.011758697 0.009881329 0.036178634
000060 e7 5c 86 3c 30 8c a0 bd f8 ba e0 3b 2d 82 7a bd
       0.016401721 -0.07839239 0.006858226 -0.0611593
000070 2e 8c 5b bd 0e 65 38 bd a5 13 39 bd 32 58 87 bd
       -0.053600483 -0.04501825 -0.04518475 -0.06608619
000080 d1 8a 1f 3d 3a 31 1d bd 5b ac 37 3d 9c 5f 3d 3d
       0.038950745 -0.038377024 0.044842105 0.04623376
000090 31 39 fc 3c e6 98 19 3d 0f ba d3 bb 88 e8 84 bd
       0.03078899 0.03749933 -0.006461389 -0.06489664
0000a0 01 4f 15 3d b2 18 71 bd 2a 51 73 bb bf 43 3a bd
       0.036452297 -0.058861442 -0.0037127235 -0.045474764
0000b0 9b 0c 13 3d 59 2b 24 3d a2 5b 73 bc 9d 0a 17 bd
       0.035900693 0.040080402 -0.01485339 -0.036875356
0000c0 0d 8c 18 3d 14 60 83 bc d9 ef 58 bd 76 59 49 bd
       0.037242938 -0.016037025 -0.05296311 -0.049157582
0000d0 bc a8 87 bd 89 8a 31 3d a6 49 35 3d fb 9f cd bc
       -0.066239804 0.043345008 0.04425969 -0.025100699
0000e0 dd cc a3 3c 7a 0a a1 3c db 48 ea bc dc 3e 93 3b
       0.019995147 0.019658316 -0.028599193 0.0044935774
0000f0 9d 5e 83 bc 99 8d 39 bd 1a 72 71 bd b4 8d 1e bd
       -0.016036326 -0.045301054 -0.058946706 -0.038709357
000100 d2 20 7d bc 99 ac 9a bb a3 21 5e bd f9 6e 93 bd
       -0.0154497195 -0.0047202823 -0.054231297 -0.07198901
000110 fa 06 41 bc 79 04 b4 3c 16 6b a3 3c cc 85 42 bd
       -0.0117814485 0.021974789 0.019948523 -0.04749088
000120 44 c8 c6 3c e7 5b 41 bd 1a f9 14 bd 6a 1d e1 3c
       0.024265416 -0.047206786 -0.036370374 0.027479846
000130 81 eb 96 3b e9 c9 e7 bb a0 2e 9e bd 3a 8f 88 bd
       0.004605711 -0.00707363 -0.07723737 -0.06667943
000140 81 29 29 bd 0d 9d 07 3d bc e4 a6 bd a0 65 8a 3c
       -0.041299347 0.03310876 -0.08149096 0.016894162
000150 cd d6 5f bd bf 14 97 bd 98 39 c8 3c dc d5 8f bd
       -0.05464821 -0.07377004 0.024441525 -0.07023212
000160 74 7d ba ba 22 2d 32 bd 61 6d c9 3c 5e 36 b6 bd
       -0.0014228062 -0.043500073 0.024588289 -0.088970885
000170 fe 0f e9 3b 2d 2f 9b 3c 92 f9 9b bb e3 1b f1 3c
       0.007112502 0.018943394 -0.0047599757 0.029432243
000180 8c f5 af 3c 45 e0 8b 3c 5c ea c8 3c 25 b5 05 3d
       0.02147939 0.017074713 0.024525814 0.032643456
000190 b3 1a 3d 3d 32 d1 0d 3d c2 e8 12 bd ec d5 29 3d
       0.04616804 0.034623332 -0.035866506 0.041463777
0001a0 80 16 27 3b 2f 13 f7 3c c6 15 b4 3b fc 41 12 3d
       0.0025495589 0.030160515 0.0054957597 0.03570746
0001b0 b9 9e 47 bd 82 35 df bc 16 3a e4 bc a8 53 62 3d
       -0.048735354 -0.027247194 -0.027859729 0.055255562
0001c0 6a 18 1e bd d2 91 fa bb 57 10 2f bc 2d f6 65 bd
       -0.0385975 -0.0076467777 -0.010685048 -0.056142975
0001d0 32 0f 44 bd d4 e4 35 bd db 10 37 bd a6 14 3b bd
       -0.047866054 -0.04440768 -0.04469381 -0.04567399
0001e0 e5 6b f7 bb 32 fc 8a 3d b9 bd dd bc a5 5f c0 bc
       -0.007550704 0.06786384 -0.027068006 -0.023483107
0001f0 7a 50 b0 bc e9 be 92 bc b4 a6 2e 3c c9 6c 56 bd
       -0.02152275 -0.017913299 0.010659862 -0.05234984
000200 2e 04 40 bd 48 0d 19 bc d1 7d 9f bd 04 8b 37 3b
       -0.046878986 -0.009341545 -0.077876695 0.0028006444
000210 6a 40 33 bd 98 32 53 3c b0 da c6 3c dc 70 d9 bc
       -0.043762602 0.01289048 0.0242742 -0.026543073
000220 df 46 a9 bd 82 49 29 bd cc b0 d2 3c 85 72 a2 bd
       -0.08265471 -0.04132987 0.025719069 -0.07931999
000230 c2 de 54 3c f3 fc 92 bd 28 ab 2c bd 01 ed a6 3c
       0.012992563 -0.071771525 -0.042155415 0.020376684
000240 95 e7 b7 bd 9c 6f a1 bd 46 e2 41 bd c5 27 83 bd
       -0.08979718 -0.07882616 -0.04733493 -0.0640407
000250 e6 16 a2 bc cb f8 2a 3c 7d 57 9a bc e1 81 cc bd
       -0.01978631 0.010435293 -0.018840546 -0.0998571
000260 ad 2e 6a bd 71 16 b8 bd a7 4a a5 bd 79 cc 92 bc
       -0.05717342 -0.08988655 -0.080708794 -0.017919766
000270 8b 22 d2 bc df 2a b7 3c 82 16 16 bc 9b a3 9d bd
       -0.025651237 0.02235931 -0.00916064 -0.07697221
000280 be 78 d1 bc cf e0 b7 bd 04 88 cc bd 3c 97 ac bd
       -0.02557027 -0.08978426 -0.099868804 -0.08427283
000290 9c 7f 01 3d 36 71 80 bd 8a cc 56 3c 3a 1e 8a bd
       0.03161584 -0.06271593 0.013110289 -0.067440465
0002a0 51 7a dc 3c b7 2c 55 bd 77 8e 9a bc 3a ce c3 bd
       0.026913794 -0.052044597 -0.01886676 -0.09560819
0002b0 14 c0 64 bd c2 53 20 bd 6f 0c 8b bc 5c 87 9c bd
       -0.055847242 -0.039142378 -0.016973702 -0.07643005
0002c0 70 f4 75 bd 37 c7 51 bd bb a1 1e 3c 0e f7 af bd
       -0.060047567 -0.051215377 0.009682114 -0.08592044
0002d0 65 72 c2 bd 17 de ae bc 4e d5 86 bd cc f5 70 bd
       -0.09494475 -0.021346135 -0.065836534 -0.05882816
0002e0 27 fa 34 bd f3 f1 a3 3c af ad d8 bd ac 09 0d 3c
       -0.044183876 0.020012831 -0.105800025 0.008608263
0002f0 90 84 f5 ba 70 74 95 bd f5 ce 56 bd 66 03 88 bd
       -0.0018731523 -0.07297599 -0.052443463 -0.06641273
000300 a4 d7 80 bd 7e 5b b2 bd 57 26 43 3c 33 2b b2 3c
       -0.0629113 -0.08708857 0.011910996 0.021749115
000310 f4 c2 01 bd f1 be fe 3b 23 b4 05 3d 8d 08 b9 3c
       -0.031680062 0.007774227 0.032642495 0.022587085
000320 40 5f 70 3d 73 54 d2 3b fd 1a 9e bd d8 26 23 3d
       0.058684587 0.0064187585 -0.07719991 0.039831966
000330 e1 8b 06 bc 20 39 0b bd 87 0c 26 bc 34 16 76 bd
       -0.008212061 -0.033990026 -0.010134823 -0.06007977
000340 47 f6 33 bd c8 ab 27 bc f0 7b 9e bc 63 ca 53 bd
       -0.04393604 -0.010233827 -0.019346207 -0.051706683
000350 1e 7b 2b bc 00 93 36 3d 4e 7c af bc 51 ef 5a 3c
       -0.010466365 0.044573784 -0.021421578 0.013362722
000360 30 74 62 bc 17 34 61 bd 84 ca 0d bc 37 19 7e bd
       -0.013821647 -0.054981317 -0.0086542405 -0.062035765
000370 de 7b ed 3c ed 63 61 3d cd 8b 2d 3d 36 37 cc bc
       0.028989729 0.055026937 0.042369653 -0.02492867
000380 1e b8 a6 bd 21 58 36 bd 05 02 84 bc 0b 07 55 bd
       -0.08140586 -0.04451764 -0.016114244 -0.05200867
000390 89 5e da bd b4 85 5b 3c b3 ed ee bd 77 c3 29 bd
       -0.106625624 0.0133985765 -0.11666431 -0.041446175
0003a0 46 2b 97 3b c0 1d af bd 07 99 69 bd 68 5f 25 bd
       0.004613313 -0.08550596 -0.057030704 -0.04037419
0003b0 9a 66 7d bd 1f e5 aa bc 45 84 12 bd 98 cd 1d bd
       -0.061865427 -0.020861207 -0.035770673 -0.038526148
0003c0 2c 6e 76 bd 0b 71 92 bd 71 dc 64 bd 25 03 9d bd
       -0.06016366 -0.071504675 -0.05587429 -0.076666154
0003d0 d1 2e 13 3d 5d be 63 bd cd 5d d6 bc 67 28 74 bc
       0.03593332 -0.055601466 -0.026167775 -0.014902211
0003e0 46 49 2f 3b 97 30 4d bd 3c 34 67 bd 55 fc 1a bb
       0.0026746555 -0.050095167 -0.0564463 -0.0023648937
0003f0 18 0f 93 bc 1d 68 4c 3b a6 1b d5 3b 22 0a 77 bd
       -0.017951533 0.0031189986 0.00650354 -0.060312398

conv2.bias f4 [10]
000000 91 2b 86 3c 22 93 2e bd cc a3 28 3d d5 de 0a bd
       0.016378196 -0.042620786 0.041171834 -0.033903915
000010 32 a9 a9 3d 72 f5 0f bb 00 79 28 bd 4e 40 12 3b
       0.082842246 -0.0021966365 -0.04113102 0.002231616
000020 69 da d9 bd 78 89 17 3d
       -0.106373616 0.036996335

conv3.weight f4 [20, 10, 5, 5]
000000 d6 f1 fd bd 75 a2 a4 bd a9 cc d6 bd 9f c5 6b bc
       -0.12399642 -0.08038799 -0.104882546 -0.014390378
000010 94 7f 1c bd 52 14 46 bc 5e f2 e6 bd eb 68 16 bd
       -0.038207605 -0.012089806 -0.112766966 -0.03672115
000020 f8 1e ba bd 9b 04 01 bd b3 24 fa bd 35 49 f0 bd
       -0.09087938 -0.031498533 -0.12214031 -0.11732713
000030 be c9 b9 bd df a9 b9 bb a0 a5 7b bc ca 18 de bd
       -0.090716824 -0.005666002 -0.015359312 -0.10844572
000040 d9 8a b5 bc e3 8a 67 bc 29 9d 22 bd c4 3b d9 bd
       -0.022160934 -0.014132234 -0.03970066 -0.106071025
000050 b7 ff b6 bd bd af d4 bc 56 05 8f bc 55 5d 09 3c
       -0.089354925 -0.025962705 -0.017458599 0.0083840685
000060 43 66 81 bd c2 f9 9d 3c 90 13 c7 bc e7 08 26 3d
       -0.06318333 0.019284133 -0.02430132 0.040535834
000070 61 88 72 bd 50 f2 47 3d 8e e6 39 bd 17 36 fa bc
       -0.059212092 0.04881507 -0.04538589 -0.03054337
000080 10 1b 4f bc 89 2a 04 3d a3 ed 27 bd 17 f4 18 bd
       -0.01264073 0.032267127 -0.040998112 -0.037342157
000090 d2 8d df bc 19 c2 8f 3c ae 28 59 bd 88 fb 9f bc
       -0.027289305 0.017548608 -0.05301731 -0.01952912
0000a0 19 9a a2 bd 00 b5 36 3c ee 9a b1 bd a9 e2 0a bd
       -0.07939548 0.011151552 -0.086721286 -0.033907566
0000b0 78 a1 71 bc 7b 14 2d bd f4 bc f2 3c 3c 6a 8f bd
       -0.01474797 -0.04225586 0.029631115 -0.070026845
0000c0 8d db 9b 3c 13 58 14 3c f3 42 8b bc ac 81 2c bc
       0.019025588 0.009054202 -0.016999697 -0.010528963
0000d0 e5 ef 9c bc 8c 0e 3b bc c5 b7 84 bd f8 c7 ad bd
       -0.01915736 -0.011417042 -0.06480364 -0.08485407
0000e0 93 0f 80 3c f8 15 a8 bb 53 80 2d 3b 72 4d 82 bd
       0.015632426 -0.005129572 0.0026474192 -0.06362428
0000f0 88 0b 0a bd 48 35 ba bc 64 7f 79 bd 76 b2 e7 bc
       -0.033702403 -0.022730485 -0.060912505 -0.028283339
000100 03 71 1e bd aa 99 96 bd bb 95 84 ba 17 17 86 bd
       -0.038681995 -0.07353528 -0.0010115424 -0.06547373
000110 62 0b a4 bd 6a 07 a9 bd e3 7c ca bc ea 36 38 bd
       -0.080099836 -0.08253367 -0.024717754 -0.044974245
000120 d2 76 1c bd 09 4b 22 3c 45 d9 d0 ba b1 a7 96 bc
       -0.038199253 0.009905585 -0.0015933892 -0.018390508
000130 6a 1f bc 3b 82 5d 68 bd 8a 7a 31 bd ef ab 4a bd
       0.0057410495 -0.0567298 -0.043329753 -0.049480375
000140 02 17 95 3c c2 3f 9b bd 5b 99 05 3c 66 7a 04 bd
       0.018199448 -0.0758052 0.008154239 -0.03234329
000150 9f 46 97 bd 67 3f 81 bd 3c d3 76 bb 49 10 56 bd
       -0.07386517 -0.06310921 -0.0037662527 -0.052261624
000160 ad 83 cc bd 3b 35 95 bd e5 e3 36 bc 7b c3 d2 bd
       -0.09986053 -0.072855435 -0.011162733 -0.10291191
000170 0c 4a 3b bd 47 44 9d 3b 08 1a 19 bd 4b ad 7d bd
       -0.045724913 0.004799399 -0.03737834 -0.061932843
000180 f8 a8 02 3b 0b 3e ae bd 3b 99 56 bd d7 6b f9 bc
       0.001993714 -0.085079275 -0.052392226 -0.03044693
000190 d7 f7 d5 3c 99 b8 3c 3c ae 54 24 3d 25 0a 68 bc
       0.026119156 0.011518621 0.04011982 -0.014162575
0001a0 c5 f3 61 bc 81 1f f9 ba 60 c7 c0 bd 2a 2b 1e bd
       -0.013791029 -0.0019006581 -0.09413028 -0.038615383
0001b0 61 4c 26 bd ba 16 8f bd b0 f0 25 bd 4c 2a d5 bc
       -0.040600184 -0.069867566 -0.04051274 -0.026021145
0001c0 33 8a 49 bd b7 1f dc bd 87 40 94 bd cd a4 40 bd
       -0.049204063 -0.107482366 -0.0723887 -0.047032166
0001d0 dd 71 eb bd 01 4f 46 bd df fa 05 bd 08 53 be bd
       -0.11496327 -0.048415188 -0.032709952 -0.09293181
0001e0 6b 1a c9 bd d3 03 52 bd eb 8c e0 bd 6a f1 6d 3b
       -0.09819492 -0.05127318 -0.10964378 0.0036307224
0001f0 b3 b7 88 bd 19 ad 9b 3c f3 ea 5f 3d 3b 6e cb bc
       -0.06675663 0.019003438 0.054667424 -0.024832835
000200 2b 74 35 3d f7 7b 8d bc 77 e6 83 bd d6 6f 7b bd
       0.04430024 -0.017271025 -0.06440442 -0.061385952
000210 85 5f 07 bd 46 3f 45 3c a8 d4 f6 bc 50 26 b6 bc
       -0.03305008 0.012039011 -0.0301307 -0.022235066
000220 63 79 2a bd 93 22 39 3d be 9d 86 bd ae 9a 62 bd
       -0.04161967 0.04519899 -0.06573056 -0.055323295
000230 7a 9c a6 3c 71 97 d5 bc 82 4e 08 3d cf 29 cb 3c
       0.020338286 -0.02607319 0.033277996 0.02480021
000240 b4 9c 6b bd 9a 38 bb bc 16 0d 22 3d 0e d4 58 bd
       -0.05752249 -0.022854138 0.03956326 -0.052936606
000250 b6 ab 67 bc 4f b6 d0 bc f0 b0 a6 3d 8b a2 53 3d
       -0.01414006 -0.025477557 0.08139217 0.051668685
000260 12 40 22 3d 1e 03 ef 3c 41 26 74 3d 58 37 1f 3d
       0.039611883 0.029176291 0.059606794 0.03887114
000270 f0 c6 58 bc c4 bf 02 bd 17 8e 0a 3d de 8e 3f bd
       -0.013231024 -0.031921163 0.033826914 -0.04676711
000280 78 7c 56 3d 06 ff 90 3d b8 76 f3 bc 23 6d 2f 3d
       0.052364796 0.07079892 -0.029719695 0.04282869
000290 e7 e1 1a bd 3e 09 80 3c db 94 1b 3b 14 fa 33 3d
       -0.037813094 0.015629407 0.0023739848 0.043939665
0002a0 98 d1 21 3d d9 b5 ae 3b a8 90 c0 3c 5d 25 5e bd
       0.039506525 0.0053317365 0.023506477 -0.05423485
0002b0 46 12 9f bc 76 e4 8c 3c 5d 46 c7 3c 29 71 02 3d
       -0.019417893 0.017198782 0.024325544 0.0318462
0002c0 fd 25 25 bc 79 a9 1d bd af ab d7 3c d0 32 15 3c
       -0.010079858 -0.0384917 0.026326982 0.009106353
0002d0 10 7f 1b 3d e8 c9 63 bd a5 3a 69 bd 85 db b8 3c
       0.037962973 -0.055612475 -0.056940693 0.022565613
0002e0 4e 3a 3b bd ec ca a6 bd ea c0 58 bd 9e c9 bd bd
       -0.0457099 -0.08144173 -0.052918352 -0.09266971
0002f0 5c 34 b1 bd 14 ee 7d bc 4d ab b5 bd 21 3d 9f bb
       -0.08652565 -0.015498657 -0.08870564 -0.004859582
000300 8d b5 ca bb 3b 29 2e bd f7 49 94 bd 08 fe 0e bb
       -0.0061861933 -0.04251979 -0.0724067 -0.0021818895
000310 3e 33 82 bd 9f 8f aa bb 2a 18 db bd 16 61 4c bd
       -0.0635743 -0.0052051092 -0.10697968 -0.049897276
000320 5d 38 af 3c 55 87 38 bc e7 e0 7d 3d 02 76 a1 3d
       0.02138918 -0.011262734 0.06198206 0.07883836
000330 25 11 4e 3c a1 36 d2 bb e4 b8 ae 3c 5d 10 13 bd
       0.01257733 -0.0064152037 0.021328397 -0.035904277
000340 26 83 31 3d a8 fe db 3c 71 18 24 3d 6d fa 97 bd
       0.043337964 0.026854828 0.04006237 -0.07420812
000350 8f 37 a3 bb ff 65 30 bd d7 cd 35 3d 61 e1 0c bd
       -0.0049809883 -0.04306602 0.044385757 -0.034394626
000360 cd 16 d7 bc 9b 72 66 bd 76 05 91 bd 51 e5 17 bc
       -0.02625599 -0.05626164 -0.0708112 -0.009270982
000370 fa 62 a6 bc 38 60 83 3c 3c bb 36 3b 0d 53 4f bd
       -0.020310868 0.016037092 0.0027882596 -0.050616313
000380 c9 18 43 bc 69 5f d9 3d eb 4f 77 3d 76 30 7f 3d
       -0.011907765 0.10613901 0.06037895 0.062302075
000390 c1 fd 40 bc c5 71 a4 3d 32 94 77 bb 65 69 72 3d
       -0.01177925 0.08029512 -0.003777754 0.059182543
0003a0 bf 03 be 3c 8c 8b 47 3c 64 51 34 3d 05 81 8f bd
       0.023195146 0.012179267 0.044022933 -0.070070304
0003b0 8a 19 a6 bd 93 4e 5b bc 5c e4 26 bd a9 78 29 3d
       -0.0811034 -0.013385433 -0.040745124 0.041374836
0003c0 68 73 5a 3c 4e a3 74 bd c4 b8 c5 bc 26 6d 0b bd
       0.013333179 -0.059726052 -0.024135955 -0.03403964
0003d0 aa 0f 7c bd e2 c1 55 bd 6d cc e5 bc f1 61 05 3b
       -0.061538376 -0.052186854 -0.02805158 0.0020352567
0003e0 b4 23 7b bc 85 4b 5d bd 20 d6 37 3d ad c8 10 3d
       -0.0153283365 -0.0540271 0.04488194 0.03534763
0003f0 8e 55 1c bd 19 7f 95 3b 31 88 86 3d 23 80 1b bc
       -0.03816753 0.0045622704 0.06568945 -0.009490999

conv3.bias f4 [20]
000000 14 9c c4 bc 90 df 0e bd 94 12 c0 3d 7a 6f ad 3d
       -0.024000205 -0.034881175 0.093785435 0.08468528
000010 6c de 8e bc a3 67 e5 3c 53 f7 ce bc c0 86 82 3c
       -0.017440043 0.02800352 -0.025264418 0.015933394
000020 19 ad e6 3c 07 a9 3a bd 32 2e 0d 3e 76 3e 29 3b
       0.028158711 -0.045571353 0.13787153 0.0025824583
000030 0e 00 57 bd 7f f1 04 bd 2c 6b b1 3c 66 05 a5 bc
       -0.052490287 -0.03245687 0.021657549 -0.020144176
000040 0a 8b 80 bd c3 b5 27 3c d6 4d ca 3c 65 36 45 3d
       -0.062765196 0.010236206 0.024695318 0.048147578

conv4.weight f4 [20, 20, 5, 5]
000000 dc 68 f1 3c e8 9d 42 bc b5 37 6a 3d e2 24 8c 3b
       0.029468946 -0.011878468 0.057182033 0.0042768577
000010 f5 3f dd ba dc 53 24 3d e4 e4 03 3d 67 68 47 3d
       -0.0016880023 0.040119037 0.03220071 0.04868355
000020 12 ba ef bc ac 72 8e 3b d4 0c 89 3d 28 89 d8 3c
       -0.02926353 0.004347166 0.066919 0.026432589
000030 11 cf 26 3d 6c 75 c2 3b 8c 3c 47 bd d9 02 ad bc
       0.040724818 0.005934408 -0.048641726 -0.021119522
000040 4c 70 4f bc 0e 46 22 bc b8 51 02 3d 3d c0 08 bd
       -0.012661051 -0.009904398 0.031816214 -0.033386458
000050 58 47 06 bd 3a 14 70 bc b6 dd c1 3c dd 3e 05 bd
       -0.032782882 -0.01465326 0.02366529 -0.032530654
000060 8d 18 1e bb 49 c8 93 bc 1b 9d c5 bb 59 db 90 bd
       -0.002412352 -0.01803984 -0.0060306913 -0.07073087
000070 61 70 84 bd 2f fd 77 bd 67 86 52 bc c8 d4 2d bd
       -0.06466747 -0.06054419 -0.012849427 -0.042439252
000080 0a f6 22 bd 04 b3 0f bc 99 64 d7 bc 6a 71 21 bd
       -0.039785422 -0.008770708 -0.026293086 -0.0394148
000090 8a 72 fa bb 7a ca c1 3c 7e 68 1f bd 4f f5 61 bc
       -0.0076430487 0.023656119 -0.03891801 -0.013791396
0000a0 f8 dc d0 bc 4f 9b 16 3d 2a c9 98 bc 34 e4 03 3d
       -0.025495991 0.036769208 -0.01865061 0.032200053
0000b0 39 27 15 bd c9 ce 47 3c ce 94 2a bd 6e bd a1 3c
       -0.03641436 0.0121952975 -0.041645817 0.019743647
0000c0 03 38 89 3b 8b 4b 38 bd 68 d0 a9 3d 21 ae bd 3d
       0.0041875853 -0.04499392 0.082917035 0.09261728
0000d0 07 3a 5a 3d 1f ee 37 3d 7c db 1d 3d 63 3d 9f 3d
       0.053277995 0.044904824 0.038539395 0.077753805
0000e0 86 dd 1a 3d ea 07 92 3d 7b 2f 55 3d d7 6b 83 3d
       0.037808917 0.07130416 0.052047234 0.06417053
0000f0 f7 a4 c6 3d 60 a3 d4 3d a3 36 81 3d 4c 2d b7 3d
       0.09699433 0.10382724 0.06309249 0.089441866
000100 a8 47 85 3d 1c 00 ce 3d 18 00 6a 3d 8c 86 b8 3d
       0.06507808 0.100586146 0.057128996 0.09010038
000110 a9 bb 83 3d f2 35 90 3c cb 2f 9e 3d 90 0a 9c 3d
       0.06432278 0.017603848 0.077239595 0.07619202
000120 01 3c ab 3d 8c 3b a4 3d 68 80 97 3c 22 9c 19 3d
       0.08361054 0.0801917 0.018493846 0.037502415
000130 b1 87 f2 3d 6d 75 95 3d cf 98 43 3d 32 5e 0e 3d
       0.11842287 0.07297788 0.04775315 0.0347578
000140 fd 21 fd 3d c5 7a c6 3d d7 a8 89 3d 9c 49 ca 3d
       0.123599984 0.09691385 0.06721657 0.09877321
000150 86 26 0a 3d 39 d9 83 3d f3 ae b9 3d a1 42 9b 3d
       0.033728145 0.06437916 0.09066572 0.07581068
000160 dd c9 76 3d 93 37 bf 3c a2 1e ca 3d 32 2a 9d 3d
       0.060251106 0.02334193 0.09869124 0.07674064
000170 44 fd 2c 3d a4 b2 ab 3d a9 2c 50 3d c1 54 82 3c
       0.04223372 0.08383682 0.05082384 0.015909554
000180 4c dc a3 3d 75 d1 8c 3d f0 3c 91 3d 14 97 4d 3d
       0.08001003 0.06875888 0.07091701 0.050192907
000190 40 60 cc 3c d1 26 7f 3c d1 39 cf bc ae e9 94 3c
       0.02494824 0.015573219 -0.025296124 0.018177833
0001a0 b1 4c 36 bd 3f ba 86 bc a2 68 e1 3b 11 16 c1 3c
       -0.044506732 -0.016446231 0.0068789283 0.023570092
0001b0 13 96 b3 3b ee 18 df 3c 2e 88 c1 3c 0c e9 43 bd
       0.0054805367 0.027233567 0.023624506 -0.047829673
0001c0 70 cc c5 3c 5e 37 ab bc 6d 12 d1 bc aa 43 dd bb
       0.024145335 -0.020900425 -0.025521481 -0.006752451
0001d0 a2 9e be bb 17 f4 51 bc cf 4d 9c 3c ef a4 82 3d
       -0.0058172503 -0.012814543 0.01908007 0.06379115
0001e0 ec 04 cb 3b 6c 9b ad bc bf e4 14 bd d7 7b 06 3a
       0.006195655 -0.021192275 -0.03635096 0.0005130148
0001f0 b2 06 fa 3c a9 35 cb bc bb 34 47 bd bd b6 6b 3c
       0.03052077 -0.02480586 -0.048634272 0.01438683
000200 a2 1c 42 3b 4e 9e 2e 3c 0d 2e 4b bd 5a c0 0f 3c
       0.0029619117 0.01065786 -0.049604464 0.0087738875
000210 48 b4 a9 bc 79 53 b4 3c 7b f7 7f 3c 4a 52 2e bd
       -0.020715848 0.02201246 0.015622969 -0.042558946
000220 02 7d 80 bd 55 5b 41 bc 83 fc 87 3c 2b f6 b1 bc
       -0.06273843 -0.01180156 0.0165999 -0.021723827
000230 e1 cd 18 3c 52 6f 72 3c 08 62 12 3d 72 24 16 bc
       0.009326429 0.014797049 0.03573802 -0.009163963
000240 5a 65 90 3d 33 60 2d bd 53 62 34 3c d1 b8 66 3d
       0.07050581 -0.04232807 0.01100977 0.0563286
000250 c4 67 9c 3c 48 f7 66 3d 4c 62 b2 bc 0e 25 83 bd
       0.019092448 0.05638817 -0.021775387 -0.06403552
000260 6b 54 55 bd f9 27 59 3a 02 b9 6a bc 2c ea 1e bc
       -0.05208246 0.00082838495 -0.014326336 -0.009699386
000270 e3 ee d4 bc f4 6b a3 bd 6e 27 b5 3b 86 72 d4 bb
       -0.025992816 -0.07979575 0.005528382 -0.006483379
000280 7a 79 aa bd 71 c0 c8 bc ac 8f 17 bc 1c 1b b8 bd
       -0.08323951 -0.024505826 -0.009250563 -0.08989546
000290 04 84 08 bd d5 91 8f bd 9a fb 5a bd 81 c1 49 bc
       -0.033329025 -0.07010237 -0.053462602 -0.012314201
0002a0 86 bd 3f bc 14 07 d4 3c e1 42 97 bd 7e c9 ce bc
       -0.011702901 0.025882281 -0.07385803 -0.025242563
0002b0 3d b0 c9 bc 12 7f 21 bc 68 62 0b 3c c1 9e 71 bc
       -0.02462017 -0.009856956 0.008507349 -0.014747323
0002c0 3a 69 49 3b a5 90 0f 3d 15 b2 a3 bc aa 50 c3 3b
       0.0030732886 0.035050053 -0.019982377 0.0059605436
0002d0 3b 68 dd bc 79 9f cd 3c 1c 41 40 bc 8c 9d 49 3b
       -0.02702724 0.025100457 -0.011734273 0.0030764071
0002e0 1a 20 46 3a 8d f0 72 bd 70 8c 66 39 be 25 52 3d
       0.0007557884 -0.05931144 0.00021986826 0.051305525
0002f0 81 06 02 3d 7b cf 96 3d 43 51 7a bc 7f 2d db 3c
       0.031744484 0.073637925 -0.015278163 0.026755093
000300 ff 4a cc ba fe 5f ba 3d 25 63 a5 3d 6c 56 b4 bc
       -0.0015586315 0.0910034 0.08075551 -0.022013865
000310 43 24 85 bc a4 a4 15 bc d2 c3 6e 3c 49 85 be 3d
       -0.016252642 -0.009133492 0.014573054 0.09302766
000320 3a 50 8a bc a3 bb ae 3b c9 37 a9 3c e2 0f e3 3c
       -0.016883958 0.0053324266 0.020656483 0.027717534
000330 71 e6 ee 3c c1 ca a3 3c b7 00 3b bd 3c d4 9d 3c
       0.029162617 0.019994142 -0.04565498 0.01926624
000340 df 0e c3 3b c9 30 0a 3d ca dd c5 bc 47 1c c7 bc
       0.0059527005 0.03373793 -0.024153609 -0.024305476
000350 66 3e 87 bd 7d 48 60 bd ec c2 d9 bc 83 24 2a 39
       -0.066036984 -0.05475663 -0.026582204 0.00016226065
000360 38 cc 50 bc 68 ee a8 3c 08 ea dc 3c 3f 17 0d 3d
       -0.012744002 0.020621493 0.026967064 0.034445997
000370 5a 55 ea 3b 12 17 15 bc 9d 5b 72 bc 95 7b 38 3d
       0.007151288 -0.009099739 -0.01479235 0.045039732
000380 2f cd c7 3c 29 7e 29 bd 05 61 80 bc 5e 8a c0 bc
       0.024389831 -0.04138008 -0.015671263 -0.023503479
000390 a3 c0 76 bc 93 5a 06 3d 00 87 80 bc bd 17 90 3c
       -0.015060577 0.032801222 -0.015689373 0.017589444
0003a0 fc 21 a5 bb a1 8b e4 3c df ce 13 bc 74 44 88 3c
       -0.0050394516 0.027898612 -0.00902149 0.016634203
0003b0 47 45 05 3c a3 de 12 bd ce 95 b2 bb 4b 16 b9 bc
       0.008134193 -0.035856854 -0.005449987 -0.022593638
0003c0 dd a3 16 bd d2 e4 7b 3c 6e bf 1e bd 7c b3 ad bc
       -0.036777366 0.015374379 -0.03875678 -0.021203749
0003d0 4f bb 83 3d 56 d1 60 bc cb 08 8d bc d3 10 11 3d
       0.06432211 -0.013721785 -0.017216107 0.035416435
0003e0 aa 4e ec bb 26 11 ab 3d 3c 40 9f 3d 79 c8 df 3c
       -0.007211526 0.0835288 0.077759236 0.027317272
0003f0 b9 77 ea 3c b9 48 fa 3c c5 b3 84 3d 3a ee 4a 3b
       0.028621541 0.030552255 0.06479601 0.0030964748

conv4.bias f4 [20]
000000 e0 5b f3 3c 09 de 8d bd 8b ee 91 3d fd bd de bd
       0.029706895 -0.069271155 0.071255766 -0.10876081
000010 a5 aa 64 3d 40 da 1a bc a3 e4 09 bd 9a e0 46 3c
       0.0558268 -0.009451449 -0.03366531 0.01213851
000020 fa e7 ed bb 80 0a 0d bd 85 7e 93 3c 9d 5f ff bc
       -0.00726032 -0.03443384 0.018004665 -0.031173522
000030 91 0c a7 bc c3 23 99 3d dc 5a 24 3d 41 6b 95 bc
       -0.020391734 0.07477524 0.040125713 -0.01823962
000040 6a 80 c3 bd cf 3a 93 3d ce 44 6d 3b d9 cf 46 bd
       -0.095459774 0.07188951 0.003620434 -0.048538063

conv5.weight f4 [40, 20, 5, 5]
000000 5a 3d 03 3d 28 43 87 3d 86 6d 7b 3d aa 1b 87 3d
       0.03204093 0.06604606 0.061383747 0.065970734
000010 6e d2 16 bc c4 1e 78 3d 1d b6 a0 3c a6 1d cf ba
       -0.009205444 0.060576215 0.019618088 -0.0015801683
000020 85 38 d7 3c 1d 2e 87 bb 91 3c c2 3c a2 1b bf bb
       0.026272068 -0.00412537 0.023710521 -0.0058321515
000030 3c 5d 27 bc 4c 72 3d bd 9a c4 6a bc 46 cf c6 3b
       -0.0102151 -0.04625158 -0.0143291 0.0060671894
000040 45 9a 80 3c 00 86 ad bc 5a 70 6b bd c3 d3 3d bc
       0.015698561 -0.02118206 -0.057480194 -0.011586132
000050 13 75 16 bd 53 4c e2 bc d8 94 03 3d af 18 2a bd
       -0.036732744 -0.027624285 0.03212437 -0.041527446
000060 eb 08 31 bc 87 5a 65 bc ab 76 44 3d dd 56 ef 3c
       -0.010805349 -0.013998634 0.047964733 0.029216224
000070 4d dc 8b bb 36 9e 94 3b f0 90 11 3d dd a5 0a 3c
       -0.0042682053 0.004535462 0.035538614 0.008462396
000080 52 10 96 3c 83 c5 5d 3c 75 a3 1c bd 84 fb 6f bd
       0.018318329 0.01353586 -0.038241822 -0.058589473
000090 86 60 7e bd 33 5c 97 bd 70 8a ba bc e1 5e 6f bd
       -0.06210377 -0.073906325 -0.02277109 -0.058440093
0000a0 ad 92 4b bd 39 da 98 bc 35 c4 bb bc d0 46 68 bc
       -0.049700428 -0.018658744 -0.022920707 -0.014177039
0000b0 06 d2 b8 bd 3a 58 c2 bb 4d e1 80 bd 03 7c 76 bd
       -0.09024434 -0.0059309276 -0.06292973 -0.06017686
0000c0 8d 7a b3 bd 9b 96 5b bd 12 64 c2 bd c5 b6 ab bd
       -0.08763609 -0.053610425 -0.09491743 -0.0838447
0000d0 ae 1c 43 bd 5e 49 82 3a 56 81 b9 3b 8c 29 98 3b
       -0.047634773 0.0009940078 0.00566117 0.0046436246
0000e0 26 3e 1d bd 0e bf 33 3d 40 c4 61 3d 3b 05 6c bc
       -0.038389347 0.043883376 0.0551188 -0.014405544
0000f0 bb 57 d2 3d 5b 18 de 3d 90 9d 3a 3d 50 dc ac 3d
       0.102706395 0.10844489 0.04556042 0.08440459
000100 6d f9 00 3e 44 48 a5 3d ca ed ef 3d 20 c0 10 3e
       0.12595148 0.08070424 0.117152765 0.1413579
000110 59 ed 16 3e 09 fe 86 3d 75 c3 0b bd 34 ee 19 3d
       0.14738978 0.06591422 -0.03412195 0.037580684
000120 40 78 53 3d d3 83 9f 3d 96 bc 84 bc f4 5f aa 3d
       0.05162835 0.07788815 -0.016203206 0.08319083
000130 7f fc 27 3d 7d a4 27 3d 84 f1 8a 3d 2f 07 8b 3d
       0.041012283 0.040928353 0.06784347 0.067884795
000140 9e ac 83 3d 42 86 40 3c f2 bc 56 3d f7 ee 73 3d
       0.064294085 0.01175076 0.052426286 0.059554067
000150 59 52 01 3b e3 29 02 bd 5f 29 95 bc ea 55 4e bd
       0.001973292 -0.031778228 -0.018208204 -0.050374903
000160 94 a6 82 bc d2 8f 98 bc f4 b0 9a bc 0b 3e 42 bc
       -0.015948571 -0.018623266 -0.018883206 -0.0118556125
000170 48 5d d4 bc d7 8b a4 bc 89 18 23 bd 30 ac 9e 3c
       -0.025923386 -0.020086212 -0.03981832 0.019369215
000180 2d ed 03 bd 0f 18 54 bd 96 1b db bb 45 4e b4 ba
       -0.03220861 -0.051780757 -0.006686638 -0.0013756236
000190 7e 5b 34 3d 12 c5 47 3d 3d 1b 80 3a 26 d5 69 bc
       0.044032566 0.048771925 0.0009773743 -0.01427201
0001a0 4e 4b 7d bc 02 90 f3 bb 08 61 14 3a 94 9d 00 3c
       -0.015459849 -0.0074329386 0.0005660211 0.00785007
0001b0 f1 4f 1d bd 7c 9e db bc 4f c9 72 bd 7f cf 6d bd
       -0.038406316 -0.02680897 -0.059274014 -0.05805921
0001c0 94 42 80 bb f2 56 20 bd 13 fc 4e bd 99 74 48 bd
       -0.0039141867 -0.039145418 -0.050533365 -0.04893932
0001d0 d8 b9 88 bd ff 97 6c bc ef 9d 80 bd 29 a2 5d bd
       -0.06676072 -0.014440536 -0.062801234 -0.054109726
0001e0 af d1 02 3c 9e 1c 8a bd 21 d6 4a bd 60 30 5e bc
       0.007984563 -0.067437395 -0.049520615 -0.013561338
0001f0 36 aa 0a bd 6b bf 5a bd ab 68 3b bd 01 c8 83 bd
       -0.033853732 -0.053405207 -0.045754116 -0.06434632
000200 0a d4 b4 bc 50 4c 02 bd d0 74 38 bd 82 a3 ed 3c
       -0.022073764 -0.03181106 -0.045033276 0.02900863
000210 c8 6b 71 bc c1 0c 69 bb 8a d1 46 3c 98 d0 d8 3c
       -0.01473517 -0.003556058 0.012134919 0.026466653
000220 bd c1 69 bc df 08 1d bd 1e a9 f7 3a f1 01 f7 3c
       -0.014267382 -0.03833854 0.0018895005 0.030152293
000230 68 3b 89 bc 78 05 47 3c bf d8 82 bd 83 f8 53 bd
       -0.01675196 0.0121473 -0.06388997 -0.05175067
000240 06 d0 ba bc d8 6d 8e bd 3e 88 76 bc 71 bd 17 bd
       -0.022804271 -0.06954545 -0.015047131 -0.0370459
000250 3d 9a 48 bc fe f7 00 bd 23 6a 43 3d ab 48 ef 3c
       -0.0122438045 -0.031486504 0.04770864 0.029209455
000260 e0 cd 84 3d c4 76 75 3d c5 2e 62 3d a2 c5 17 3d
       0.0648458 0.059927717 0.055220384 0.03705371
000270 02 c2 38 3d 2a 2f a1 3c 8b 91 ab bc db 60 d5 3c
       0.045106895 0.01967581 -0.020943424 0.02604716
000280 09 f3 b4 bc 65 d8 7e bc 25 1b 35 3b 94 7d 34 bd
       -0.022088544 -0.015554522 0.0027634588 -0.044065073
000290 b7 0b d0 bb c5 df 02 3d c6 3a 22 bd c0 7d 2a bd
       -0.006349053 0.031951685 -0.039606832 -0.04162383
0002a0 a0 7e 9f bd 1c 00 8b 3c b4 95 54 ba 2d ae 9a 3b
       -0.07787824 0.016967826 -0.00081094657 0.0047204704
0002b0 58 5f 1f bd 76 b6 08 bd 71 c6 ec bc bf 16 84 bd
       -0.038909286 -0.033377133 -0.028903218 -0.06449651
0002c0 db ba 93 bc 17 22 76 bc a6 d9 2a bc d0 e5 f7 bc
       -0.018033436 -0.015022776 -0.010427868 -0.03026095
0002d0 73 3d df bc 60 b2 6e bd ed 85 c4 bc 3f 93 4e bc
       -0.027250981 -0.05827558 -0.023989642 -0.012608348
0002e0 76 fa 15 3b 78 d9 80 bd 44 4b fa bc 63 92 60 bd
       0.0022884882 -0.06291479 -0.030553468 -0.054827105
0002f0 d4 f0 87 bd 58 e9 fd bc ea a9 96 bc 51 52 7c bd
       -0.06637731 -0.030995056 -0.018391568 -0.06160194
000300 b5 f7 45 bd b1 85 93 bd 4f 28 85 bd 82 19 64 bd
       -0.048331935 -0.07203234 -0.06501829 -0.05568839
000310 1e df 1f 3c fa e8 90 3c e6 63 0b bd f1 17 34 bd
       0.009757785 0.017689217 -0.034030817 -0.043968145
000320 1e a0 ba bc c0 db 49 bd b0 b2 59 bd c4 84 91 bc
       -0.022781428 -0.049281836 -0.053148925 -0.017763503
000330 14 d9 73 bd 77 ea e9 bb b9 96 5f bc b5 95 12 bd
       -0.059533194 -0.007138546 -0.013646775 -0.035787303
000340 cd d2 4f bd 7a 76 f5 bc 74 f4 3f 3d aa 3f 09 bd
       -0.050738145 -0.02996372 0.046863988 -0.03350798
000350 ea 4e e0 bc ec aa 18 bc 96 47 b8 bb cd 96 7c bd
       -0.02738138 -0.009318095 -0.005623768 -0.061667252
000360 3f a4 b0 bc 64 32 9b bc 51 86 8a bd a1 67 83 bd
       -0.021562694 -0.018944927 -0.067639 -0.0641625
000370 f8 a2 44 bd 1e 0e 76 bd e2 48 06 bd f7 a7 a0 bd
       -0.04800698 -0.060072057 -0.03278435 -0.07844537
000380 d0 3e 7b bd ea 4e bf 3c 85 c3 96 3b c0 eb 70 bc
       -0.0613392 0.023353059 0.0046009445 -0.014704645
000390 90 4d 90 bb ed f6 c1 3c 20 fb 76 3c 75 ac 31 bd
       -0.0044037774 0.023677314 0.015074521 -0.04337736
0003a0 49 f3 c4 3c 0a 81 a0 bc ca 36 75 3a 0d b4 0c 3d
       0.024041789 -0.01959278 0.00093541725 0.034351397
0003b0 68 a9 83 bc fb 15 4c bd 8c 13 da bc c3 7c b4 bd
       -0.01607199 -0.04982565 -0.026620649 -0.08812859
0003c0 50 d9 5c bc 4b 7d 35 bd b0 08 3f bd f1 5e 80 bd
       -0.013479546 -0.04430894 -0.046639144 -0.06268109
0003d0 26 74 27 bd 43 03 3c bd 4f 52 d7 bc aa 28 6c bd
       -0.040882252 -0.045901548 -0.026284365 -0.057655968
0003e0 b0 45 88 bd c2 c9 eb bd d2 e5 7b bd 9e 54 a3 bd
       -0.06653917 -0.115130916 -0.06149847 -0.07975124
0003f0 b9 2a ee bc 28 2e 97 bd 07 ae b0 bd b0 71 d2 3b
       -0.029073106 -0.073818505 -0.08626943 0.006422244

conv5.bias f4 [40]
000000 c8 16 fb 3c d5 25 05 3c 4b 9b e3 3c e4 9d 5c bc
       0.030650511 0.008126696 0.02778401 -0.013465378
000010 22 7f 13 bc 5e fb 85 bc 76 25 68 3a ca b7 36 3d
       -0.009002479 -0.016355213 0.000885568 0.04460887
000020 62 dc 6b 3d 1f 05 59 3d ac 01 70 bc f7 6e 76 3d
       0.05758322 0.0529834 -0.014648836 0.060164418
000030 67 8a 34 3c 33 8e 19 3d de 62 10 3d 1d 7e 10 bd
       0.011019326 0.037489127 0.035250537 -0.03527652
000040 3e 18 ef 3b 95 e6 f2 bc 34 30 30 3b e4 6d 25 bc
       0.007296591 -0.029650966 0.00268842 -0.010097001
000050 f5 51 ab 3c a8 39 5a 3d 71 fe 8b 3c aa 42 b6 bc
       0.020913104 0.05327764 0.0170891 -0.022248585
000060 60 a6 c1 bc 19 89 a5 bd 47 af 3c bd ea ba 8a bd
       -0.023638904 -0.0808279 -0.046065595 -0.06773932
000070 14 2f c1 3c f9 5a d2 bc f2 8d 2e 3d ef 61 c8 3c
       0.023582019 -0.025678145 0.04261584 0.02446076
000080 8e b7 dc bc 11 5c 87 bd b1 e2 9d bd f7 c3 1e bd
       -0.026942994 -0.06609357 -0.077092536 -0.038761105
000090 36 6d da 3d 06 17 83 ba 55 60 21 bc 32 39 60 bd
       0.106653616 -0.0010001368 -0.0098496275 -0.054742046

conv6.weight f4 [40, 40, 5, 5]
000000 1f 26 01 3d c7 84 c4 3c b2 68 aa 3c 0e 7c 51 3c
       0.031530496 0.023989094 0.020801876 0.012785925
000010 ea 14 c6 3b 9f cb 81 3d 2c b2 89 3d 11 84 8d 3d
       0.0060449736 0.06337666 0.06723437 0.06909955
000020 6c 85 12 3d 74 e7 1f 3d b2 48 64 3d 0e 32 17 3d
       0.035771772 0.03903909 0.05573339 0.03691297
000030 b7 75 66 3d 64 d0 54 3d 45 d6 04 3d 23 f7 43 3d
       0.056264605 0.05195655 0.032430906 0.04784311
000040 e9 ae 60 3d 08 68 db 3d 59 35 b8 3d f6 7a 5a 3d
       0.054854307 0.10713202 0.0899455 0.05333992
000050 5c ab 76 3d f1 42 05 3d d1 53 1a 3d 11 62 ba 3d
       0.060222015 0.032534543 0.03767759 0.09100736
000060 4f dd 92 3d 9a 6c e5 3b 27 20 68 bc 0a 79 10 3d
       0.071711175 0.0070014717 -0.014167822 0.03527168
000070 59 6a ad ba 01 2b 8d 3d 87 1b f4 3c d5 d7 9c bc
       -0.0013230547 0.06892968 0.029798282 -0.019145885
000080 9a dc fb 3c e9 3b 48 3d 76 4c 17 3d 48 37 a0 bc
       0.03074484 0.04888526 0.036938153 -0.01955761
000090 c0 89 1f bc 90 8b 8d 3c 1b 84 48 3c d9 89 51 3d
       -0.009737432 0.017278463 0.012238528 0.051156852
0000a0 a5 18 56 bb 44 29 39 bc a8 f1 f8 3b 4d bc 32 3c
       -0.0032668498 -0.011301342 0.007597167 0.010909152
0000b0 eb 13 8b 3c 88 42 20 3d 3c bf c7 ba be 6a 8a 3c
       0.016977271 0.03912595 -0.0015239487 0.016896602
0000c0 1e bb d9 3c bb 66 6b 3b 18 01 8a 3b 93 30 13 3c
       0.026578482 0.0035919386 0.004211556 0.008983749
0000d0 e2 bc 63 3d 83 3c 33 3d c1 c1 8e 3d 6c ac ac bb
       0.055600055 0.04375888 0.069705494 -0.0052695777
0000e0 55 ff 31 3d 40 39 95 3c 51 07 97 3d 72 04 b7 3d
       0.043456394 0.018215775 0.07374442 0.08936395
0000f0 cc f5 7e 3c 01 86 67 3c b3 9d 7b 3d 39 1e e4 3c
       0.015561532 0.01413107 0.06142969 0.027846443
000100 ef e2 d6 3c 91 7f c9 3c a7 dc 9c 3c 16 28 3b 3b
       0.026231257 0.024596961 0.019148184 0.0028557829
000110 90 c3 b1 3c ed ff f9 3c 22 5d 65 3c 56 a4 f4 3b
       0.021699697 0.030517543 0.013999255 0.0074658794
000120 65 18 63 3d 36 03 7a 3c e6 9b a6 3c 88 bf 1a 3c
       0.055443186 0.015259555 0.02033801 0.009445079
000130 52 ee 1e 3d 21 bd 18 3d 46 82 59 bb 4a 85 3a 3d
       0.0388015 0.037289742 -0.0033189221 0.04553727
000140 5b f3 16 3d 7a f1 80 3c 5e dd 0b 3d 54 58 da 3c
       0.036853176 0.015740145 0.03414666 0.026653446
000150 9a 34 1b 3d 6d 14 01 3c 1e 4b 81 3b 61 6f b6 bb
       0.03789196 0.007878405 0.0039457222 -0.0055674766
000160 d1 fa 0c 3d 26 22 04 3d 91 69 e2 bc ae 14 7f 3b
       0.034418885 0.03225913 -0.027638229 0.0038922238
000170 ec f2 18 3d 6d fe 20 3d 5c 76 47 3d d2 9f 54 3c
       0.037341043 0.03930514 0.04869686 0.012977557
000180 0c c0 fa 3b 4c d4 44 bc 9e a3 de 3b 6b 3f b1 3c
       0.0076522883 -0.012013506 0.006794407 0.021636685
000190 a1 b0 4a 3d 46 ad 10 3c 9e 36 50 3d 1c 7f 80 3d
       0.049484853 0.008830374 0.050833337 0.06274244
0001a0 4f 26 ee 3c a0 93 41 3d a0 22 88 3c 48 fd 21 bc
       0.029071001 0.047259927 0.016618073 -0.009887047
0001b0 c8 51 04 bc b4 94 0b 3d 3a 16 c7 3c 75 ab 01 bc
       -0.008076139 0.03407736 0.02430259 -0.007914414
0001c0 d1 6f 36 3c 80 83 8c bc 1a 38 1f 3d 8a 73 f9 3b
       0.011135058 -0.017152548 0.038871862 0.0076126503
0001d0 b1 d5 d1 3b f8 56 aa 3b 28 4c 69 3a af df ca 3c
       0.006403648 0.0051983558 0.0008899593 0.024764864
0001e0 7c bc 93 3c 95 76 b1 3c 23 fd 44 3c 51 34 f6 3c
       0.018034212 0.02166299 0.012023243 0.030054243
0001f0 e3 65 4c 3c d8 b9 42 bd 6e 5e 56 3c a9 9b c8 bc
       0.012475464 -0.047540516 0.013084037 -0.024488287
000200 db 58 02 3d 60 ba 85 ba f6 80 3f 3b 04 05 c9 3b
       0.03182302 -0.0010202639 0.0029221154 0.006134631
000210 8d b9 a5 3c 56 7a 98 bc 38 37 a2 bb 9e 93 28 3c
       0.02023008 -0.018613022 -0.0049504302 0.010289101
000220 cd 95 81 bc 68 8e 03 3c f7 44 b2 3c 9a 9f db bb
       -0.0158185 0.008029558 0.0217614 -0.0067023756
000230 17 89 8e 3c 1c 42 9d bc 90 e7 a2 3c 2c ea a2 bc
       0.017399354 -0.019196562 0.019885808 -0.019887052
000240 7e ce 02 bd 0a 9c 28 bc 59 0a bc bc 83 26 b6 3c
       -0.031935208 -0.010291109 -0.022954153 0.02223516
000250 d9 fe cd bb 68 39 b9 bc 4b d0 a2 3b d0 6d 0b 3d
       -0.0062864837 -0.022610381 0.004968678 0.034040272
000260 21 e2 4f 3d 9c 34 32 3d c1 14 33 3d 7b df a9 3c
       0.050752763 0.043507203 0.043720964 0.020736447
000270 3a 66 9f bb 8c b4 08 3b 4f 13 f6 3c f5 4c 3e 3c
       -0.0048644813 0.0020859567 0.030038504 0.011615028
000280 be fa 3e bb 11 b8 6d bc 48 02 8e bb 3b 5d 19 3d
       -0.0029141153 -0.014509217 -0.004333768 0.037442427
000290 0e 76 31 3c c9 97 ad bc ea 14 b3 3c 9f 9a 32 bc
       0.010831369 -0.02119054 0.021860559 -0.010901122
0002a0 07 e2 4e bc d7 91 02 3a ff de df bc 42 ed 6a ba
       -0.012627131 0.0004980838 -0.027328013 -0.0008961746
0002b0 80 c6 08 3d 6d 96 cd 3c e0 57 ed 3c ae 89 95 3c
       0.03339243 0.025096143 0.028972566 0.018254127
0002c0 7b b7 b4 3b 3f e2 20 3c b1 d5 7d 3c 15 11 c8 3c
       0.0055150366 0.009819566 0.0154928425 0.024422208
0002d0 2e 0d bd 3c 7d 7b 2e bc 56 fd 17 3d 4f e4 05 3d
       0.023077574 -0.010649559 0.037106834 0.032688435
0002e0 90 cd 30 3d c9 0e c8 bc 2f c1 d4 3c 70 0f df 3c
       0.04316479 -0.024421113 0.025971023 0.02722904
0002f0 75 f7 20 3c 3f 30 bb bb 26 b9 f0 bb 7a 0d c7 3c
       0.009824623 -0.0057125385 -0.00734629 0.024298418
000300 33 8b 11 3d cc 9e 4d 3d 00 86 17 3d 61 cc d9 3c
       0.03553314 0.05020027 0.036993027 0.026586713
000310 40 e9 34 3c 3f ab 0b 3c f7 0f f8 3c 31 e6 3f 3a
       0.011041939 0.008524715 0.03028105 0.0007320373
000320 9d ba 45 3d 08 7e 65 3c 27 66 19 3d 3b ed d2 3c
       0.04827367 0.014007099 0.037450936 0.025747886
000330 79 5c 5f 3d dd 46 bb 3c a4 f7 00 3c 93 19 8b 3d
       0.05453155 0.022860939 0.007871542 0.06791987
000340 2a 5f 0b 3d 42 81 6e 3d 80 59 4b bc c1 be 5f 3a
       0.034026302 0.05822874 -0.012411475 0.00085351994
000350 ad c7 44 3c 09 8e b0 3c 33 0d 93 3c 53 ca 1c 3d
       0.012010497 0.021552103 0.01795063 0.03827889
000360 6b bc 07 3c 23 9b ce 3c 6b b1 a4 3d 6e 0d 66 3d
       0.008284668 0.02522046 0.08041652 0.05616515
000370 2b c5 a6 3c 1e bb f9 3b c2 7e a3 bb 96 77 81 3d
       0.020357689 0.007621183 -0.004989476 0.06321637
000380 13 70 56 3d dc b9 2d bc b0 50 af 3c 83 1e 89 3c
       0.052352976 -0.010603394 0.02140078 0.016738182
000390 b3 3f 02 3d ce 0e 36 bc 78 a9 7e 3c 63 c3 54 3b
       0.03179903 -0.011111928 0.015543334 0.0032465092
0003a0 29 0a 01 bb f5 4b f4 3c f8 a9 5e bc f3 f6 dd 3c
       -0.0019689894 0.029821375 -0.013590328 0.027095294
0003b0 28 1f 14 3d 53 c3 23 3d 93 93 12 3c 78 a3 9f bc
       0.036162525 0.039981198 0.008946317 -0.019487128
0003c0 eb ac cb 3c e7 f0 93 3c c2 5f cf 3c 50 aa 36 3c
       0.024862727 0.018059207 0.025314216 0.011149004
0003d0 ea 77 34 ba 03 f1 17 bd 67 14 e3 bc 4b 04 b1 bc
       -0.00068843237 -0.03709508 -0.02771969 -0.021608492
0003e0 c1 ad f9 bc 31 14 30 bc 3a ff 82 3d 0b 8a e1 3c
       -0.03047836 -0.0107470015 0.06396337 0.027531644
0003f0 5d eb 51 3d 52 de 27 3d 75 a1 db bc 85 c5 a2 3c
       0.05124985 0.040983506 -0.026810387 0.019869575

conv6.bias f4 [40]
000000 43 ae cd bc 75 8f 37 3d 4d a6 9e 3c 38 89 a9 3c
       -0.025107509 0.044814546 0.019366408 0.020695314
000010 b5 b4 2b bc 20 d9 3e bd 57 f8 50 3d ee ab 8a bc
       -0.010480096 -0.046593785 0.051018085 -0.016927686
000020 d9 f5 c0 bc fc 87 bb bd 30 d1 64 3d 80 10 36 b9
       -0.02355473 -0.09156796 0.05586356 -0.0001736302
000030 6a 9e 65 bc ab 77 10 bc 12 d6 44 3d 7b e3 a5 3d
       -0.01401482 -0.008817594 0.048055716 0.08100029
000040 3f be 03 bd 65 c5 55 3b c1 84 04 bc 79 e7 2d bd
       -0.032163855 0.0032618877 -0.008088292 -0.042457078
000050 94 78 7d bc b6 65 24 bd 75 79 1d bc ba 02 17 3d
       -0.015470643 -0.04013606 -0.009611477 0.036867835
000060 06 66 ec 3c fb 42 04 3b 5e 7c e6 bc 6a da 21 3c
       0.028857242 0.0020181525 -0.028135475 0.009878734
000070 d1 2f 0a bd 65 bd 48 3c 17 d7 10 bc 95 31 22 3d
       -0.033737008 0.012252186 -0.008840344 0.039598066
000080 71 df 88 bc ea 03 16 bd 46 b7 76 3c 51 5d 64 3d
       -0.016708108 -0.036624826 0.015058344 0.055753056
000090 54 50 aa bc 7e 05 67 bc 37 2a 82 3c 5b d4 7b 3d
       -0.020790257 -0.0141004305 0.01588927 0.061481815
