outputs/2022-05-27/12-35-06/models/baseline.pth (torch, 329358 bytes, 26 tensors)

conv1.weight f4 [10, 3, 5, 5]
-0.025709037 -0.00774618 -0.073705316 0.05421493 -0.11282441 0.11414996 -0.08407835 -0.06801318
-0.07332979 0.06506673 -0.02907204 0.06140732 -0.086550646 -0.029961996 -0.05308086 -0.0015734102
-0.09065868 0.12104756 0.0018771669 0.038754553 0.0989185 0.010669789 0.053153034 0.13207346
-0.06838264 0.027314546 -0.07617956 0.073355734 0.1116665 -0.11160683 0.09483663 0.036440816
0.07385821 0.047379155 0.104112186 -0.036524292 -0.10674377 -0.04133264 -0.054095406 -0.0049331635
-0.0372496 -0.0961809 0.0012780007 0.11591839 -0.016169857 -0.018943692 -0.069144286 0.00027046364
0.09365372 0.04363251 0.0441699 0.02782822 0.03554719 0.06754152 -0.015844872 -0.106997505
-0.07050096 0.1368623 0.009513917 -0.09031829 0.010734108 0.11117569 -0.106644094 -0.05575573
-0.062351003 0.001228438 -0.037892982 -0.0055248532 -0.12522593 0.04061561 0.09454446 0.044193566
-0.09727222 -0.11424559 0.018015806 -0.053296927 0.003867988 -0.1133357 -0.024706857 0.059877634
-0.006462088 -0.041528963 0.017036306 -0.041102912 -0.06969876 -0.1014809 -0.11148747 0.08677984
0.06318197 0.055586293 -0.13907447 0.064423524 0.0313285 0.10200023 -0.026741713 -0.057688765
0.030273966 0.05462144 0.084405996 -0.020372583 0.046330724 -0.12048589 0.022352204 -0.07209421
-0.043654516 -0.065429345 -0.011927663 0.12041491 0.042504825 -0.0017456589 0.055939686 -0.06964438
0.07855502 0.006807772 0.0037101342 -0.0016013596 -0.07593783 0.044093866 0.0847508 0.12734087
-0.082287975 -0.003211699 0.12732714 -0.03432498 0.12304332 -0.08183358 0.026178451 0.051044825
0.018814677 0.07389031 -0.06666393 0.01588852 0.005005883 -0.10723588 -0.032035746 -0.08901558
0.048094515 0.021721987 0.02373722 -0.010407492 0.0009945906 -0.021049824 0.05178006 0.14781147
0.05315268 -0.07927365 -0.1008263 0.023906061 -0.06800668 -0.064821415 -0.0824622 -0.038865104
0.017521773 0.10887283 0.02597459 0.094810106 -0.069315106 0.025436707 -0.117974356 0.06887367
0.038149714 0.13088478 -0.07032672 0.09828951 0.10020178 0.10781183 0.028139835 0.12009876
0.08788666 0.0748025 0.0012256048 -0.061709553 0.013606674 0.014758343 -0.09704073 -0.07114488
-0.12107095 -0.04573363 0.1163501 0.0013770114 -0.02068308 -0.016354246 0.067796074 -0.13276435
-0.09844412 -0.056288816 -0.08649366 0.046174955 0.06266081 -0.12598823 -0.114287205 -0.13761812
0.027084207 0.079744086 -0.10458256 -0.060798433 0.04445467 -0.0790312 0.090886176 0.0278388
0.00534096 0.046024863 0.06620101 -0.0070367404 -0.08853593 0.01941874 0.024189347 0.03426083
-0.016419915 0.08602246 -0.0221932 0.0038507055 0.06335395 -0.06799543 0.03947482 -0.012354679
0.06507636 -0.058264755 0.0010691658 0.021010794 -0.07071571 -0.046900745 0.06443638 -0.023303429
0.09614961 -0.09808405 -0.050055604 -0.119719274 0.03994243 -0.0074617043 -0.010835855 -0.008992883
-0.108751856 0.052565124 -0.0095721185 -0.06808147 0.03658292 -0.03678078 -0.10408483 0.05577396
0.095726475 -0.017258782 -0.095058024 0.012210838 0.10094894 0.13080883 -0.09206851 -0.0757604
0.09896198 0.05889881 0.06469781 -0.071584344 0.059742384 -0.11614023 -0.015295457 -0.0052207876
00000000: c29b d2bc abd3 fdbb d0f2 96bd 7910 5e3d
00000010: 7c10 e7bd 74c7 e93d 4531 acbd 7e4a 8bbd
00000020: ee2d 96bd b541 853d 7d28 eebc 3e86 7b3d
00000030: 7741 b1bd dc72 f5bc 516b 59bd e33a ceba
00000040: 42ab b9bd c8e7 f73d 450b f63a 18bd 1e3d
00000050: c895 ca3d 57d0 2e3c ffb6 593d 443e 073e
00000060: 330c 8cbd c1c2 df3c 0704 9cbd 883b 963d
00000070: 68b1 e43d 1f92 e4bd b539 c23d f742 153d
00000080: f942 973d a510 423d c538 d53d 7f9a 15bd
00000090: 7a9c dabd 6a4c 29bd 2593 5dbd 60a6 a1bb
000000a0: 0993 18bd 7efa c4bd 9682 a73a 9f66 ed3d
000000b0: a676 84bc cd2f 9bbc 859b 8dbd 04cd 8d39
000000c0: 86cd bf3d 01b8 323d 7feb 343d 02f8 e33c
000000d0: ee99 113d 3553 8a3d 1bcd 81bc 8221 dbbd
000000e0: cf62 90bd a125 0c3e 43e0 1b3c ccf8 b8bd
000000f0: 1dde 2f3c 15b0 e33d 3868 dabd 1f60 64bd
00000100: c463 7fbd 8a03 a13a ac35 1bbd d409 b5bb
00000110: 3a3b 00be 8e5c 263d 87a0 c13d 5004 353d
00000120: a836 c7bd 98f9 e9bd e295 933c e14d 5abd
00000130: 127e 7d3b 8c1c e8bd 0966 cabc 4042 753d
00000140: ecbf d3bb 461a 2abd b98f 8b3c 875b 28bd
00000150: 39be 8ebd 38d5 cfbd 8b53 e4bd a1b9 b13d
00000160: 8c65 813d 74ae 633d 8a69 0ebe 7bf0 833d
00000170: 5052 003d 7fe5 d03d 7011 dbbc 0e4b 6cbd
00000180: 1c01 f83c bbba 5f3d 0ddd ac3d 67e4 a6bc
00000190: 49c5 3d3d 4ec1 f6bd f81b b73c 21a6 93bd
000001a0: 14cf 32bd d2ff 85bd 3f6c 43bc 189c f63d
000001b0: 8a19 2e3d 98ce e4ba 0321 653d b6a1 8ebd
000001c0: 74e1 a03d bb13 df3b b925 733b b6e4 d1ba
000001d0: 4b85 9bbd c59b 343d d491 ad3d a565 023e
000001e0: 9986 a8bd 5e7b 52bb 0c62 023e 5a98 0cbd
000001f0: 23fe fb3d 5d98 a7bd 3174 d63c 6114 513d
00000200: 3d21 9a3c ce53 973d 1987 88bd a428 823c
00000210: 6408 a43b 7c9e dbbd ea37 03bd cd4d b6bd
00000220: c1fe 443d 4ff2 b13c 8f74 c23c 2f84 2abc
00000230: ec5c 823a ae70 acbc 5417 543d e45b 173e
00000240: a0b6 593d 395a a2bd 057e cebd a5d6 c33c
00000250: 1647 8bbd 17c1 84bd f1e1 a8bd 0431 1fbd
00000260: d289 8f3c b8f8 de3d aac8 d43c cd2b c23d
00000270: 14f5 8dbd a460 d03c 8a9c f1bd a40d 8d3d
00000280: e042 1c3d a906 063e 7507 90bd 034c c93d
00000290: 9736 cd3d 73cc dc3d 8385 e63c 57f6 f53d
000002a0: ecfd b33d 0e32 993d 79a4 a03a 28c3 7cbd
000002b0: 87ee 5e3c facc 713c 4abd c6bd 68b4 91bd
000002c0: 0cf4 f7bd 3053 3bbd f648 ee3d d67c b43a
000002d0: 906f a9bc 57f9 85bc abd8 8a3d 61f3 07be
000002e0: 129d c9bd 1a8f 66bd 9723 b1bd f321 3d3d
000002f0: 5054 803d 0f03 01be 690f eabd c4eb 0cbe
00000300: b3df dd3c de50 a33d 622f d6bd c707 79bd
00000310: 1a16 363d 1cdb a1bd 8822 ba3d 320e e43c
00000320: 3803 af3b 9184 3c3d 6594 873d 7594 e6bb
00000330: 5352 b5bd 0d14 9f3c bd28 c63c 1655 0c3d
00000340: 0f83 86bc 8b2c b03d 84ce b5bc 1e5c 7c3b
00000350: b7bf 813d 3041 8bbd 59b0 213d 486b 4abc
00000360: c146 853d 06a7 6ebd 4023 8c3a d41e ac3c
00000370: 66d3 90bd ff1a 40bd 39f7 833d d5e6 bebc
00000380: 16ea c43d 4ae0 c8bd 1b07 4dbd 612f f5bd
00000390: ac9a 233d 5081 f4bb df88 31bc e356 13bc
000003a0: 4bb9 debd 874e 573d 60d4 1cbc 4c6e 8bbd
000003b0: f9d7 153d 71a7 16bd 6d2a d5bd 3c73 643d
000003c0: 3e0c c43d 4a62 8dbc c8ad c2bd f70f 483c
000003d0: 51be ce3d c0f2 053e 6a8e bcbd 4528 9bbd
000003e0: 94ac ca3d e13f 713d 4980 843d d09a 92bd
000003f0: 6eb4 743d eeda edbd cc99 7abc 2413 abbb

conv1.bias f4 [10]
-0.08501085 0.075779654 -0.08523723 0.046323266 -0.105976336 -0.015884947 0.015479351 -0.008887402
0.08089407 0.08245339
00000000: 2b1a aebd 5d32 9b3d db90 aebd 77bd 3d3d
00000010: 1f0a d9bd 2621 82bc 1b9d 7d3c 779c 11bc
00000020: caab a53d 53dd a83d

conv2.weight f4 [10, 10, 5, 5]
-0.060717486 0.05659146 -0.04260552 -0.06587502 -0.021977054 0.045459446 0.076715365 0.014322786
-0.012505317 -0.029041626 -0.059099495 0.06345782 0.012028013 -0.054212198 -0.05243792 -0.017210973
0.09106899 0.04699557 -0.019455185 0.050435614 -0.038360786 0.07584102 0.015244601 0.032364033
0.01338561 -0.042502478 0.034413863 -0.010854136 -0.015742734 -0.025532143 -0.025334366 -0.07063161
0.08665366 -0.026788218 0.05901162 0.053937424 0.016213754 0.07806001 0.013251275 -0.059090495
0.019304257 -0.07956147 0.026624963 -0.025751386 0.043019198 0.02773046 -0.0155729335 -0.0062137377
0.04158738 -0.024954155 -0.07744177 -0.043470975 -0.047835074 0.058486436 0.05403645 -0.031921554
0.0022970776 0.060187068 -0.033322882 -0.012856545 -0.017359277 -0.06382983 -0.008052711 -0.043257758
0.0031859393 -0.02919215 -0.033472918 -0.059241194 -0.026589697 0.026564742 -0.0013919118 -0.026131226
0.0648994 -0.031017115 -0.033423826 0.043750197 0.03755426 0.019615907 -0.06450356 -0.023904853
-0.02902257 0.08119776 -0.0824237 0.030792424 -0.039616156 -0.06868675 0.07822462 -0.07410259
3.5026984e-05 -0.03121509 0.01700617 -0.059264686 0.023562623 -0.013360992 -0.005414043 0.054630265
0.065078065 0.0067328434 0.0075947857 0.03654696 0.0536207 0.055074066 -0.03428859 0.049151327
0.014074901 0.020546649 0.019058362 0.035869576 -0.05149329 -0.027660001 -0.04231434 0.057263214
-0.035347886 -0.0055866046 -0.013071596 -0.07154749 -0.051012095 -0.059743837 -0.061923698 -0.059514705
-0.040362757 0.050294317 -0.05705063 -0.04498833 -0.04245494 -0.0060169613 0.029867196 -0.047096144
-0.03611167 0.04320178 -0.10618722 0.068741925 -0.060402397 0.016765213 0.059889942 0.0011700911
-0.063936144 -0.0447688 0.07532704 -0.08372159 0.049622692 -0.065363966 -0.037761338 0.049173437
-0.06442434 -0.063627645 -0.01171145 -0.05261482 -0.02906891 0.044625364 0.057449736 -0.07794562
0.016395267 -0.058919787 -0.045796357 0.040068034 -0.015476237 0.090640716 -0.023329597 -0.03583822
0.019650714 -0.028871208 -0.043028697 -0.09425944 0.06432797 -0.040968005 0.056266867 -0.030818008
0.061213646 -0.056043785 0.032409135 -0.060914706 -0.004663003 -0.0074981228 -0.009195471 -0.021455837
-0.0070883 0.0022816057 0.06009129 -0.051230557 -0.04746111 0.024245143 0.0036168871 -0.0026013851
-0.006448276 0.054969598 -0.058586825 0.053121675 0.036410045 -0.039107844 -0.033182506 -0.030721694
-0.021444442 -0.039350413 0.054219093 0.052300885 0.007556938 0.03719697 0.0608961 0.03651109
0.042106938 0.044315133 -0.10329865 0.071833365 -0.0116727995 -0.04629589 0.025195232 -0.050694518
-0.047418073 -0.008132778 -0.0117388945 -0.03988449 0.0021540765 0.07423717 -0.0010883022 0.013386582
0.0033061046 -0.07726077 -0.0286643 -0.052236088 0.047737677 0.11048357 0.09031823 -0.0031165155
-0.06973144 0.018936468 0.028437076 0.014057858 -0.08105463 0.108973324 -0.053727396 0.005801348
0.040296007 -0.043890893 -0.016936716 0.0172669 -0.052611977 0.035933968 0.0038715852 0.0017226094
-0.0063302815 -0.069540225 0.0045273304 -0.1000725 0.09187245 -0.027259698 0.014503194 -0.0073705683
0.018466419 -0.02496411 -0.08703064 -0.024738243 -0.07207004 -0.04517235 -0.042532887 -0.048967913
00000000: e6b2 78bd 72cc 673d 2083 2ebd 7ce9 86bd
00000010: 3909 b4bc af33 3a3d f21c 9d3d 1eaa 6a3c
00000020: 1ae3 4cbc b4e8 edbc 5012 72bd 2cf6 813d
00000030: 2511 453c 9c0d 5ebd 25c9 56bd 07fe 8cbc
00000040: 6182 ba3d 6d7e 403d 7b60 9fbc 9395 4e3d
00000050: 3320 1dbd 8952 9b3d 7ec4 793c 2690 043d
00000060: 514f 5b3c 1417 2ebd 8df5 0c3d 8cd5 31bc
00000070: e8f6 80bc c928 d1bc 048a cfbc 4ea7 90bd
00000080: 7977 b13d f772 dbbc 2bb6 713d 7ded 5c3d
00000090: b5d2 843c eddd 9f3d e01b 593c e008 72bd
000000a0: f623 9e3c 20f1 a2bd 981c da3c 92f4 d2bc
000000b0: e634 303d fd2a e33c 9e25 7fbc 9c9c cbbb
000000c0: 8757 2a3d a86c ccbc ca99 9ebd 9f0e 32bd
000000d0: b6ee 43bd 798f 6f3d 5355 5d3d 2dc0 02bd
000000e0: 918a 163b b786 763d 937d 08bd 42a4 52bc
000000f0: 0b35 8ebc 37b9 82bd 85ef 03bc 0c2f 31bd
00000100: 31cb 503b 6024 efbc e61a 09bd e5a6 72bd
00000110: a3d2 d9bc 4d9e d93c cf70 b6ba 2711 d6bc
00000120: fae9 843d 9b17 febc 6ce7 08bd 6833 333d
00000130: 7fd2 193d 8ab1 a03c 711a 84bd 1cd4 c3bc
00000140: bec0 edbc 034b a63d c2cd a8bd 6540 fc3c
00000150: 8d44 22bd a4ab 8cbd 3b34 a03d 19c3 97bd
00000160: f0e9 1238 cab6 ffbc 8650 8b3c 87bf 72bd
00000170: 6706 c13c 10e8 5abc 4968 b1bb fcc3 5f3d
00000180: a647 853d 2f9f dc3b aedd f83b 44b2 153d
00000190: 61a1 5b3d 5895 613d 3172 0cbd e752 493d
000001a0: 6a9a 663c 7251 a83c 4820 9c3c faeb 123d
000001b0: a1ea 52bd 3a97 e2bc cd51 2dbd d58c 6a3d
000001c0: f2c8 10bd d60f b7bb 3f2a 56bc 7e87 92bd
000001d0: 0ff2 50bd f4b5 74bd b4a3 7dbd b1c5 73bd
000001e0: 6b53 25bd 6a01 4e3d ecad 69bd af45 38bd
000001f0: 3be5 2dbd ee29 c5bb 0dac f43c e3e7 40bd
00000200: d5e9 13bd 5af4 303d af78 d9bd 91c8 8c3d
00000210: 8168 77bd 3357 893c 284f 753d be5d 993a
00000220: f4f0 82bd 7d5f 37bd 1045 9a3d 3a76 abbd
00000230: 2a41 4b3d 8bdd 85bd a2ab 1abd 166a 493d
00000240: e9f0 83bd 364f 82bd 62e1 3fbc a382 57bd
00000250: ec21 eebc 16c9 363d 6a50 6b3d f4a1 9fbd
00000260: 5e4f 863c e055 71bd f694 3bbd 611e 243d
00000270: 0b90 7dbc d7a1 b93d b61d bfbc 19cb 12bd
00000280: 89fa a03c 5083 ecbc dc3e 30bd 180b c1bd
00000290: 62be 833d 11ce 27bd 1678 663d 0c76 fcbc
000002a0: 29bb 7a3d 2b8e 65bd 71bf 043d b381 79bd
000002b0: 1bcc 98bb d0b2 f5bb 9aa8 16bc 27c4 afbc
000002c0: f844 e8bb fe86 153b 4922 763d 22d7 51bd
000002d0: 9566 42bd c09d c63c 4c09 6d3b 007c 2abb
000002e0: 0f4c d3bb cd27 613d bdf8 6fbd 1d96 593d
000002f0: b322 153d 8c2f 20bd 61ea 07bd 10ac fbbc
00000300: 41ac afbc e62d 21bd d714 5e3d 7439 563d
00000310: 31a0 f73b da5b 183d 306e 793d a78c 153d
00000320: 5378 2c3d c983 353d 3e8e d3bd 5f1d 933d
00000330: 453f 3fbc c2a0 3dbd 3b66 ce3c 0ea5 4fbd
00000340: 7439 42bd 583f 05bc 7e54 40bc eb5d 23bd
00000350: 682b 0d3b a809 983d 5da5 8eba 6553 5b3c
00000360: 3bab 583b e53a 9ebd 65d1 eabc 82f5 55bd
00000370: 9588 433d 3645 e23d c4f8 b83d 743e 4cbb
00000380: 5bcf 8ebd a720 9b3c dff4 e83c ee52 663c
00000390: f8ff a5bd 682d df3d 4211 5cbd 3c19 be3b
000003a0: 6d0d 253d f0c6 33bd debe 8abc 5073 8d3c
000003b0: a87f 57bd 7f2f 133d 6cba 7d3b 2ec9 e13a
000003c0: 406e cfbb 1b6b 8ebd 005a 943b d0f2 ccbd
000003d0: a027 bc3d bb4f dfbc ce9e 6d3c cf84 f1bb
000003e0: e346 973c 8981 ccbc 1f3d b2bd dba7 cabc
000003f0: 7599 93bd a406 39bd f736 2ebd 9492 48bd

conv2.bias f4 [10]
0.008370403 -0.045761332 0.05083549 0.016682252 -0.10431206 0.0063679367 -0.014497156 0.11488239
0.04259733 -0.0065705576
00000000: 0424 093c 3c70 3bbd e038 503d 38a9 883c
00000010: 90a1 d5bd 20aa d03b 7b85 6dbc 7547 eb3d
00000020: 8a7a 2e3d d54d d7bb

conv3.weight f4 [20, 10, 5, 5]
-0.07410368 -0.05074648 -0.08450604 0.01663686 0.014783668 0.021084351 -0.08627155 -0.021888508
-0.06554058 0.0043624393 -0.10281999 -0.09594178 -0.07342694 -0.007960859 -0.0023764074 -0.0765111
-0.018782131 -0.0037926952 -0.038094357 -0.09360085 -0.059982557 -0.04597224 -0.023163129 0.019209413
-0.049194925 -0.008478585 -0.038820002 0.037643194 -0.04631158 0.060670335 -0.053737618 -0.041457467
-0.010256413 0.048686925 -0.0085767135 -0.023226405 -0.039360076 0.017255815 -0.032933738 0.0036880982
-0.07874956 -0.01008777 -0.08805542 -0.019056577 -0.004604802 -0.024842773 0.013108824 -0.079467535
0.026505703 0.022839747 0.044123825 0.033771317 0.019079505 0.028813746 -0.014317722 -0.027296167
0.043533795 0.011603614 0.027459351 -0.027173711 0.020160729 0.0037441568 -0.04978064 -0.008266585
-0.00736713 -0.03405843 0.02320881 -0.05939717 -0.069125645 -0.06645139 0.013326391 -0.019103112
-0.02451426 0.027175127 0.017944187 -0.034607463 0.006794577 -0.034740664 -0.05030753 -0.054662645
0.014038549 -0.049552858 0.039367113 -0.016503071 -0.051798012 -0.039755747 0.0412958 -0.014610619
-0.0454509 -0.012232394 0.020565333 -0.059137587 0.0013819814 0.05280427 0.013981274 -0.0274854
0.041259594 -0.03257358 -0.008642811 0.012997487 -0.031854168 0.008176136 0.03552541 -0.012816066
-0.005861565 -0.027131751 -0.09433194 -0.034267467 -0.023277828 -0.05266432 -0.041101016 -0.017923312
-0.025574384 -0.089735486 -0.04809806 -0.03459794 -0.088875525 -0.027310416 0.0068128407 -0.07864061
-0.07625923 -0.012779082 -0.073921144 0.03867084 -0.06503063 -0.020201614 0.040492743 -0.05517873
0.022817418 -0.02975114 -0.08718037 -0.0781602 -0.065840036 -0.020218939 -0.050221775 -0.048755467
-0.05918032 0.005294776 -0.0818223 -0.06872517 -0.016723236 -0.078477256 0.008490807 -0.017511118
-0.08444588 -0.07067535 -0.0061339284 -0.101067714 -0.04507848 -0.05655682 0.04668313 0.027873905
0.023784755 0.028155144 0.055926774 -0.012498827 -0.050850857 -0.05529007 0.020427816 -0.066143334
0.029245902 0.051131796 -0.030699968 0.04283061 -0.041939147 -0.02385343 -0.024264745 0.032001145
0.03521683 -0.009189848 -0.023621658 -0.08084073 -0.03274545 -0.005582331 -0.002460611 0.0021123793
-0.03315816 -0.054468293 0.030043514 0.013598382 0.009030251 -0.08094084 -0.05028035 0.032903075
-0.030833727 -0.080732666 -0.05709717 -0.07427722 -0.06762345 0.008215336 -0.092827134 -0.004776858
0.0041085496 -0.041859195 -0.05490599 -0.014752469 -0.057815302 0.0066545685 -0.08552489 -0.05129691
0.0071250913 -0.043005273 0.048172284 0.086510554 0.031212164 -0.026624514 -0.0058902605 -0.0475222
0.065467626 0.05848417 0.035427067 -0.07816254 0.013181955 -0.002566464 0.097343236 -0.009037237
-0.007085653 -0.041076966 -0.015493622 0.043372054 -0.0025570914 0.04155412 0.042929385 -0.000994328
0.033902865 0.0766743 0.03638692 0.053971954 -0.03541017 0.04459046 -0.01154036 0.06607603
0.02899726 0.02005534 0.02630694 -0.02434207 -0.039716918 0.013850249 -0.018392015 0.048846785
0.09012126 0.0052702315 0.026933437 0.0002545062 -0.04095312 -0.00050962006 0.03851633 0.06814158
0.020554597 -0.049621917 0.04908456 0.061534476 -0.012810768 0.026127357 0.09647382 -0.006655726
00000000: acc3 97bd 8adb 4fbd 8111 adbd 064a 883c
00000010: 3337 723c 17b9 ac3c 23af b0bd 874f b3bc
00000020: 243a 86bd cbf2 8e3b 4993 d2bd 207d c4bd
00000030: dd60 96bd 436e 02bc 80bd 1bbb dab1 9cbd
00000040: fcdc 99bc de8e 78bb d408 1cbd cdb1 bfbd
00000050: 45b0 75bd 634d 3cbd 9ac0 bdbc 0f5d 9d3c
00000060: 9e80 49bd c3e9 0abc b901 1fbd c02f 1a3d
00000070: 36b1 3dbd 7581 783d fa1b 5cbd 4ecf 29bd
00000080: 840a 28bc f16b 473d 5885 0cbc 4d45 bebc
00000090: 0838 21bd 115c 8d3c 87e5 06bd 05b4 713b
000000a0: 7347 a1bd 2d47 25bc 6656 b4bd 8a1c 9cbc
000000b0: e1e3 96bb 1283 cbbc 65c6 563c e0bf a2bd
000000c0: 7d22 d93c 6c1a bb3c 2fbb 343d cb53 0a3d
000000d0: 9f4c 9c3c ce0a ec3c e194 6abc 369c dfbc
000000e0: 7e50 323d 161d 3e3c 6ff2 e03c 679b debc
000000f0: 1d28 a53c 8760 753b c9e6 4bbd 9270 07bc
00000100: f767 f1bb da80 0bbd 6720 be3c 724a 73bd
00000110: bf91 8dbd ab17 88bd ef56 5a3c 217e 9cbc
00000120: 21d2 c8bc 5f9e de3c b0ff 923c 8ec0 0dbd
00000130: 0ba5 de3b 3a4c 0ebd 450f 4ebd f0e5 5fbd
00000140: f101 663c f0f7 4abd 693f 213d 7331 87bc
00000150: 272a 54bd ecd6 22bd c925 293d 6161 6fbc
00000160: b92a 3abd 616a 48bc a178 a83c 413a 72bd
00000170: 9a23 b53a 4a49 583d b711 653c 1029 e1bc
00000180: d2ff 283d e06b 05bd 949a 0dbc 69f3 543c
00000190: 8479 02bd 33f5 053c 1883 113d 7afa 51bc
000001a0: 5f12 c0bb 6843 debc 1b31 c1bd 0b5c 0cbd
000001b0: 25b1 bebc 8bb6 57bd 8a59 28bd e9d3 92bc
000001c0: 5f81 d1bc 3dc7 b7bd 7902 45bd 92b6 0dbd
000001d0: 5f04 b6bd 18ba dfbc 403e df3b 540e a1bd
000001e0: cd2d 9cbd 5b5f 51bc f863 97bd 5165 1e3d
000001f0: c72e 85bd db7d a5bc b8db 253d 1803 62bd
00000200: 98eb ba3c aab8 f3bc 9f8b b2bd 7412 a0bd
00000210: 24d7 86bd 30a2 a5bc 59b5 4dbd d0b3 47bd
00000220: 1067 72bd cd7f ad3b 7392 a7bd c8bf 8cbd
00000230: 2bff 88bc afb8 a0bd 071d 0b3c 7a73 8fbc
00000240: f6f1 acbd 3dbe 90bd 1fff c8bb 97fc cebd
00000250: 36a4 38bd 20a8 67bd cf36 3f3d d157 e43c
00000260: 3fd8 c23c 9ea5 e63c 7913 653d e1c7 4cbc
00000270: fd48 50bd d777 62bd 3c58 a73c 2876 87bd
00000280: 1a95 ef3c 936f 513d 807e fbbc 266f 2f3d
00000290: 62c8 2bbd 4568 c3bc dcc6 c6bc a213 033d
000002a0: 863f 103d 0491 16bc 3582 c1bc d38f a5bd
000002b0: 1820 06bd fdeb b6bb 3442 21bb d86f 0a3b
000002c0: dad0 07bd 251a 5fbd d11d f63c bfcb 5e3c
000002d0: 9ef3 133c 50c4 a5bd c5f2 4dbd 60c5 063d
000002e0: 0397 fcbc 2b57 a5bd b9de 69bd a81e 98bd
000002f0: 2a7e 8abd 9e99 063c 271c bebd 3087 9cbb
00000300: 03a1 863b 8c74 2bbd 1ae5 60bd 57b4 71bc
00000310: bdcf 6cbd 910e da3b ac27 afbd b51c 52bd
00000320: 9979 e93b 4c26 30bd 4d50 453d 722c b13d
00000330: a7b0 ff3c a71b dabc 1603 c1bb a3a6 42bd
00000340: e413 863d 198d 6f3d f91b 113d af13 a0bd
00000350: 20f9 573c 1f32 28bb e45b c73d eb10 14bc
00000360: c42e e8bb 5240 28bd f6d8 7dbc e5a6 313d
00000370: e094 27bb a734 2a3d b9d6 2f3d 1c54 82ba
00000380: bbdd 0a3d 6a07 9d3d 730a 153d b211 5d3d
00000390: 410a 11bd 7ca4 363d c713 3dbc df52 873d
000003a0: a98b ed3c 194b a43c a781 d73c 0569 c7bc
000003b0: 35ae 22bd 28ec 623c daaa 96bc 9113 483d
000003c0: 7f91 b83d e8b1 ac3b 83a3 dc3c 3e6f 8539
000003d0: 75be 27bd 0698 05ba 4dc3 1d3d d08d 8b3d
000003e0: 1d62 a83c 5a40 4bbd e40c 493d 930b 7c3d
000003f0: 41e4 51bc 0a09 d63c 1194 c53d 4718 dabb

conv3.bias f4 [20]
0.0068814615 -0.08920114 0.032080363 -0.02650817 -0.046051286 0.045925185 -0.024024637 0.024614053
0.08071719 -0.046449494 0.042007543 0.01793583 -0.01916988 -0.0483499 0.04575239 0.0015946917
-0.031158812 -0.042917106 0.04229217 0.046008267
00000000: e27d e13b 16af b6bd b366 033d a927 d9bc
00000010: 46a0 3cbd 0c1c 3c3d 51cf c4bc 69a3 c93c
00000020: 0e4f a53d d341 3ebd 1a10 2c3d 29ee 923c
00000030: 270a 9dbc 8b0a 46bd dc66 3b3d f904 d13a
00000040: c440 ffbc d9c9 2fbd 8e3a 2d3d 2a73 3c3d

conv4.weight f4 [20, 20, 5, 5]
0.005690824 -0.027620746 0.015548017 -0.013677147 -0.03066148 0.023230162 0.0017369706 -0.0018924063
-0.06462601 -0.009733568 0.038660977 -0.017421257 -0.007878342 -0.027929138 -0.06665478 -0.05013122
-0.04143666 -0.05196612 -0.006078005 -0.06492085 -0.048253745 -0.03289493 0.0011624517 -0.039453346
-0.021089286 -0.036661185 -0.01681529 -0.043189593 -0.03769182 -0.04070327 -0.012655217 -0.0133803645
0.018672956 0.058044888 0.022944337 -0.018336013 0.033956323 0.07108169 0.019435586 0.008046495
-0.021899348 0.04863139 0.013962662 0.055864513 -0.034928713 0.011534435 -0.036927138 0.0018229634
0.003583798 -0.059908103 -0.004533673 0.030944249 -0.003358703 0.0038847383 0.015961023 -0.010261441
-0.035947144 0.021555439 0.016870491 0.044362765 0.030649137 0.04165345 0.016308581 0.0620514
0.07121467 0.033311713 -0.0050840997 0.045977373 0.0329731 0.0049906806 0.019844072 0.025129216
0.032279372 0.04947717 -0.016444383 -0.03291799 0.0419859 -0.011825383 -0.02736647 -0.02049921
0.036638577 -0.007843146 -0.028277265 0.0142764095 -0.040070068 -0.023193346 0.0005739825 0.0067733633
0.0035339044 -0.018779928 0.039732825 -0.015455605 -0.025281375 0.034449704 0.009356452 -0.020433554
0.030753525 0.023470111 0.026934374 0.008507117 0.012232967 0.01702764 -0.007121934 0.035603657
-0.034039635 0.00873512 0.040839255 0.053242855 0.039588988 0.045593668 0.054305293 -0.018445171
0.057392526 -0.0068601193 -0.021614714 0.011828277 0.02185956 0.01843924 0.02069842 0.029137922
0.0010559823 -0.02542957 -0.029338153 -0.030503437 -0.0030252498 -0.01139074 -0.03054504 0.04915542
0.05743638 0.028619878 -0.023324532 0.058513224 0.036093794 0.08842896 0.02168844 -0.0024779434
-0.0027186745 0.0623393 0.057349 -0.016649976 0.014119515 0.052613374 0.058656033 -0.013199705
0.035993814 -0.025446804 0.013943103 0.03608731 -0.021732386 -0.006447772 -0.017771222 -0.05507892
-0.038226996 0.0001784743 -0.017967345 0.03180411 -0.013185331 -0.058362365 0.0273571 -0.0127747385
-0.043832015 0.014138987 0.01499471 -0.052173596 -0.015994124 0.0020651359 -0.00078784255 0.029013595
0.031694707 0.032175142 -0.021647755 0.019790387 0.015047449 0.034558933 0.008608869 0.002418567
-0.0129192155 0.0060233832 -0.09105974 -0.039748777 -0.0050357166 0.018357543 -0.03981371 -0.023706354
-0.034313966 -0.021232266 -0.028173842 0.030284716 -0.02209872 0.01127288 -0.0019822232 0.005001148
-0.053957023 0.038090996 0.023881694 -0.041204195 -0.04338059 -0.054591127 -0.03783262 0.030220088
0.0052336603 0.03923364 0.021461425 0.01686161 0.01257312 0.05356404 -0.016959617 0.027761778
-0.0037135545 0.008842783 0.0052619865 -0.013566853 -0.07615059 -0.07336762 -0.05332597 0.015906136
-0.018867472 -0.0003491785 0.0025962233 0.014260183 0.004090153 -0.02689921 -0.037242707 0.03727245
0.017682603 -0.021385713 0.015930118 -0.0014048374 0.017663432 0.05591556 0.035079453 0.044725593
0.03988659 0.046892878 0.0016380273 0.0465582 0.019348262 -0.0541086 0.00030752123 -0.04065514
-0.017646424 0.025097951 -0.04864791 -0.053925864 -0.013273969 -0.040718745 -0.050613843 -0.030175315
-0.06422202 -0.009420317 0.048632912 -0.012678521 -0.03764402 -0.013248332 0.031215614 -0.053409502
00000000: 177a ba3b e744 e2bc 1cbd 7e3c 1d16 60bc
00000010: c92d fbbc 2e4d be3c 10ab e33a 9e0a f8ba
00000020: a45a 84bd 8b79 1fbc f95a 1e3d 06b7 8ebc
00000030: 2914 01bc a6cb e4bc 4d82 88bd 6556 4dbd
00000040: 7db9 29bd 6dda 54bd 002a c7bb 39f5 84bd
00000050: b8a5 45bd d6bc 06bd 685d 983a d599 21bd
00000060: 70c3 acbc 0a2a 16bd 38c0 89bc 92e7 30bd
00000070: bd62 1abd 79b8 26bd d457 4fbc 5139 5bbc
00000080: 07f8 983c 7ac0 6d3d c3f5 bb3c 6835 96bc
00000090: c915 0b3d 4793 913d 6137 9f3c 72d5 033c
000000a0: 4366 b3bc b531 473d a6c3 643c 30d2 643d
000000b0: 6911 0fbd edfa 3c3c e940 17bd 80f0 ee3a
000000c0: 27de 6a3b 3362 75bd 358f 94bb cb7e fd3c
000000d0: b01d 5cbb 1897 7e3b b1c0 823c 9a1f 28bc
000000e0: 503d 13bd 0895 b03c fc33 8a3c bbb5 353d
000000f0: e613 fb3c cf9c 2a3d 9399 853c 9c29 7e3d
00000100: ffd8 913d dd71 083d 8598 a6bb c552 3c3d
00000110: cd0e 073d dd88 a33b 0990 a23c c9db cd3c
00000120: 6037 043d 93a8 4a3d 5fb6 86bc 04d5 06bd
00000130: 68f9 2b3d 40bf 41bc a62f e0bc f6ed a7bc
00000140: 5512 163d 8a80 00bc b9a5 e7bc 9ae7 693c
00000150: 8320 24bd f9ff bdbc 5077 163a 17f3 dd3b
00000160: 1499 673b 5dd8 99bc e3be 223d 8239 7dbc
00000170: e31a cfbc 221b 0d3d ce4b 193c 4564 a7bc
00000180: d1ee fb3c 6444 c03c 7aa5 dc3c 6f61 0b3c
00000190: c86c 483c 8d7d 8b3c 1d5f e9bb 24d5 113d
000001a0: 256d 0bbd c01d 0f3c 1047 273d 2e15 5a3d
000001b0: 1028 223d 6dc0 3a3d 3a6f 5e3d 541a 97bc
000001c0: 6d14 6b3d daca e0bb 5711 b1bc 64cb 413c
000001d0: d212 b33c e40d 973c bc8f a93c a7b2 ee3c
000001e0: e368 8a3a ac51 d0bc 9156 f0bc 58e2 f9bc
000001f0: 4543 46bb 3aa0 3abc 9739 fabc 3257 493d
00000200: 6942 6b3d 3c74 ea3c 1713 bfbc 90ab 6f3d
00000210: 16d7 133d 3e1a b53d f5ab b13c fe64 22bb
00000220: ca2b 32bb 7e57 7f3d c9e6 6a3d 8865 88bc
00000230: 8a55 673c 1f81 573d 4f41 703d 9343 58bc
00000240: 406e 133d d175 d0bc 9d71 643c 4ad0 133d
00000250: 1e08 b2bc d547 d3bb f494 91bc 6f9a 61bd
00000260: e993 1cbd d524 3b39 4130 93bc 0745 023d
00000270: 4907 58bc 600d 6fbd ff1b e03c 234d 51bc
00000280: 3389 33bd 36a7 673c 5fac 753c fbb3 55bd
00000290: 1c06 83bc 3b57 073b 3887 4eba ebad ed3c
000002a0: 4fd2 013d 15ca 033d a256 b1bc 731f a23c
000002b0: 9389 763c ab8d 0d3d 370c 0d3c d280 1e3b
000002c0: 1eab 53bc cd5f c53b 877d babd 9dcf 22bd
000002d0: a702 a5bb 8f62 963c b313 23bd d433 c2bc
000002e0: cd8c 0cbd 4aef adbc d4cc e6bc a717 f83c
000002f0: 6008 b5bc e3b1 383c 30e8 01bb ace0 a33b
00000300: 0a02 5dbd 4e05 1c3d 8ba3 c33c bbc5 28bd
00000310: d8af 31bd f29a 5fbd 61f6 1abd 1e90 f73c
00000320: 207f ab3b 74b3 203d dfcf af3c 5c21 8a3c
00000330: 7dff 4d3c f865 5b3d e5ee 8abc ab6c e33c
00000340: 1b5f 73bb 52e1 103c be6c ac3b 8147 5ebc
00000350: d7f4 9bbd c341 96bd 556c 5abd 964d 823c
00000360: f58f 9abc f211 b7b9 6625 2a3b 8ba3 693c
00000370: b106 863b bb5b dcbc cf8b 18bd ffaa 183d
00000380: 1bdb 903c 1731 afbc e17f 823c 8522 b8ba
00000390: e7b2 903c b707 653d 79af 0f3d 2f32 373d
000003a0: 1f60 233d bf12 403d 13b3 d63a d0b3 3e3d
000003b0: 3f80 9e3c fba0 5dbd cd3a a139 0186 26bd
000003c0: 3c8f 90bc 389a cd3c 0843 47bd 5ee1 5cbd
000003d0: 107b 59bc b3c8 26bd 7650 4fbd 3932 f7bc
000003e0: d686 83bd ac57 1abc 4e33 473d 92b9 4fbc
000003f0: 9e30 1abd 880f 59bc e3b7 ff3c ecc3 5abd

conv4.bias f4 [20]
-0.010760986 -0.04045222 0.016006574 -0.05085204 0.010555076 0.022722227 -0.010746608 -0.04288161
-0.034121726 0.004434893 -0.007283384 -0.03182345 -0.029968524 0.010632539 -0.054424066 -0.022161169
-0.04458491 0.03129722 0.011836686 -0.07496212
00000000: d94e 30bc 3ab1 25bd 3820 833c 3b4a 50bd
00000010: 33ef 2c3c f723 ba3c 8a12 30bc a1a4 2fbd
00000020: 39c3 0bbd 9452 913b 74a9 eebb 4e59 02bd
00000030: 8d80 f5bc 1a34 2e3c c5eb 5ebd 578b b5bc
00000040: ab9e 36bd 8431 003d a9ee 413c bd85 99bd

conv5.weight f4 [30, 20, 5, 5]
0.023812134 0.05084518 0.03464079 0.03427665 -0.021157468 0.071865685 0.0052981004 -0.024993218
0.002003991 -0.0016760784 0.04672556 0.004944131 -0.008327726 -0.025573902 0.008060279 0.04413435
0.043005344 0.009011572 -0.015574524 0.032006253 -0.021095775 -0.010329307 0.041015178 -0.0067762034
0.031108748 -0.07599812 -0.017438523 -0.039481666 -0.048536118 -0.012832047 0.001669585 -0.025998136
-0.0120193185 -0.004057366 -0.029955568 -0.02503215 -0.020908803 -0.038061783 0.013233249 -0.010421441
0.001847054 -0.0035320518 -0.0071953707 0.03130078 -0.030442974 -0.007562689 -0.074051164 -0.064229496
-0.09489649 -0.04145588 -0.027058143 -0.033992082 -0.025010487 0.0038368886 -0.0032972891 0.033045165
-0.043315604 0.03181592 0.014377223 -0.07559203 0.04669474 0.03400757 -0.019192873 -0.005036225
0.04102812 -0.025626125 -0.008701301 0.029595042 0.046710238 -0.023690857 -0.06729905 -0.0319613
-0.017809046 0.01536239 -0.06452023 0.006423852 -0.020203939 -0.034671545 0.020493215 0.0039582923
0.0042213406 -0.030040143 -0.0045611304 0.010850021 -0.051450685 -0.016879177 0.02031641 -0.02674773
-0.008362396 -0.05489263 0.0059895683 0.06240495 0.032556366 0.02382191 -0.035461754 0.0015271343
-0.017496964 -0.033449326 0.010168488 -0.016344516 0.01893564 0.03169702 -0.0020644958 -0.005262106
-0.008818298 -0.025524788 -0.015618745 0.0032705327 -0.0256165 -0.0006723138 -0.07216105 -0.061301596
0.005872007 -0.017068138 0.008345332 -0.094906196 -0.08556654 -0.015271354 -0.05232794 0.0043440685
-0.048667684 -0.08931539 -0.039005112 -0.0029946787 0.0012748612 -0.0034315041 0.015649945 -0.041202083
-0.013827051 -0.039497163 -0.011094935 0.061142016 -0.0023416388 -0.0020394549 -0.0009092999 0.015837437
-0.020791268 -0.02974098 -0.0008835903 0.024457574 -0.03267195 0.0037431868 -0.06370661 -0.06304016
-0.022228159 -0.049832728 0.00033862 -0.0053547616 -0.0090786135 -0.028670497 0.022416731 -0.0075673703
-0.0058163367 -0.013868222 0.006365358 0.053979293 0.047217365 0.008656559 -0.037338253 0.022202147
0.019923521 0.011945924 0.028668288 -0.017917715 0.015834304 0.082740575 0.028779736 -0.002281331
-0.028156288 0.049477015 0.0288529 0.058790796 0.0026056527 -0.005904616 -0.008508121 -0.036934957
-0.0014994851 0.0018152425 0.013300897 0.02339123 -0.008050249 -0.0642463 -0.033075597 -0.008415583
0.04395824 -0.070465565 -0.062049624 -0.06443879 -0.052702606 0.009273158 -0.05629419 -0.12196985
-0.089837305 -0.078552745 -0.024779892 -0.08955812 -0.036802277 -0.0211239 -0.05417316 -0.023287827
-0.016827058 -0.05728594 -0.067834884 -0.021551047 -0.06575769 -0.011141371 -0.0340068 -0.055387866
-0.05215015 -0.015644154 0.04138235 -0.040760662 -0.023673521 0.018684762 0.047354605 -0.056416765
-0.017538644 0.007723342 -0.017106345 0.021814452 -0.022408001 -0.041939452 -0.0013440354 -0.028029714
0.006940725 -0.02073493 -0.00651413 -0.01096317 0.006740363 0.015237532 -0.04098328 -0.056911804
0.031394858 0.0061058286 0.019321686 0.016652523 -0.011208921 -0.029326994 0.00979393 -0.034542266
0.009004497 -0.0238445 -0.00878742 -0.010624985 0.02688365 0.021426594 0.019324837 -0.025022311
-0.025347484 -0.062059037 -0.0017526636 -0.028896818 0.011593368 -0.026224826 -0.041638367 0.024620375
00000000: aa11 c33c 0943 503d 80e3 0d3d ac65 0c3d
00000010: 6d52 adbc 512e 933d b09b ad3b 94be ccbc
00000020: 6455 033b dcaf dbba 4d63 3f3d 6002 a23b
00000030: 0471 08bc 5c80 d1bc 430f 043c 38c6 343d
00000040: 5f26 303d 46a5 133c 4a2c 7fbc fd18 033d
00000050: 0cd1 acbc 413c 29bc 88ff 273d ea0a debb
00000060: c6d7 fe3c e7a4 9bbd 3cdb 8ebc 87b7 21bd
00000070: cfcd 46bd 823d 52bc fad5 da3a 0bfa d4bc
00000080: adec 44bc a7f3 84bb 6165 f5bc 3910 cdbc
00000090: f048 abbc ace6 1bbd 45d0 583c b1be 2abc
000000a0: d918 f23a ff79 67bb 25c7 ebbb 3f35 003d
000000b0: 8b63 f9bc 6fd0 f7bb 23a8 97bd c18a 83bd
000000c0: 1759 c2bd a4cd 29bd 0aa9 ddbc 483b 0bbd
000000d0: cbe2 ccbc 4f74 7b3b 5517 58bb 5e5a 073d
000000e0: b46b 31bd 6951 023d 728e 6b3c ffcf 9abd
000000f0: fc42 3f3d 864b 0b3d 5f3a 9dbc eb06 a5bb
00000100: 1a0d 283d e1ed d1bc e78f 0ebc 4d71 f23c
00000110: 3c53 3f3d 5413 c2bc 16d4 89bd dae9 02bd
00000120: 47e4 91bc 89b2 7b3c 2f23 84bd 2d7f d23b
00000130: bb82 a5bc c003 0ebd 63e1 a73c 90b4 813b
00000140: 2c53 8a3b bf16 f6bc 8975 95bb 49c4 313c
00000150: f4bd 52bd 3346 8abc 9a6e a63c 0e1e dbbc
00000160: 6e02 09bc 18d7 60bd 2444 c43b 559c 7f3d
00000170: d359 053d 2b26 c33c 5840 11bd 202a c83a
00000180: cb55 8fbc 2902 09bd bb99 263c efe4 85bc
00000190: ea1e 9b3c bcd4 013d 7e4c 07bb bf6d acbb
000001a0: 9f7a 10bc 5c19 d1bc c4e5 7fbc 6f56 563b
000001b0: b2d9 d1bc 373e 30ba 2cc9 93bd 6217 7bbd
000001c0: f769 c03b 7bd2 8bbc dcba 083c 2e5e c2bd
000001d0: 833d afbd b334 7abc d255 56bd b058 8e3b
000001e0: c457 47bd fdea b6bd d3c3 1fbd 5f42 44bb
000001f0: 3e19 a73a 16e3 60bb 5034 803c 84c3 28bd
00000200: db8a 62bc c7c7 21bd 88c7 35bc 0d70 7a3d
00000210: 2e76 19bb 60a8 05bb 155e 6eba 83bd 813c
00000220: 7352 aabc 5ba3 f3bc bea0 67ba 405b c83c
00000230: 06d3 05bd 4150 753b 9c78 82bd 331b 81bd
00000240: d417 b6bc 671d 4cbd cf88 b139 ff76 afbb
00000250: 77be 14bc 64de eabc 4ba3 b73c b4f7 f7bb
00000260: f896 bebb 8a37 63bc 7e94 d03b 6419 5d3d
00000270: ff66 413d 3dd4 0d3c ffef 18bd 47e1 b53c
00000280: a736 a33c d6b8 433c c2d9 ea3c 2cc8 92bc
00000290: f1b6 813c e473 a93d 7bc3 eb3c 6282 15bb
000002a0: 04a8 e6bc 69a8 4a3d eb5c ec3c 9ece 703d
000002b0: 99c3 2a3b 827b c1bb a565 0bbc 1c49 17bd
000002c0: 5f8a c4ba 6eed ed3a 01ec 593c f79e bf3c
000002d0: 31e5 03bc 9093 83bd 477a 07bd 83e1 09bc
000002e0: 8e0d 343d 4050 90bd bf27 7ebd 7cf8 83bd
000002f0: b0de 57bd 72ee 173c bd94 66bd 54cb f9bd
00000300: 9ffc b7bd 43e0 a0bd 33ff cabc 3f6a b7bd
00000310: fcbd 16bd 070c adbc ade4 5dbd 1dc6 bebc
00000320: e6d8 89bc a9a4 6abd 04ed 8abd d28b b0bc
00000330: f8ab 86bd 4c8a 36bc b74a 0bbd 63de 62bd
00000340: 659b 55bd 2b28 80bc 8a80 293d a7f4 26bd
00000350: f9ee c1bc c910 993c e7f6 413d 4415 67bd
00000360: 34ad 8fbc 1714 fd3b 9b22 8cbc 39b4 b23c
00000370: fc90 b7bc b4c8 2bbd 582a b0ba 929e e5bc
00000380: 056f e33b 4ddc a9bc 7c74 d5bb de9e 33bc
00000390: 43de dc3b d7a6 793c 15de 27bd 5a1c 69bd
000003a0: e597 003d 6713 c83b 8348 9e3c df6a 883c
000003b0: 9fa5 37bc 2a3f f0bc b876 203c 317c 0dbd
000003c0: 9987 133c 8a55 c3bc 1cf9 0fbc 6b14 2ebc
000003d0: 1a3b dc3c d386 af3c 1f4f 9e3c 97fb ccbc
000003e0: 87a5 cfbc 9e31 7ebd a2b9 e5ba 05b9 ecbc
000003f0: 1cf2 3d3c 72d5 d6bc fe8c 2abd abb0 c93c

conv5.bias f4 [30]
0.046903793 -0.028008332 -0.042308275 0.006457381 0.020087423 -0.030776693 0.0066765076 -0.033081252
0.03479438 0.049567044 0.037331518 0.008906779 -0.00024227996 0.050549876 -0.05606634 -0.01678054
-0.03710709 -0.06501647 -0.05940562 0.045782924 -0.060222395 -5.032867e-06 -0.019011196 -0.0041343146
-0.0054412014 -0.024564723 -0.015235365 -0.07543355 0.034308407 0.031027645
00000000: 311e 403d bb71 e5bc 714b 2dbd 7098 d33b
00000010: 618e a43c 671f fcbc 9bc6 da3b 3580 07bd
00000020: 8d84 0e3d d006 4b3d efe8 183d bded 113c
00000030: 880c 7eb9 630d 4f3d d2a5 65bd 5877 89bc
00000040: 9bfd 17bd 5b27 85bd 4f53 73bd e086 3b3d
00000050: c2ab 76bd 00e0 a8b6 5ebd 9bbc 2579 87bb
00000060: 1b4c b2bb f53b c9bc c19d 79bc e87c 9abd
00000070: f986 0c3d b02d fe3c

conv6.weight f4 [30, 30, 5, 5]
-0.031361546 -0.04255993 -0.012518955 -0.03983965 -0.00992724 -0.001595591 0.014963788 -0.035096247
-0.008749012 0.022360258 0.041052528 0.019376948 -0.016869145 0.044141192 0.03236266 0.0209593
0.02917931 0.039950635 0.0011829972 0.0334653 0.04826 -0.006766679 -0.027157595 -0.03997237
-0.02025672 -0.0051763034 -0.0045334264 0.020608246 0.016341867 -0.0152750285 -0.07121397 -0.05428679
0.01074772 0.0038370488 -0.046468418 -0.0449064 -0.01915241 -0.02515787 -0.03412786 -0.05326309
0.010122877 0.001460909 -0.025397042 0.0005249215 -0.022025617 0.020967454 0.034412805 0.034943826
0.0049354257 -0.0011298477 0.016305374 0.026122505 -0.029662052 -0.065760165 -0.0238099 0.020338062
-0.015820468 0.005447424 0.0070690215 -0.044508282 0.05580238 -0.0102688195 -0.019947583 -0.010014067
-0.02289825 0.0374875 0.053991314 0.010083301 0.03385844 -0.03007306 0.016984316 0.024587238
0.057457205 -0.0094232205 0.021225335 -0.049915608 -0.043291852 -0.0022128667 -0.01144643 -0.04325437
-0.021721091 -0.019253459 0.028107865 0.013037748 -0.022018053 0.0024830333 0.053637363 0.05223971
-0.00619538 -0.051674977 0.013332279 -0.0045792763 0.068652704 0.018504728 -0.019587496 0.007938348
0.008406942 0.008663281 -0.019362533 -0.0025477873 0.044031218 0.030155972 -0.013898717 0.047733326
0.01641367 -0.018068895 -0.04641312 -0.025532594 -0.006048062 -0.0056877467 0.014262402 -0.033699453
0.009715785 -0.04724517 -0.0494783 -0.00111321 0.00881522 0.010061134 -0.012078569 0.01009577
0.051980603 0.044767343 -0.017714657 -0.00842568 -0.016452648 -0.0045469776 -0.03742079 -0.020966154
-0.028477998 -0.027598921 0.026275098 0.03218965 0.029790893 0.044999674 -0.0030957188 0.04360172
0.024622785 0.0043848245 0.04586564 0.012507823 0.012572223 0.039557558 0.053002585 0.015806388
0.047424894 -0.011759104 0.016480448 -0.013835286 0.05534074 -0.016369674 -0.077274546 -0.06543669
0.025397906 -0.04405767 -0.01986184 -0.008653199 -0.021671034 -0.027840912 0.008103414 -0.024521211
0.018633246 0.0070649646 -0.039875533 -0.016935145 -0.039397076 0.04453836 -0.009512825 0.020806868
-0.036834348 0.03373225 0.0289876 0.032069378 -0.042449705 -0.024993246 0.009303081 -0.065096885
-0.056157216 -0.047677077 -0.038934972 -0.030910889 0.0078818975 -0.0450605 -0.06254817 -0.1023845
-0.03937404 -0.0007615912 -0.011477899 -0.062425952 -0.06789154 -0.034867756 0.028522763 0.008964213
-0.034762334 -0.02038878 -0.004696486 0.036366306 -0.011006712 0.027227638 0.02284726 -0.0011220103
0.021055773 -0.026457243 0.020728856 -0.0255937 -0.039702523 0.008047877 0.017218474 -0.0050737453
-0.028621836 -0.057455704 0.018275915 0.037894577 0.01283201 -0.04406364 -0.006877835 -0.020050911
0.027508218 -0.012775391 -0.01728671 -0.022720065 0.0018386436 0.0092469435 0.001972537 -0.029932512
-0.059003714 -0.030613495 0.01811838 -0.040200695 -0.067429475 -0.018800696 0.01880782 0.042541955
0.0072426624 -0.021101648 -0.054722045 0.01130141 0.029784095 0.004499512 0.0013267148 0.0007175835
0.02623061 0.013622353 0.034335013 0.035242513 -0.010254985 -0.010431828 0.045473892 0.05826989
0.0060590045 -0.011533855 0.0061362633 0.011663496 0.043183837 0.028106099 0.03230782 0.041059513
00000000: f774 00bd 5253 2ebd 4e1c 4dbc e72e 23bd
00000010: dda5 22bc 2623 d1ba ad2a 753c 15c1 0fbd
00000020: 0458 0fbc dc2c b73c b226 283d 68bc 9e3c
00000030: 2931 8abc 65cd 343d b58e 043d d7b2 ab3c
00000040: 7309 ef3c 47a3 233d cd0e 9b3a e912 093d
00000050: 47ac 453d 05bb ddbb 9b79 debc 11ba 23bd
00000060: 6cf1 a5bc fb9d a9bb 238d 94bb a0d2 a83c
00000070: 61df 853c 1d44 7abc a1d8 91bd d35b 5ebd
00000080: 3417 303c ff76 7b3b ab55 3ebd c6ef 37bd
00000090: 84e5 9cbc e117 cebc a8c9 0bbd 662a 5abd
000000a0: 6cda 253c f97b bf3a 750d d0bc e39a 093a
000000b0: 116f b4bc f0c3 ab3c 71f4 0c3d 4221 0f3d
000000c0: 5ab9 a13b 6617 94ba d992 853c ddfe d53c
000000d0: d5fd f2bc 44ad 86bd fb0c c3bc 029c a63c
000000e0: ed99 81bc 4e80 b23b 40a3 e73b 514e 36bd
000000f0: 0991 643d 8d3e 28bc 1d69 a3bc 0b12 24bc
00000100: 1c95 bbbc 7e8c 193d ff25 5d3d 6e34 253c
00000110: 26af 0a3d c75b f6bc b122 8b3c 2d6b c93c
00000120: 3f58 6b3d da63 1abc c1e0 ad3c 4f74 4cbd
00000130: cc52 31bd be05 11bb cf89 3bbc 7f2b 31bd
00000140: 6ef0 b1bc 6eb9 9dbc 7742 e63c 479c 553c
00000150: 345f b4bc 63ba 223b dab2 5b3d 4ef9 553d
00000160: 9d02 cbbb 24a9 53bd a26f 5a3c c10d 96bb
00000170: ca99 8c3d 3a97 973c f575 a0bc d80f 023c
00000180: 45bd 093c 6ff0 0d3c 2d9e 9ebc c7f8 26bb
00000190: 145a 343d a809 f73c 72b7 63bc 0584 433d
000001a0: f675 863c 3805 94bc af1b 3ebd bb29 d1bc
000001b0: d22e c6bb 4760 babb daac 693c 7008 0abd
000001c0: f52e 1f3c 2784 41bd c2a9 4abd 21e9 91ba
000001d0: b66d 103c 74d7 243c 31e5 45bc ba68 253c
000001e0: 9de9 543d f65d 373d 541e 91bc dd0b 0abc
000001f0: b4c7 86bc d0fe 94bb 8b46 19bd 36c1 abbc
00000200: b14a e9bc 2217 e2bc e03e d73c 4bd9 033d
00000210: 080c f43c 9451 383d 8be1 4abb b897 323d
00000220: b9b5 c93c 93ae 8f3b 9cdd 3b3d 9ded 4c3c
00000230: bafb 4d3c 1b07 223d 3d19 593d 667c 813c
00000240: 9b40 423d 42a9 40bc 0102 873c 65ad 62bc
00000250: f9ac 623d b219 86bc 1e42 9ebd ac03 86bd
00000260: 450f d03c d175 34bd 4cb5 a2bc 26c6 0dbc
00000270: 7487 b1bc a012 e4bc 2fc4 043c b5e0 c8bc
00000280: c0a4 983c 3881 e73b 8754 23bd 93bb 8abc
00000290: d45e 21bd db6d 363d aedb 1bbc 2a73 aa3c
000002a0: 9ddf 16bd d42a 0a3d 6777 ed3c 2e5b 033d
000002b0: bedf 2dbd a3be ccbc f36b 183c 8451 85bd
000002c0: 1c05 66bd 0a49 43bd 477a 1fbd d538 fdbc
000002d0: 1323 013c 5c91 38bd 4119 80bd f7ae d1bd
000002e0: ac46 21bd 85a5 47ba cc0d 3cbc 5bb2 7fbd
000002f0: b80a 8bbd 7ed1 0ebd 92a8 e93c a2de 123c
00000300: f362 0ebd 5f06 a7bc fbe4 99bb d6f4 143d
00000310: 7f55 34bc 7f0c df3c 2d2a bb3c 6b10 93ba
00000320: 287d ac3c dcbc d8bc 90cf a93c e1a9 d1bc
00000330: 1d9f 22bd 3edb 033c c20d 8d3c a941 a6bb
00000340: 5778 eabc ac56 6bbd 5fb7 953c 5837 1b3d
00000350: 5a3d 523c 137c 34bd 765f e1bb cf41 a4bc
00000360: ea58 e13c e04f 51bc dc9c 8dbc 6e1f babc
00000370: a4fe f03a 7e80 173c ae45 013b 0735 f5bc
00000380: e1ad 71bd 27c9 fabc ff6c 943c 7ca9 24bd
00000390: 7718 8abd eb03 9abc db12 9a3c 7940 2e3d
000003a0: db53 ed3b 5ddd acbc 3924 60bd 8d29 393c
000003b0: c6fd f33c a470 933b 29e5 ad3a 371c 3c3a
000003c0: 94e1 d63c 4a30 5f3c dfa2 0c3d 745a 103d
000003d0: 8604 28bc 42ea 2abc d542 3a3d 68ac 6e3d
000003e0: 9d8a c63b 7ff8 3cbc b512 c93b 3f18 3f3c
000003f0: 89e1 303d c33e e63c 3455 043d 052e 283d

conv6.bias f4 [30]
0.02879917 0.0335104 -0.019434998 -0.036903556 0.04275303 -0.0013905764 0.0022659185 -0.044605214
0.003119856 0.037527245 -0.020987438 -0.05554677 0.036428627 2.9855124e-05 0.0016897367 0.01817668
0.017253116 -0.012950676 0.012449951 0.020478427 -0.01211826 0.031715732 0.005100607 0.056926988
0.007534924 -0.019259106 -0.037748214 -0.005812071 -0.042963024 -0.022289602
00000000: 3dec eb3c 3442 093d 2536 9fbc 2f28 17bd
00000010: cd1d 2f3d 0044 b6ba ce7f 143b f5b3 36bd
00000020: 7f76 4c3b 2bb6 193d d9ed abbc 0385 63bd
00000030: 2f36 153d 6471 fa37 287a dd3a 43e7 943c
00000040: 6856 8d3c 122f 54bc e1fa 4b3c 60c2 a73c
00000050: ab8b 46bc 5be8 013d fe22 a73b 462c 693d
00000060: 86e7 f63b 46c5 9dbc df9d 1abd 2f73 bebb
00000070: fff9 2fbd af98 b6bc

bn1.weight f4 [10]
1.0384427 1.0032365 0.9946249 1.0145737 0.98603463 0.9591437 0.99734426 0.9276656
1.0636735 0.9900931
00000000: b1eb 843f 0e6a 803f bd9f 7e3f 8ddd 813f
00000010: c46c 7c3f 718a 753f f451 7f3f 7e7b 6d3f
00000020: 7426 883f be76 7d3f

bn1.bias f4 [10]
0.052198388 -0.066920966 -0.018295225 0.042354815 -0.053528618 -0.04295603 0.0066179833 -0.054095615
0.051205613 0.027991401
00000000: facd 553d dc0d 89bd dedf 95bc 3e7c 2d3d
00000010: d340 5bbd aaf2 2fbd abdb d83b 5d93 5dbd
00000020: fabc 513d 394e e53c

bn1.running_mean f4 [10]
-18.417702 1.2993214 8.428297 -78.14509 -28.55093 28.20818 -34.844753 73.398605
-16.666626 -81.207245
00000000: 7457 93c1 2a50 a63f 4eda 0641 494a 9cc2
00000010: 4e68 e4c1 5aaa e141 0761 0bc2 16cc 9242
00000020: 4055 85c1 1c6a a2c2

bn1.running_var f4 [10]
2492.0315 8314.696 3372.766 9254.745 10678.045 4936.9414 4377.541 7116.8975
1878.7252 6329.786
00000000: 81c0 1b45 c9ea 0146 42cc 5245 fb9a 1046
00000010: 2ed8 2646 8847 9a45 54cc 8845 2e67 de45
00000020: 35d7 ea44 4ace c545

bn2.weight f4 [20]
1.0248759 1.0189992 1.0138774 1.0215815 0.98789287 1.0511632 1.007186 0.9944788
1.0028776 1.0190518 1.0527078 0.94454414 0.9697654 0.9895698 0.9857431 0.9817918
0.9908965 0.98503953 0.9841281 1.0285676
00000000: 222f 833f 916e 823f bcc6 813f 2fc3 823f
00000010: 8ce6 7c3f 848c 863f 79eb 803f 2a96 7e3f
00000020: 4b5e 803f 4a70 823f 21bf 863f a5cd 713f
00000030: 8c42 783f 7254 7d3f a959 7c3f b556 7b3f
00000040: 65ab 7d3f 8d2b 7c3f d2ef 7b3f 1aa8 833f

bn2.bias f4 [20]
-0.009494109 -0.04738649 -0.050866302 0.013413638 -0.005294383 0.0058313506 -0.05307619 0.006712811
-0.009310195 0.009653424 0.013201411 -0.091458835 -0.037508097 0.022858689 -0.033951223 -0.016158495
-0.027555529 -0.06265074 -0.021175781 0.037719265
00000000: 2e8d 1bbc 5618 42bd 2f59 50bd e0c4 5b3c
00000010: 817c adbb ea14 bf3b 6b66 59bd 24f7 db3b
00000020: ca89 18bc 6529 1e3c bb4a 583c c54e bbbd
00000030: 17a2 19bd 2542 bb3c 7010 0bbd d25e 84bc
00000040: 22bc e1bc 084f 80bd d578 adbc 847f 1a3d

bn2.running_mean f4 [20]
-1.1783593 0.4959746 -0.5313343 -1.3331825 0.63869435 0.088872254 0.108929284 -0.38347137
-0.62225914 -0.69463754 -0.5484918 0.46060315 -0.29111934 0.075470224 -0.79081917 -0.5712371
-1.1589853 0.109139845 0.055381723 0.3164919
00000000: 7ad4 96bf 62f0 fd3e 8605 08bf b9a5 aabf
00000010: 7981 233f a802 b63d 5116 df3d 5c56 c4be
00000020: 604c 1fbf c4d3 31bf f569 0cbf 2dd4 eb3e
00000030: 980d 95be 2290 9a3d 2073 4abf 983c 12bf
00000040: a159 94bf b684 df3d f2d7 623d 3a0b a23e

bn2.running_var f4 [20]
1.6418078 1.0202777 0.8944069 1.0427337 0.85992277 0.8136838 1.045303 1.0175378
0.76675814 1.4202166 1.4207907 1.4577762 1.0692942 1.0830361 0.9899931 0.8023801
1.0528436 0.9142673 1.121015 1.1121613
00000000: c226 d23f 7698 823f daf7 643f 4c78 853f
00000010: e623 5c3f 954d 503f 7dcc 853f ae3e 823f
00000020: 434a 443f a8c9 b53f 78dc b53f 6998 ba3f
00000030: a2de 883f eda0 8a3f 3070 7d3f c868 4d3f
00000040: 94c3 863f 6c0d 6a3f 6b7d 8f3f 4d5b 8e3f

bn3.weight f4 [30]
0.8252571 0.8982244 0.8594059 0.877027 0.8516239 0.8701202 0.84050447 0.8634471
0.87505734 0.90692407 0.8613256 0.87405056 0.87568283 0.877447 0.8309454 0.86987287
0.9174137 0.85933214 0.85662633 0.90335846 0.8631551 0.8740929 0.9094181 0.84110564
0.89128923 0.8765716 0.8879611 0.852287 0.8686085 0.83107585
00000000: 0d44 533f 09f2 653f 0602 5c3f d784 603f
00000010: 0604 5a3f 33c0 5e3f 4d2b 573f df0a 5d3f
00000020: c203 603f 2d2c 683f d67f 5c3f c7c1 5f3f
00000030: c02c 603f 5ea0 603f d6b8 543f fdaf 5e3f
00000040: a0db 6a3f 31fd 5b3f dd4b 5b3f 8042 673f
00000050: bcf7 5c3f 8dc4 5f3f a0cf 683f b352 573f
00000060: 882b 643f ff66 603f 6b51 633f 7b2f 5a3f
00000070: 205d 5e3f 63c1 543f

bn3.bias f4 [30]
-0.16101852 -0.11410721 -0.14585468 -0.13026594 -0.1778633 -0.1552109 -0.13151906 -0.12089972
-0.11180735 -0.14458364 -0.1577613 -0.15390682 -0.14017041 -0.15427023 -0.17703645 -0.14126255
-0.12986195 -0.14514786 -0.14648557 -0.10420641 -0.187143 -0.16109587 -0.15975015 -0.14421922
-0.15361844 -0.122107185 -0.1354044 -0.14645474 -0.15841687 -0.1947227
00000000: 0ae2 24be 0ab1 e9bd ee5a 15be 6f64 05be
00000010: cc21 36be 9bef 1ebe efac 06be 469a f7bd
00000020: 40fb e4bd bc0d 14be 2e8c 21be c099 1dbe
00000030: d588 0fbe 04f9 1dbe 0b49 35be 21a7 10be
00000040: 88fa 04be a4a1 14be 5000 16be 2c6a d5bd
00000050: 6aa2 3fbe 51f6 24be 8b95 23be 34ae 13be
00000060: 274e 1dbe 5513 fabd 73a7 0abe 3bf8 15be
00000070: 0838 22be 6365 47be

bn3.running_mean f4 [30]
-1.7143128 -0.19222264 -0.7238217 -0.052805908 -2.2135198 0.24019472 -0.26715645 -1.7010188
-0.26759163 -0.58105266 -0.9515462 1.423271 -1.16433 0.28726065 0.3524962 -1.5132328
-0.34158656 -0.24761218 -0.92862713 -0.22983772 -0.35830387 -0.893628 -0.37460312 -0.7433076
-0.85742795 -0.9914726 -1.0687071 -1.3075665 0.10697121 -0.43311194
00000000: 9a6e dbbf 03d6 44be 614c 39bf 024b 58bd
00000010: 4faa 0dc0 9bf5 753e bbc8 88be fcba d9bf
00000020: c501 89be debf 14bf 8898 73bf be2d b63f
00000030: c408 95bf d413 933e 627a b43e 9db1 c1bf
00000040: 6fe4 aebe 0c8e 7dbe 82ba 6dbf 945a 6bbe
00000050: 9b73 b7be cec4 64bf fbcb bfbe 6849 3ebf
00000060: 6680 5bbf 26d1 7dbf 65cb 88bf 575e a7bf
00000070: b913 db3d d9c0 ddbe

bn3.running_var f4 [30]
1.8472546 2.0613368 1.5947046 2.358979 3.1338964 2.0353146 2.2343829 2.5708194
1.6586788 2.2292323 1.5547156 2.2184355 2.831404 2.7364054 1.5608886 1.5496372
1.9659867 1.5992063 1.5287979 2.521227 1.2803241 1.6892419 2.975145 1.7009093
2.3761349 1.7041059 2.1451535 2.583041 1.7507352 1.8487515
00000000: d772 ec3f f1ec 0340 481f cc3f 83f9 1640
00000010: c291 4840 9842 0240 2100 0f40 4e88 2440
00000020: 964f d43f beab 0e40 ec00 c73f d9fa 0d40
00000030: b935 3540 4421 2f40 33cb c73f 835a c63f
00000040: 74a5 fb3f cbb2 cc3f a6af c33f c85b 2140
00000050: a9e1 a33f 1439 d83f c768 3e40 65b7 d93f
00000060: 9812 1840 2420 da3f 324a 0940 8b50 2540
00000070: 1718 e03f e4a3 ec3f
