outputs/2022-05-27/12-43-06/models/epoch=9-step=1310.ckpt (torch, 985744 bytes, 66 tensors)

conv1.weight f4 [10, 3, 5, 5]
-0.038777865 0.02647593 -0.042160727 0.05957379 -0.07567433 0.10444043 -0.06149026 -0.06926556
-0.045052856 0.06893757 -0.02167229 0.064864025 -0.07263874 -0.040936213 -0.018983342 -1.1451117e-05
-0.06684917 0.10236445 -0.0024578949 0.06189952 0.08443055 0.030478366 0.040607907 0.115967564
-0.04972268 0.052455 -0.0381397 0.101436146 0.10511479 -0.07969684 0.1194369 0.07217055
0.07564905 0.07603801 0.1253339 0.0105255535 -0.074156895 -0.0011081923 -0.048019715 0.0325903
0.0049871067 -0.030300992 0.023862341 0.14046286 0.023591163 0.01436555 0.0041239616 0.03942958
0.111797296 0.07911982 0.024655275 0.0035259954 0.009286801 0.026531376 -0.02401952 -0.112718865
-0.102462634 0.09487212 0.001027744 -0.11669089 0.01381436 0.09678544 -0.14372543 -0.09466134
-0.051679723 0.0029321697 -0.05657856 -0.017435746 -0.14637281 0.035256274 0.082894474 0.053442746
-0.120973825 -0.13667493 0.018431848 0.014331826 0.0517527 -0.11283904 -0.004642362 0.08114126
0.06844664 0.0019748996 0.015409434 -0.00083897676 -0.060032908 -0.034053616 -0.07420808 0.07878529
0.047519334 0.032116625 -0.08069499 0.08563328 0.018516835 0.067382544 -0.0555458 0.036804695
0.10064773 0.056221396 0.07862035 -0.035849128 0.0990877 -0.08654478 0.019296572 -0.06491182
-0.03142829 -0.017850474 0.012328691 0.10660276 0.055026937 0.008115752 0.10634616 -0.054695103
0.04969275 -0.0189446 -0.023533378 0.03754439 -0.08898099 0.013581754 0.033625465 0.091637
-0.005558892 0.05328997 0.11085638 -0.053021353 0.104636036 -0.09314376 0.014115185 0.001690531
-0.017211996 0.03263727 -0.06025021 -0.005209907 -0.04330677 -0.15849058 -0.086390205 -0.09552269
0.014835159 -0.053844582 -0.053908613 -0.09697008 0.00039006292 -0.08475975 -0.01771295 0.062020723
-0.026309785 -0.059875302 -0.09986567 -0.033898335 -0.17416082 -0.16312385 -0.056683708 -0.038421202
0.012355172 0.083025984 0.047791783 0.1068634 -0.07663012 0.011830943 -0.11271979 0.06809851
0.038426645 0.116819926 -0.084983945 0.0905543 0.10805625 0.10570279 0.021917947 0.11570662
0.07449989 0.09034866 0.010894436 -0.09023607 0.0047836727 0.02639177 -0.07675072 -0.048082314
-0.118506104 -0.03135007 0.10891016 0.016251951 0.018318573 0.014319111 0.08055398 -0.08736049
-0.089068204 -0.017808598 -0.06702509 0.062962376 0.086401954 -0.10808715 -0.079539254 -0.11558046
0.057014782 0.096182704 -0.08291336 -0.0370647 0.043124888 -0.06403223 0.10775171 0.03750223
-0.01520584 -0.0003287576 0.055539086 -0.023082362 -0.098937295 0.023876697 -0.000114304785 0.01782317
-0.018873759 0.09421822 -0.006641068 -0.019271364 0.059882924 -0.08579253 0.051687274 -0.0010324852
0.058001038 -0.04629983 -0.0020097469 0.038509037 -0.09555771 -0.09632408 0.06331797 -0.024288366
0.09192726 -0.10755364 -0.032379363 -0.07191565 0.073429674 0.018489445 -0.00956367 -0.013801651
-0.09227142 0.04362177 0.0081365965 -0.07978893 0.034913007 0.016888874 -0.12486873 0.06011782
0.06781345 -0.024892196 -0.07363871 -0.009509357 0.0943401 0.102636375 -0.08296565 -0.06488052
0.08876746 0.03926036 0.089954145 -0.04467008 0.10977737 -0.10388424 0.0016152121 -0.0016804747
00000000: 8ad5 1ebd 0de4 d83c bab0 2cbd a503 743d
00000010: 25fb 9abd dde4 d53d 36dd 7bbd 1adb 8dbd
00000020: 5889 38bd 242f 8d3d 168a b1bc 6ed7 843d
00000030: 9fc3 94bd bbac 27bd f482 9bbc 2c1e 40b7
00000040: 38e8 88bd 74a4 d13d a214 21bb 5a8a 7d3d
00000050: ede9 ac3d c4ad f93c 7a54 263d 6780 ed3d
00000060: 02aa 4bbd 0edb 563d 6038 1cbd c1bd cf3d
00000070: 6c46 d73d 1938 a3bd 559b f43d 27ce 933d
00000080: e4ed 9a3d d1b9 9b3d 8857 003e 5f73 2c3c
00000090: 92df 97bd c340 91ba 52b0 44bd 687d 053d
000000a0: e26a a33b c939 f8bc f57a c33c 7fd5 0f3e
000000b0: 4142 c13c 7c5d 6b3c 4c22 873b e980 213d
000000c0: fbf5 e43d 9209 a23d dcf9 c93c 6314 673b
000000d0: ab27 183c 5458 d93c 96c4 c4bc 26d9 e6bd
000000e0: eed7 d1bd 504c c23d 5eb5 863a a2fb eebd
000000f0: a055 623c 7237 c63d c22c 13be cedd c1bd
00000100: 1eae 53bd a529 403b ecbe 67bd 69d5 8ebc
00000110: c1e2 15be e268 103d 94c4 a93d c8e6 5a3d
00000120: 20c1 f7bd 83f4 0bbe 63fe 963c 09d0 6a3c
00000130: a4fa 533d 2818 e7bd f41e 98bb 642d a63d
00000140: c12d 8c3d 516d 013b da77 7c3c c7ee 5bba
00000150: 11e5 75bd ce7b 0bbd 68fa 97bd 2f5a a13d
00000160: a2a3 423d b98c 033d 6a43 a5bd 8060 af3d
00000170: 9eb0 973c dcff 893d fe83 63bd 85c0 163d
00000180: 6620 ce3d 6848 663d b503 a13d 89d6 12bd
00000190: 7eee ca3d 643e b1bd d813 9e3c 7df0 84bd
000001a0: f3ba 00bd 283b 92bc 47fe 493c 8c52 da3d
000001b0: ed63 613d eef7 043c 04cc d93d f907 60bd
000001c0: a08a 4b3d b531 9bbc 12c9 c0bc 25c8 193d
000001d0: aa3b b6bd 0186 5e3c dbba 093d 2eac bb3d
000001e0: 5e27 b6bb 9546 5a3d ab08 e33d eb2c 59bd
000001f0: 6b4b d63d 28c2 bebd 6043 673c cf94 dd3a
00000200: 2c00 8dbc a8ae 053d edc8 76bd deb7 aabb
00000210: 7162 31bd 5b4b 22be 59ed b0bd 66a1 c3bd
00000220: 2b0f 733c 238c 5cbd 47cf 5cbd 4098 c6bd
00000230: 5c81 cc39 8596 adbd c01a 91bc 7109 7e3d
00000240: 9e87 d7bc ce3f 75bd 5f86 ccbd fbd8 0abd
00000250: 3757 32be f009 27be 2d2d 68bd 8d5f 1dbd
00000260: 596d 4a3c 8709 aa3d 51c1 433d 33db da3d
00000270: 41f0 9cbd 92d6 413c a2d9 e6bd 3b77 8b3d
00000280: 4265 1d3d 493f ef3d 100c aebd 8874 b93d
00000290: 984c dd3d b47a d83d 448d b33c 98f7 ec3d
000002a0: 6693 983d b808 b93d 947e 323c b0cd b8bd
000002b0: 5bc0 9c3b 8e33 d83c 7b2f 9dbd f6f1 44bd
000002c0: 54b3 f2bd ee68 00bd 4a0c df3d d022 853c
000002d0: d510 963c b49a 6a3c 7cf9 a43d 0eea b2bd
000002e0: 6469 b6bd 56e3 91bc 7344 89bd 6bf2 803d
000002f0: 82f3 b03d cc5c ddbd 7ae5 a2bd 73b5 ecbd
00000300: 5588 693d 70fb c43d 7bce a9bd 28d1 17bd
00000310: b9a3 303d 5423 83bd eeac dc3d f09b 193d
00000320: ea21 79bc 195d acb9 f47c 633d 3917 bdbc
00000330: a39f cabd 1099 c33c eab6 efb8 e601 923c
00000340: 249d 9abc 7bf5 c03d 519d d9bb fbde 9dbc
00000350: cc47 753d feb3 afbd 09b6 533d 7454 87ba
00000360: 7f92 6d3d e4a4 3dbd f5b5 03bb a7bb 1d3d
00000370: c3b3 c3bd 8f45 c5bd daac 813d 65f8 c6bc
00000380: 5c44 bc3d 1545 dcbd 39a0 04bd 8348 93bd
00000390: 4c62 963d 2d77 973c f0b0 1cbc 5220 62bc
000003a0: ccf8 bcbd beac 323d 5c4f 053c 6168 a3bd
000003b0: f100 0f3d 895a 8a3c 2dbb ffbd 1a3e 763d
000003c0: c7e1 8a3d b8ea cbbc e4cf 96bd 22cd 1bbc
000003d0: 6235 c13d 0533 d23d e5e9 a9bd 14e0 84bd
000003e0: b7cb b53d 79cf 203d e139 b83d f9f7 36bd
000003f0: f5d2 e03d 43c1 d4bd 86b5 d33a 6043 dcba

conv1.bias f4 [10]
-0.027315388 0.10796094 -0.06574859 0.09380661 -0.095287666 -0.027870467 -0.01549405 -0.028121373
0.05264686 0.08487045
00000000: 85c4 dfbc a01a dd3d 32a7 86bd ae1d c03d
00000010: 2e26 c3bd 9b50 e4bc c2da 7dbc cb5e e6bc
00000020: 3ca4 573d 8fd0 ad3d

conv2.weight f4 [10, 10, 5, 5]
-0.08219734 0.044582255 -0.050265864 -0.0851222 -0.03917999 0.056852296 0.05929537 -0.031400293
-0.06375478 -0.013712415 -0.033705603 0.04447059 0.01656428 -0.04042684 -0.08278921 0.029331606
0.000254091 0.032413762 -0.016801339 0.08393782 -0.030135417 0.06281403 0.036118608 0.078279465
0.01043776 -0.040856402 0.054959524 -0.04946666 -0.046790037 -0.028261708 -0.032965314 -0.0659361
0.079193845 -0.00018489765 0.07052344 0.087767355 0.08390567 0.08916723 0.011496115 -0.04522609
0.045600858 -0.047183245 0.022770045 -0.021647915 0.09098742 0.023144512 -0.011301589 -0.024392715
0.06461672 0.0039816415 -0.027007114 -0.01410535 -0.06526076 0.06569398 0.07594155 -0.027886659
0.058908615 0.061610997 -0.036638957 0.014504646 -0.011495593 -0.016998526 -0.021679021 -0.025619
0.025703214 -0.011152712 -0.025803998 -0.053994358 0.006569477 0.036129057 0.048318803 -0.048007324
0.03845738 -0.043502197 -0.004631869 0.027019542 0.0067946007 0.016106099 -0.066437766 -0.08042655
-0.013531899 0.07063239 -0.078704596 0.034919813 -0.045800675 -0.067713074 0.096125506 -0.06446083
0.016864661 -0.013720237 0.07405774 -0.0652525 0.067548685 0.04681053 0.04843048 0.08979132
0.09606932 0.07174517 0.049216792 0.07797181 0.06962688 0.029452814 -0.04632811 0.036659554
0.004337997 0.054044574 0.0023792635 0.030016124 -0.051691324 -0.038106397 -0.0332558 0.057686448
-0.044293534 -0.021252153 -0.017363213 -0.058121856 -0.048185278 -0.07348782 -0.06160916 -0.06456021
0.0022658939 0.08166827 -0.044638038 -0.018051185 -0.04260211 0.036749985 0.08394621 -0.03720772
-0.050445776 0.027207322 -0.06280582 0.0663097 -0.01987532 0.0038333717 0.054733932 0.04994395
-0.056059945 -0.0020243553 0.07784167 -0.066454336 0.08108193 -0.051654313 0.015402837 0.055561393
-0.056920197 -0.077907026 0.030265575 -0.04753979 0.014002967 0.07582188 0.02845184 -0.049723335
-0.01694907 -0.05200265 -0.049089927 0.021367121 0.0009944596 0.048551753 0.021907995 -0.043733165
-0.0010825642 -0.0416536 -0.066990234 -0.053687073 0.06568081 -0.0520368 0.044327214 -0.044381097
0.06180357 -0.03525375 0.0071465676 -0.0788088 -0.01225217 -0.014818271 -0.0033738108 -0.039904535
0.023853002 0.03338882 0.03990952 -0.052161533 -0.062383644 0.04674851 0.041987672 0.008023506
-0.0047757654 0.098667555 -0.028901083 0.056053944 0.082283005 -0.03134914 -0.013989187 0.050697364
-0.03973939 -0.042722985 0.10010412 0.09489588 0.009485776 0.12146758 0.030590074 0.08992191
0.05653106 0.0073683113 -0.10947339 0.061656777 -0.014918617 -0.06342971 0.011154769 -0.041495774
-0.03790035 -0.0012457281 -0.045567885 -0.04871322 -0.00022129477 0.037363395 0.006261454 0.0039805844
-0.0126720695 -0.06622775 0.028109968 -0.0790772 0.02198365 0.052015692 0.0699798 0.0036244113
-0.054279573 0.006659519 0.0454287 0.009529609 -0.05849489 0.06565465 -0.059611138 0.03432973
0.05398811 -0.030655166 -0.008195125 0.023087556 -0.01752829 0.055640925 0.017298397 0.0018921641
0.01382324 -0.017597694 0.038309425 -0.066049844 0.08594673 -0.002370605 0.03794641 0.015104247
0.07026709 -0.0050705057 -0.061510604 -0.019362384 -0.055745278 -0.025055816 -0.03060268 -0.06934493
00000000: 1457 a8bd e29b 363d 94e3 4dbd 8c54 aebd
00000010: 327b 20bd f4dd 683d b4df 723d 989d 00bd
00000020: de91 82bd 09aa 60bc e30e 0abd cb26 363d
00000030: d0b1 873c 9d96 25bd 648d a9bd d648 f03c
00000040: 8437 8539 4bc4 043d f6a2 89bc 97e7 ab3d
00000050: 8dde f6bc a4a4 803d 1bf1 133d fc50 a03d
00000060: 2303 2b3c 0b59 27bd 3d1d 613d 8d9d 4abd
00000070: e9a6 3fbd 1985 e7bc a306 07bd 8209 87bd
00000080: 6230 a23d 16e1 41b9 986e 903d 5fbf b33d
00000090: bcd6 ab3d 4f9d b63d 335a 3c3c fe3e 39bd
000000a0: f7c7 3a3d 3843 41bd 3f88 ba3c f856 b1bc
000000b0: 9d57 ba3d 8f99 bd3c 4d2a 39bc 3bd3 c7bc
000000c0: c555 843d 6e78 823b 063e ddbc 201a 67bc
000000d0: 6fa7 85bd 918a 863d 3e87 9b3d 9072 e4bc
000000e0: 294a 713d d05b 7c3d bb12 16bd e5a4 6d3c
000000f0: 0358 3cbc 7e40 8bbc 3498 b1bc f0de d1bc
00000100: 8c8f d23c ddb9 36bc e862 d3bc 3029 5dbd
00000110: c444 d73b 10fc 133d f0e9 453d 54a3 44bd
00000120: 7c85 1d3d 5c2f 32bd efc6 97bb 1658 dd3c
00000130: 3ea5 de3b f0f0 833c 8610 88bd adb6 a4bd
00000140: e6b4 5dbc b7a7 903d e02f a1bd 1408 0f3d
00000150: 7d99 3bbd 27ad 8abd 73dd c43d 0a04 84bd
00000160: c227 8a3c d8ca 60bc 96ab 973d 1aa3 85bd
00000170: f756 8a3d 66bc 3f3d 0a5f 463d 83e4 b73d
00000180: febf c43d 22ef 923d 8c97 493d afaf 9f3d
00000190: 8a98 8e3d 0747 f13c 8bc2 3dbd 5428 163d
000001a0: c225 8e3b d85d 5d3d 6bed 1b3b 60e4 f53c
000001b0: 48ba 53bd 7415 1cbd 3c37 08bd a048 6c3d
000001c0: 236d 35bd ff18 aebc 4c3d 8ebc 2f11 6ebd
000001d0: ed5d 45bd c880 96bd e359 7cbd 2538 84bd
000001e0: 647f 143b b241 a73d 60d6 36bd 14e0 93bc
000001f0: 8d7f 2ebd 2787 163d feeb ab3d 1f67 18bd
00000200: 3ba0 4ebd e4e1 de3c 56a0 80bd 61cd 873d
00000210: 91d1 a2bc 4e39 7b3b b030 603d 0792 4c3d
00000220: 1d9f 65bd 0cab 04bb 746b 9f3d 3619 88bd
00000230: 480e a63d 7993 53bd 2e5c 7c3c 5894 633d
00000240: 2725 69bd b88d 9fbd 83ef f73c 15b9 42bd
00000250: b36c 653c 8048 9b3d d513 e93c b2aa 4bbd
00000260: c7d8 8abc bb00 55bd 8512 49bd 1a0a af3c
00000270: 8758 823a 34de 463d 6578 b33c 8c21 33bd
00000280: d4e4 8dba f79c 2abd 2d32 89bd fae6 5bbd
00000290: a983 863d 8a24 55bd 7490 353d f4c8 35bd
000002a0: bd25 7d3d 3c66 10bd c12d ea3b 8266 a1bd
000002b0: 53bd 48bc 55c8 72bc 271b 5dbb f072 23bd
000002c0: 5f67 c33c b7c2 083d 2a78 233d 55a7 55bd
000002d0: fe85 7fbd 5e7b 3f3d 44fb 2b3d 0675 033c
000002e0: 067e 9cbb 3712 ca3d f7c1 ecbc d298 653d
000002f0: fe83 a83d f567 00bd e732 65bc 0aa8 4f3d
00000300: c5c5 22bd 4cfe 2ebd 6403 cd3d c558 c23d
00000310: 3a6a 1b3c ffc3 f83d 0998 fa3c fa28 b83d
00000320: 1d8d 673d e071 f13b 9633 e0bd d18b 7c3d
00000330: 376d 74bc 70e7 81bd 7ec2 363c 79f7 29bd
00000340: 663d 1bbd b347 a3ba 64a5 3abd 8387 47bd
00000350: 5d0b 68b9 5c0a 193d e22c cd3b 906f 823b
00000360: 839e 4fbc 6aa2 87bd e046 e63c 3af3 a1bd
00000370: 0e17 b43c 680e 553d 9251 8f3d 8887 6d3b
00000380: 4254 5ebd 1838 da3b 7213 3a3d 1422 1c3c
00000390: 5698 6fbd f275 863d cf2a 74bd 559d 0c3d
000003a0: a322 5d3d 8b20 fbbc d844 06bc 1d22 bd3c
000003b0: 7d97 8fbc bde7 633d 5eb5 8d3c 7e02 f83a
000003c0: df7a 623c 0a29 90bc 58ea 1c3d 2445 87bd
000003d0: d704 b03d 275c 1bbb b26d 1b3d ce77 773c
000003e0: 31e8 8f3d 7c26 a6bb 8bf2 7bbd dd9d 9ebc
000003f0: 2955 64bd db41 cdbc 79b2 fabc b704 8ebd

conv2.bias f4 [10]
0.008576038 -0.08612403 0.054312836 -0.014241291 -0.05166355 0.035815235 0.016422432 0.047314014
-0.037317052 -0.04726761
00000000: 8382 0c3c cc61 b0bd 2377 5e3d 4e54 69bc
00000010: 299d 53bd ffb2 123d 5688 863c 57cc 413d
00000020: c4d9 18bd ae9b 41bd

conv3.weight f4 [20, 10, 5, 5]
-0.065694444 -0.03715881 -0.07001798 0.034019712 0.03144672 0.047132652 -0.07767845 -0.011567297
-0.06867889 0.019449739 -0.07665497 -0.08837177 -0.08133138 0.021890022 0.027048972 -0.061558086
-0.0185142 -0.022595294 -0.017742546 -0.0692332 -0.030442692 -0.017918374 -0.024385462 0.036606554
-0.025661746 -0.010100863 -0.03905245 0.0317271 -0.06370956 0.047584858 -0.054512817 -0.031924784
-0.009617425 0.030954864 -0.030102387 -0.037322044 -0.031961307 0.022137674 -0.053724065 -0.02802206
-0.060776934 0.020122219 -0.085020155 -0.029705545 -0.01593281 -0.0033924484 0.04568088 -0.07153836
0.034432385 0.028648552 -0.0019252733 -0.0148512125 -0.025624644 -0.03130395 -0.074334696 -0.061454326
0.012103655 -0.014454796 -0.008870041 -0.070493296 -0.013681487 -0.03246672 -0.0716888 -0.03674189
-0.041823123 -0.03823486 0.010298544 -0.07676017 -0.09100571 -0.09163201 0.034369726 -0.013576045
-0.023921192 0.023385858 0.015705997 -0.023134567 0.0034502698 -0.04939948 -0.036136616 -0.03740987
0.020190429 -0.046197087 0.038952224 -0.009359418 -0.03679735 -0.02243229 0.046380147 -0.009082268
-0.032466665 -0.012219781 0.04005249 -0.04284 0.01229967 0.0657812 0.019942857 0.013959469
0.07134653 -0.008961144 0.01031107 0.028979752 -0.011168028 -0.005594793 0.027905568 -0.0109142605
-0.019458096 -0.005734102 -0.085501865 -0.023367971 -0.009879396 -0.03872523 -0.009243752 0.005617886
-0.0064897304 -0.0668648 -0.030404964 0.009061809 -0.066187024 -0.0034519928 0.033029605 -0.040030066
-0.027415056 0.010686373 -0.0620741 0.054098032 -0.022752056 0.00577636 0.03554481 -0.05374617
0.02348198 -0.03450071 -0.08200781 -0.09594257 -0.06351803 -0.0155257415 -0.060685124 -0.035648614
-0.0750918 0.014385511 -0.087626696 -0.08340374 0.023216745 -0.062684394 0.008552691 -0.0106157325
-0.092979014 -0.003633051 0.035786882 -0.075852506 -0.036173347 -0.04371409 0.041618798 0.01785565
0.012595682 0.01322336 0.043598212 -0.0018102237 -0.048424527 -0.06169165 0.014048871 -0.06430811
0.024505539 0.0419941 -0.049585868 0.029307736 -0.04577567 -0.004385678 -0.015954707 0.021664582
0.027399944 -0.007464318 0.037551466 -0.065175004 -0.028695269 0.006485609 0.018065894 0.011871392
-0.018192772 -0.05402996 0.028615482 0.012536953 0.04254418 -0.06753202 -0.045249075 0.02219044
-0.034722734 -0.06726516 -0.03860932 -0.08197705 -0.07508418 0.0047623175 -0.052313447 0.024602504
0.013950095 -0.015375484 -0.062812015 0.03876149 -0.035103414 0.0219278 -0.08124117 -0.041838877
0.0039376644 -0.045930486 0.03748095 0.065820165 0.0054994114 -0.03028405 -0.01156687 -0.061254933
0.040021673 0.025952486 0.03556164 -0.081167474 0.006070558 -0.024209922 0.056475095 0.0067416104
-0.008502601 -0.03174355 -0.029847229 0.020988997 0.020911848 0.046141088 0.05695883 0.0018423669
0.03279506 0.06065137 0.014055444 0.031442773 -0.050133284 0.039791666 -0.028950978 0.04723883
0.008220025 0.009326941 0.026244942 -0.059702765 -0.06624942 0.0018526732 -0.026113952 0.047482688
0.059162926 -0.012367128 0.011371334 0.0025594078 -0.04602577 0.0016145718 0.022286823 0.053088725
0.027062682 -0.022437442 0.047470734 0.04153895 -0.046206858 0.0046171066 0.057345483 0.0059910435
00000000: cf8a 86bd d633 18bd 9665 8fbd 4158 0b3d
00000010: 47ce 003d 2b0e 413d e115 9fbd c384 3dbc
00000020: 85a7 8cbd 0f55 9f3c 48fd 9cbd 42fc b4bd
00000030: 1191 a6bd b452 b33c ce95 dd3c 5524 7cbd
00000040: 17ab 97bc c419 b9bc d158 91bc 23ca 8dbd
00000050: f462 f9bc 8ec9 92bc 05c4 c7bc c1f0 153d
00000060: 9538 d2bc 177e 25bc 76f5 1fbd 47f4 013d
00000070: 287a 82bd 57e8 423d d548 5fbd 90c3 02bd
00000080: 6792 1dbc 0e95 fd3c 4899 f6bc 00df 18bd
00000090: dce9 02bd 115a b53c c40d 5cbd 858e e5bc
000000a0: 3cf1 78bd 5ad7 a43c 0c1f aebd 0b59 f3bc
000000b0: 8685 82bc d753 5ebb e01b 3b3d b482 92bd
000000c0: f908 0d3d 5eb0 ea3c 7459 fcba 8052 73bc
000000d0: c6ea d1bc 9238 00bd ca3c 98bd 88b7 7bbd
000000e0: 694e 463c cfd3 6cbc a653 11bc ca5e 90bd
000000f0: 5128 60bc d3fb 04bd 94d1 92bd aa7e 16bd
00000100: b94e 2bbd 289c 1cbd 39bb 283c 7034 9dbd
00000110: 3461 babd 90a9 bbbd 45c7 0c3d 0f6e 5ebc
00000120: 60f6 c3bc b393 bf3c dda9 803c b484 bdbc
00000130: ec1d 623b 1c57 4abd fd03 14bd 183b 19bd
00000140: 6666 a53c 2839 3dbd 5e8c 1f3d 3f58 19bc
00000150: d1b8 16bd ecc3 b7bc 1cf9 3d3d cbcd 14bc
00000160: c4fb 04bd 7a35 48bc 140e 243d ff78 2fbd
00000170: 8e84 493c 4bb8 863d 345f a33c 42b6 643c
00000180: 211e 923d c3d1 12bc c3ef 283c f266 ed3c
00000190: 1bfa 36bc 8654 b7bb 389a e43c bad1 32bc
000001a0: 9666 9fbc 22e5 bbbb 9a1b afbd 306e bfbc
000001b0: 31dd 21bc 599e 1ebd 1b73 17bc 3e16 b83b
000001c0: cea7 d4bb 6af0 88bd d513 f9bc fb77 143c
000001d0: 108d 87bd d43a 62bb 0d4a 073d 91f6 23bd
000001e0: 8a95 e0bc e615 2f3c 6941 7ebd e695 5d3d
000001f0: 8562 babc 9f47 bd3b 6f97 113d f224 5cbd
00000200: 485d c03c 9e50 0dbd b6f3 a7bd 8a7d c4bd
00000210: be15 82bd ae5f 7ebc f790 78bd 4804 12bd
00000220: bbc9 99bd 35b1 6b3c a075 b3bd 94cf aabd
00000230: 0b31 be3c ad60 80bd 9620 0c3c 9ced 2dbc
00000240: c86b bebd 7b18 6ebb 4495 123d 8f58 9bbd
00000250: 812a 14bd 8c0d 33bd 7978 2a3d 0346 923c
00000260: 1f5e 4e3c cba6 583c 0a94 323d 0745 edba
00000270: cc58 46bd 62b0 7cbd 3c2d 663c f8b3 83bd
00000280: d7bf c83c 0102 2c3d 8d1a 4bbd c716 f03c
00000290: 457f 3bbd bcb5 8fbb 72b3 82bc ec79 b13c
000002a0: d975 e03c 3d97 f4bb 91cf 193d 797a 85bd
000002b0: 5712 ebbc 3b85 d43b edfe 933c 3a80 423c
000002c0: 0209 95bc 854e 5dbd 046b ea3c cb67 4d3c
000002d0: ce42 2e3d 3a4e 8abd 1857 39bd bac8 b53c
000002e0: 6d39 0ebd 51c2 89bd ce24 1ebd 95e3 a7bd
000002f0: bcc5 99bd 370d 9c3b a046 56bd 318b c93c
00000300: f08e 643c 74e9 7bbc 96a3 80bd 5ec4 1e3d
00000310: 99c8 0fbd eea1 b33c c561 a6bd 3e5f 2bbd
00000320: 8607 813b 9b21 3cbd a085 193d b9cc 863d
00000330: 6834 b43b 4216 f8bc f882 3dbc 74e6 7abd
00000340: c4ed 233d 4f9a d43c 15a9 113d 223b a6bd
00000350: 88eb c63b e353 c6bc 6e52 673d bae8 dc3b
00000360: 7e4e 0bbc 8605 02bd 2d82 f4bc 1ef1 ab3c
00000370: 534f ab3c 70fe 3c3d aa4d 693d 937b f13a
00000380: 1d54 063d 926d 783d ce48 663c 23ca 003d
00000390: 8f58 4dbd 96fc 223d 9a2a edbc 817d 413d
000003a0: 49ad 063c 07d0 183c a2ff d63c e38a 74bd
000003b0: c7ad 87bd 66d5 f23a edec d5bc 357d 423d
000003c0: d354 723d 7f9f 4abc d54e 3a3c bdbb 273b
000003d0: 8585 3cbd 0aa0 d33a db92 b63c 9073 593d
000003e0: 8fb2 dd3c bace b7bc ac70 423d bf24 2a3d
000003f0: 6743 3dbd 194b 973b 19e3 6a3d 8450 c43b

conv3.bias f4 [20]
-0.00015537877 0.0115284035 0.014556604 -0.006136956 -0.06926116 0.001602113 -0.049366977 0.05433134
0.031003997 -0.08461375 0.06478719 0.026040452 -0.044755302 -0.07638626 0.04939246 -0.018675892
-0.041323017 -0.051869735 0.07372188 0.031764176
00000000: 2ced 22b9 a1e1 3c3c d37e 6e3c 8518 c9bb
00000010: ccd8 8dbd fefd d13a 0735 4abd 8a8a 5e3d
00000020: 18fc fd3c f949 adbd 25af 843d c952 d53c
00000030: 5651 37bd 6670 9cbd c04f 4a3d 2ffe 98bc
00000040: 5342 29bd 5c75 54bd 7ffb 963d 271b 023d

conv4.weight f4 [20, 20, 5, 5]
0.0155097665 -0.008728161 0.05410643 0.017086977 0.011131491 0.036385898 0.0156847 0.056707524
-0.023609743 0.034737233 0.045383997 0.0026365095 0.029758299 0.0145345675 -0.016042626 -0.03378067
-0.013903583 -0.016091712 0.040490307 -0.005489357 -0.043424733 -0.0052902815 0.039334282 -0.008191955
0.01666117 0.008282054 0.033794817 -0.010781991 0.00036923945 -0.0027264613 0.008181318 -0.012064649
0.015205701 0.056042913 0.023026764 -0.022522992 0.025177605 0.06578609 0.011485342 0.032511156
-0.0033555247 0.044994187 0.014428246 0.06365539 -0.012150754 0.036525697 -0.04154106 0.029571207
0.03976606 -0.021646064 0.035825193 0.047590546 0.017428454 0.013075935 0.011251749 0.014906837
-0.016255379 0.025821425 0.029258015 0.033350956 0.036836255 0.0386792 0.0061467076 0.045936145
0.038442433 0.038846124 0.0018913968 0.038429186 0.033872347 0.00057325885 0.011228757 0.024099505
0.025430257 0.056388486 0.0074560423 -0.029469097 0.06012559 0.011745691 0.014082429 0.0027146514
0.057070434 0.024261631 0.011113959 0.06249427 0.0234922 -0.005618317 0.022408277 0.02217394
0.021320036 0.0020994516 0.06486964 0.015852135 -0.0045490246 0.061766703 0.024887394 -0.021028863
0.047076564 0.042249117 0.06010695 0.04339691 0.044404697 0.03871056 -0.004379658 0.044780005
-0.01881311 0.011502929 0.025529083 0.040076435 0.030557765 0.042934414 0.041760065 -0.021354176
0.05128641 -0.002180349 -0.019503938 0.0074818195 0.008502123 0.00065982644 0.021794088 0.055848952
0.019330893 -0.019175489 -0.036808647 -0.0115199005 0.027251977 -0.000701136 -0.00089418836 0.06254342
0.0512996 0.0452827 -0.01768912 0.053587504 0.03218005 0.085083164 0.040837254 -0.010914906
-0.03532718 0.030368185 0.03334799 -0.016455643 0.0170738 0.025519373 0.056323417 -0.008615773
0.034647003 -0.016626304 0.017372387 0.059649613 0.00079991954 0.027479688 0.025207482 -0.009145079
0.010495879 0.049737494 0.034453582 0.043058567 0.025176117 -0.007994166 0.06577803 0.027395941
-0.03909556 0.027243849 0.04440802 -0.029852461 0.0033251836 -0.029816084 0.0027956984 0.026358997
0.051118586 0.06303666 -0.040790513 0.018010778 0.02095174 0.02856289 0.0142919365 0.005125608
0.021615861 0.052178103 -0.018260194 -0.0019328222 -0.012506755 0.042848054 -0.0046475157 -0.0064665056
-0.02642746 -0.034920394 0.013536677 0.053036157 1.887436e-05 0.026402209 0.013300724 0.029199237
-0.016867908 0.052851114 0.041053224 -0.014448385 -0.0261387 -0.02656386 -0.030230122 0.0416245
-0.018173013 0.025648547 0.060295988 0.05646178 0.056087743 0.030752333 -0.018285569 0.04812696
0.029327324 0.053457834 0.005254262 0.0063244104 -0.031728696 -0.032689482 -0.011765625 0.018104194
-0.0017448777 0.035280626 0.042595048 0.036872104 0.02466197 0.0054559214 -0.0063003507 0.07120884
0.039995614 -0.0133992145 0.027623352 0.037896108 0.02274968 0.04898184 0.01216369 0.037382886
0.041640148 0.045974113 0.029136827 0.05693993 0.046790652 -0.0010547499 0.021337185 3.626539e-05
-0.004829219 0.029889543 -0.013773141 -0.00867393 0.05291045 0.0014555529 -0.014537233 0.037849355
-0.015230853 0.058262173 0.04553277 -0.0013703229 0.008642464 0.032346107 0.06505272 -0.03062638
00000000: ad1c 7e3c 9000 0fbc b49e 5d3d fdf9 8b3c
00000010: db60 363c 6109 153d 337d 803c 2646 683d
00000020: 3869 c1bc a148 0e3d 92e4 393d 4ac9 2c3b
00000030: adc7 f33c 6522 6e3c d36b 83bc 9a5d 0abd
00000040: dbcb 63bc c4d2 83bc 2ad9 253d 10e0 b3bb
00000050: 22de 31bd 195a adbb fc1c 213d 8d37 06bc
00000060: 027d 883c 74b1 073c 6f6c 0a3d f3a6 30bc
00000070: 7b96 c139 6eae 32bb ef0a 063c ceaa 45bc
00000080: 5521 793c 418d 653d a0a2 bc3c 2382 b8bc
00000090: 4441 ce3c dcba 863d 042d 3c3c 6b2a 053d
000000a0: 5de8 5bbb d34b 383d 7364 6c3c c25d 823d
000000b0: f513 47bc f89b 153d f526 2abd 513f f23c
000000c0: bce1 223d 1653 b1bc 70bd 123d 4eee 423d
000000d0: 1ec6 8e3c 723c 563c 4159 383c ce3b 743c
000000e0: 002a 85bc 7487 d33c 81ae ef3c 039b 083d
000000f0: 9de1 163d 156e 1e3d 526a c93b 8a27 3c3d
00000100: d075 1d3d 1d1d 1f3d bfe8 f73a ec67 1d3d
00000110: bbbd 0a3d c046 163a d2f8 373c 536c c53c
00000120: 1d53 d03c 9df7 663d d151 f43b 2d69 f1bc
00000130: 4046 763d 0071 403c fdb9 663c 4be8 313b
00000140: b0c2 693d 54c0 c63c 5317 363c fef9 7f3d
00000150: b772 c03c dc19 b8bb 9091 b73c 1fa6 b53c
00000160: 5ba7 ae3c f496 093b 60da 843d 56dc 813c
00000170: fc0f 95bb 15ff 7c3d a6e0 cb3c b944 acbc
00000180: 5bd3 403d 690d 2d3d b532 763d f5c0 313d
00000190: b3e1 353d f78e 1e3d 3c83 8fbb 3d6b 373d
000001a0: f41d 9abc c876 3c3c 5e22 d13c 3027 243d
000001b0: 4754 fa3c ffdb 2f3d 9a0c 2b3d f4ee aebc
000001c0: b311 523d 30e4 0ebb b9c6 9fbc 0d2a f53b
000001d0: 7d4c 0b3c 34f8 2c3a 8489 b23c dfc1 643d
000001e0: d25b 9e3c ea15 9dbc aac4 16bd f7bd 3cbc
000001f0: 8a3f df3c 71cc 37ba f767 6aba c416 803d
00000200: 881f 523d 5a7a 393d c6e8 90bc 927e 5b3d
00000210: 3acf 033d 1540 ae3d f744 273d 6fd4 32bc
00000220: 3cb3 10bd b3c6 f83c e797 083d fccd 86bc
00000230: 5bde 8b3c 010e d13c 62b3 663d 2c29 0dbc
00000240: 04ea 0d3d e333 88bc 8950 8e3c 2753 743d
00000250: b1b1 513a 151d e13c ec7f ce3c 3ed5 15bc
00000260: e8f6 2b3c 8bb9 4b3d 331f 0d3d 2e5e 303d
00000270: 253e ce3c f6f9 02bc a2b6 863d 746d e03c
00000280: aa22 20bd 7e2e df3c 2fe5 353d 268d f4bc
00000290: 53eb 593b dc40 f4bc 0938 373b d3ee d73c
000002a0: b961 513d 5d19 813d f413 27bd 578b 933c
000002b0: fca2 ab3c b9fc e93c ba28 6a3c b7f4 a73b
000002c0: bf13 b13c b5b8 553d 6796 95bc c056 fdba
000002d0: 22e9 4cbc 7181 2f3d 304a 98bb fbe4 d3bb
000002e0: 677e d8bc b008 0fbd f0c8 5d3c 713c 593d
000002f0: 6154 9e37 7249 d83c 48eb 593c 3d33 ef3c
00000300: 912e 8abc 697a 583d 6d27 283d ebb8 6cbc
00000310: d420 d6bc 749c d9bc 29a5 f7bc 747e 2a3d
00000320: 92df 94bc e71c d23c edf8 763d 7844 673d
00000330: 43bc 653d 51ec fb3c 9ecb 95bc c620 453d
00000340: db3f f03c 9af6 5a3d f22b ac3b 003d cf3b
00000350: f3f5 01bd 68e5 05bd 9cc4 40bc 3f4f 943c
00000360: 61b4 e4ba 6b82 103d 2578 2e3d 3407 173d
00000370: e607 ca3c 96c7 b23b 2c73 cebb f1d5 913d
00000380: 71d2 233d 6188 5bbc 5e4a e23c f338 1b3d
00000390: 895d ba3c 2fa1 483d 374a 473c cc1e 193d
000003a0: dc8e 2a3d 5a4f 3c3d 5bb0 ee3c d839 693d
000003b0: 8ea7 3f3d 893f 8aba 52cb ae3c aa1b 1838
000003c0: 6d3e 9ebb eada f43c bea8 61bc 191d 0ebc
000003d0: a1b8 583d 40c8 be3a 932d 6ebc ed07 1b3d
000003e0: d48a 79bc 51a4 6e3d 9280 3a3d 689c b3ba
000003f0: 1f99 0d3c 5a7d 043d 5c3a 853d 2de4 fabc

conv4.bias f4 [20]
0.0085838605 -0.055029508 0.02363848 -0.06375763 0.028030435 0.010538803 -0.037659995 -0.024113242
-0.057597615 0.014761487 0.03762127 -0.039618604 -0.033427883 -0.008140817 -0.0470667 -0.06930156
-0.06939159 0.025468325 0.019197945 -0.012204908
00000000: 52a3 0c3c 9f66 61bd 7ca5 c13c 5c93 82bd
00000010: 15a0 e53c f2aa 2c3c 5e41 1abd 2289 c5bc
00000020: 7aeb 6bbd 2ada 713c c318 1a3d 1e47 22bd
00000030: adeb 08bd 1061 05bc 03c9 40bd faed 8dbd
00000040: 2e1d 8ebd f3a2 d03c 0245 9d3c 18f7 47bc

conv5.weight f4 [30, 20, 5, 5]
0.013051604 0.068886995 0.06471602 0.05603202 -0.02974001 0.042368926 0.017175429 -0.0074217794
0.0014178208 -0.030763047 0.018878369 0.008482872 0.008098787 -0.039914787 -0.022638697 0.013791122
0.039102934 0.018177556 -0.017321315 0.008354613 -0.04835177 -0.02531685 0.045848284 -0.017234363
0.0037905776 -0.015814776 0.062743835 0.049427204 0.008134102 0.0067372597 0.036685858 0.046215273
0.051935367 0.038689632 -0.023656523 -0.026949735 -0.0045585576 -0.017165089 0.022784773 -0.023823565
-0.028747126 0.023455761 0.033560734 0.041254576 -0.053886373 -0.005636335 -0.033273716 -0.016120365
-0.058000166 -0.021489875 -0.037331007 -0.031357624 -0.0063504735 0.019096216 0.03399681 0.03181207
-0.032222565 0.0422189 0.03236707 -0.030772042 0.044386823 0.041339245 -0.028749727 -0.0073690386
0.05176475 -0.0021113628 0.013000362 0.036189955 0.041198786 -0.012505389 -0.035362758 0.008893042
0.013805524 0.034125946 -0.03866468 -0.0012477372 -0.039152827 -0.027109515 0.014860929 0.015807714
-0.00456537 -0.039857164 0.010552667 0.025456592 -0.033209745 -0.030927151 -0.0045480765 -0.03542535
0.0005199718 -0.02130028 -0.018768668 0.025496816 0.011764762 0.025267938 -0.008858837 -0.0144221485
-0.022752158 -0.033822417 0.023484103 0.012120079 0.003203228 0.035244517 -0.002563073 0.0062347483
-0.000394202 -0.051147312 -0.026761137 -0.008637631 -0.024397077 -0.01655521 -0.080126144 -0.061004613
0.0044117803 -0.006226461 -0.024580516 -0.098914914 -0.07667157 -0.012265623 -0.04904698 -0.02470452
-0.038575705 -0.08622761 -0.056371104 -0.0009233227 -0.019903129 -0.028999185 0.012060819 -0.0032456957
0.025533473 -0.0069894088 -0.041976605 0.054051384 0.0073727285 0.01667083 0.009248621 0.014080841
-0.0065975166 -0.018388186 0.024832152 0.030314885 -0.016198788 0.02545765 -0.03821549 -0.018793825
-0.010364768 -0.043134484 0.009208743 -0.00529128 0.019398622 -0.010730252 -0.011977187 -0.0152691575
0.01053454 0.007922477 -0.0014590763 -0.005606551 0.02688025 0.012235876 -0.03200106 0.007075787
-0.03204134 -0.003466528 0.025621006 -0.017599836 0.0082828 0.0287131 -0.013858582 -0.008760141
-0.036027398 0.034506492 -0.026225513 0.0053210403 -0.019363707 -0.014995716 -0.016009793 -0.013188755
0.06426639 0.062156726 0.051402856 0.013598683 0.00512015 -0.007285146 0.014360761 0.014018729
0.017419359 -0.04724186 -0.006042897 -0.013671899 -0.04011308 -0.010786796 -0.004580144 -0.03006611
-0.013948993 -0.033675745 -0.03452395 -0.045375895 0.027322691 0.034883082 -0.014169338 -0.02193073
0.00861983 0.020766428 0.016649147 0.03702826 -0.029505625 -0.0044123055 0.014766561 0.002608595
-0.007658235 -0.025069486 0.043477595 -0.016225295 0.013233637 0.034169916 0.018076153 -0.042704813
0.011049915 0.034956828 -0.019300168 -0.02509769 -0.020289516 -0.034496453 0.00871798 -0.041306723
-0.025216965 -0.026743457 -0.046409443 -0.069672294 -0.056384355 -0.03372753 -0.02628009 -0.074018314
0.0026771529 -0.029908676 -0.0017395547 0.007425316 -0.04034477 -0.04617078 -0.014216959 -0.06231548
0.013782146 -0.039821472 -0.026217757 -0.030351507 0.0133792125 0.014580241 0.0054491153 -0.034386303
-0.03210131 -0.05710723 -0.016196918 -0.04331188 0.0010714051 -0.048348326 -0.058691245 0.01260916
00000000: 65d6 553c a014 8d3d d589 843d d581 653d
00000010: 52a1 f3bc 0a8b 2d3d 7cb3 8c3c 6632 f3bb
00000020: 2cd6 b93a c902 fcbc cfa6 9a3c befb 0a3c
00000030: c6b0 043c b07d 23bd ca74 b9bc 28f4 613c
00000040: 662a 203d 19e9 943c 6ee5 8dbc c9e1 083c
00000050: 810c 46bd 4865 cfbc 69cb 3b3d 142f 8dbc
00000060: 576b 783b fd8d 81bc d77f 803d 2e74 4a3d
00000070: e644 053c 3bc4 dc3b e943 163d 3a4c 3d3d
00000080: 2eba 543d 0579 1e3d 53cb c1bc b1c5 dcbc
00000090: f45f 95bb cd9d 8cbc 22a7 ba3c a329 c3bc
000000a0: 187f ebbc 4c26 c03c fb76 093d 8ffa 283d
000000b0: f5b7 5cbd 01b1 b8bb 054a 08bd db0e 84bc
000000c0: 9591 6dbd 890b b0bc 66e8 18bd da70 00bd
000000d0: a217 d0bb ab6f 9c3c 3d40 0b3d 604d 023d
000000e0: cffb 03bd baed 2c3d 5593 043d a615 fcbc
000000f0: f5ce 353d 5753 293d 8c84 ebbc fa77 f1bb
00000100: 4607 543d ca5e 0abb 78ff 543c eb3b 143d
00000110: 0fc0 283d 67e3 4cbc 8ad8 10bd 1fb4 113c
00000120: 9130 623c a6c7 0b3d db5e 1ebd 1d8b a3ba
00000130: b75e 20bd c614 debc 417b 733c 2e7f 813c
00000140: 1999 95bb 4441 23bd 18e5 2c3c 588a d03c
00000150: f106 08bd f05a fdbc 0808 95bb 2c1a 11bd
00000160: b84e 083a ed7d aebc c0c0 99bc b3de d03c
00000170: fdc0 403c b5fe ce3c a824 11bc e04a 6cbc
00000180: bc62 babc 6089 0abd bc61 c03c 4c93 463c
00000190: 40ed 513b 8e5c 103d 3bf9 27bb dc4c cc3b
000001a0: e6ac ceb9 d87f 51bd 2c3a dbbc da84 0dbc
000001b0: 61dc c7bc cb9e 87bc 2d19 a4bd f9df 79bd
000001c0: b290 903b 5707 ccbb 145d c9bc e793 cabd
000001d0: fc05 9dbd c0f5 48bc 7ce5 48bd 2261 cabc
000001e0: 8f01 1ebd 1a98 b0bd 63e5 66bd 230b 72ba
000001f0: e30b a3bc b38f edbc be9a 453c bdb5 54bb
00000200: 932b d13c 6907 e5bb a9ef 2bbd fc64 5d3d
00000210: ee96 f13b 4491 883c 8787 173c 54b3 663c
00000220: fb2f d8bb d2a2 96bc cc6c cb3c ec56 f83c
00000230: 52b3 84bc 908c d03c d887 1cbd 82f5 99bc
00000240: fdd0 29bc c9ad 30bd 45e0 163c 7962 adbb
00000250: dce9 9e3c f0cd 2fbc f73b 44bc 7d2b 7abc
00000260: 1099 2c3c 47cd 013c 7a3e bfba 29b7 b7bb
00000270: f833 dc3c fc78 483c 8b13 03bd 01dc e73b
00000280: c83d 03bd b02e 63bb 25e3 d13c 882d 90bc
00000290: 95b4 073c bc37 eb3c 1b0f 63bc b286 0fbc
000002a0: 7791 13bd ae56 0d3d e3d6 d6bc 1f5c ae3b
000002b0: a3a0 9ebc 97b0 75bc f826 83bc a615 58bc
000002c0: 199e 833d 0d98 7e3d cd8b 523d 03cd 5e3c
000002d0: eec6 a73b 3cb8 eebb 6649 6b3c d0ae 653c
000002e0: 0bb3 8e3c ae80 41bd 7e03 c6bb 1a00 60bc
000002f0: 9d4d 24bd 1abb 30bc 0815 96bb 344d f6bc
00000300: 518a 64bc 94ef 09bd fc68 0dbd 13dc 39bd
00000310: d6d3 df3c 90e1 0e3d 8326 68bc 13a8 b3bc
00000320: 303a 0d3c 5b1e aa3c cb63 883c f2aa 173d
00000330: c8b5 f1bc 1a95 90bb 72ef 713c f6f4 2a3b
00000340: eef1 fabb 865e cdbc 9015 323d e9ea 84bc
00000350: e6d1 583c c1f5 0b3d 7114 943c 3eeb 2ebd
00000360: b40a 353c e42e 0f3d 631b 9ebc ac99 cdbc
00000370: 3336 a6bc 274c 0dbd dcd5 0e3c 3d31 29bd
00000380: cf93 cebc 1815 dbbc d417 3ebd 59b0 8ebd
00000390: 48f3 66bd e125 0abd 5849 d7bc ea96 97bd
000003a0: 2c73 2f3b 0a03 f5bc c501 e4ba 1150 f33b
000003b0: 8f40 25bd 921d 3dbd 3fee 68bc 843e 7fbd
000003c0: 83ce 613c d71b 23bd 9fc6 d6bc b9a3 f8bc
000003d0: 7c34 5b3c f7e1 6e3c 7e8e b23b a7d8 0cbd
000003e0: aa7c 03bd 45e9 69bd 66af 84bc cc67 31bd
000003f0: 646e 8c3a e508 46bd 3b66 70bd a696 4e3c

conv5.bias f4 [30]
0.027889743 -0.019041492 -0.0346053 -0.017528933 -0.011825886 -0.02992636 -0.058847353 -0.027350863
0.042169992 0.020317791 0.041321352 0.049264267 -0.01286021 0.043134756 -0.07002106 -0.017122105
-0.033721495 -0.02691618 -0.04693298 0.008635692 -0.056842312 -0.020270359 0.008318347 0.0041296612
0.031833053 -0.011795147 -0.023407856 -0.038642514 0.016200565 0.032486983
00000000: 0879 e43c e7fc 9bbc 49be 0dbd d698 8fbc
00000010: 5cc1 41bc 2028 f5bc ec09 71bd eb0e e0bc
00000020: 71ba 2c3d 7f71 a63c 9440 293d 54c9 493d
00000030: a1b3 52bc 12ae 303d 3467 8fbd a843 8cbc
00000040: 8d1f 0abd 527f dcbc cc3c 40bd b87c 0d3c
00000050: 7cd3 68bd 060e a6bc ad49 083c 1c52 873b
00000060: 6063 023d 6f40 41bc d5c1 bfbc 9d47 1ebd
00000070: 0cb7 843c 1211 053d

conv6.weight f4 [30, 30, 5, 5]
-0.011373027 0.013878651 0.052879643 0.029775921 0.050612953 -0.00095681206 0.037506506 0.008912873
0.020714853 0.041323274 0.03262694 0.02047459 -0.0007647057 0.045595516 0.021842511 -0.011270942
-0.013550033 0.003175287 -0.048089776 -0.0077743726 -0.011321158 -0.052760907 -0.065097675 -0.08645827
-0.07803019 0.047949288 0.04577909 0.044193406 0.034785077 0.0062685497 -0.032926843 -0.015233927
0.01994197 0.023639621 0.0009286703 -0.034935918 -0.014831001 -0.019751765 -0.042684007 -0.01558656
-0.008255219 0.001309741 -0.033487648 -0.003999981 -0.0006917188 -0.009542999 0.0060598515 0.011455201
-0.00999653 0.008690888 -0.052863076 0.013935705 0.013410831 -0.033075817 0.011764271 0.0015756546
0.016787725 0.050418485 0.026262987 -0.0049553458 0.020891635 -0.02315134 -0.022424893 -0.02703352
-0.01233383 0.019463439 0.016851727 -0.031277943 0.0035356036 -0.027896058 -0.0062485463 -0.020500854
0.012116105 -0.04285442 0.005941534 -0.030571124 -0.022213215 0.016571311 -0.00045020288 -0.026221817
0.010890867 -0.01637841 0.02877687 0.02358303 0.013206721 0.008480599 0.036142647 0.025700962
-0.013917349 -0.02803039 -0.01330055 -0.051087692 0.015212812 0.0016686191 -0.024937907 -0.016527573
-0.038886808 -0.043654535 -0.049618613 -0.020677041 0.050990596 0.054687116 0.0064344946 0.034845047
0.009503005 0.0030030294 -0.014841065 0.026487716 0.023061056 0.009847816 0.03224306 -1.8424224e-05
0.023704987 -0.053165358 -0.052769214 -0.020071832 -0.007913098 -0.015819851 -0.0412961 -0.019077782
0.00699707 -0.0067939656 -0.056964517 -0.050669182 -0.040694296 0.008896949 -0.006590558 0.010631586
-0.008512039 -0.009796196 0.022027908 0.007837052 0.024334691 0.023893911 -0.015013931 0.025502387
-0.010627244 -0.014712012 0.018727439 -0.0027763387 0.00095794053 0.007684896 0.015718583 -0.03224756
0.014465854 0.012998674 0.008882102 -0.043791417 0.0069575147 -0.060327105 -0.03170454 -0.043800812
0.016500995 -0.0485189 -0.017108882 0.015255384 -0.009730248 -0.02747449 0.0017596815 -0.045058396
0.01864578 0.026009973 -0.012280341 0.012665908 -0.020709151 0.028989922 -0.0018091521 0.073156305
0.036167663 0.09589717 -0.035900358 -0.020461079 -0.0632481 -0.024011377 0.021738421 -0.011119349
-0.0029006612 0.007962544 0.026160562 0.021255884 0.024492366 -0.019345533 -0.012209135 -0.042308964
-0.023699362 -0.005903677 -0.017798834 -0.06002621 -0.066256106 -0.0563046 0.0038391754 -0.0065940474
-0.058673363 -0.048724733 -0.051233176 -0.011522221 -0.038314406 -0.00020195488 -0.0024077033 -0.062390137
0.02527506 -0.005225239 0.030418364 -0.013252495 -0.01666589 -0.026206683 -0.030751389 -0.03004899
-0.050636236 -0.047883943 -0.0034520533 0.004974927 -0.03667655 -0.088706315 -0.01754282 -0.07149503
-0.014671664 -0.05831466 -0.06279678 -0.028285356 -0.032858636 0.0022079574 -0.011341089 -0.040406525
-0.037250947 -0.0030081028 0.033583052 -0.013299128 -0.00791203 0.04451164 0.03142331 0.01666931
0.0041467897 -0.012618514 -0.024910185 0.0015923314 -0.021188436 -0.055638805 -0.03921012 -0.010378845
-0.01414035 -0.06592504 -0.05257563 -0.0537581 -0.0874564 -0.02348313 0.006867392 -0.006539372
-0.066805236 -0.06620023 -0.03340487 -0.04570415 -0.0046717725 -0.015343029 0.01314757 0.009865208
00000000: ef55 3abc 4863 633c 5398 583d a2ec f33c
00000010: 874f 4f3d 92d2 7aba 6ca0 193d 4d07 123c
00000020: 32b2 a93c 9842 293d d4a3 053d 54ba a73c
00000030: 8876 48ba 5dc2 3a3d 11ef b23c c2a9 38bc
00000040: f500 5ebc 7a18 503b c9f9 44bd 2ac0 febb
00000050: 617c 39bc d21b 58bd ee51 85bd 0911 b1bd
00000060: 4bce 9fbd 7966 443d db82 3b3d 2504 353d
00000070: cc7a 0e3d 6868 cd3b 4cde 06bd b997 79bc
00000080: 585d a33c e1a7 c13c 0272 733a f718 0fbd
00000090: bafd 72bc 74ce a1bc 6dd5 2ebd c55e 7fbc
000000a0: e640 07bc 9eab ab3a 582a 09bd 4612 83bb
000000b0: 7654 35ba 3d5a 1cbc b891 c63b 98ae 3b3c
000000c0: 7cc8 23bc 3a64 0e3c f486 58bd 9552 643c
000000d0: 1ab9 5b3c 827a 07bd eebe 403c 3286 ce3a
000000e0: 6986 893c 9d83 4e3d 7a25 d73c 7460 a2bb
000000f0: ef24 ab3c e1a7 bdbc 69b4 b7bc 6775 ddbc
00000100: d513 4abc ca71 9f3c a20c 8a3c 4d1d 00bd
00000110: 96b5 673b 4686 e4bc 9bc0 ccbb 68f1 a7bc
00000120: a182 463c 1e88 2fbd 33b1 c23b 4b70 fabc
00000130: 7df8 b5bc 8fc0 873c 3509 ecb9 23cf d6bc
00000140: 9b6f 323c 042c 86bc 78bd eb3c 3331 c13c
00000150: 0161 583c 36f2 0a3c 500a 143d d38a d23c
00000160: 9805 64bc fd9f e5bc 8dea 59bc 5441 51bd
00000170: 293f 793c 91b5 da3a 954a ccbc d564 87bc
00000180: c647 1fbd 19cf 32bd e33c 4bbd e662 a9bc
00000190: 84db 503d 99ff 5f3d 74d8 d23b aeb9 0e3d
000001a0: 7eb2 1b3c 79ce 443b f027 73bc c4fc d83c
000001b0: 8aea bc3c bc58 213c 4d11 043d b88d 9ab7
000001c0: f630 c23c ebc3 59bd 8824 58bd af6d a4bc
000001d0: f0a5 01bc a298 81bc 1926 29bd 0249 9cbc
000001e0: ad47 e53b ea9f debb a053 69bd 7d8a 4fbd
000001f0: 10af 26bd 82c4 113c 9cf5 d7bb 1b30 2e3c
00000200: 1476 0bbc 3980 20bc df73 b43c fb66 003c
00000210: 8c59 c73c 2abd c33c fefc 75bc 62ea d03c
00000220: e41d 2ebc a70a 71bc 496a 993c 3cf3 35bb
00000230: 4d1e 7b3a 94d1 fb3b 42c4 803c 0416 04bd
00000240: 3002 6d3c 64f8 543c 3c86 113c a15e 33bd
00000250: ddfb e33b 8e19 77bd 9fdc 01bd 7b68 33bd
00000260: 182d 873c c1bb 46bd ed27 8cbc b8f1 793c
00000270: 9e6b 1fbc 2f12 e1bc 1da5 e63a 278f 38bd
00000280: 09bf 983c de12 d53c 7c33 49bc ab84 4f3c
00000290: 3da6 a9bc 467c ed3c 1221 edba f9d2 953d
000002a0: 8b24 143d bc65 c43d 410c 13bd fe9d a7bc
000002b0: 3888 81bd 82b3 c4bc c614 b23c ee2d 36bc
000002c0: 0519 3ebb 5575 023c ad4e d63c d220 ae3c
000002d0: 37a4 c83c 867a 9ebc d308 48bc 2a4c 2dbd
000002e0: 2a25 c2bc a273 c1bb dcce 91bc 0bde 75bd
000002f0: 48b1 87bd a79f 66bd ad9a 7b3b e112 d8bb
00000300: 7b53 70bd 9693 47bd e1d9 51bd b3c7 3cbc
00000310: 91ef 1cbd dac3 53b9 8fca 1dbb cd8c 7fbd
00000320: a50d cf3c 7b38 abbb ef2f f93c fe20 59bc
00000330: e886 88bc 66af d6bc 56ea fbbc 4d29 f6bc
00000340: f167 4fbd f421 44bd d83b 62bb b604 a33b
00000350: 263a 16bd a8ab b5bd f6b5 8fbc fc6b 92bd
00000360: 6b61 70bc 5adb 6ebd 999b 80bd b1b6 e7bc
00000370: c796 06bd 61b3 103b facf 39bc 5081 25bd
00000380: 7394 18bd 9723 45bb 628e 093d 96e4 59bc
00000390: 76a1 01bc d651 363d bbb5 003d 148e 883c
000003a0: cbe1 873b e2bd 4ebc 7210 ccbc c7b5 d03a
000003b0: 5f93 adbc 84e5 63bd ca9a 20bd 080c 2abc
000003c0: edac 67bc b503 87bd 8b59 57bd 7431 5cbd
000003d0: 571c b3bd b15f c0bc dc07 e13b 3a48 d6bb
000003e0: 2fd1 88bd fc93 87bd 8cd3 08bd 4634 3bbd
000003f0: ab15 99bb 5461 7bbc e868 573c aea1 213c

conv6.bias f4 [30]
0.03494877 0.016266495 -0.022184033 -0.035972334 0.018772708 -0.0023966506 -0.008974095 -0.023423174
-0.004147923 0.029947445 0.0048579867 -0.02507472 0.012403789 -0.01694852 -0.011430823 0.0022155524
0.026256625 0.016139718 -0.017835468 0.03664201 -0.03923878 0.038608983 -0.004272955 -0.0056259185
-0.00030704562 0.0074118553 -0.0073404834 -0.014509431 -0.02314326 -0.017804846
00000000: 7126 0f3d 5041 853c 4abb b5bc ba57 13bd
00000010: 39c9 993c 2011 1dbb 1508 13bc f5e1 bfbc
00000020: 4deb 87bb 5854 f53c bf2f 9f3b 8069 cdbc
00000030: 4339 4b3c 9fd7 8abc 5948 3bbc cd32 113b
00000040: 2218 d73c 7137 843c b01b 92bc ef15 163d
00000050: d8b8 20bd 7424 1e3d 2504 8cbb a059 b8bb
00000060: f7fa a0b9 26df f23b 7088 f0bb f7b8 6dbc
00000070: ef96 bdbc 78db 91bc

bn1.weight f4 [10]
1.0325823 1.0333585 0.9697113 0.9834518 0.9668432 1.0209699 0.95606625 1.0334401
0.9629486 1.0003052
00000000: a82b 843f 1745 843f 003f 783f 7fc3 7b3f
00000010: 0983 773f 24af 823f c2c0 743f c447 843f
00000020: cd83 763f 000a 803f

bn1.bias f4 [10]
-0.009426079 -0.004115286 0.0056457836 -0.05619631 -0.05441919 0.023637041 -0.059730876 0.03493476
-0.045787174 -0.031465974
00000000: d76f 1abc 85d9 86bb 4400 b93b 1a2e 66bd
00000010: a8e6 5ebd 78a2 c13c 5da8 74bd c017 0f3d
00000020: 558b 3bbd 77e2 00bd

bn1.running_mean f4 [10]
0.2852695 -0.3712258 0.1776386 0.41391024 0.58760977 -0.32564172 -0.31878784 -0.25690386
0.33048302 0.082427464
00000000: d80e 923e 4f11 bebe e5e6 353e 0bec d33e
00000010: 986d 163f 83ba a6be 2938 a3be e788 83be
00000020: 1235 a93e bbcf a83d

bn1.running_var f4 [10]
0.5256453 0.2850573 1.0300773 1.2219101 1.1307234 0.95509785 1.9211838 0.11694191
0.24760616 1.3383614
00000000: b190 063f 08f3 913e 93d9 833f 8d67 9c3f
00000010: 8bbb 903f 4b81 743f 5ae9 f53f 3d7f ef3d
00000020: 788c 7d3e 6d4f ab3f

bn2.weight f4 [20]
1.0390807 0.9547925 1.0282801 1.0124024 1.0813248 0.9330855 0.9346529 1.0045649
0.9710484 1.044009 0.97271895 0.9851073 1.010222 0.97807074 0.9714823 1.0089926
0.98695284 0.9891402 0.9581934 0.9833367
00000000: 9900 853f 486d 743f af9e 833f 6796 813f
00000010: da68 8a3f b1de 6e3f 6a45 6f3f 9595 803f
00000020: a196 783f 16a2 853f 1c04 793f fe2f 7c3f
00000030: f44e 813f d862 7a3f 10b3 783f ab26 813f
00000040: f1a8 7c3f 4b38 7d3f 2a4c 753f f4bb 7b3f

bn2.bias f4 [20]
-0.028892463 -0.12331833 0.12960798 0.064161584 0.053681843 -0.12544642 -0.13921222 0.017739268
-0.104922816 0.10443872 0.034961514 -0.01405412 0.105152905 -0.032504868 -0.010349399 0.06969644
0.04202963 -0.15769616 -0.028181165 -0.039838903
00000000: e3af ecbc 528e fcbd f4b7 043e 2667 833d
00000010: 7ee1 5b3d 0775 00be a68d 0ebe f151 913c
00000020: c6e1 d6bd f8e3 d53d ce33 0f3d 4043 66bc
00000030: 685a d73d d323 05bd 8790 29bc 02bd 8e3d
00000040: 4327 2c3d 1a7b 21be 30dc e6bc 1e2e 23bd

bn2.running_mean f4 [20]
0.7047714 1.1925164 -1.3918041 -1.1194283 -2.224493 1.5607909 0.34122506 0.9651279
1.4525459 -1.1643422 -0.7370842 -0.099738754 -1.9181079 -0.17754552 0.22602402 -1.7666059
-1.0835446 1.3716576 0.14099042 0.6074893
00000000: e66b 343f 61a4 983f a326 b2bf 6d49 8fbf
00000010: 185e 0ec0 ffc7 c73f 0db5 ae3e 9f12 773f
00000020: 06ed b93f 2a09 95bf 8db1 3cbf d543 ccbd
00000030: 8f84 f5bf 7ece 35be d772 673e 2420 e2bf
00000040: 97b1 8abf 7a92 af3f cb5f 103e 6b84 1b3f

bn2.running_var f4 [20]
5.9412055 3.9579587 10.663676 7.093894 4.8124576 3.3862796 3.6122396 2.8398721
5.4122066 7.0299277 4.0827518 1.7564555 3.0417647 2.6758487 4.1739073 6.361012
3.8574967 4.4574604 2.311957 3.0628889
00000000: 5b1e be40 324f 7d40 6b9e 2a41 2e01 e340
00000010: a7ff 9940 ceb8 5840 ef2e 6740 77c0 3540
00000020: cc30 ad40 2bf5 e040 e7a5 8240 89d3 e03f
00000030: 46ac 4240 1b41 2b40 a690 8540 698d cb40
00000040: 3ae1 7640 84a3 8e40 1af7 1340 5f06 4440

bn3.weight f4 [30]
0.80438346 0.6632442 0.80379283 0.8453225 0.8064165 0.8265265 0.82587665 0.88687336
0.8223325 0.85715157 0.81068397 0.8314464 0.86719525 0.86131036 0.8778847 0.8422957
0.84823924 0.82483065 0.8429543 0.83994806 0.8460287 0.8471729 0.85422033 0.80016017
0.88569117 0.8270272 0.8361437 0.840003 0.81077963 0.8560326
00000000: 13ec 4d3f 5fca 293f 5ec5 4d3f 0e67 583f
00000010: 5071 4e3f 3e97 533f a76c 533f 220a 633f
00000020: 6284 523f 496e 5b3f fc88 4f3f acd9 543f
00000030: 8200 5e3f d67e 5c3f 0dbd 603f b1a0 573f
00000040: 3526 593f 1a28 533f dacb 573f d606 573f
00000050: 5695 583f 53e0 583f 2fae 5a3f 4cd7 4c3f
00000060: a8bc 623f 0eb8 533f 830d 563f 700a 573f
00000070: 418f 4f3f f424 5b3f

bn3.bias f4 [30]
-0.1548335 -0.19262107 -0.19295414 -0.21104862 -0.2012612 -0.20266362 -0.1000185 -0.22094637
-0.20608342 -0.15107334 -0.16511457 -0.057741877 -0.058518138 -0.16794106 -0.15282136 -0.2069719
-0.22115053 -0.21424343 -0.21395767 -0.17658275 -0.10008559 -0.089992784 -0.21070835 -0.2072262
-0.21361591 -0.20885639 -0.14462332 -0.11717595 -0.19212678 -0.09019864
00000000: ac8c 1ebe 753e 45be c595 45be 211d 58be
00000010: 6a17 4ebe 0d87 4fbe 80d6 ccbd c43f 62be
00000020: 8807 53be f8b2 1abe cb13 29be bf82 6cbd
00000030: b7b0 6fbd bef8 2bbe 347d 1cbe 71f0 53be
00000040: 4975 62be a162 5bbe b817 5bbe 1cd2 34be
00000050: acf9 ccbd 234e b8bd eec3 57be 1b33 54be
00000060: 21be 5abe 73de 55be 2318 14be f2f9 efbd
00000070: e2bc 44be 11ba b8bd

bn3.running_mean f4 [30]
-1.2318463 0.11118928 -1.0525172 -0.9544799 -0.43268645 -0.8657797 -1.0759636 0.24727552
0.053122416 -0.5995419 -0.84521896 -0.88194764 -0.9515025 0.16236916 -0.7299299 0.18944739
-0.08227928 0.04537389 0.121901125 -0.6476371 -0.7799833 -1.7911493 -1.3740203 -0.90455383
0.067719445 -0.37829673 -0.12466027 -0.90712446 0.19457278 -1.0538133
00000000: 24ad 9dbf 35b7 e33d e2b8 86bf cb58 74bf
00000010: 1489 ddbe bda3 5dbf 2db9 89bf cb35 7d3e
00000020: e496 593d 947b 19bf 4560 58bf 52c7 61bf
00000030: ab95 73bf 1a44 263e b0dc 3abf 7ffe 413e
00000040: 0a82 a8bd f9d9 393d 4ca7 f93d 8ccb 25bf
00000050: fcac 47bf 6144 e5bf e6df afbf d790 67bf
00000060: 7eb0 8a3d 1cb0 c1be e24d ffbd 4f39 68bf
00000070: 163e 473e 5be3 86bf

bn3.running_var f4 [30]
9.218157 6.332266 12.841287 11.997115 8.909428 9.218514 9.129958 10.002958
7.14323 10.853505 13.050842 5.942113 12.443076 8.527775 5.935055 12.510744
8.232381 9.054069 15.3759575 11.82664 5.1604943 10.041725 6.80184 8.299167
12.708287 13.57717 8.541507 11.612608 6.3944235 11.550747
00000000: 927d 1341 eca1 ca40 e975 4d41 2ff4 3f41
00000010: 048d 0e41 097f 1341 4f14 1241 1e0c 2041
00000020: 5795 e440 f5a7 2d41 40d0 5041 ca25 be40
00000030: d716 4741 c471 0841 f8eb bd40 022c 4841
00000040: d5b7 0341 77dd 1041 ec03 7641 eb39 3d41
00000050: c522 a540 e8aa 2041 aca8 d940 63c9 0441
00000060: 2555 4b41 173c 5941 03aa 0841 3ecd 3941
00000070: 1e9f cc40 dccf 3841
