mlops_project/outputs/2022-05-26/12-43-08/models/baseline.pth (torch, 329102 bytes, 26 tensors)

conv1.weight f4 [10, 3, 5, 5]
0	0xbcb0946d	-0.02155515
1	0xbc6cd4b9	-0.014455014
2	0xbd3b0bb1	-0.045665447
3	0x3d5a0a1e	0.053232305
4	0xbe010054	-0.12597781
5	0x3e09ef0f	0.134701
6	0xbda01876	-0.078171656
7	0xbd9f1bd4	-0.0776898
8	0xbda4747e	-0.080300316
9	0x3d011bcc	0.03152065
10	0x3a884fff	0.0010399817
11	0x3d810821	0.063003786
12	0xbdaeaaec	-0.085286945
13	0xbd81d12b	-0.06338724
14	0xbd3583cb	-0.04431514
15	0x3c36b7b2	0.011152195
16	0xbd935de1	-0.0719564
17	0x3df9252b	0.12165292
18	0x3c5e85ff	0.013581752
19	0x3d0b2f8e	0.0339809
20	0x3def8d57	0.1169688
21	0x3cf884e8	0.030336812
22	0x3d6ca917	0.057778444
23	0x3e0ca33c	0.13734144
24	0xbda6a10b	-0.08136185
25	0x3c9bbf7d	0.019012207
26	0xbdaa5cac	-0.08318457
27	0x3de899fd	0.11357496
28	0x3df84120	0.121217966
29	0xbe08ce37	-0.13359915
30	0x3dd01efe	0.10162161
31	0x3d22a0e2	0.03970421
32	0x3d995640	0.07487154
33	0x3d545be6	0.051845454
34	0x3da2f391	0.07956613
35	0xbd095d6f	-0.03353637
36	0xbdfec226	-0.124393746
37	0xbd302c37	-0.043010917
38	0xbda9c9ee	-0.08290468
39	0x3c5e2e47	0.013560838
40	0xbd8b8c85	-0.06813911
41	0xbdef2582	-0.11677076
42	0xbc5dcc75	-0.013537516
43	0x3e006950	0.12540174
44	0xbc27c0a5	-0.010238801
45	0xbd4465dc	-0.047948703
46	0xbdaf9316	-0.08572976
47	0xbc7632d1	-0.015026764
48	0x3dc37637	0.09544032
49	0x3d1078b4	0.03527136
50	0x3d0c385b	0.034233432
51	0x3c9d191a	0.019177008
52	0x3da2da14	0.07951751
53	0x3da1bba9	0.078971215
54	0xbd28a77e	-0.041175358
55	0xbdb0ac5e	-0.086266264
56	0xbd5cb835	-0.05388661
57	0x3e1a7c6f	0.1508653
58	0x3c74e96d	0.014948231
59	0xbde8e63b	-0.11372038
60	0x3d04f155	0.032456715
61	0x3ddf3da7	0.10900431
62	0xbdd05f86	-0.1017447
63	0xbdb2f921	-0.08738924
64	0xbd42d32a	-0.047564663
65	0xbaf70614	-0.0018846416
66	0xbd236fee	-0.039901666
67	0xbc09c99b	-0.008409883
68	0xbdeac954	-0.114641815
69	0x3d4dabf5	0.05021282
70	0x3dd2429f	0.10266613
71	0x3d56473e	0.052314036
72	0xbdcba2f7	-0.099431925
73	0xbdde4a1e	-0.108539805
74	0x3c8ad56b	0.016947469
75	0xbd9e666d	-0.0773438
76	0xbbf6a8d4	-0.00752745
77	0xbe21ed57	-0.15813194
78	0xbdd6efc8	-0.104949534
79	0x3cbd0f85	0.02307869
80	0xbc3a75b5	-0.011380603
81	0xbc73200c	-0.014839184
82	0x3bf0718f	0.007337756
83	0xbd347cf3	-0.044064473
84	0xbdc3b432	-0.09555854
85	0xbe075481	-0.1321583
86	0xbdbe0ef7	-0.09280198
87	0x3db20b90	0.086936116
88	0x3d65c21b	0.056093317
89	0x3ceb6abd	0.02873742
90	0xbe16b361	-0.14716865
91	0x3da85d47	0.08220916
92	0x3d3b64e3	0.04575051
93	0x3d56f4a5	0.052479405
94	0xbda5d6d3	-0.08097615
95	0xbd454e01	-0.048170093
96	0x3da439b2	0.08018817
97	0x3d9bef09	0.07613952
98	0x3d56bda3	0.052426945
99	0xbd71d19f	-0.0590378
100	0x3d2865c9	0.041112695
101	0xbde60f6b	-0.112334095
102	0xbc3b0f2b	-0.011417191
103	0xbe1146f0	-0.14187217
104	0xbd8aa839	-0.06770367
105	0xbd3ebde7	-0.046567824
106	0x3d076bb9	0.033061717
107	0x3e0496cf	0.12948154
108	0x3d79902c	0.06092851
109	0x3a08f3e6	0.0005224332
110	0x3d5d3d6c	0.054013655
111	0xbd0115e7	-0.03151503
112	0x3dcdf8ff	0.10057258
113	0x3d07c404	0.03314592
114	0x3bc0ab34	0.005879784
115	0x3c16e2c3	0.009209338
116	0xbd441fbf	-0.047881838
117	0x3d97cf3a	0.07412572
118	0x3d55b549	0.05217484
119	0x3da52a26	0.0806468
120	0xbd851fb9	-0.06500191
121	0x3d42c9ba	0.047555663
122	0x3e1acc62	0.15117028
123	0xbd927fc0	-0.07153273
124	0x3d8ab8ab	0.06773504
125	0xbe06f054	-0.13177615
126	0xbc420177	-0.01184117
127	0xbbd44524	-0.006477969
128	0xbd095da6	-0.033536576
129	0x3da400d0	0.080079675
130	0xbdcc72ab	-0.09982809
131	0x3b4456b8	0.0029958915
132	0xbc5dcf00	-0.013538122
133	0xbdbbc284	-0.0916796
134	0xbc1ddacb	-0.009634684
135	0xbe11c2bd	-0.14234443
136	0x3cca0e9e	0.024665173
137	0x3c6b778c	0.014371764
138	0x3d2295b6	0.039693557
139	0x3b33949b	0.0027401808
140	0xbd0fe53c	-0.035130724
141	0xbd35d75c	-0.044394836
142	0x3d5a694c	0.053323075
143	0x3df3ca83	0.119038604
144	0x3ce79026	0.028266978
145	0xbdd08171	-0.10180939
146	0xbdd1b7e0	-0.102401495
147	0x3c87af8b	0.016563198
148	0xbdcd8eab	-0.100369774
149	0xbdc59dae	-0.09649216
150	0xbd49fbc7	-0.04931238
151	0xbcf08557	-0.029360456
152	0x3d1e15ba	0.03859494
153	0x3ddd30ee	0.10800348
154	0x3cf8bb36	0.030362707
155	0x3e17d038	0.14825523
156	0xbd3f9388	-0.046771556
157	0x3c8d4bca	0.017248053
158	0xbdfb79b9	-0.12279076
159	0x3d5281c4	0.051393285
160	0x3db4fe0c	0.08837518
161	0x3e143aae	0.1447551
162	0xbd9c230c	-0.07623872
163	0x3dadb3c1	0.08481551
164	0x3d9aa41d	0.075508334
165	0x3e0fd8a9	0.14047493
166	0x3cf5ba6a	0.029996116
167	0x3df24044	0.11828664
168	0x3d9c744f	0.076393716
169	0x3d33ab24	0.043864384
170	0x3c4ddff0	0.012565598
171	0xbdad4ac2	-0.084615245
172	0xbad1975c	-0.0015990543
173	0x3c19f740	0.009397328
174	0xbe055558	-0.13020837
175	0xbd85b251	-0.06528152
176	0xbe0106f8	-0.12600315
177	0xbcbcf7d9	-0.023067402
178	0x3e09b649	0.13448443
179	0x3d16922a	0.036760487
180	0x3a74bb38	0.0009335759
181	0xbc52669c	-0.012841847
182	0x3d6d9d52	0.05801136
183	0xbdfcdbbf	-0.12346601
184	0xbdb079f0	-0.08617008
185	0xbd3c0fb7	-0.045913424
186	0xbdc741df	-0.09729361
187	0x3d057c01	0.032588962
188	0x3d8a0c4a	0.06740625
189	0xbdf7ce87	-0.12099939
190	0xbe01b042	-0.12664893
191	0xbe29dd7c	-0.16588396
192	0x3ca17a36	0.019711595
193	0x3db82b95	0.089926876
194	0xbdccc62d	-0.099987365
195	0xbdae7d6e	-0.085200176
196	0xbba448d0	-0.0050135627
197	0xbdc70665	-0.097180165
198	0x3dd0aca9	0.10189182
199	0x3d0282c8	0.031863004
200	0xbbb5a448	-0.0055432655
201	0x3d13258e	0.035924487
202	0x3d9ea6f2	0.07746686
203	0xbc2deb4f	-0.010615184
204	0xbdb4313b	-0.087984525
205	0x3d137b87	0.036006477
206	0x3cf853b9	0.03031336
207	0x3cb874a6	0.02251656
208	0xbcca510d	-0.024696851
209	0x3d8d99b0	0.06914079
210	0xbb3428cf	-0.0027490144
211	0x3bc3aee4	0.0059717763
212	0x3d5a9ab6	0.0533702
213	0xbd9e08ef	-0.07716548
214	0x3c9a119e	0.018807229
215	0xbb8ffb81	-0.0043939953
216	0x3d7d5710	0.061850607
217	0xbd522f89	-0.051314864
218	0x3c47e93f	0.012201606
219	0x3c543a52	0.012953358
220	0xbd947c56	-0.07250278
221	0xbd868c93	-0.06569781
222	0x3d860954	0.06544748
223	0xbc4d1f73	-0.012519705
224	0x3db48d06	0.088159606
225	0xbddf8bb7	-0.1091532
226	0xbd8ccc62	-0.068749204
227	0xbde21ec9	-0.11041028
228	0x3d81fb0a	0.0634671
229	0x3c02fe33	0.007995176
230	0xbc58c853	-0.013231355
231	0xbd28f0b2	-0.04124517
232	0xbde96588	-0.11396319
233	0x3d402da8	0.04691854
234	0x3c907808	0.01763536
235	0xbd7a894f	-0.061166104
236	0x3d0336cc	0.03203468
237	0xbc7c95c1	-0.0154165635
238	0xbdc24dae	-0.094874725
239	0x3daaf3a7	0.08347254
240	0x3dc3428d	0.09534178
241	0xbc7281c2	-0.0148014445
242	0xbd8da5ec	-0.06916413
243	0x3d4a1686	0.049337886
244	0x3ded21c3	0.11578705
245	0x3e066771	0.13125397
246	0xbda6bd2e	-0.08141552
247	0xbd4cc610	-0.049993575
248	0x3e07c4c7	0.13258658
249	0x3d9139ad	0.07091079
250	0x3d0e9fff	0.034820553
251	0xbdc8bbb9	-0.0980143
252	0x3d7fb5c7	0.062429216
253	0xbdc56285	-0.09637932
254	0xbc3cfb9a	-0.011534596
255	0xbcaf539a	-0.021402169

conv1.bias f4 [10]
0	0xbda830d8	-0.08212441
1	0x3c81c1e7	0.01583953
2	0xbe07f8a7	-0.13278447
3	0x3d3cdd4c	0.046109483
4	0xbe34d47c	-0.17659181
5	0xba950cda	-0.0011371628
6	0x3c233125	0.009960447
7	0x3b9ccf16	0.0047854288
8	0x3d8ee5d8	0.06977433
9	0x3dfe1f8a	0.12408359

conv2.weight f4 [10, 10, 5, 5]
0	0xbdbfe38e	-0.093695745
1	0x3d8903b8	0.066901624
2	0xbdb9ba68	-0.09068757
3	0xbda8b003	-0.082366966
4	0xbca3807e	-0.01995873
5	0x3bd649c7	0.0065395567
6	0x3d87964d	0.066204645
7	0xbd3ae8a1	-0.04563201
8	0xbda2fa2a	-0.07957871
9	0xbd0c7096	-0.034287058
10	0xbd906bec	-0.070518345
11	0x3d734a7c	0.059397206
12	0xbd40aaa9	-0.047037754
13	0xbdac36cf	-0.084088914
14	0xbd4f1b46	-0.05056312
15	0xbacc37d7	-0.0015580606
16	0x3dfca775	0.123366274
17	0x3d096fa7	0.033553746
18	0xbd0b1552	-0.03395588
19	0x3db73cef	0.08947169
20	0xbccf8cbb	-0.02533566
21	0x3dbd8ba0	0.09255147
22	0x3c9e51fa	0.019326199
23	0x3d63c4aa	0.055607475
24	0x3d3fe54f	0.046849545
25	0xbd7d252f	-0.06180304
26	0x3d68bd25	0.056821007
27	0xbc59937c	-0.013279792
28	0xbd6d61dc	-0.057954654
29	0xbd3b4869	-0.045723353
30	0xbd2483ab	-0.04016463
31	0xbd1e6dcf	-0.03867894
32	0x3da425f5	0.08015052
33	0xbd2d7e81	-0.04235697
34	0x3d00aaa6	0.031412743
35	0x3d1e5d8b	0.03866343
36	0x3d52865c	0.051397666
37	0x3d985edc	0.07439968
38	0xbc3b81d2	-0.011444526
39	0xbd9d5e31	-0.07683981
40	0x3c7624e9	0.0150234485
41	0xbd58eeca	-0.052962102
42	0x3d1193a8	0.035541207
43	0xbd17ad02	-0.037030227
44	0x3cd8ba5a	0.026456047
45	0x3cc9323e	0.02456009
46	0xbbd6b7b8	-0.0065526627
47	0xbb88ed23	-0.0041786595
48	0x3d35cde2	0.0443858
49	0xbcdc895a	-0.026920963
50	0xbd228408	-0.039676696
51	0x3bce3be5	0.006293761
52	0xbd823fc5	-0.06359819
53	0x3d465d75	0.04842897
54	0x3da0a773	0.078444384
55	0xbbd5141c	-0.0065026414
56	0x3d7ba31c	0.06143485
57	0x3c8b9143	0.01703704
58	0xbd59fc82	-0.053219326
59	0x3cd1fd18	0.02563338
60	0xbc34c51e	-0.0110333245
61	0xbbb1d440	-0.0054269135
62	0xbd9fb3af	-0.07797944
63	0xbd8fbecd	-0.07018814
64	0x3c4fd004	0.012683872
65	0xbd07c257	-0.03314432
66	0xbcf6a024	-0.030105658
67	0xbdc87c1f	-0.09789299
68	0xbd55b6c6	-0.05217626
69	0x3d334607	0.043767955
70	0x3c0ac8bc	0.00847071
71	0xbc9a46de	-0.01883262
72	0x3d0549b5	0.032540996
73	0xbd38c734	-0.04511185
74	0x3c4ac2b0	0.012375519
75	0x3d564bd7	0.05231842
76	0xbc8865ad	-0.016650045
77	0xbcd0df76	-0.02549718
78	0xbd02b6b3	-0.031912517
79	0xbd5f4b1b	-0.054514986
80	0xbc9ef7ee	-0.019405331
81	0x3c5e4b02	0.013567688
82	0xbdf85414	-0.12125412
83	0x3d459a2b	0.04824273
84	0xbd0ba300	-0.034090996
85	0xbd4275b0	-0.047475517
86	0x3cb76268	0.022385791
87	0xbddf8446	-0.10913901
88	0x3bd85f24	0.0066031385
89	0xbcc88925	-0.024479458
90	0x3d1e24e6	0.038609408
91	0xbdb4aa90	-0.08821595
92	0xbc97605f	-0.01847857
93	0x3a9425c0	0.0011302754
94	0x3c031db8	0.008002691
95	0x3da82131	0.08209456
96	0x3d56d84a	0.052452363
97	0x3c1e8b0e	0.009676708
98	0x3d11d43c	0.035602793
99	0x3d891eec	0.06695351
100	0x3d63941d	0.055561174
101	0x3daf81a3	0.08569648
102	0xbde29e44	-0.11065343
103	0x3cfd1f0b	0.030898592
104	0x3cc2c36c	0.023774825
105	0x3d6d5532	0.057942577
106	0x3d2ee91e	0.042702787
107	0xbce17991	-0.027523788
108	0xbd552fcc	-0.052047536
109	0xbcb8a4b4	-0.022539474
110	0x3ad26535	0.001605189
111	0x3db0c6f0	0.08631694
112	0xbdae4b72	-0.08510484
113	0xbcabc773	-0.020969128
114	0xbca161d2	-0.019699965
115	0xbd358177	-0.04431292
116	0xbd1f9c0e	-0.038967185
117	0xbdb8acc9	-0.09017331
118	0xbd96ba75	-0.073597826
119	0xbd628dd5	-0.055311043
120	0xbcba1271	-0.022713872
121	0x3d8e9431	0.06961859
122	0xbdb5d187	-0.08877855
123	0xbd84786d	-0.06468282
124	0xbcfc0911	-0.030766042
125	0xbc0286a7	-0.007966674
126	0x3d0bd374	0.034137204
127	0xbd6e4445	-0.058170576
128	0xba89c30b	-0.0010510398
129	0x3d34f9f7	0.044183698
130	0xbdac366d	-0.084088184
131	0x3d0d3001	0.03446961
132	0xbd8b229b	-0.0679371
133	0x3d3609de	0.044443004
134	0x3d77f30e	0.06053453
135	0x3c139d44	0.009009663
136	0xbd9bc492	-0.07605852
137	0xbd50d9a0	-0.050988793
138	0x3d95e7c1	0.07319594
139	0xbd91f5ae	-0.07126938
140	0x3d4d581c	0.050132856
141	0xbd95bf6c	-0.073119015
142	0xbd4c5e68	-0.04989472
143	0x3d0c173f	0.034201857
144	0xbdd84fc2	-0.105620876
145	0xbd77d00e	-0.06050115
146	0xbbceda2a	-0.0063126283
147	0xbd851058	-0.06497258
148	0xbc8507d5	-0.016239086
149	0x3b92aa08	0.0044758357
150	0x3d4ecd56	0.050488792
151	0xbd224836	-0.039619647
152	0xbbe060e4	-0.0068474878
153	0xbd7d8a67	-0.06189957
154	0xbbb9597f	-0.0056564207
155	0x3d2c8154	0.042115524
156	0x3d0409a4	0.032235757
157	0x3d7498f6	0.059716187
158	0x39fc9791	0.0004817811
159	0xbbf2a80f	-0.007405288
160	0x3c9c1795	0.019054214
161	0xbc825cc7	-0.01591338
162	0xbd9257fb	-0.07145687
163	0xbd99ca26	-0.0750926
164	0x3dc3a586	0.095530555
165	0xbd2a5867	-0.041588213
166	0x3d46cc3e	0.048534624
167	0xbd890fba	-0.06692453
168	0x3d0f8809	0.035041843
169	0xbc9fd17c	-0.01950907
170	0x3cb00c45	0.021490226
171	0xbd9ad692	-0.07560457
172	0xbd40b14f	-0.047044095
173	0xbcf6a695	-0.03010873
174	0x3c80e15a	0.015732456
175	0xbce0cd68	-0.027441695
176	0xbcfa630b	-0.030564805
177	0x3b3ed97f	0.0029121337
178	0x3d3690ad	0.044571567
179	0xbd9f274f	-0.077711694
180	0xbd44e131	-0.04806632
181	0x3c52f5cd	0.012875986
182	0xbb401e62	-0.0029314985
183	0xbcc5553a	-0.02408849
184	0xbd1b3d93	-0.03790052
185	0x3d5ec863	0.054390322
186	0xbd8fe8d3	-0.070268296
187	0x3d2593e3	0.04042424
188	0x3ca9ef0c	0.02074387
189	0xbd746c06	-0.05967333
190	0xbcf860e4	-0.030319639
191	0xbd11c3ea	-0.03558723
192	0xbd40bc62	-0.047054656
193	0xbd7ad769	-0.061240587
194	0x3ce0cefb	0.027442446
195	0x3d704182	0.058656223
196	0x3bef8533	0.0073095798
197	0x3c99909c	0.018745713
198	0x3d22ec46	0.03977611
199	0x3c2a30ee	0.010387642
200	0x3dd708b2	0.104997054
201	0x3cb03b43	0.021512633
202	0xbdfd5109	-0.12368972
203	0x3de9e20d	0.11420069
204	0x3c6ed957	0.014578185
205	0xbbe6c595	-0.0070425966
206	0xbbb7b81a	-0.0056066634
207	0xbdf4dd52	-0.11956276
208	0xbc45606b	-0.012046914
209	0x3c3c0446	0.011475628
210	0x3d2a5306	0.041583084
211	0xbd6e0eb5	-0.058119494
212	0xbd3f5cd7	-0.0467194
213	0x3dda53b0	0.106604934
214	0x3cce6999	0.025196837
215	0xbc249c1f	-0.010046988
216	0xbd2bd51b	-0.04195128
217	0xbe234b4c	-0.15946692
218	0xbc308752	-0.01077445
219	0xbdaa9cf5	-0.083307184
220	0x3d78104c	0.060562417
221	0x3dee97bf	0.11650037
222	0x3d1c6dd1	0.038190667
223	0x3ced89df	0.028996406
224	0xbcd75237	-0.02628432
225	0x3c1ee345	0.00969774
226	0x3c15da9a	0.009146357
227	0x3caf1138	0.021370515
228	0xbda2897a	-0.07936378
229	0x3d9a7a3f	0.07542848
230	0xbd61516b	-0.055009287
231	0xbb7c7534	-0.0038522007
232	0x3da453a9	0.080237694
233	0xbd2147ce	-0.03937512
234	0x3b9e3ff5	0.0048294016
235	0x3b648107	0.0034866945
236	0xbd4cf227	-0.050035622
237	0x3d5d40ca	0.054016866
238	0x3c5502f7	0.013001195
239	0x3b166780	0.0022949874
240	0x3c3f71ed	0.011684877
241	0xbcec0443	-0.028810626
242	0x3d0013ac	0.03126876
243	0xbd15e01f	-0.03659069
244	0x3dc943e5	0.09827403
245	0xbc92ca38	-0.017918691
246	0x3c4da8cb	0.01255245
247	0x3d168080	0.03674364
248	0x3d36c9b8	0.044625968
249	0xbc676600	-0.01412344
250	0xbda6d2e9	-0.08145697
251	0xbd6fa6e9	-0.058508787
252	0xbdb5ead4	-0.088826805
253	0xbd5cfcba	-0.053951956
254	0xbd682bba	-0.056682326
255	0xbe1096ad	-0.14119978

conv2.bias f4 [10]
0	0x3ca6e49a	0.020372678
1	0xbdb61b3e	-0.08891915
2	0x3ddfac5f	0.10921549
3	0x3cd98891	0.026554378
4	0x3c62bc32	0.013838815
5	0x3d699fa2	0.057037003
6	0x3cab1cdc	0.020887785
7	0x3deb9224	0.115024835
8	0xbd03d36c	-0.03218405
9	0xbd4dc63b	-0.050237875

conv3.weight f4 [20, 10, 5, 5]
0	0xbda2fe12	-0.07958616
1	0xbd687681	-0.05675364
2	0xbdf062fc	-0.1173763
3	0xbc7409ab	-0.014894883
4	0x3beb9acf	0.0071900855
5	0x3d2c303e	0.042038195
6	0xbd9c1472	-0.07621087
7	0xbcdc9b75	-0.026929596
8	0xbda576de	-0.08079313
9	0x3ca7e9c5	0.020497212
10	0xbd172c73	-0.036907624
11	0xbd27e03e	-0.04098534
12	0xbcdde885	-0.027088413
13	0x3d0df834	0.034660533
14	0x3d5fb915	0.054619867
15	0xbd415bdc	-0.047206745
16	0x3c4b59fb	0.01241159
17	0x3c22fd33	0.009948063
18	0xbce90ca0	-0.028448403
19	0xbd70cf2e	-0.058791332
20	0xbd50c227	-0.050966408
21	0xbcda2256	-0.0266277
22	0xbbf5ac53	-0.0074973493
23	0x3cc7a0f5	0.024368742
24	0xbcae5a4a	-0.021283288
25	0x3d3f7f18	0.046752065
26	0x3c8c9fdb	0.017166069
27	0x3d879e8d	0.06622038
28	0xbd495c63	-0.049160372
29	0x3d5524dd	0.05203711
30	0xbc186e58	-0.009303652
31	0x3cd70bf9	0.026250826
32	0x3cf3a375	0.029741028
33	0x3d3f54bd	0.046711672
34	0xbcb757e8	-0.022380784
35	0x3c2160b6	0.009849718
36	0x3c9e5e2d	0.019332016
37	0x3d212b08	0.03934768
38	0xbd56f7a3	-0.05248226
39	0xbcc1750f	-0.023615388
40	0xbd479ba1	-0.048732404
41	0x3d0bf8bd	0.034172762
42	0xbd86741d	-0.065651156
43	0xbd0bfc22	-0.034176
44	0xbcdb2566	-0.026751231
45	0xbd064570	-0.032781065
46	0x3d4d0670	0.050054967
47	0xbd72d35c	-0.0592836
48	0x3cb28ebe	0.02179658
49	0xbbfdabc5	-0.007741424
50	0x3c8401bc	0.016114108
51	0x3d435297	0.047686186
52	0x3d2eb84b	0.042656224
53	0x3d45e273	0.048311662
54	0xbd42e1c6	-0.047578596
55	0xbd80611d	-0.06268523
56	0x3d44cc44	0.048046365
57	0x3d31c007	0.043396022
58	0x3d81ade8	0.06331998
59	0xbd61a102	-0.05508519
60	0xbd11c673	-0.035589647
61	0xbcb56754	-0.022143997
62	0xbd397084	-0.04527332
63	0x3c80da50	0.0157291
64	0xbd21de8e	-0.039518885
65	0xbdbbd488	-0.091713965
66	0xbc6bc637	-0.01439052
67	0xbd7fe610	-0.062475264
68	0xbd21f03c	-0.039535746
69	0xbd9980f2	-0.074952975
70	0xbd5990ec	-0.053116724
71	0xbd8ec19a	-0.0697052
72	0xbce22698	-0.027606294
73	0x3d59af63	0.053145777
74	0x3c9d0767	0.019168569
75	0xbd8aee05	-0.0678368
76	0xbd13d1ce	-0.036088757
77	0xbda1c5c4	-0.07899049
78	0xbd7cc4c7	-0.0617111
79	0xbd942bd9	-0.07234926
80	0x3cf489cb	0.029850861
81	0xbd498e03	-0.0492077
82	0x3cf94c7f	0.030431984
83	0x3b1a26e3	0.0023521713
84	0xbd1c5b44	-0.038172975
85	0xbb79cad3	-0.0038115277
86	0x3d95b3f3	0.07309713
87	0x3bad74db	0.0052934713
88	0xbc82f679	-0.015986668
89	0x3ac266bd	0.0014831644
90	0x3d75532d	0.059893776
91	0xbc799dd0	-0.015235379
92	0x3c885fcd	0.016647244
93	0x3d617b2a	0.0550491
94	0x3cb03842	0.0215112
95	0xbc395ae3	-0.011313173
96	0x3d86f33b	0.06589361
97	0xbcc2b388	-0.023767248
98	0xbbfebc01	-0.0077738767
99	0xba8801c4	-0.0010376503
100	0xbcb16218	-0.02165322
101	0x3be19f66	0.006885457
102	0x3d616f00	0.0550375
103	0xba9b15d8	-0.0011832071
104	0xbd2983e1	-0.041385535
105	0xbb3d83f2	-0.0028917757
106	0xbd8566e5	-0.06513766
107	0x3c9dab38	0.019246683
108	0x3cbe023b	0.023194423
109	0xbd2836ac	-0.041067764
110	0xbcd18e59	-0.025580572
111	0x3c93e964	0.018055625
112	0x3d30088a	0.042976893
113	0xbc918b00	-0.017766476
114	0xbcac1e30	-0.021010488
115	0xbcd9aa7b	-0.02657055
116	0xbd853849	-0.06504876
117	0x3ce97fb2	0.028503273
118	0x3d8cd3db	0.06876346
119	0xbd37aadf	-0.04484069
120	0xbdaa2c95	-0.083092846
121	0xbc9f7df1	-0.019469233
122	0xbd6de6e5	-0.058081526
123	0x3d5912b5	0.052996356
124	0xbd34a340	-0.044101
125	0x3d229c0d	0.039699603
126	0x3da0d8c6	0.07853846
127	0xbb3662c8	-0.0027829874
128	0x3d7ca297	0.061678495
129	0xbc76defa	-0.01506781
130	0xbd81ab29	-0.06331474
131	0xbd49e253	-0.049288105
132	0xbd376261	-0.044771556
133	0xbbf167a2	-0.0073670903
134	0xbd1420f6	-0.036164246
135	0xbd03523b	-0.032060843
136	0xbd54743a	-0.051868655
137	0xbb57bd37	-0.0032919177
138	0xbdb48b49	-0.08815629
139	0xbd9f08de	-0.07765363
140	0x3c063c8b	0.0081931455
141	0xbd1fe6bd	-0.03903841
142	0x3d11e2e7	0.03561678
143	0xbbd9de45	-0.006648811
144	0xbdac249e	-0.08405422
145	0xbc6fff4e	-0.014648272
146	0x3d7cb1c1	0.061692957
147	0xbc96f570	-0.01842758
148	0xbc695fe5	-0.014244054
149	0xbd44ceb1	-0.04804868
150	0x3d241b9e	0.0400654
151	0x3c83f520	0.016108096
152	0x3c9dc19a	0.019257355
153	0x3caed4a1	0.021341624
154	0x3d437fc4	0.04772927
155	0xbceed613	-0.029154813
156	0xbda8a0fe	-0.08233832
157	0xbdbebe4f	-0.09313642
158	0xbc704a8f	-0.014666214
159	0xbdb8cc22	-0.0902331
160	0xb8e37179	-0.000108453394
161	0xbc549ff8	-0.012977593
162	0xbde2da7a	-0.11076827
163	0xbc6b3166	-0.014355039
164	0xbdab5da4	-0.0836747
165	0xb9b9248c	-0.0003531318
166	0xbcf5547f	-0.029947517
167	0x3c46ae80	0.012126565
168	0x3d1a8e69	0.03773347
169	0x3b0ff75c	0.0021967506
170	0x3cb1885b	0.021671465
171	0xbd750db1	-0.05982751
172	0xbc541077	-0.012943379
173	0x3d16d984	0.036828533
174	0x3d1cbae9	0.03826419
175	0x3b77fc1a	0.0037839473
176	0xbc8c173f	-0.017100928
177	0xbcdcf1e0	-0.026970804
178	0x3d9bfc44	0.07616475
179	0x3d00d0fc	0.031449303
180	0x3ce61dae	0.028090324
181	0xbd189733	-0.03725357
182	0xbc45b2f6	-0.012066593
183	0x3d9a6ebb	0.075406514
184	0x3b82b9b3	0.003989422
185	0xbd4ab5a5	-0.049489636
186	0xbc89dc43	-0.016828662
187	0xbd60dfa6	-0.054900788
188	0xbcff133c	-0.031137101
189	0x3d5b8880	0.053596973
190	0xbd6f26b9	-0.05838654
191	0x3ca95511	0.020670446
192	0x3d1fc9e5	0.0390109
193	0x3d1b762b	0.03795449
194	0x3bc51f0f	0.0060156654
195	0xbcffc004	-0.03121949
196	0xbd8418b0	-0.06450021
197	0x3cae86ac	0.02130445
198	0xbd398eb9	-0.045302127
199	0x3c52fc26	0.0128775
200	0x3b0fdaff	0.00219506
201	0xbd7d0b3a	-0.061778285
202	0x3d178f40	0.03700185
203	0x3dbfd4f5	0.0936679
204	0x3d2fb85e	0.042900436
205	0xbc7b08d5	-0.01532193
206	0xbc568920	-0.013094217
207	0xbd53104a	-0.051529206
208	0x3db5306c	0.08847126
209	0x3d9d5a91	0.0768329
210	0x3d5ae386	0.05343964
211	0xbda4e1ff	-0.08050918
212	0x3c3f3a9f	0.011671691
213	0x3c69a22a	0.014259854
214	0x3dc8fb86	0.09813599
215	0xbc9255df	-0.017863212
216	0xbd196e03	-0.03745843
217	0xbd407bc1	-0.04699302
218	0xbc433d12	-0.011916416
219	0x3cef4562	0.029207889
220	0xbc809d84	-0.01570011
221	0xb9cf2966	-0.0003951296
222	0x3c5beb48	0.013422795
223	0xbc6c1486	-0.01440919
224	0x3b804fef	0.003915779
225	0x3d96b938	0.073595464
226	0x3d90b7f3	0.070663355
227	0x3dbf6782	0.093459144
228	0xba14a7c3	-0.00056707504
229	0x3d7646b7	0.060126033
230	0xbb8f6efd	-0.0043772445
231	0x3de5d730	0.112226844
232	0x3dc42045	0.095764674
233	0x3dbab63e	0.09116791
234	0x3da2d771	0.079512484
235	0xbd59b9d8	-0.05315575
236	0xbcfbe73c	-0.03074991
237	0x3d6f3ad2	0.058405705
238	0x3ce947a0	0.028476536
239	0x3dae9836	0.08525126
240	0x3ce9184b	0.028453967
241	0xbc7122c7	-0.014717764
242	0x3cf146c4	0.029452689
243	0x3c8f8599	0.017519759
244	0xbcedc252	-0.029023323
245	0xbd8dbd9c	-0.06920931
246	0xbc9fc720	-0.01950413
247	0x3d1b0883	0.037849914
248	0x3c85783f	0.01629269
249	0xbd42c23f	-0.04754853
250	0x3d7b6375	0.061374146
251	0x3d019b44	0.031642213
252	0xbcafa6e6	-0.021441888
253	0x3c3d9bd1	0.011572794
254	0x3da6dc29	0.08147461
255	0x3d0895a9	0.033345852

conv3.bias f4 [20]
0	0x3caff268	0.021477893
1	0xbd543992	-0.051812716
2	0x3d973e57	0.07384937
3	0xbd12522a	-0.03572289
4	0xbd831a31	-0.0640148
5	0xbbd2b429	-0.006430168
6	0xbd4be40b	-0.049778026
7	0x3d1d0881	0.038338188
8	0x3caf0bb8	0.021367893
9	0xbd3cadc4	-0.046064153
10	0x3d8c9875	0.06865016
11	0x3d5ac076	0.0534062
12	0xbbd26933	-0.006421232
13	0x3b3e454e	0.0029033008
14	0x3d672d37	0.056439605
15	0x3d5c759c	0.0538231
16	0xbb8aedc5	-0.00423977
17	0xbd5d8d07	-0.054089572
18	0x3d6c8c73	0.05775113
19	0x3d63a3b2	0.055576034

conv4.weight f4 [20, 20, 5, 5]
0	0x3cb61f2c	0.02223166
1	0xbb6b34d5	-0.0035889645
2	0x3d504dae	0.05085533
3	0x3c470f61	0.012149663
4	0x3c7c7e8b	0.01541103
5	0x3cba619d	0.022751624
6	0x3c3b7474	0.011441339
7	0x3d145015	0.036209185
8	0xbd0784d6	-0.033085667
9	0x3c71c503	0.014756444
10	0x3d450171	0.048097078
11	0x3be75ca0	0.0070606023
12	0x3d25790c	0.040398642
13	0x3cd2c256	0.025727432
14	0xbca4d751	-0.020122202
15	0xbcc118ce	-0.023571398
16	0xbba05ee8	-0.004894126
17	0x3bc85959	0.0061141667
18	0x3d3a8918	0.0455409
19	0xbb9742af	-0.0046161036
20	0xbc265120	-0.010151178
21	0x3be1c922	0.006890432
22	0x3d51dbf2	0.051235147
23	0xbc1f3081	-0.009716154
24	0x3c55e1f9	0.013054364
25	0xbc9808fc	-0.018558972
26	0xbc24e7b3	-0.010065007
27	0xbd3c4af7	-0.04596993
28	0xbac83a1d	-0.0015276108
29	0x3cdbf815	0.026851693
30	0xbad2fd50	-0.0016097222
31	0xbd2b824b	-0.041872304
32	0x3b17264f	0.0023063605
33	0x3da0a642	0.07844211
34	0x3d8af983	0.06785872
35	0xbc5d9440	-0.013524115
36	0x3ce10b03	0.027471071
37	0x3d92eec1	0.07174445
38	0x3d572306	0.052523635
39	0x3d5d3618	0.054006666
40	0x3c2169e5	0.009851907
41	0x3d9c2485	0.07624153
42	0x3d2ad850	0.041710198
43	0x3dcaf796	0.099105045
44	0xba52dbf3	-0.0008043639
45	0x3c00930e	0.007847561
46	0xbcdf7499	-0.027277278
47	0x3d583110	0.052781165
48	0x3d11ccb5	0.035595614
49	0xbcd63077	-0.026146157
50	0xbcaa4ca9	-0.020788508
51	0xbc3802b5	-0.011231114
52	0xbd1ebeff	-0.038756367
53	0xbcb96ed0	-0.022635847
54	0x381e550f	3.7749352e-05
55	0xbd6f3ca1	-0.05840743
56	0xbdc63760	-0.09678531
57	0xbce4e7a7	-0.027942492
58	0xbc5384ee	-0.012910111
59	0x3ce8734e	0.028375294
60	0xbcbc3ed9	-0.022979187
61	0xbb96adea	-0.004598369
62	0xbc608dcd	-0.013705683
63	0x3d5e8e0e	0.054334693
64	0x3d759bb2	0.059962936
65	0xbc843f2b	-0.016143402
66	0xbd0b11d5	-0.033952553
67	0x3cbfca7d	0.023411984
68	0x3d05386a	0.032524504
69	0x3cae2dcf	0.021262078
70	0xbc848bae	-0.016179886
71	0x3c7c0ccf	0.015383913
72	0x3d09bfcf	0.03363019
73	0x3d446409	0.047946963
74	0x3cd924cb	0.026506802
75	0xbaff9747	-0.001950004
76	0x3d98718a	0.07443531
77	0x3c72128d	0.014774931
78	0xbc032fd9	-0.008007013
79	0xbc8265cf	-0.015917687
80	0x3d62e8a7	0.055397656
81	0x3c86a7ac	0.016437374
82	0xbc81dfc6	-0.015853774
83	0x3cef6055	0.02922074
84	0xbc9ac3e1	-0.01889223
85	0xbce1d8e7	-0.027569247
86	0x3b5f72ec	0.0034095598
87	0x38db3d2c	0.00010454128
88	0xbc33cb42	-0.010973753
89	0xbcd1dfb9	-0.025619375
90	0x3ce3143a	0.027719606
91	0xbc5c8ed6	-0.013461789
92	0xbd199564	-0.037495986
93	0x3d0a8ed5	0.03382762
94	0xbb2e37d3	-0.0026583567
95	0xbd302ecb	-0.043013375
96	0x3ccf5e04	0.025313385
97	0x3c2f7535	0.010709097
98	0x3cfd0b66	0.030889224
99	0x3ceb814a	0.028748173
100	0x3d1abaa4	0.03777565
101	0x3d0a4996	0.033761583
102	0x3a8afec8	0.0010604495
103	0x3d4dd614	0.05025299
104	0xbc221d27	-0.009894646
105	0x3cefbb97	0.029264254
106	0x3d838114	0.06421104
107	0x3d888370	0.06665695
108	0x3d65dffd	0.056121815
109	0x3d955947	0.07292419
110	0x3d81216c	0.06305203
111	0x3aaed32c	0.0013338081
112	0x3d6e47cc	0.05817394
113	0x3c40d436	0.011769345
114	0x3b4a71ac	0.0030890508
115	0x3d1f1cab	0.0388457
116	0x3d2a2341	0.041537527
117	0x3c071b5a	0.008246267
118	0x3d22bec6	0.039732717
119	0x3d338375	0.04382654
120	0x3c61bb52	0.013777571
121	0xbc9b89f7	-0.018986685
122	0xbd218be3	-0.039440047
123	0xbcac88b3	-0.021061277
124	0x3bb8cce6	0.00563966
125	0x3ce9903e	0.028511163
126	0x3c838ed1	0.016059311
127	0x3da49056	0.080353424
128	0x3cafd32c	0.021463
129	0x3c725688	0.0147911385
130	0x3d8c0a5c	0.068379134
131	0x3def73a7	0.11691981
132	0x3d953665	0.072857656
133	0x3d93f120	0.07223725
134	0x3c22455c	0.009904232
135	0x3d54157c	0.0517783
136	0x3c3003c6	0.010743087
137	0x3cfe9e48	0.031081334
138	0x3c400bc5	0.011721556
139	0xbd8f2e1a	-0.06991215
140	0x3d817811	0.06321729
141	0x3d1de190	0.03854519
142	0x3c9135ed	0.01772591
143	0xbd85b523	-0.0652869
144	0xbd226fff	-0.03965759
145	0xbc4154a2	-0.011799963
146	0xbc4e4a0c	-0.012590896
147	0xbcf11719	-0.02942996
148	0xbdb09c69	-0.08623583
149	0xbd507e54	-0.050901726
150	0xbc70f14e	-0.014705969
151	0xbd3f7e42	-0.04675127
152	0xbd2c38c7	-0.042046335
153	0xbc8a7f97	-0.016906543
154	0xbce262e2	-0.027635042
155	0x3cf32a7b	0.029683342
156	0xba447731	-0.00074945675
157	0xbd5b4fa2	-0.05354274
158	0x3c10284e	0.008798672
159	0xbcb73447	-0.022363795
160	0xbc858d2a	-0.016302664
161	0x3d0a067b	0.033697587
162	0x3d18b144	0.03727843
163	0xbd5e6c1b	-0.054302316
164	0xbcaf0d09	-0.02136852
165	0xbc8143a7	-0.01577933
166	0xbb0c5ef0	-0.0021418892
167	0x3cb53555	0.022120157
168	0x3ce85684	0.028361566
169	0x3ccf7c94	0.025327958
170	0xbce9828c	-0.028504632
171	0x3c9a925a	0.018868614
172	0x3c873ad3	0.016507542
173	0x3c370b2f	0.0111721
174	0xbb93f818	-0.004515659
175	0x397a7a69	0.00023887459
176	0x3cac7f14	0.02105669
177	0x3d2c1fb3	0.04202242
178	0xbcbd42fb	-0.023103228
179	0xbbf29a12	-0.0074036205
180	0xbc9094df	-0.017649112
181	0x3d03f37c	0.032214627
182	0xbc9fff7a	-0.019531
183	0x3ba73ad8	0.0051034503
184	0xbc897c96	-0.01678304
185	0xbd76afbf	-0.0602262
186	0xbca40204	-0.020020492
187	0x3c9a9c00	0.018873215
188	0xbc9f3a15	-0.019436875
189	0x3c95214d	0.018204356
190	0xbc79524c	-0.015217375
191	0xbc4119d4	-0.011785943
192	0xbd62d3ff	-0.055377956
193	0x3cb72e3a	0.02236091
194	0x3cb7cb26	0.022435736
195	0xbd459550	-0.0482381
196	0xbd87cee5	-0.06631259
197	0xbd8f1690	-0.06986725
198	0xbd749603	-0.059713375
199	0x3cc8f352	0.024530087
200	0xbc2ced89	-0.01055468
201	0x3d3374f6	0.043812715
202	0x3d47fd8d	0.04882579
203	0x3d29369a	0.041311838
204	0x3ce30aa0	0.027715027
205	0x3d8e1cfd	0.06939123
206	0x3cab2ae6	0.020894479
207	0x3d8ca079	0.06866545
208	0x3cbe9fff	0.023269651
209	0x3d2a9441	0.041645292
210	0x3cd079f7	0.025448782
211	0x3d2df199	0.042466734
212	0xbc9f6c90	-0.019460946
213	0xbd4579de	-0.048211925
214	0xbd41ef48	-0.047347337
215	0x3d80af53	0.062834404
216	0x3d24e53b	0.040257674
217	0x3d1f3616	0.03886994
218	0x3cbf6567	0.023363782
219	0x3c6e1f9e	0.014533905
220	0x3d492076	0.049103223
221	0x3c96b34c	0.018396042
222	0x3851b590	4.9998576e-05
223	0x3d6c2a45	0.0576575
224	0x3c98fe94	0.01867608
225	0xbc7aec50	-0.01531513
226	0x3cacdb49	0.021100657
227	0xbc34ac9f	-0.011027484
228	0x3a7bb9f2	0.0009602598
229	0xbb7102f7	-0.0036775449
230	0x3d48ab9a	0.048991777
231	0x3d3b4b94	0.045726374
232	0x3cc14046	0.023590218
233	0x3d371934	0.04470177
234	0xbc5eb2ce	-0.013592435
235	0x3d4733ce	0.04863339
236	0x3ca0bb74	0.019620635
237	0xbd4a95d7	-0.049459305
238	0x3bb8d00f	0.005640037
239	0xbd4701b4	-0.04858561
240	0xba9b0af8	-0.001182883
241	0x3ca0ea69	0.019643025
242	0xbd919270	-0.07108009
243	0xbd563425	-0.052295823
244	0x3c44c749	0.012010404
245	0xbd3697ee	-0.044578485
246	0xbd89875e	-0.06715272
247	0xbd499004	-0.04920961
248	0xbd99310f	-0.0748006
249	0xbb28e3f6	-0.002577064
250	0xbc33e722	-0.010980399
251	0xbd5a3596	-0.05327376
252	0xbcde167c	-0.02711033
253	0xbb542d6a	-0.0032375702
254	0x3cd500ce	0.02600136
255	0xbd9debe5	-0.07711009

conv4.bias f4 [20]
0	0xbca09364	-0.019601531
1	0x3c74adfb	0.014934058
2	0xbcd494af	-0.025949804
3	0xbd1dfb6e	-0.03856986
4	0x3d477a88	0.04870084
5	0xbcb17907	-0.021664156
6	0x3d90fac0	0.07079077
7	0x3b031372	0.0020000604
8	0xbd63e996	-0.055642687
9	0x3d0d14b1	0.03444356
10	0x3d108eae	0.03529232
11	0x3ca435a5	0.020045111
12	0xbd228678	-0.03967902
13	0x3d00d631	0.03145427
14	0xbdacdbee	-0.08440386
15	0xbd6975a0	-0.05699694
16	0x3bd92014	0.0066261385
17	0x3c00c151	0.00785859
18	0x3d4c9ec0	0.049956083
19	0xbaf241a0	-0.0018482693

conv5.weight f4 [30, 20, 5, 5]
0	0x3d22347f	0.039600845
1	0x3d9688c7	0.07350307
2	0x3d4e0208	0.050294906
3	0x3d313178	0.043260068
4	0xbce90f57	-0.028449697
5	0x3d872cf4	0.06600371
6	0x3cc982a6	0.02459843
7	0xbc92adb0	-0.017905086
8	0xbc5ce59e	-0.013482479
9	0xbc8b33f9	-0.016992556
10	0x3d102d9b	0.035199743
11	0x3c1ec090	0.009689465
12	0xbc3e554c	-0.011617016
13	0xbd3b1853	-0.045677494
14	0xbb87f3b6	-0.0041489257
15	0x3cd60b4d	0.026128436
16	0x3cfbbd42	0.030729894
17	0x3be0c8fe	0.0068598976
18	0xbc9ab4f4	-0.018885113
19	0x3d0cb0d1	0.034348313
20	0xbc91fab8	-0.017819747
21	0xbc65b34d	-0.014019799
22	0x3d680343	0.056643736
23	0x3c6d8c34	0.014498759
24	0x3d79a8a3	0.06095184
25	0xbd199da2	-0.037503846
26	0x3cf7ddce	0.030257132
27	0x3c927d52	0.017882023
28	0x3ba7eb9c	0.0051245224
29	0x3d09cf8b	0.033645194
30	0x3caf18a6	0.021374058
31	0x3cba8828	0.022770002
32	0x3cc52397	0.024064822
33	0x3bf840c1	0.0075760786
34	0xbbff9f7e	-0.0078009954
35	0xbc90b8b9	-0.017666208
36	0xbc0336f4	-0.008008707
37	0xbca98c30	-0.02069673
38	0x3d1f4f2f	0.038893875
39	0x3b14ec05	0.0022723686
40	0xbc307116	-0.010769149
41	0x3d5c3c48	0.053768426
42	0x3dba317a	0.09091468
43	0x3dc4600f	0.09588634
44	0xbc50b136	-0.012737563
45	0x3cb30534	0.021853067
46	0x3bdf6958	0.006817978
47	0x3d07b2f1	0.033129636
48	0xbcadb6e9	-0.021205382
49	0xbc6b3b79	-0.014357441
50	0xbd317912	-0.043328352
51	0xbd56f281	-0.052477363
52	0xbd48f76f	-0.049064096
53	0xbbc471b3	-0.0059949993
54	0x3c404cea	0.011737088
55	0x3a8f100e	0.0010914819
56	0xbdb63170	-0.08896148
57	0xbd2fa588	-0.042882472
58	0xbd47d8d5	-0.04879077
59	0xbdbb9bbc	-0.09160563
60	0x3ca0a5ff	0.019610403
61	0x3b30f73b	0.002700283
62	0xbdc63039	-0.096771665
63	0xbd87d169	-0.06631739
64	0x3c1fccc3	0.009753409
65	0xbced56a4	-0.028971978
66	0xbcf2f1cc	-0.029656313
67	0x3b8ef6b6	0.0043629063
68	0x3cfa8f01	0.030585768
69	0xbd4e0ece	-0.050307088
70	0xbd0e0b54	-0.034678772
71	0xbce354b0	-0.027750343
72	0xbca64863	-0.020298189
73	0x3aeae4ab	0.0017920932
74	0xbdb2d8be	-0.087327465
75	0xbbe58df9	-0.00700545
76	0xbcc9c104	-0.02462817
77	0xbc63237b	-0.01386344
78	0x3cf7e463	0.03026027
79	0x3cabb23b	0.02095901
80	0xbc89542c	-0.01676377
81	0xbd048ce1	-0.032360915
82	0x3c3e2c5a	0.011607254
83	0x3c818d80	0.015814543
84	0xbd5962da	-0.053072788
85	0xbc808d9a	-0.01569252
86	0x3c8508d3	0.01623956
87	0xbca33cea	-0.019926507
88	0xbb9cfd68	-0.0047909506
89	0xbd564980	-0.05231619
90	0x3c28e71a	0.010309005
91	0x3d757ffe	0.059936516
92	0x3d4f14e6	0.05055704
93	0x3d415c8b	0.047207396
94	0xbc9ec766	-0.01938219
95	0x3c076c0d	0.008265507
96	0x3ba5ed3a	0.00506368
97	0xbbcc7d0d	-0.006240493
98	0x3d297112	0.041367598
99	0xbb92fb93	-0.0044855564
100	0xbc3b2634	-0.011422683
101	0x3be15fcc	0.006877875
102	0xbd209021	-0.039199952
103	0xbcb67152	-0.022270832
104	0xbd5c17ff	-0.053733822
105	0xbd6d332a	-0.057910122
106	0xbce7ef9b	-0.028312495
107	0x3b0c4588	0.0021403749
108	0xbcd34cc3	-0.025793439
109	0xbd6b9fc5	-0.057525415
110	0xbdd24d4c	-0.102686495
111	0xbd9ad9f5	-0.07561103
112	0x3cae6000	0.02128601
113	0x3adef713	0.001701089
114	0xbd8ee5d0	-0.06977427
115	0xbde6b304	-0.11264613
116	0xbdb19f51	-0.08672965
117	0x3c3829ee	0.011240466
118	0xbc901698	-0.017588899
119	0xbd85549e	-0.0651028
120	0xbd0bfc86	-0.034176372
121	0xbdbafe01	-0.09130479
122	0xbd1d860f	-0.038457926
123	0x3c8576f7	0.016292078
124	0xbd088885	-0.03333332
125	0xbd1ab00f	-0.03776556
126	0xbc30b2e8	-0.010784842
127	0xbd17c09c	-0.03704892
128	0xbc3df741	-0.011594594
129	0xbd0dcef9	-0.034621213
130	0xbd1e57d7	-0.03865799
131	0x3d650fb3	0.055923175
132	0xbc122ae6	-0.008921361
133	0xbc81d094	-0.015846528
134	0xbb909b08	-0.0044130124
135	0x3bf0f693	0.0073536127
136	0xbc25a53f	-0.0101101985
137	0xbcfc4dfb	-0.030798903
138	0x3c447b37	0.011992267
139	0x3d25d564	0.04048671
140	0xbd0ee412	-0.034885474
141	0x3b93cdda	0.0045106234
142	0xbd6f3a08	-0.058404952
143	0xbd055a15	-0.032556612
144	0xbb196efb	-0.0023412097
145	0xbd483b39	-0.048884604
146	0xba00544d	-0.00048953743
147	0xbc88a223	-0.016678875
148	0x3cc70f60	0.024299324
149	0x3cf61354	0.030038513
150	0x3b9d593c	0.0048018973
151	0x3ce3c736	0.027804952
152	0x3cb06559	0.021532701
153	0xbb234cfd	-0.0024917715
154	0xbc3793ca	-0.011204669
155	0x3cccbcdb	0.024992397
156	0x3d6667c4	0.056251302
157	0xbc3784af	-0.011201068
158	0xbd6d160a	-0.057882346
159	0xbca925c9	-0.0206479
160	0x3c82e67d	0.015979046
161	0x3c98b5fe	0.018641468
162	0x3b1d54c5	0.0024006825
163	0xbd19ecee	-0.03757947
164	0xbcf43e85	-0.029814968
165	0x3dbbc5cb	0.091685854
166	0x3ce6076e	0.028079715
167	0xbc4262b5	-0.011864354
168	0xbca65091	-0.020302089
169	0x3d2f665e	0.042822234
170	0x3d7181d1	0.058961693
171	0x3d90848b	0.070565306
172	0x3b94e8e0	0.0045443624
173	0x3ce5850a	0.02801754
174	0x3a0d8539	0.0005398575
175	0xbd5c0bd1	-0.053722207
176	0x3ca7e9ea	0.020497281
177	0x3c1148c2	0.0088674445
178	0x3c9f0874	0.01941321
179	0x3b8155b1	0.003946983
180	0xbd304385	-0.04303314
181	0xbd1e6923	-0.038674485
182	0xbb8fb9ff	-0.004386186
183	0xbb31287e	-0.0027032192
184	0x3ccae183	0.024765735
185	0xbde40acb	-0.11134871
186	0xbd3f6773	-0.046729516
187	0xbd491e07	-0.049100902
188	0xbd83c44f	-0.06433927
189	0xbce270a2	-0.027641598
190	0xbdbabb4c	-0.09117755
191	0xbdda2630	-0.10651815
192	0xbd8b967a	-0.068158105
193	0xbd866fb2	-0.06564273
194	0xbd4637b6	-0.048392974
195	0xbe02b17e	-0.1276302
196	0xbd7eeedf	-0.062239524
197	0xbc84c936	-0.016209226
198	0xbd09886a	-0.03357736
199	0xbceafe6f	-0.028685777
200	0xbcabceeb	-0.02097269
201	0xbd531c7e	-0.051540844
202	0xbd373b61	-0.044734363
203	0xbc7988ef	-0.015230401
204	0xbd3aeb28	-0.04563442
205	0xbd0e7af7	-0.034785237
206	0xbd4b8dc6	-0.049695753
207	0xbd5d4fc3	-0.054031145
208	0xbd8df116	-0.06930749
209	0xbd322117	-0.04348859
210	0x3bbc3bc4	0.0057444293
211	0xbdba4ee5	-0.09097079
212	0xbd439d51	-0.04775745
213	0xbcdc978b	-0.02692773
214	0xbca51f60	-0.020156562
215	0xbdcd6afc	-0.10030171
216	0xbd9102c7	-0.07080608
217	0xbcd34387	-0.025789035
218	0xbd929e34	-0.07159081
219	0xbd4002b5	-0.04687758
220	0xbc98f516	-0.018671554
221	0xbd836c03	-0.06417086
222	0xbc2cc76f	-0.010545596
223	0xbd58ef82	-0.052962787
224	0xbbee6e10	-0.007276304
225	0x3d83b391	0.06430734
226	0x3d0e6b7c	0.034770474
227	0xbc2c98cc	-0.0105344765
228	0x3c36613f	0.011131584
229	0xba9da7b7	-0.0012028132
230	0x3d4d881d	0.050178636
231	0xbc286837	-0.010278753
232	0x3d658c98	0.056042284
233	0x3c18936f	0.009312495
234	0x3b5c0964	0.0033574933
235	0x3d637399	0.055530164
236	0x3b4e970b	0.0031523134
237	0xbb9cc18d	-0.0047838152
238	0x3cd168ab	0.025562605
239	0xbd971fa5	-0.073790826
240	0x3d5e0de1	0.054212455
241	0xbc0209f2	-0.007936941
242	0x3cb0bb50	0.021573693
243	0x3cdf6fc0	0.027274966
244	0xb93baba6	-0.00017897654
245	0x3d754a7c	0.059885487
246	0x3cbea788	0.023273245
247	0x3ab14f62	0.0013527686
248	0x3c27724d	0.0102201225
249	0xbd8a858f	-0.067637555
250	0xbd36a713	-0.04459293
251	0xbda992ac	-0.082799286
252	0xbd2c2fd3	-0.042037796
253	0xbd9dcb61	-0.07704807
254	0xbddbddee	-0.10735689
255	0xbd157256	-0.036485992

conv5.bias f4 [30]
0	0x3cda5a9a	0.02665453
1	0xbcfec196	-0.031098168
2	0xbdae6d84	-0.08516982
3	0x3c66f694	0.014096875
4	0x3ceebac8	0.029141799
5	0xbd3c0fdb	-0.04591356
6	0xbb4c2677	-0.0031150857
7	0xbd476894	-0.048683718
8	0x3d93465c	0.07191154
9	0xbc7a1313	-0.015263337
10	0xbc29c0da	-0.010360921
11	0x3c1cd3ce	0.009571983
12	0xb97fcc60	-0.0002439483
13	0x3d5f7f74	0.05456491
14	0xbd21be7a	-0.039488293
15	0xbcb7d3a4	-0.022439785
16	0xbcae307d	-0.021263355
17	0xbd59f9e5	-0.053216834
18	0xbd3836bc	-0.044974074
19	0xbba29db4	-0.0049626473
20	0xbd25fe12	-0.040525503
21	0xbc230867	-0.009950734
22	0x3c1144a5	0.008866464
23	0x3cb50b80	0.02210021
24	0x3ceaac72	0.028646681
25	0xbcbd415e	-0.023102459
26	0xbb243814	-0.002505784
27	0xbd374463	-0.044742953
28	0xbc193408	-0.009350784
29	0x3c70bd1b	0.014693524

conv6.weight f4 [30, 30, 5, 5]
0	0xbbef8faf	-0.0073108296
1	0x3cd45507	0.02591945
2	0x3d39a3f6	0.04532238
3	0x3c458dcc	0.012057733
4	0x3c3d78b6	0.011564424
5	0x3c852eb3	0.01625762
6	0x3d62ba21	0.055353288
7	0x3c0d0c0c	0.008608829
8	0x3cd49865	0.025951574
9	0x3b8e399e	0.0043403646
10	0x3d585fc5	0.052825708
11	0x3d83aaef	0.06429087
12	0x3cfc40b3	0.03079257
13	0x3d8a2e4d	0.067471124
14	0x3caba657	0.02095334
15	0x3d217c26	0.039425038
16	0x3d22512b	0.03962819
17	0x3d71020e	0.05883985
18	0x3bd61d7d	0.006534277
19	0x3cb13cd6	0.021635454
20	0x3ccd209d	0.025039965
21	0xbc2bf474	-0.010495294
22	0xbcc56cbf	-0.024099706
23	0xbd26e55d	-0.04074608
24	0xbd84439c	-0.06458208
25	0x3b193b30	0.0023381226
26	0xbbc217f8	-0.0059232675
27	0xbcae9343	-0.021310454
28	0xbd132252	-0.035921402
29	0xbdc2a9bd	-0.09505031
30	0xbd849a07	-0.06474691
31	0xbd8c1284	-0.06839469
32	0xbd44e96a	-0.048074163
33	0xbd7c92a8	-0.0616633
34	0xbde6922a	-0.11258347
35	0xbd91de3e	-0.071224675
36	0xbd7ae6ad	-0.061255146
37	0xbdad7ba2	-0.08470847
38	0xbdd32416	-0.10309617
39	0xbded6ae5	-0.11592654
40	0xbcf8ca2e	-0.030369844
41	0xbce8a02c	-0.028396688
42	0xbd9e01bf	-0.07715177
43	0xbd8804d4	-0.06641546
44	0xbdaea55c	-0.085276335
45	0xbd1b00e8	-0.03784266
46	0xbcfd2745	-0.030902514
47	0xbd0d2bc5	-0.03446557
48	0xbd9a7e88	-0.07543665
49	0xbd7f9e13	-0.06240661
50	0xbc514030	-0.012771651
51	0x3cdad020	0.02671057
52	0xbbba594a	-0.0056869136
53	0xbd3e6dab	-0.046491306
54	0x3ca8a806	0.020587932
55	0x3cb05690	0.021525651
56	0x3a0e0ba4	0.00054186047
57	0x3bf87605	0.0075824284
58	0xbd05fc8a	-0.032711543
59	0xbd09a06b	-0.033600252
60	0x3d1eb573	0.038747262
61	0xbce44515	-0.027864972
62	0xbd49528f	-0.049151
63	0xbd36c1bc	-0.044618353
64	0xbd3255ca	-0.043538846
65	0x3ca474f8	0.020075306
66	0x3c84f437	0.016229732
67	0xbca015c7	-0.019541634
68	0x3d007992	0.03136594
69	0xbc9797c1	-0.01850498
70	0xbcfe015b	-0.031006506
71	0xbd0d59b7	-0.034509387
72	0x3bb1d0b8	0.0054264925
73	0xbcdacbf1	-0.026708575
74	0xbbd68d03	-0.0065475716
75	0xbd3ee231	-0.04660243
76	0xbd59601a	-0.053070165
77	0x3ba0a67b	0.0049026585
78	0x3c36e70a	0.011163482
79	0xbd0ca906	-0.03434088
80	0xbd15e0a8	-0.036591202
81	0xbd69ac7d	-0.057049263
82	0x3c9eb4a8	0.019373253
83	0x3cdf0645	0.02722467
84	0xbb083eba	-0.002078934
85	0xbd1787bf	-0.036994692
86	0xbb84e48c	-0.004055565
87	0x3c1f757e	0.009732602
88	0xbd0ca00c	-0.03433232
89	0xbd132bce	-0.035930447
90	0xbd3baacf	-0.045817193
91	0xbd7ea809	-0.06217197
92	0x3c70e68a	0.014703402
93	0xbc6f41ef	-0.014603122
94	0xbc021493	-0.007939476
95	0xbc45e5d6	-0.012078723
96	0xbc47a3f7	-0.012185088
97	0x3bd22586	0.0064131645
98	0xbc9f5137	-0.019447906
99	0x3d435a9f	0.047693845
100	0x3d83cce4	0.06435564
101	0x3d57eb9c	0.05271493
102	0xbd00169c	-0.031271562
103	0xbc509471	-0.012730704
104	0xbcda774c	-0.026668213
105	0x3d4cdeae	0.05001705
106	0x3bda02b3	0.006653154
107	0xbcba3a24	-0.022732802
108	0xbc65cf7d	-0.01402652
109	0xbcbeb6eb	-0.023280581
110	0x3d91d9aa	0.07121594
111	0x3ca4e907	0.020130647
112	0x3ca71489	0.020395534
113	0xbd933476	-0.071877405
114	0xbdadc0af	-0.08484017
115	0x3d388ad4	0.04505427
116	0x3d54d59b	0.051961523
117	0x3c18ee7c	0.009334203
118	0xbd50dcf7	-0.05099198
119	0xbd452ac4	-0.048136488
120	0x3d75381e	0.05986797
121	0x3d640afa	0.05567453
122	0xbd50233c	-0.050814852
123	0xbd54531b	-0.051837068
124	0xbd90bb72	-0.07067002
125	0x3cecf0ff	0.02892351
126	0x3c6e1ce9	0.01453326
127	0x3d0745bd	0.033025492
128	0x3cc55b17	0.024091287
129	0xbcbc99f7	-0.023022635
130	0x3d52696f	0.05137008
131	0x3d795aa9	0.060877476
132	0x3d87337c	0.06601617
133	0x3da27a69	0.07933504
134	0xbd09f057	-0.03367647
135	0x3d7bbbae	0.061458282
136	0x3d203ab2	0.039118476
137	0x3d41a8d3	0.047280144
138	0x3d87182c	0.06596407
139	0xbcb92bc3	-0.022603875
140	0x3cff4c7b	0.031164398
141	0x3d6cb612	0.057790823
142	0x3da80464	0.082039624
143	0x3d062654	0.032751396
144	0x3c32fd46	0.010924643
145	0x3cc142b2	0.023591373
146	0x3cc87e21	0.024474205
147	0x3c1d1138	0.009586625
148	0x3d91b0ff	0.071138375
149	0xbd56db12	-0.052455015
150	0xbdc243d7	-0.09485596
151	0xbd96fd8f	-0.07372581
152	0x3cda3d42	0.026640538
153	0xbd54630f	-0.051852282
154	0xbd3ce3a6	-0.04611554
155	0xbd3bc935	-0.045846183
156	0xbd4259b4	-0.04744883
157	0xbcf4d463	-0.02988643
158	0xbcaa7ab6	-0.020810466
159	0xbd84255a	-0.06452437
160	0xbcb884a1	-0.02252418
161	0xbd24c130	-0.0402233
162	0xbd78588c	-0.06063132
163	0xbd0ccb14	-0.034373358
164	0xbd9feade	-0.07808469
165	0xb8abc0db	-8.1898375e-05
166	0xbd99bfd9	-0.07507295
167	0x3bac5883	0.005259575
168	0xbd1672ee	-0.0367307
169	0x3cdbca88	0.026829973
170	0x3c8ff0df	0.017570911
171	0x3cbadaac	0.022809349
172	0xbc8bd027	-0.017067028
173	0xb8d4d21a	-0.00010148082
174	0x3d005b44	0.031337038
175	0xbd7fdf76	-0.06246897
176	0xbd05af3a	-0.032637812
177	0xbc45896e	-0.012056692
178	0x3c629534	0.013829518
179	0x3d098cfc	0.03358172
180	0xba02fc5a	-0.000499671
181	0xbd47e0f9	-0.048798535
182	0xbd288752	-0.041144677
183	0xbd56a3a9	-0.052402172
184	0xbbe6b186	-0.0070402054
185	0xbb1257d6	-0.0022330186
186	0xbc3eae0a	-0.011638174
187	0xbd855684	-0.06510642
188	0xbd57f070	-0.052719533
189	0xbd03eebf	-0.032210108
190	0x3cd11c69	0.025526242
191	0x3c345012	0.011005418
192	0xbd42c2b7	-0.047548976
193	0xbcc1d877	-0.023662789
194	0xbc7efc00	-0.015563011
195	0x3bc677be	0.006056755
196	0xbc8057ca	-0.015666861
197	0x3cb6fc7f	0.022337196
198	0x3c81285f	0.01576632
199	0xbcd50702	-0.026004318
200	0x3c9f1c06	0.019422542
201	0xbc9300b6	-0.017944675
202	0x3c8974d4	0.01677934
203	0xbca74c5a	-0.02042215
204	0xbd268e0b	-0.040662806
205	0x3c2663e8	0.010155655
206	0xbcb0680a	-0.021533985
207	0xbcb9ac07	-0.022665037
208	0xbd1ecd7c	-0.038770184
209	0xbd9b8621	-0.075939424
210	0x3cfa5e01	0.030562403
211	0x3cb3bdc3	0.021941071
212	0x3c06b511	0.0082218805
213	0xbd2f905e	-0.04286229
214	0x3c19585f	0.009359448
215	0xbd32f961	-0.043694858
216	0xbcab99c6	-0.020947348
217	0xbd249028	-0.04017654
218	0xbd268a62	-0.040659316
219	0xbbe9eb0a	-0.0071386145
220	0xbcd30d2f	-0.025763122
221	0xbd22ba6d	-0.03972857
222	0xbd1449ef	-0.03620332
223	0xbd1549d0	-0.036447346
224	0xbd062366	-0.032748602
225	0xbd4bf69d	-0.049795736
226	0x3c564a5a	0.01307925
227	0xbc5f1d3d	-0.013617811
228	0x3b330f1d	0.002732224
229	0x3d94a44a	0.07257898
230	0x3cb60fd3	0.022224342
231	0x3d58c467	0.05292168
232	0x3d3d2a2c	0.046182796
233	0x3cf7fb10	0.030271083
234	0xba746206	-0.0009322468
235	0x3d29ff6e	0.041503362
236	0x3d179202	0.03700448
237	0x3d0862c7	0.033297326
238	0x3cb6ed06	0.022329818
239	0x3cb3c19c	0.021942906
240	0x3d6c3c29	0.05767456
241	0x3cf7ac96	0.030233663
242	0x3d089b8f	0.033351477
243	0x3cc635ee	0.024195638
244	0xbd04090f	-0.0322352
245	0xbce1d365	-0.027566621
246	0x3d2cb110	0.042161047
247	0x3d0cdc96	0.034390055
248	0xbd02fe79	-0.031980965
249	0xbd1a0bba	-0.03760884
250	0xbc747922	-0.014921458
251	0xbd207a78	-0.039179295
252	0xbc4281a7	-0.011871732
253	0xbd0cd0b3	-0.03437872
254	0xbd85efcf	-0.065398805
255	0x3ccc5f24	0.02494771

conv6.bias f4 [30]
0	0x3c8327f4	0.016010262
1	0x3cf380e9	0.029724555
2	0xbc47935c	-0.012181129
3	0xbcd88bc4	-0.026433833
4	0x3d1917e2	0.037376292
5	0xbc006b09	-0.007838019
6	0xbd2122d9	-0.039339874
7	0xbd10eb9d	-0.03538095
8	0xbb84db66	-0.0040544746
9	0x3d5395b2	0.051656432
10	0x3c8f0de3	0.017462676
11	0xbc83a49a	-0.0160697
12	0x3bd20a12	0.006409892
13	0xbd31d43a	-0.043415286
14	0x3b7b0470	0.0038302206
15	0x3c2e6936	0.010645201
16	0x3cee4ade	0.029088434
17	0x3c7dcec8	0.015491195
18	0x3b8d11b4	0.004305089
19	0x3cb6e9b0	0.022328228
20	0xbd958805	-0.07301334
21	0x3ccc16f3	0.024913287
22	0xbb630696	-0.0034641377
23	0x3d2756d0	0.040854275
24	0x3d026c12	0.031841345
25	0xbd031207	-0.031999614
26	0xbcdc6b4a	-0.026906628
27	0xbc3caa91	-0.011515276
28	0xbd5bb27b	-0.05363701
29	0xbbbd4602	-0.005776168

bn1.weight f4 [10]
0	0x3f8bb082	1.0913241
1	0x3f566787	0.8375172
2	0x3f7971d7	0.9743933
3	0x3f81762e	1.011419
4	0x3f742dbe	0.953823
5	0x3f7cf9e2	0.9881879
6	0x3f7879f5	0.9706109
7	0x3f6f1a42	0.9339944
8	0x3f91d6d7	1.1393689
9	0x3f7842a9	0.96976715

bn1.bias f4 [10]
0	0x3de3a95a	0.111162856
1	0xbdb4d3a2	-0.08829428
2	0x3c8d55d8	0.017252848
3	0x3df93db2	0.121699706
4	0xbd179689	-0.037008796
5	0xbda04a4a	-0.078266695
6	0x3bef87cb	0.007309889
7	0xbdf815e1	-0.12113548
8	0x3e806450	0.25076532
9	0xbd48c3a9	-0.04901472

bn1.running_mean f4 [10]
0	0xbea9d72d	-0.3317198
1	0xbe925c01	-0.28585818
2	0x3e29a900	0.16568375
3	0xbe069f46	-0.13146695
4	0x3d9bdeb8	0.076108396
5	0xbcb88c0b	-0.022527715
6	0xbe6e2bda	-0.23258916
7	0xbbff44a2	-0.007790164
8	0x3e6ef7ca	0.23336712
9	0xbe743698	-0.23848951

bn1.running_var f4 [10]
0	0x3e8e9025	0.2784435
1	0x3f833ea1	1.0253488
2	0x3ea0786c	0.31341875
3	0x3eefdd3a	0.4684847
4	0x3e9e7aee	0.30953163
5	0x3ea079e0	0.31342983
6	0x3f326c32	0.6969634
7	0x3e9b4bbf	0.30331227
8	0x3f066259	0.52493817
9	0x3f4af038	0.79272795

bn2.weight f4 [20]
0	0x3f7c7d4b	0.9862868
1	0x3f889016	1.0668972
2	0x3f79f68f	0.97641844
3	0x3f750fb8	0.9572711
4	0x3f6f9096	0.93579996
5	0x3f80ab9f	1.0052375
6	0x3f747c3a	0.95502055
7	0x3f7b7815	0.98230106
8	0x3f7a11ef	0.97683614
9	0x3f7c8210	0.9863596
10	0x3f7a6582	0.9781114
11	0x3f81bfee	1.0136697
12	0x3f843a3d	1.0330273
13	0x3f874ac8	1.0569696
14	0x3f71a36f	0.94390005
15	0x3f80b69b	1.0055727
16	0x3f85afa5	1.0444227
17	0x3f8203a3	1.015736
18	0x3f8b91c8	1.0903864
19	0x3f7c3377	0.9851603

bn2.bias f4 [20]
0	0xbd476923	-0.04868425
1	0xbcd12e17	-0.025534673
2	0xbd5dfea2	-0.054197915
3	0xbdab50c7	-0.083650164
4	0xbd8c55cf	-0.06852304
5	0x3c99cf3b	0.018775573
6	0xbd6607c9	-0.05615977
7	0xbca1b57f	-0.019739864
8	0x3cca7432	0.02471361
9	0xbdc3fb8a	-0.09569462
10	0xbc18b059	-0.009319388
11	0xbd628742	-0.055304773
12	0x3c5c9da4	0.013465319
13	0xbc3ff2d6	-0.011715611
14	0xbca3f0f9	-0.020012366
15	0xbd691585	-0.05690529
16	0x3be4051d	0.0069586174
17	0xbd185246	-0.037187837
18	0xbc696785	-0.014245872
19	0xbcd16a89	-0.025563495

bn2.running_mean f4 [20]
0	0x3e84a500	0.25907135
1	0xbf1b1d91	-0.6059199
2	0xbf699d4f	-0.9125566
3	0xbfc56f39	-1.5424567
4	0x3d927c13	0.071525715
5	0xbf188797	-0.59581894
6	0xbd677875	-0.05651136
7	0xbf4d34ea	-0.80158865
8	0xbfa24160	-1.2676201
9	0xbf07b88c	-0.5301597
10	0xbf9b2d92	-1.2123282
11	0x3eab5ee2	0.33470827
12	0x3cde51a1	0.027138533
13	0xbec00cf8	-0.37509894
14	0xbf203485	-0.6258014
15	0x3ba740e8	0.005104173
16	0xbf1e308b	-0.6179282
17	0x3e66138c	0.22468394
18	0xbf22c139	-0.63576084
19	0x3ea357ca	0.31902915

bn2.running_var f4 [20]
0	0x3fe1172d	1.7585198
1	0x3fae0d30	1.3597775
2	0x3fce6a93	1.6126274
3	0x4009149f	2.1418836
4	0x3f85ff7a	1.046859
5	0x3fa0a255	1.254954
6	0x3fda3df1	1.7050153
7	0x3fa73932	1.306433
8	0x3fdbc5ab	1.7169698
9	0x3fb4e3b3	1.4131988
10	0x3fc753f3	1.5572494
11	0x3fbeb15d	1.4897877
12	0x3fdbe808	1.7180185
13	0x3fae7118	1.3628263
14	0x3ff665b1	1.9249784
15	0x3f7eb0d5	0.99488574
16	0x3f98f7da	1.1950638
17	0x3fa535eb	1.290708
18	0x3fa55151	1.2915441
19	0x400db2bf	2.2140348

bn3.weight f4 [30]
0	0x3f58a7d3	0.8463108
1	0x3f4e06d2	0.80479157
2	0x3f507bfd	0.8143919
3	0x3f4410be	0.76588047
4	0x3f54ed79	0.83174855
5	0x3f505e60	0.81394005
6	0x3f5cf9aa	0.8631846
7	0x3f57ab21	0.84245497
8	0x3f5c6547	0.86092037
9	0x3f5981f8	0.8496394
10	0x3f58d82d	0.8470486
11	0x3f4a31e3	0.7898237
12	0x3f5aa700	0.8541107
13	0x3f5c51f9	0.8606258
14	0x3f5c7f81	0.86132056
15	0x3f62b093	0.8855068
16	0x3f53dcd3	0.82758826
17	0x3f59b41d	0.85040456
18	0x3f4d14f1	0.8011008
19	0x3f589ed3	0.84617347
20	0x3f572dbd	0.84054166
21	0x3f5a9010	0.8537607
22	0x3f5dca95	0.8663724
23	0x3f4d32d8	0.80155706
24	0x3f5c0507	0.8594517
25	0x3f5509e3	0.8321821
26	0x3f5b01f1	0.8554984
27	0x3f57932f	0.8420896
28	0x3f5f1c8f	0.8715295
29	0x3f532ccc	0.8249023

bn3.bias f4 [30]
0	0xbe06cd23	-0.13164191
1	0xbe492ba2	-0.19645551
2	0xbe3b86f6	-0.18313202
3	0xbe6e98a4	-0.23300415
4	0xbe59f6a8	-0.21285498
5	0xbe700ce4	-0.23442417
6	0xbe2608d1	-0.162143
7	0xbe3c217c	-0.18372148
8	0xbdfb2cea	-0.12264426
9	0xbe33d864	-0.17563015
10	0xbe578fec	-0.21050996
11	0xbe6f7460	-0.23384237
12	0xbe1d392c	-0.1535384
13	0xbe52ce4b	-0.20586507
14	0xbe5c62ad	-0.21522017
15	0xbe14776d	-0.14498682
16	0xbe2d0f91	-0.1690047
17	0xbe4e09d2	-0.20120934
18	0xbe7e4a13	-0.24832945
19	0xbe54a034	-0.20764238
20	0xbe2ef7fc	-0.17086786
21	0xbe3b0601	-0.18264009
22	0xbe4c351f	-0.19942139
23	0xbe6cf681	-0.23140909
24	0xbe52e7d2	-0.20596245
25	0xbe654f7c	-0.22393602
26	0xbe276ff1	-0.16351296
27	0xbe47cde0	-0.19512129
28	0xbe01923b	-0.12653439
29	0xbe700d9e	-0.23442695

bn3.running_mean f4 [30]
0	0xbf7c6721	-0.9859486
1	0xbd9f40f2	-0.07776059
2	0xc005f710	-2.0932045
3	0xbdbf0479	-0.09327025
4	0xbf2e3211	-0.68045145
5	0xbe5e2025	-0.2169195
6	0xbec46274	-0.38356364
7	0xbf99a7df	-1.2004355
8	0x3f527ee1	0.8222485
9	0xbf003493	-0.5008022
10	0xbfaa1496	-1.3287532
11	0x3f2260e7	0.6342911
12	0xbf036e6c	-0.51340365
13	0xbe0b3c69	-0.13597263
14	0xbf54813c	-0.83009696
15	0xbee3baa5	-0.44478336
16	0xbf0c260f	-0.5474557
17	0xbf3ed19d	-0.74538594
18	0xbeeca9b9	-0.46223238
19	0xbfc7df3d	-1.5615002
20	0xbecc5c52	-0.39914185
21	0xbe27937e	-0.16364858
22	0xbe0c8f36	-0.13726506
23	0xbfa9803f	-1.3242263
24	0xbe2cc43b	-0.16871731
25	0xbf3a0bb8	-0.7267413
26	0xbfc9bb68	-1.5760317
27	0xbf31010c	-0.6914222
28	0xbf69763a	-0.91196024
29	0xbf877e97	-1.0585507
