mlops_project/outputs/2022-05-26/12-43-08/models/epoch=6-step=917.ckpt (torch, 985488 bytes, 66 tensors)

conv1.weight f4 [10, 3, 5, 5]
0	0xbcaa4e31	-0.020789238
1	0x3aecd94d	0.0018070132
2	0xbd2b3207	-0.041795757
3	0x3d77ad1d	0.060467828
4	0xbde32e06	-0.11092763
5	0x3e0218df	0.127048
6	0xbd902bac	-0.0703958
7	0xbd9e4c7d	-0.07729433
8	0xbd9b3a91	-0.0757953
9	0x3d0fd00e	0.035110526
10	0xbc18c6b0	-0.009324715
11	0x3d7a1e0c	0.06106381
12	0xbdb6db6c	-0.0892857
13	0xbd885aec	-0.06657967
14	0xbd55249e	-0.052036874
15	0x3a85e749	0.0010216023
16	0xbd9797b5	-0.07401983
17	0x3de2a17b	0.11065956
18	0x3b11f1d9	0.0022269397
19	0x3d051de9	0.032499228
20	0x3dd7f669	0.10545046
21	0x3d08b3ca	0.033374585
22	0x3d5f07b0	0.05445069
23	0x3e061d76	0.13097176
24	0xbd9070a1	-0.07052732
25	0x3cb8c68e	0.022555616
26	0xbd8d3184	-0.0689421
27	0x3ddde606	0.10834889
28	0x3dee512a	0.116365746
29	0xbe0436ef	-0.1291158
30	0x3dc56216	0.09637849
31	0x3d380017	0.04492196
32	0x3d87411c	0.066042155
33	0x3d3cd596	0.04610213
34	0x3d946d28	0.072473824
35	0xbd2103cc	-0.03931026
36	0xbdff7fa4	-0.124755174
37	0xbd465524	-0.04842104
38	0xbdb715e9	-0.08939726
39	0xbb57bbe4	-0.0032918388
40	0xbd8dd090	-0.06924546
41	0xbde407a5	-0.111342706
42	0xbc9cb96c	-0.019131385
43	0x3deca47b	0.1155481
44	0xbc9bc485	-0.019014606
45	0xbd424c91	-0.0474363
46	0xbd94cb2b	-0.07265314
47	0xbc314b13	-0.010821122
48	0x3dbb3f7b	0.09142967
49	0x3d23d1ec	0.03999512
50	0x3d26c70e	0.040717177
51	0x3d05e5a2	0.032689698
52	0x3d9f1537	0.07767718
53	0x3da6ee48	0.08150917
54	0xbcfa51ce	-0.030556586
55	0xbdba1113	-0.09085288
56	0xbd4e2f2b	-0.05033795
57	0x3e13dd08	0.14439785
58	0x3c8921c9	0.016739743
59	0xbde7ebce	-0.11324273
60	0x3c99e410	0.018785506
61	0x3dcd92f8	0.10037798
62	0xbdd84753	-0.10560479
63	0xbdab94ce	-0.083779916
64	0xbd6ce772	-0.05783791
65	0xbc8fce29	-0.01755436
66	0xbd43b3d8	-0.047778934
67	0xbc4f0b20	-0.01263693
68	0xbde5b03d	-0.112152554
69	0x3d3c9140	0.04603696
70	0x3db2eda5	0.08736733
71	0x3d506b22	0.05088342
72	0xbdc825e6	-0.097728536
73	0xbdd8be1c	-0.105831355
74	0x3cb14819	0.021640824
75	0xbd7e7154	-0.062119797
76	0x3c0ab805	0.008466725
77	0xbe17d1dd	-0.1482615
78	0xbdac3031	-0.08407629
79	0x3cdee925	0.027210781
80	0xbbb91b02	-0.0056489715
81	0xbc492c64	-0.01227865
82	0x3ba8b56a	0.0051485794
83	0xbd21b2cf	-0.039477166
84	0xbdc86d22	-0.097864404
85	0xbdecc540	-0.1156106
86	0xbdb55501	-0.08854104
87	0x3dab5d9b	0.08367463
88	0x3d59bf03	0.05316068
89	0x3cacc488	0.021089807
90	0xbe06c018	-0.13159215
91	0x3dae64fd	0.08515356
92	0x3d247770	0.040152967
93	0x3d6b04f6	0.057377778
94	0xbdaa04f2	-0.083017245
95	0xbd009220	-0.031389356
96	0x3db2b1c8	0.08725315
97	0x3d968e89	0.07351405
98	0x3d7d499e	0.061837785
99	0xbd6785c5	-0.056524057
100	0x3d61dfcf	0.05514508
101	0xbdcab00b	-0.09896859
102	0xbb916794	-0.0044373963
103	0xbe013c6a	-0.12620702
104	0xbd9463c7	-0.072455935
105	0xbd325b9c	-0.043544397
106	0x3cfd832d	0.030946339
107	0x3df78377	0.12085622
108	0x3d662b38	0.05619356
109	0xbc6ac38f	-0.014328851
110	0x3d8a7434	0.06760445
111	0xbd02f2d4	-0.03196986
112	0x3db9549a	0.090493396
113	0x3cae361d	0.021266038
114	0xbc44591b	-0.011984135
115	0x3cbb5527	0.022867752
116	0xbd42520f	-0.04744154
117	0x3d84e771	0.064894564
118	0x3d57c9cc	0.052682683
119	0x3d986ca6	0.07442598
120	0xbd41f90d	-0.047356654
121	0x3d630585	0.055425186
122	0x3e18bab5	0.14914973
123	0xbd7d8f22	-0.06190408
124	0x3d90f18f	0.07077324
125	0xbde81232	-0.113315955
126	0x3c005a91	0.007834093
127	0x3ada6892	0.0016663244
128	0xbce11332	-0.027474973
129	0x3d6da055	0.058014233
130	0xbdb9be40	-0.090694904
131	0x3bfd3924	0.007727759
132	0xbcad02ed	-0.02111956
133	0xbdd7ae77	-0.105313234
134	0xbd2bdc6e	-0.041958265
135	0xbdfa1667	-0.12211304
136	0x3d027627	0.03185096
137	0x3b953131	0.004552983
138	0x3c90b203	0.017663008
139	0xbd09ac20	-0.033611417
140	0xbc9d7336	-0.019219976
141	0xbd1fe3e4	-0.039035693
142	0x3d31fc6e	0.043453626
143	0x3de02044	0.10943654
144	0x3af1077e	0.0018389074
145	0xbdae4ad4	-0.08510366
146	0xbdc06f96	-0.09396283
147	0x3c1dc727	0.009630001
148	0xbdd795a3	-0.10526588
149	0xbdee6fcb	-0.116424166
150	0xbd405981	-0.046960358
151	0xbcd26779	-0.025684105
152	0x3cf9b597	0.030482097
153	0x3dd72855	0.105057396
154	0x3d1ad270	0.037798345
155	0x3e12e62d	0.14345618
156	0xbd3d2bc2	-0.04618431
157	0x3c4e8e7c	0.012607213
158	0xbdf81434	-0.121132284
159	0x3d5f7fdb	0.05456529
160	0x3dab897d	0.08375833
161	0x3e179857	0.14804207
162	0xbda15463	-0.078774236
163	0x3dad46fd	0.084608056
164	0x3da05528	0.07828742
165	0x3e0df834	0.13864213
166	0x3d10f441	0.03538919
167	0x3def74e2	0.116922155
168	0x3da06275	0.07831279
169	0x3d549877	0.051903214
170	0x3c80fe38	0.015746221
171	0xbda1764c	-0.078838915
172	0xba94c044	-0.0011348804
173	0x3c41805e	0.01181039
174	0xbdf836a4	-0.12119797
175	0xbd7da61f	-0.061926004
176	0xbdf84e5d	-0.121243216
177	0xbcf13216	-0.029442828
178	0x3e0647b2	0.13113287
179	0x3d1e7eed	0.038695265
180	0x3b923128	0.0044614263
181	0xbbab1dfd	-0.0052220807
182	0x3d71facb	0.059077065
183	0xbdf36027	-0.11883574
184	0xbdadbb46	-0.08482985
185	0xbd1a575e	-0.037680976
186	0xbda81650	-0.08207381
187	0x3d1daa13	0.038492274
188	0x3d928f9d	0.07156298
189	0xbdf61cfe	-0.120172486
190	0xbdef2423	-0.116768144
191	0xbe189eae	-0.14904281
192	0x3cd34d79	0.025793778
193	0x3dbcfb7a	0.09227653
194	0xbdcce4dc	-0.10004589
195	0xbd9d30f1	-0.076753505
196	0x3bb5bca1	0.005546168
197	0xbdc2ab4d	-0.09505329
198	0x3dcae89c	0.09907648
199	0x3cdb8e5f	0.026801286
200	0xbbb7f9d1	-0.0056144972
201	0x3d0eaa00	0.034830093
202	0x3d8ef0e0	0.06979537
203	0xbc45b484	-0.012066964
204	0xbda94c10	-0.08266461
205	0x3d0a8536	0.033818446
206	0x3ceeae03	0.02913571
207	0x3c95b427	0.01827438
208	0xbcaf7817	-0.021419568
209	0x3d960511	0.07325185
210	0xbb793cb2	-0.0038030562
211	0x3c130d2e	0.00897531
212	0x3d5853a3	0.052814137
213	0xbd97bf32	-0.074095145
214	0x3cb21e52	0.021742973
215	0xbbd575c5	-0.0065142834
216	0x3d84cf49	0.06484849
217	0xbd54caf1	-0.051951353
218	0x3c5e2bc6	0.013560241
219	0x3c5a09ca	0.013307998
220	0xbd9e7637	-0.077373914
221	0xbd8dc93f	-0.0692315
222	0x3d747c7a	0.059689023
223	0xbc881741	-0.01661265
224	0x3daaf9e9	0.08348448
225	0xbdf4db18	-0.11955851
226	0xbd921df0	-0.071346164
227	0xbddf64eb	-0.109079204
228	0x3d6f6457	0.0584453
229	0x3bce6e79	0.0062997905
230	0xbcbbf475	-0.022943715
231	0xbd216b43	-0.039408933
232	0xbddb2fb7	-0.1070246
233	0x3d31b423	0.043384682
234	0x3c82d0e2	0.015968744
235	0xbd937638	-0.07200283
236	0x3d03547d	0.032062996
237	0xbc320601	-0.010865689
238	0xbdc2a7b7	-0.09504645
239	0x3db0089f	0.08595394
240	0x3da39370	0.07987106
241	0xbcab2add	-0.020894462
242	0xbd9767e5	-0.07392863
243	0x3d2fd765	0.042930026
244	0x3df2923b	0.118442975
245	0x3df83964	0.121203214
246	0xbdb24e8d	-0.087063886
247	0xbd639775	-0.055564363
248	0x3dfe0b31	0.12404478
249	0x3d9b55d2	0.07584728
250	0x3d15f4c5	0.036610384
251	0xbdb64bd3	-0.08901181
252	0x3d95502d	0.07290683
253	0xbdc1474c	-0.09437427
254	0xbbf92bf1	-0.007604115
255	0xbcb848a0	-0.022495568

conv1.bias f4 [10]
0	0xbd92c975	-0.07167331
1	0x3cda599c	0.026654057
2	0xbdf36462	-0.11884381
3	0x3d7fd327	0.06245723
4	0xbe1fc49a	-0.15602341
5	0xbc2662bc	-0.010155376
6	0x3cb45326	0.022012305
7	0x3c16d067	0.00920496
8	0x3d37f9da	0.04491601
9	0x3df950ef	0.1217364

conv2.weight f4 [10, 10, 5, 5]
0	0xbd951c5e	-0.07280801
1	0x3d80359c	0.06260225
2	0xbd9534d9	-0.072854705
3	0xbda36751	-0.079786904
4	0xbd00b413	-0.031421732
5	0x3ca4c16d	0.020111764
6	0x3d6bb403	0.05754472
7	0xbd0d202c	-0.03445451
8	0xbda2676c	-0.079298824
9	0xbd31952f	-0.043355163
10	0xbd703c4f	-0.058651265
11	0x3d29aaf7	0.04142281
12	0xbd35baec	-0.044367716
13	0xbd8eb039	-0.069672056
14	0xbd7903fa	-0.060794808
15	0x3c2c0aff	0.010500669
16	0x3dc8bfea	0.0980223
17	0x3d10c00b	0.035339396
18	0xbcace401	-0.021104814
19	0x3d96d7f8	0.073654115
20	0xbc7a4056	-0.015274128
21	0x3d9c6106	0.07635693
22	0x3cbb632d	0.02287444
23	0x3d65de58	0.056120247
24	0x3d130abf	0.03589892
25	0xbd82dd09	-0.06389815
26	0x3d56e8fb	0.05246828
27	0xbcbd87a6	-0.023135971
28	0xbd641fb9	-0.055694316
29	0xbd51f442	-0.051258333
30	0xbd204229	-0.039125595
31	0xbd23e929	-0.04001728
32	0x3d917a5e	0.07103418
33	0xbd2dab49	-0.04239968
34	0x3cda3445	0.026636252
35	0x3d2b7d76	0.041867696
36	0x3d4f2a8d	0.05057769
37	0x3d826ef2	0.063688174
38	0xbc430ae2	-0.01190445
39	0xbda63183	-0.08114912
40	0x3cb9eeb9	0.02269684
41	0xbd436149	-0.0477002
42	0x3d0133d9	0.031543586
43	0xbd0ab58c	-0.033864543
44	0x3cde24ca	0.027117152
45	0x3cdf4b44	0.02725757
46	0xba3d1a32	-0.0007213681
47	0xbbc7be1d	-0.0060956613
48	0x3d39bf17	0.045348253
49	0xbcdaa84a	-0.026691575
50	0xbd302d05	-0.043011684
51	0xbbfa79d0	-0.0076439157
52	0xbd85f658	-0.06541127
53	0x3d3c2645	0.045934934
54	0x3d911916	0.07084863
55	0xbc172530	-0.009225175
56	0x3d5a6552	0.053319283
57	0x3cabfbdf	0.020994125
58	0xbd4c51b1	-0.049882594
59	0x3ccd4266	0.025056075
60	0xbc452c6e	-0.012034519
61	0xbc32e71c	-0.010919359
62	0xbd903b02	-0.07042505
63	0xbd80cd46	-0.06289153
64	0x3c1e12aa	0.009648005
65	0xbcf09997	-0.029370112
66	0xbd17ee01	-0.037092213
67	0xbdc0227a	-0.09381576
68	0xbd35c63b	-0.0443785
69	0x3d10dcfe	0.035367005
70	0x3c051cec	0.008124571
71	0xbcbcecbf	-0.023062108
72	0x3d12c2ee	0.03583043
73	0xbd3a5ef4	-0.04550071
74	0xbba26cfc	-0.0049568396
75	0x3d77c987	0.060494926
76	0xbbda63a4	-0.00666471
77	0xbc2e5e56	-0.010642609
78	0xbd2ab1f5	-0.04167362
79	0xbd5aa02b	-0.053375404
80	0xbbf278cd	-0.0073996545
81	0x3ce3a99c	0.027790837
82	0xbdd288fc	-0.10280034
83	0x3d240ec4	0.040053144
84	0xbd13563e	-0.03597092
85	0xbd207cfd	-0.039181698
86	0x3cf0aa1d	0.029377991
87	0xbdb6aee5	-0.08920077
88	0x3b88ca18	0.004174482
89	0xbcf52fbf	-0.029929994
90	0x3d2d00d2	0.04223711
91	0xbda127f4	-0.078689486
92	0x3b369806	0.002786161
93	0x3c1f0dfb	0.009707923
94	0x3c14ac06	0.009074217
95	0x3d968a43	0.0735059
96	0x3d4c8da1	0.049939755
97	0x3c78bc92	0.015181677
98	0x3d0d806f	0.034546312
99	0x3d7e63e7	0.062106993
100	0x3d4b1c81	0.04958773
101	0x3d963567	0.073344044
102	0xbdbee927	-0.09321814
103	0x3d0a34a3	0.033741605
104	0x3c801fea	0.015640218
105	0x3d32c721	0.043646935
106	0x3cd6da7c	0.026227228
107	0xbc869864	-0.016430087
108	0xbd6fd7db	-0.058555465
109	0xbd096688	-0.033545047
110	0xbb57f671	-0.0032953287
111	0x3da670ce	0.081269845
112	0xbd907ffc	-0.07055661
113	0xbc950589	-0.018191116
114	0xbca6af5f	-0.020347295
115	0xbd4bb3ee	-0.04973214
116	0xbd29cc90	-0.04145485
117	0xbd9b1adf	-0.07573485
118	0xbd8162c4	-0.06317666
119	0xbd4ea88d	-0.05045371
120	0xbcd69d2f	-0.026197998
121	0x3d815250	0.06314528
122	0xbda33c1b	-0.079704486
123	0xbd5cb97c	-0.05388783
124	0xbce58ba7	-0.028020693
125	0x3a73b540	0.0009296723
126	0x3d101f84	0.035186306
127	0xbd5ce26c	-0.05392687
128	0x3b01f285	0.001982839
129	0x3d44c243	0.048036825
130	0xbd88705a	-0.06662054
131	0x3d21feff	0.039549824
132	0xbd78337b	-0.06059597
133	0x3d4b5b52	0.049647637
134	0x3d8ef5c4	0.0698047
135	0x3cc52387	0.024064792
136	0xbd8b8fee	-0.06814562
137	0xbd341076	-0.04396101
138	0x3da0f270	0.07858741
139	0xbd75967d	-0.05995797
140	0x3d8d9306	0.06912808
141	0xbd7cdbc0	-0.061733007
142	0xbd18421d	-0.037172426
143	0x3d42727a	0.047472455
144	0xbdafd3d6	-0.085853264
145	0xbd427a1d	-0.047479738
146	0xb91f15b4	-0.00015171507
147	0xbd6e65c5	-0.058202524
148	0xbbadc7b4	-0.0053033475
149	0x3caea223	0.021317547
150	0x3d6b5717	0.057456102
151	0xbd1cf48c	-0.038319156
152	0xbc257de9	-0.01010082
153	0xbd7ef418	-0.062244505
154	0xbc725724	-0.014791284
155	0x3d410038	0.04711935
156	0x3d10baba	0.035334326
157	0x3d741485	0.05958988
158	0x3b8e33f5	0.00433969
159	0xbc9831a9	-0.018578367
160	0x3cbe5763	0.023235029
161	0xbc93f1de	-0.018059667
162	0xbd92cab4	-0.07167569
163	0xbd9590df	-0.073030226
164	0x3da45e0c	0.080257505
165	0xbd19e9e3	-0.037576567
166	0x3d3b1971	0.04567856
167	0xbd8b622d	-0.06805835
168	0x3d113e57	0.035459843
169	0xbcfc3995	-0.030789176
170	0x3c9ee809	0.019397752
171	0xbda6afc2	-0.08138992
172	0xbd6346fe	-0.055487625
173	0xbd110462	-0.03540457
174	0x3bd0d773	0.00637334
175	0xbd1de866	-0.03855171
176	0xbd1116f3	-0.035422277
177	0xbb289e2e	-0.0025729048
178	0x3d247a11	0.040155474
179	0xbda7c195	-0.0819122
180	0xbd6a4333	-0.057192992
181	0x3be09444	0.006853612
182	0xbc4cfc06	-0.012511259
183	0xbce055ac	-0.027384602
184	0xbd0bd39f	-0.034137364
185	0x3d3f0680	0.04663706
186	0xbd9c7f90	-0.07641518
187	0x3d1181fc	0.035524353
188	0x3ca8aa35	0.020588974
189	0xbd63baf9	-0.055598233
190	0xbd164ef8	-0.036696404
191	0xbd2d1867	-0.0422596
192	0xbd38ffc3	-0.04516579
193	0xbd67b21a	-0.056566335
194	0x3d01425f	0.031557437
195	0x3d3689a1	0.044564847
196	0xbb3b1248	-0.0028544832
197	0x3ca6b376	0.020349246
198	0x3d195a6e	0.037439756
199	0x3c368b43	0.011141601
200	0x3da52db8	0.08065361
201	0x3b92f63c	0.00448492
202	0xbdeb2e28	-0.11483413
203	0x3da8e3bf	0.08246564
204	0x3c0fcab3	0.008776355
205	0xbc401f2d	-0.011726183
206	0xbb811384	-0.003939094
207	0xbdc7d92c	-0.09758219
208	0xbccb74fa	-0.024836052
209	0x3cb1a4bd	0.021684999
210	0x3c8ae100	0.016952991
211	0xbd9c8073	-0.07641687
212	0xbd23ec0e	-0.04002004
213	0x3da1c8cf	0.07899629
214	0x3caf2041	0.021377685
215	0x3b6a8184	0.0035782764
216	0xbd0de130	-0.034638584
217	0xbdf65b43	-0.120291255
218	0xbbae06b8	-0.0053108595
219	0xbd72dab4	-0.059290603
220	0x3d5f750b	0.05455498
221	0x3dd1c801	0.10243226
222	0x3d57501c	0.052566633
223	0x3ba2120a	0.004945998
224	0xbd3086f2	-0.043097444
225	0x3c0501c5	0.008118098
226	0x3c6fa862	0.014627548
227	0x3c37c38e	0.011216057
228	0xbd90b593	-0.070658825
229	0x3da0a9c9	0.07844884
230	0xbd75448d	-0.05987983
231	0xbbbe9a31	-0.005816721
232	0x3d859b95	0.065238155
233	0xbd28b26d	-0.041185785
234	0x3a799628	0.0009520971
235	0x3a642826	0.00087034923
236	0xbd412205	-0.047151584
237	0x3d256be4	0.040386096
238	0x3c588699	0.013215684
239	0x3b1b99ce	0.0023742798
240	0x3b22fad3	0.0024868741
241	0xbd198001	-0.03747559
242	0x3c1cce46	0.009570664
243	0xbd1e8510	-0.038701117
244	0x3dc70b98	0.09719008
245	0xbc5d71b0	-0.013515875
246	0x3c34effd	0.011043546
247	0x3cdcc522	0.026949469
248	0x3d350684	0.044195667
249	0xbc8a52f4	-0.016885258
250	0xbd8e8d89	-0.069605894
251	0xbd486035	-0.048919875
252	0xbdcd8621	-0.10035349
253	0xbd5a46d1	-0.053290192
254	0xbd51e900	-0.051247597
255	0xbdf8263b	-0.12116667

conv2.bias f4 [10]
0	0x3d80c419	0.06287403
1	0xbdabd101	-0.08389474
2	0x3db7255c	0.089426726
3	0x3c89d9fe	0.01682758
4	0xbab8369c	-0.0014054361
5	0x3d1ca321	0.03824151
6	0xbbf2d69b	-0.007410837
7	0x3dd9d917	0.1063711
8	0x3bada890	0.005299635
9	0xbd311b5c	-0.043238983

conv3.weight f4 [20, 10, 5, 5]
0	0xbdaab0dc	-0.083345145
1	0xbd6fca05	-0.05854227
2	0xbde7a152	-0.11310066
3	0xbcd65551	-0.026163729
4	0xbaa0e78e	-0.001227604
5	0x3d0f5c85	0.035000343
6	0xbda3d22b	-0.07999071
7	0xbccad97b	-0.024761906
8	0xbdc2b7d2	-0.09507717
9	0x3c35edb7	0.011104039
10	0xbd52a63c	-0.051428065
11	0xbd499243	-0.04921175
12	0xbd0012cd	-0.03126793
13	0x3cbc67b0	0.02299866
14	0x3d42abbc	0.04752706
15	0xbd560abc	-0.05225633
16	0x3c81dd00	0.015852451
17	0x3c9d2227	0.019181324
18	0xbcc817cd	-0.024425412
19	0xbd587a7e	-0.052851193
20	0xbd722ded	-0.05912583
21	0xbcf1c759	-0.029514002
22	0xbbbc55a2	-0.005747513
23	0x3ca6e2a0	0.020371735
24	0xbcf00529	-0.029299336
25	0x3d3fe01d	0.04684459
26	0x3c98202e	0.018570032
27	0x3d898378	0.06714529
28	0xbd3b4a91	-0.04572541
29	0x3d5e475f	0.054267284
30	0xbba66c7c	-0.0050788503
31	0x3cf430fb	0.029808512
32	0x3d097318	0.033557028
33	0x3d599d36	0.053128444
34	0xbc92207e	-0.01783776
35	0x3c86e4b9	0.016466485
36	0x3cde6824	0.027149267
37	0x3d51a78b	0.051185172
38	0xbd1fa7cc	-0.038978383
39	0xbc572a5c	-0.013132658
40	0xbd342584	-0.04398109
41	0x3d29e5d1	0.041478936
42	0xbd66d104	-0.056351677
43	0xbcccfac2	-0.025021914
44	0xbca7baf4	-0.020474888
45	0xbcea103a	-0.02857219
46	0x3d5d2664	0.05399169
47	0xbd5c54fa	-0.053791977
48	0x3cdae137	0.026718719
49	0xbb72014d	-0.0036927045
50	0x3cb3febb	0.02197205
51	0x3d429c10	0.047512114
52	0x3d1cfc5c	0.038326606
53	0x3d1559dd	0.036462653
54	0xbd26ef20	-0.04075539
55	0xbd549864	-0.051903144
56	0x3d4e9d60	0.050443053
57	0x3d19d599	0.03755722
58	0x3d50f175	0.05101152
59	0xbd41f30e	-0.047350936
60	0xbcd1c179	-0.02560495
61	0xbcb8f029	-0.022575455
62	0xbd49394e	-0.049126916
63	0x3bdcc48b	0.006737297
64	0xbd023441	-0.031788114
65	0xbdac0285	-0.08398918
66	0xbc7891ca	-0.015171478
67	0xbd83b263	-0.06430509
68	0xbd45eff4	-0.04832454
69	0xbd94a457	-0.07257908
70	0xbd3300a6	-0.04370179
71	0xbd85a28c	-0.06525144
72	0xbcf94644	-0.030429013
73	0x3d418fc6	0.047256254
74	0x3ca700b3	0.020386076
75	0xbd837450	-0.06418669
76	0xbcfaf78e	-0.030635621
77	0xbd99b58a	-0.07505329
78	0xbd7381da	-0.059450008
79	0xbd8abaf2	-0.06773938
80	0x3cddbe2f	0.027068226
81	0xbd41b1e8	-0.047288805
82	0x3d0c6ca9	0.034283314
83	0x3b8579f3	0.0040733754
84	0xbd082bf2	-0.033245035
85	0xbb6d5364	-0.0036213035
86	0x3d900e38	0.07033962
87	0x3b0a108e	0.0021066996
88	0xbc9de113	-0.019272363
89	0xba6352b4	-0.00086716865
90	0x3d88363d	0.0665097
91	0xbc459bdb	-0.012061085
92	0x3ca561ee	0.020188298
93	0x3d81ad30	0.06331861
94	0x3d0742f5	0.03302284
95	0xbbbbb99e	-0.0057289144
96	0x3d94e963	0.072710775
97	0xbc77abec	-0.015116673
98	0x3b9f9cf1	0.004871004
99	0x3c5ed401	0.01360035
100	0xbcd2ac41	-0.025716903
101	0x3a95974a	0.0011412886
102	0x3d57cb5c	0.052684173
103	0xbad5b40d	-0.001630427
104	0xbd1682d9	-0.03674588
105	0x3909c624	0.00013139151
106	0xbd88f638	-0.066875875
107	0x3c633b54	0.013869125
108	0x3c8a022e	0.016846742
109	0xbd2d3da8	-0.042295128
110	0xbc95b4dc	-0.018274717
111	0x3c81ba0d	0.015835786
112	0x3cea4c49	0.028600829
113	0xbcfe2b7f	-0.0310266
114	0xbcf75f50	-0.030196816
115	0xbccdbdef	-0.025114981
116	0xbd9e51f9	-0.07730479
117	0x3c78ccfa	0.015185589
118	0x3d63a015	0.055572588
119	0xbd59c201	-0.053163532
120	0xbdb246ac	-0.08704886
121	0xbcc3e731	-0.023913952
122	0xbd84644f	-0.06464445
123	0x3d38b2fe	0.045092575
124	0xbd4f483c	-0.050605997
125	0x3d0e6c70	0.034771383
126	0x3d993c43	0.07482197
127	0xbbaee1c4	-0.005336972
128	0x3d801799	0.06254501
129	0xbc78a4d4	-0.015176017
130	0xbd8cb9c0	-0.068713665
131	0xbd522088	-0.051300555
132	0xbd318b1e	-0.043345563
133	0x3b961473	0.0045800745
134	0xbd19e955	-0.03757604
135	0xbd0e3e5f	-0.03472745
136	0xbd47a601	-0.048742298
137	0x3bf314b9	0.007418242
138	0xbda2cb33	-0.079489134
139	0xbd9bf887	-0.07615762
140	0x3c1a27ae	0.009408874
141	0xbd0ec353	-0.034854244
142	0x3d25e03f	0.04049706
143	0x3b4ed6e0	0.003156118
144	0xbd98457c	-0.07435128
145	0xbc8adba1	-0.01695043
146	0x3d6b0e62	0.057386763
147	0xbc9fc8a0	-0.019504845
148	0xbc10312d	-0.008800787
149	0xbd026e99	-0.031843755
150	0x3d146d89	0.036237273
151	0x3c685489	0.014180311
152	0x3c991ac1	0.018689515
153	0x3cd9d10a	0.026588935
154	0x3d6ca5db	0.05777536
155	0xbcbea0e6	-0.023270082
156	0xbd91ef24	-0.071256906
157	0xbda3c076	-0.079956934
158	0x3b59c62a	0.0033229687
159	0xbd951d17	-0.07280939
160	0x3be8accb	0.0071006767
161	0x3c255a97	0.010092399
162	0xbda2e45f	-0.079537146
163	0x3c304d44	0.010760609
164	0xbd842ee8	-0.06454259
165	0xbb8d50b8	-0.004312601
166	0xbcbb7aab	-0.022885641
167	0x3ca5eaa8	0.020253494
168	0x3d212ebb	0.039351206
169	0x3b0ee2de	0.0021802704
170	0x3c3879e1	0.011259527
171	0xbd7c0fed	-0.061538626
172	0xbc473662	-0.012158962
173	0x3d1168e4	0.035500422
174	0x3d22ec0a	0.039775886
175	0x3b7fde56	0.0039042435
176	0xbc94353c	-0.01809179
177	0xbd0b29f9	-0.033975575
178	0x3d7b10f5	0.06129547
179	0x3cefd87e	0.029278036
180	0x3cde0263	0.027100747
181	0xbd30ecdd	-0.04319464
182	0xbccb1e8d	-0.024794841
183	0x3d7980eb	0.06091396
184	0xbbc0a7fc	-0.0058794003
185	0xbd5254cb	-0.051350396
186	0xbcada330	-0.021195978
187	0xbd66b893	-0.056328367
188	0xbd3b5dfd	-0.04574393
189	0x3d26920a	0.040666617
190	0xbd615e40	-0.055021524
191	0x3ce3c395	0.027803222
192	0x3d1ea887	0.03873494
193	0x3d040030	0.03222674
194	0xbb8571a9	-0.0040723872
195	0xbc913ba2	-0.01772863
196	0xbd4ede2f	-0.05050486
197	0x3cdf52c1	0.02726114
198	0xbd53e5c8	-0.05173281
199	0x3b16f27e	0.002303272
200	0xb9bdec1f	-0.00036224813
201	0xbd825adf	-0.063649885
202	0x3cfad687	0.030619873
203	0x3da8cb7c	0.082419366
204	0x3d09b49c	0.03361951
205	0xbca89e9e	-0.020583447
206	0xbc4efbc2	-0.012633266
207	0xbd63f2ba	-0.055651404
208	0x3d9e9e67	0.077450566
209	0x3d8c67f6	0.068557665
210	0x3d44b121	0.048020486
211	0xbd9cb391	-0.07651437
212	0x3c3ca664	0.01151428
213	0x3affc416	0.0019513394
214	0x3db5bd8c	0.08874044
215	0xbca2cd7b	-0.019873371
216	0xbcf030e7	-0.029320193
217	0xbd27fab3	-0.04101057
218	0xbc86e54d	-0.016466761
219	0x3cd69a00	0.02619648
220	0xbc778d95	-0.015109439
221	0x3c60e92c	0.0137274675
222	0x3cce6fb1	0.025199743
223	0xbc6351fd	-0.013874528
224	0x3be6d766	0.0070447205
225	0x3da3ee51	0.080044396
226	0x3d9511d7	0.07278793
227	0x3dbeb617	0.09312075
228	0xba8502b8	-0.0010147905
229	0x3d7f51ff	0.062334057
230	0x3b990e50	0.0046708956
231	0x3de8de51	0.113705285
232	0x3db815bf	0.08988523
233	0x3da6c2fe	0.081426606
234	0x3d966187	0.073428206
235	0xbd2921af	-0.04129189
236	0xbcd7253c	-0.026262872
237	0x3d67350a	0.056447066
238	0x3cb9922b	0.022652706
239	0x3dad3570	0.08457458
240	0x3d134366	0.035952948
241	0xbc3d46a9	-0.011552491
242	0x3d010aff	0.031504627
243	0x3c741816	0.014898321
244	0xbce36210	-0.02775672
245	0xbd844ea3	-0.06460311
246	0xbc92c27e	-0.017915007
247	0x3d1d3828	0.038383633
248	0x3c66ae2c	0.014079612
249	0xbd41a6ac	-0.04727809
250	0x3d52fdab	0.051511448
251	0x3d23b12f	0.039963897
252	0xbc81c636	-0.015841585
253	0x3ca2121e	0.01978403
254	0x3da4bce0	0.080438375
255	0x3c988e28	0.018622473

conv3.bias f4 [20]
0	0x3d0d80b1	0.034546558
1	0xbd8be6a2	-0.06831099
2	0x3d8b0f66	0.067900464
3	0xbcc6d907	-0.024273409
4	0xbd7771c0	-0.060411215
5	0xbcb3468e	-0.021884229
6	0xbd8cdeaf	-0.06878411
7	0x3d851120	0.06497407
8	0x3d472404	0.04861833
9	0xbc604f61	-0.0136908
10	0x3d8582e0	0.06519103
11	0x3d589ebe	0.052885763
12	0xbc9cff2e	-0.019164648
13	0xbc9c3959	-0.019070314
14	0x3d2a4d58	0.041577667
15	0x3c98e700	0.018664837
16	0xbcd093de	-0.025461134
17	0xbd99623a	-0.07489438
18	0x3d5c2c4a	0.053753175
19	0x3d5c18ac	0.053734466

conv4.weight f4 [20, 20, 5, 5]
0	0x3c882b5d	0.01662224
1	0xbbe92ffd	-0.0071163164
2	0x3d3cd9a7	0.046106007
3	0x3c0a7764	0.0084513165
4	0x3c3929d0	0.011301473
5	0x3ccfc698	0.025363252
6	0x3c67b2fd	0.014141795
7	0x3d125d1e	0.035733335
8	0xbd1c4672	-0.03815312
9	0x3c79ed02	0.015254261
10	0x3d473997	0.048638906
11	0x3c61d6ce	0.013784124
12	0x3d0e8831	0.03479785
13	0x3c8ad2ee	0.016946282
14	0xbce825e2	-0.028338376
15	0xbcb5a6a4	-0.022174187
16	0xb9bb911f	-0.00035775543
17	0x3b21a96e	0.0024667638
18	0x3d1b13f8	0.03786084
19	0xbc2331ec	-0.009960633
20	0xbc2581c7	-0.010101742
21	0x3c088832	0.008333253
22	0x3d45953f	0.048238035
23	0xbc7e1dbc	-0.015510019
24	0x3c203193	0.009777444
25	0xb9ae05a8	-0.0003319208
26	0x3c8c346a	0.017114837
27	0xbc97a027	-0.018508984
28	0xbb48355c	-0.0030549383
29	0x3c3e8c42	0.01163012
30	0x3c69a3ac	0.014260214
31	0xbc452f0e	-0.0120351445
32	0x3ccede78	0.025252566
33	0x3d91d0ef	0.07119929
34	0x3d5f1830	0.054466426
35	0xbbd7552c	-0.0065714326
36	0x3d156935	0.036477286
37	0x3d9c8c64	0.07643965
38	0x3d1d72a1	0.038439397
39	0x3d409c91	0.047024313
40	0x3c452270	0.012032136
41	0x3d9a08ab	0.075211845
42	0x3d2ca165	0.042146105
43	0x3db10ab3	0.08644619
44	0x3b9037bb	0.004401175
45	0x3c905238	0.01761733
46	0xbcfa140a	-0.030527133
47	0x3d3d3e10	0.046201766
48	0x3d07566d	0.033041406
49	0xbce7a334	-0.028276064
50	0xbc842813	-0.01613239
51	0xbb55d127	-0.0032625885
52	0xbd159a24	-0.036523953
53	0xbcd6c6d3	-0.026217854
54	0xbbc0a7b9	-0.005879369
55	0xbd586c04	-0.052837387
56	0xbdafef5e	-0.085905775
57	0xbcc68004	-0.024230964
58	0xbc8d7668	-0.017268375
59	0x3cd724e9	0.026262717
60	0xbc7f51e5	-0.01558349
61	0xba9a5a19	-0.0011776119
62	0xbc9efe49	-0.019408362
63	0x3d4ca0bc	0.049957976
64	0x3d6af984	0.057366863
65	0xbc0104b6	-0.007874658
66	0xbcfbb689	-0.030726688
67	0x3ca32175	0.019913414
68	0x3d04ea5c	0.032450065
69	0x3cc1a6b3	0.023639059
70	0xbc9255cb	-0.017863175
71	0x3c136309	0.00899578
72	0x3ca49f86	0.020095598
73	0x3d394227	0.045229103
74	0x3cc1fb8c	0.023679517
75	0xbcf13c62	-0.029447738
76	0x3d57f120	0.05272019
77	0xbb684fa1	-0.0035447853
78	0xbc91301a	-0.017723132
79	0xbc909ece	-0.017653849
80	0x3d06835d	0.03284012
81	0x3a37e03b	0.0007014309
82	0xbcd9353f	-0.026514648
83	0x3cddc4cf	0.027071385
84	0xbc92923c	-0.017891996
85	0xbd372b55	-0.04471906
86	0xbc4f94e4	-0.012669776
87	0xbc32f60d	-0.010922921
88	0xbc72028b	-0.014771114
89	0xbcdfe46a	-0.027330596
90	0x3c506d17	0.012721322
91	0xbceb3425	-0.028711388
92	0xbd4b7b0a	-0.049677886
93	0x3cd008ba	0.025394786
94	0xbc2b0b26	-0.01043967
95	0xbd55dc8e	-0.05221229
96	0x3c924d6e	0.017859187
97	0x3bba07f1	0.005677216
98	0x3cc83da4	0.024443455
99	0x3cc85435	0.024454216
100	0x3cb5cc04	0.022192009
101	0x3c9c4c48	0.019079342
102	0xbc4153b7	-0.011799744
103	0x3d233ced	0.039853025
104	0xbc9b90cd	-0.018989945
105	0x3c877209	0.016533868
106	0x3d54fe16	0.052000128
107	0x3d5e620f	0.054292735
108	0x3d5aa9f9	0.053384755
109	0x3d8f607c	0.07000825
110	0x3d72a495	0.05923899
111	0xbc4525d8	-0.012032948
112	0x3d5409ec	0.051767275
113	0x3bfa0127	0.007629532
114	0xba9fe451	-0.0012198781
115	0x3d03a32d	0.03213804
116	0x3ce53052	0.027977142
117	0xbbb9aa48	-0.005666051
118	0x3d12b520	0.035817266
119	0x3d43a94c	0.047768876
120	0x3b6b74ea	0.003592784
121	0xbcfc19d4	-0.030774035
122	0xbd55a5a4	-0.05215992
123	0xbcc4bfe7	-0.024017287
124	0x3bf936c3	0.007605405
125	0x3d3b6f26	0.045760296
126	0x3ccc75b4	0.024958469
127	0x3daff030	0.08590734
128	0x3cf15213	0.029458081
129	0x3c9a3b28	0.018827036
130	0x3d81066d	0.06300054
131	0x3dd9d601	0.10636521
132	0x3d853837	0.06504863
133	0x3d9db297	0.07700079
134	0x3cdccb9f	0.026952563
135	0x3d3ece6d	0.04658358
136	0x3b840a4f	0.004029549
137	0x3d08da52	0.03341133
138	0x3cca0a04	0.024662979
139	0xbd51f4d0	-0.051258862
140	0x3d506b70	0.05088371
141	0x3d3a73f8	0.045520753
142	0x3d239e68	0.03994599
143	0xbd14b058	-0.036300987
144	0xbc5eca62	-0.0135980565
145	0xbd0cb529	-0.034352455
146	0xbc38b14c	-0.01127274
147	0xbc13fdf2	-0.009032713
148	0xbd8c0b17	-0.06838053
149	0xbd38489c	-0.04499112
150	0xbc6c2e37	-0.014415315
151	0xbd364946	-0.044503473
152	0xbd148f4a	-0.036269464
153	0xbc6a4548	-0.0142987445
154	0xbcd2f0dd	-0.025749618
155	0x3ce1688b	0.02751567
156	0x395e5350	0.00021202606
157	0xbd501522	-0.050801404
158	0x3c525541	0.012837709
159	0xbca51d79	-0.020155655
160	0xbc8f9b93	-0.017530238
161	0x3d0de3e3	0.034641158
162	0x3d174438	0.036930293
163	0xbd5c8b43	-0.053843748
164	0xbcaf23c6	-0.021379363
165	0xbc3ac355	-0.01139911
166	0x3bb45346	0.005503091
167	0x3cc1ba56	0.023648422
168	0x3ce7ac7e	0.028280493
169	0x3cccdcd0	0.025007635
170	0xbc83e037	-0.016098125
171	0x3ce97522	0.028498236
172	0x3cb8330d	0.02248528
173	0x3c80585f	0.015667139
174	0xba384cd8	-0.00070304936
175	0x3c58c38c	0.013230216
176	0x3cf58d6c	0.029974662
177	0x3d620e91	0.055189673
178	0xbc8d8419	-0.017274903
179	0xba94cc63	-0.0011352416
180	0xbbaf282c	-0.005345365
181	0x3d2f8626	0.042852543
182	0xbc10f423	-0.008847269
183	0x3c1d5114	0.00960185
184	0xbc2fe634	-0.010736037
185	0xbd50b770	-0.05095619
186	0xbc63e28b	-0.0139089925
187	0x3d06244a	0.03274945
188	0xbc084d92	-0.008319275
189	0x3cdcc0d8	0.026947424
190	0xbc5956a4	-0.013265286
191	0xbbac5926	-0.0052596508
192	0xbd260fb8	-0.040542334
193	0x3d040a00	0.0322361
194	0x3ce89887	0.028393043
195	0xbd324e08	-0.043531448
196	0xbd6be055	-0.057586987
197	0xbd638f63	-0.055556666
198	0xbd5934ca	-0.05302886
199	0x3cdac4e6	0.026705217
200	0xbb7daec8	-0.0038708914
201	0x3d282908	0.041054755
202	0x3d2a53b0	0.041583717
203	0x3d195100	0.037430763
204	0x3cfab1a2	0.03060228
205	0x3d92cd8f	0.071681134
206	0x3c832704	0.016009815
207	0x3d717799	0.058951948
208	0x3caae130	0.02085933
209	0x3d350b4f	0.044200238
210	0x3ccfa330	0.025346369
211	0x3d0029ef	0.03128999
212	0xbd08c7b1	-0.033393566
213	0xbd4c8efb	-0.049941044
214	0xbd2b64d0	-0.04184419
215	0x3d4503b9	0.048099253
216	0x3cab3453	0.020898974
217	0x3cd69a68	0.026196674
218	0x3cb8a32e	0.022538748
219	0x3c898db4	0.016791202
220	0x3cf20b7d	0.029546494
221	0xbb2c9f87	-0.0026340203
222	0xbc45411b	-0.012039448
223	0x3d587884	0.052849308
224	0x3c958c2d	0.018255318
225	0xbc8eb295	-0.017419139
226	0x3c99c2d1	0.018769654
227	0xbc408ae9	-0.011751869
228	0x3c42449b	0.011857177
229	0x3c07cb97	0.008288286
230	0x3d1284ae	0.035771064
231	0x3d0fc10c	0.035096213
232	0x3c87c179	0.016571747
233	0x3d672b0d	0.05643754
234	0xbb4d8a07	-0.0031362788
235	0x3d698b8e	0.057017855
236	0x3cb91b62	0.022596065
237	0xbd3cdbae	-0.04610794
238	0x3c8eba55	0.017422834
239	0xbcff38fa	-0.031155098
240	0x3bdb0163	0.006683515
241	0x3c411a2c	0.011786025
242	0xbd77df9d	-0.06051599
243	0xbd462fed	-0.04838555
244	0x3c961c0c	0.01832392
245	0xbcf50cef	-0.029913394
246	0xbd6d01a7	-0.057862904
247	0xbcc21c6d	-0.023695195
248	0xbd7d7ae1	-0.061884765
249	0x3c4bd3cf	0.012440636
250	0x3c7275a7	0.014798558
251	0xbd097a32	-0.0335638
252	0xbc8bad11	-0.017050298
253	0xbb5a70e8	-0.0033331458
254	0x3cf9e558	0.030504867
255	0xbd516609	-0.0511227

conv4.bias f4 [20]
0	0xbc81d28f	-0.015847472
1	0x3c8d4c42	0.017248277
2	0xbbe31383	-0.006929816
3	0xbbe0ad64	-0.0068566073
4	0x3d2ad6f0	0.041708887
5	0xbbb90744	-0.005646618
6	0x3d400c97	0.046887007
7	0xbbf3ea34	-0.0074436907
8	0xbd74730f	-0.05968004
9	0x3cad71ec	0.021172486
10	0x3c556755	0.013025125
11	0x3c6e19d9	0.01453253
12	0xbccc0781	-0.024905922
13	0x3c1f4def	0.009723171
14	0xbdae24c3	-0.085031055
15	0xbd769189	-0.060197387
16	0x3c3a04e7	0.011353708
17	0x3c3193ee	0.010838492
18	0x3d464e46	0.04841449
19	0xbc79b5c1	-0.015241087

conv5.weight f4 [30, 20, 5, 5]
0	0x3cdfc597	0.027315898
1	0x3d83a63b	0.0642819
2	0x3d391551	0.045186345
3	0x3d1b8713	0.037970614
4	0xbd1b476c	-0.03790991
5	0x3d5c848b	0.05383734
6	0x3c8be6e4	0.01707787
7	0xbc8fccd4	-0.017553724
8	0xbc7dc9e8	-0.015490033
9	0xbccca15c	-0.024979286
10	0x3cf8c13c	0.030365579
11	0x3c1174ee	0.008877976
12	0xbbd7ff83	-0.0065917387
13	0xbd41509a	-0.04719601
14	0xbc42d85b	-0.0118924035
15	0x3cdcf8fa	0.02697419
16	0x3d14b29c	0.036303148
17	0x3c89613d	0.01677
18	0xbc926fa5	-0.017875502
19	0x3d00c509	0.031437907
20	0xbc704e02	-0.014667036
21	0xbbbf7de9	-0.005843867
22	0x3d880f16	0.066435024
23	0x3c838a20	0.016057074
24	0x3d6f206c	0.05838053
25	0xbd1ab03f	-0.037765738
26	0x3d0dd88e	0.03463035
27	0x3c8fc706	0.017550956
28	0xbbb4304e	-0.0054989224
29	0x3cb38bac	0.021917187
30	0x3c289514	0.010289449
31	0x3c95646c	0.018236361
32	0x3cbdcb66	0.023168277
33	0xbab5dd3a	-0.0013875135
34	0xbcafecf4	-0.021475293
35	0xbd00460d	-0.031316806
36	0xbc639165	-0.013889645
37	0xbcf3e0c7	-0.029770268
38	0x3c5ebdad	0.013595027
39	0xbcc52654	-0.024066128
40	0xbad1e62e	-0.0016014033
41	0x3d61da4f	0.055139836
42	0x3da427bc	0.08015391
43	0x3da5fbcd	0.08104668
44	0xbc8e615f	-0.017380415
45	0x3cfdebba	0.030996192
46	0x3c83a231	0.01606855
47	0x3d1c78b0	0.038201034
48	0xbc898573	-0.016787266
49	0xbbfa23bd	-0.007633655
50	0xbd3be56b	-0.045873087
51	0xbd3fe1c5	-0.04684617
52	0xbd0fc6be	-0.035101645
53	0x3c4ec7df	0.012620895
54	0x3d0e3ae1	0.03472412
55	0xbbf684fa	-0.0075231763
56	0xbda630c6	-0.081147715
57	0xbcc1e8db	-0.023670604
58	0xbcd1c82e	-0.025608148
59	0xbd914ce9	-0.070947476
60	0xbb2ef3d2	-0.0026695621
61	0xba9ce8f5	-0.0011971282
62	0xbdb8121b	-0.08987828
63	0xbd7f0f0a	-0.0622702
64	0x3b994faf	0.0046786885
65	0xbd3483ab	-0.04407088
66	0xbce42f6c	-0.027854644
67	0x3c498288	0.0122991875
68	0x3ce05313	0.027383363
69	0xbd788a45	-0.06067874
70	0xbd0c6bbf	-0.034282442
71	0xbc73c608	-0.014878757
72	0xbbdb1446	-0.0066857664
73	0x3c4c14be	0.012456117
74	0xbda47d45	-0.08031706
75	0x3c17c2db	0.009262766
76	0xbc7044c2	-0.014664831
77	0xbc0112b2	-0.0078779925
78	0x3d1895ec	0.03725235
79	0x3d080301	0.03320599
80	0xbb45afec	-0.0030164672
81	0xbcafc2a2	-0.021455113
82	0x3c8b970c	0.017039798
83	0x3ca8cbc6	0.02060498
84	0xbd2dd32e	-0.042437725
85	0xbc8fe19c	-0.017563634
86	0x3c5316c1	0.012883843
87	0xbcf0af4e	-0.029380467
88	0xbc7333ad	-0.014843863
89	0xbd61a7f6	-0.05509182
90	0x3b2c0d08	0.0026252884
91	0x3d4dd29d	0.050249685
92	0x3d001cfb	0.031277638
93	0x3cc876e6	0.024470758
94	0xbd146b6a	-0.03623525
95	0x3c505321	0.012715132
96	0x3b44fced	0.0030057982
97	0xbcbabf51	-0.022796305
98	0x3c9cf1f5	0.019158343
99	0xbc9da644	-0.01924432
100	0xbc724613	-0.014787215
101	0x3c3713a7	0.011174119
102	0xbd114292	-0.035463877
103	0xbccce12c	-0.025009714
104	0xbd543a88	-0.051813632
105	0xbd502be2	-0.0508231
106	0xbca92446	-0.02064718
107	0xba8f5bc3	-0.0010937381
108	0xbd080b22	-0.033213742
109	0xbd44cf99	-0.048049543
110	0xbdba8937	-0.09108203
111	0xbd8786a5	-0.06617478
112	0x3c9fd9d8	0.019513056
113	0xbafa2df1	-0.0019087178
114	0xbd53643a	-0.051609255
115	0xbdd22831	-0.10261572
116	0xbda6196a	-0.08110316
117	0x3bb6eb41	0.0055822437
118	0xbcb166ff	-0.021655558
119	0xbd3e1e11	-0.046415392
120	0xbd0b4fc2	-0.03401161
121	0xbdc234b9	-0.09482712
122	0xbd2ace0b	-0.041700404
123	0x3c9d5897	0.019207282
124	0xbc7b134e	-0.015324427
125	0xbd26f33e	-0.040759318
126	0xbc63daca	-0.013907144
127	0xbd253cde	-0.04034125
128	0xbbdc5e13	-0.0067250817
129	0xbce59843	-0.028026706
130	0xbd25a738	-0.040442675
131	0x3d5341da	0.051576473
132	0xbc4b8ba4	-0.01242343
133	0xbbdfed40	-0.0068337023
134	0x3bd0bc95	0.006370137
135	0x3beac28a	0.007164304
136	0xbc412c28	-0.011790313
137	0xbd05bb1d	-0.03264915
138	0x3cb51e05	0.022109041
139	0x3d5a0fc9	0.05323771
140	0xbcf42057	-0.029800577
141	0x3c252cdc	0.010081496
142	0xbd5bff46	-0.053710245
143	0xbc7a3237	-0.015270761
144	0x3c83e6f2	0.016101334
145	0xbd328ae6	-0.043589495
146	0x3bcbfd2d	0.0062252493
147	0xbc037d1c	-0.008025434
148	0x3d2f75dc	0.04283701
149	0x3d41f4ac	0.047352478
150	0xbc833d5c	-0.01602047
151	0xb9932a9f	-0.0002806978
152	0x3bfdc8f3	0.0077449023
153	0x3a73c752	0.00092994154
154	0xbaf0454b	-0.0018331198
155	0x3c0d2c28	0.008616485
156	0x3d17110d	0.036881495
157	0xbc304f34	-0.010761071
158	0xbd4b47a0	-0.049628854
159	0xbbc49308	-0.005998973
160	0x3b03b91f	0.0020099354
161	0x3bffdd18	0.007808339
162	0x3c125037	0.0089302575
163	0xbced984b	-0.029003283
164	0xbc7e7208	-0.015530117
165	0x3d987f41	0.07446147
166	0x3c981c99	0.018568324
167	0xbb940583	-0.0045172586
168	0xbc5d7280	-0.013516068
169	0x3d4caff1	0.04997248
170	0x3d455646	0.04817798
171	0x3d8e15c2	0.06937744
172	0x3c727edd	0.014800754
173	0x3d02bde1	0.031919364
174	0x3c0a3d25	0.00843743
175	0xbd700748	-0.058600694
176	0x3b858037	0.0040741223
177	0xbc55381f	-0.013013869
178	0xbc05a11f	-0.00815609
179	0xbcdec97a	-0.02719568
180	0xbd2498dc	-0.04018484
181	0xbd38af9c	-0.04508935
182	0xbc9fb4f7	-0.01949547
183	0xbc80a0e8	-0.015701726
184	0x3bc4360c	0.005987888
185	0xbdcf96f5	-0.10136215
186	0xbd2939dc	-0.041314945
187	0xbd473233	-0.048631858
188	0xbd76f82a	-0.06029526
189	0xbd00d47b	-0.031452637
190	0xbd83db41	-0.06438304
191	0xbdad755d	-0.08469651
192	0xbd5d73bf	-0.054065462
193	0xbd50ab86	-0.050944827
194	0xbd28dd58	-0.041226715
195	0xbddf34e4	-0.1089876
196	0xbd395cd5	-0.045254547
197	0x3b28a869	0.0025735146
198	0xbc9e390a	-0.019314308
199	0xbcada41f	-0.021196423
200	0xbd18220b	-0.03714184
201	0xbd698f69	-0.057021532
202	0xbd745e28	-0.059660107
203	0xbcde5337	-0.02713929
204	0xbd7ea16a	-0.062165655
205	0xbd4c478f	-0.04987293
206	0xbd527d37	-0.051388945
207	0xbd810240	-0.06299257
208	0xbd8f19f6	-0.069873735
209	0xbd5180df	-0.05114829
210	0xbb94b907	-0.0045386585
211	0xbdba32a2	-0.09091689
212	0xbd57d518	-0.052693456
213	0xbcc87053	-0.024467623
214	0xbc9c1e7c	-0.019057505
215	0xbdcfac51	-0.101402886
216	0xbd828f30	-0.06374967
217	0xbcba78d7	-0.022762699
218	0xbd8c081a	-0.06837483
219	0xbd2f1422	-0.04274381
220	0xbccc6d34	-0.024954416
221	0xbd883a5a	-0.06651755
222	0xbc4626be	-0.012094198
223	0xbd67b1cd	-0.05656605
224	0xbc3d466b	-0.0115524335
225	0x3d79861e	0.06091892
226	0x3d46aca2	0.04850448
227	0x3ba1e2cf	0.004940368
228	0x3c1a4053	0.00941475
229	0x3be02568	0.0068403967
230	0x3d31662f	0.04331034
231	0xbb2da222	-0.0026494344
232	0x3d81fa2a	0.06346543
233	0x3c073f4a	0.008254835
234	0x3c6e24e9	0.014535167
235	0x3d453ffa	0.048156716
236	0x3bcfed32	0.0063454146
237	0xbc0b7988	-0.008512862
238	0x3ca9b056	0.020713966
239	0xbd809881	-0.06279088
240	0x3d557864	0.052116767
241	0xbbc3fd50	-0.005981125
242	0x3c44407e	0.011978267
243	0x3c53c3ce	0.012925101
244	0x3afb3c6a	0.0019167785
245	0x3d885acb	0.066579424
246	0x3d077d27	0.03307834
247	0x393b2e69	0.00017850999
248	0x3b5b2405	0.0033438217
249	0xbd827277	-0.06369489
250	0xbcd65040	-0.026161313
251	0xbd603774	-0.054740384
252	0xbc647b1d	-0.013945368
253	0xbd4f5c0c	-0.050624892
254	0xbda436e2	-0.080182806
255	0xbbe3f377	-0.0069565135

conv5.bias f4 [30]
0	0x3cd4ba08	0.025967613
1	0xbd350420	-0.044193387
2	0xbdad5d8a	-0.08465107
3	0x3c041900	0.008062601
4	0x3c80433c	0.01565706
5	0xbd28276e	-0.041053228
6	0xbbf1b663	-0.0073764785
7	0xbd3cc688	-0.04608777
8	0x3d7bf2bf	0.061510798
9	0xbbd7b725	-0.006583112
10	0xbb4d66c6	-0.0031341775
11	0x3cf82f1d	0.030295903
12	0x3c05c081	0.008163572
13	0x3d87b0f1	0.06625546
14	0xbd05e292	-0.032686777
15	0xbc065730	-0.008199498
16	0xbca8628c	-0.020554803
17	0xbd1215f6	-0.035665475
18	0xbd3fc9f4	-0.046823457
19	0xbca82a08	-0.020527855
20	0xbd70c28c	-0.058779284
21	0xbc97c6f9	-0.018527495
22	0x3b4f9a88	0.00316778
23	0x39bbf45a	0.00035849476
24	0x3d2f7a06	0.04284098
25	0xbc0dc795	-0.008653541
26	0x3c33aa95	0.010965963
27	0xbd402c4e	-0.046917252
28	0x3ba3feb3	0.0050047277
29	0x3d1134c0	0.035450697

conv6.weight f4 [30, 30, 5, 5]
0	0x3b883972	0.0041572386
1	0x3cf2c61c	0.029635482
2	0x3d495359	0.049151752
3	0x3c63db64	0.013907287
4	0x3c76f6ef	0.015073522
5	0x3cd9f49f	0.026605902
6	0x3d7928db	0.06082998
7	0x3c4d5a3f	0.012533723
8	0x3cd54812	0.026035342
9	0x3c0456ac	0.008077305
10	0x3d5b0c36	0.053478442
11	0x3d83a45c	0.064278334
12	0x3cdf4168	0.027252868
13	0x3d82adca	0.06380804
14	0x3ca190e9	0.019722419
15	0x3d24ad6e	0.040204458
16	0x3d33c34f	0.043887433
17	0x3d72a09a	0.059235193
18	0x3bd4060b	0.006470447
19	0x3cc30d74	0.023810126
20	0x3d0678d9	0.032830093
21	0x3a810382	0.0009842964
22	0xbc6004e1	-0.013673038
23	0xbd0a6fd6	-0.03379806
24	0xbd435b72	-0.04769463
25	0x3ab25858	0.0013606651
26	0xbbbff89f	-0.0058584954
27	0xbcab58cb	-0.020916363
28	0xbccdbd72	-0.025114749
29	0xbd9839f0	-0.07432926
30	0xbd82afe3	-0.06381204
31	0xbd83ac68	-0.06429368
32	0xbd170087	-0.036865737
33	0xbd23c8ff	-0.039986607
34	0xbdaa1915	-0.08305565
35	0xbd81abbc	-0.06331584
36	0xbd50b4ac	-0.050953552
37	0xbd9342a4	-0.07190445
38	0xbda3bc9f	-0.07994961
39	0xbda8e66f	-0.08247077
40	0xbd18bb14	-0.037287787
41	0xbd00c444	-0.031437173
42	0xbd9cb503	-0.07651713
43	0xbd5ec154	-0.05438359
44	0xbd827d0f	-0.06371509
45	0xbd1c934a	-0.038226403
46	0xbcd43b7d	-0.025907272
47	0xbcc481f6	-0.023987751
48	0xbd6fbc3b	-0.05852912
49	0xbd4aeeb9	-0.04954407
50	0xbbbbdda0	-0.005733207
51	0x3d04c2a3	0.032412183
52	0xbb87bc0d	-0.0041422904
53	0xbd37404b	-0.04473905
54	0x3c96d204	0.01841069
55	0x3cee1935	0.029064754
56	0x3c38b820	0.011274368
57	0x3c57fba7	0.013182557
58	0xbcf9647c	-0.030443422
59	0xbd0c096e	-0.03418868
60	0x3d1ac076	0.0377812
61	0xbccc7a2e	-0.024960604
62	0xbd392e1b	-0.045209985
63	0xbd3adcb3	-0.04562063
64	0xbd3e6972	-0.04648728
65	0x3caf0e12	0.021369014
66	0x3caa4b96	0.020787995
67	0xbc649728	-0.013952054
68	0x3cfe1f3c	0.031020753
69	0xbc8f48dc	-0.017490797
70	0xbc8b5085	-0.017006168
71	0xbcac8f36	-0.021064382
72	0x3c8ad2ad	0.016946161
73	0xbca2ac79	-0.019857632
74	0x3ba69193	0.005083272
75	0xbd39599d	-0.045251478
76	0xbd35570b	-0.044272464
77	0x3c3c9d88	0.011512168
78	0x3c8d3e9a	0.017241765
79	0xbcf6414a	-0.03006043
80	0xbccf2534	-0.025286295
81	0xbd370021	-0.044677857
82	0x3cdc1c0b	0.02686884
83	0x3d030280	0.031984806
84	0x3a3e94b1	0.00072700816
85	0xbcddadb2	-0.027060363
86	0x3bc62ae7	0.006047595
87	0x3c69e5f0	0.014276013
88	0xbcf3ba16	-0.029751819
89	0xbd1d2ef3	-0.038374852
90	0xbcedac32	-0.029012773
91	0xbd34f57b	-0.04417942
92	0x3cf27ac9	0.029599564
93	0xb91df88e	-0.0001506528
94	0xbc06589e	-0.008199839
95	0xbc52218b	-0.01282538
96	0xbc8f6e18	-0.017508551
97	0xba94e37a	-0.0011359297
98	0xbccdde7a	-0.0251305
99	0x3d05f71a	0.032706358
100	0x3d33da69	0.043909464
101	0x3d378416	0.0448037
102	0xbd04d6a6	-0.032431267
103	0xbc39ff53	-0.011352378
104	0xbcd58209	-0.026062982
105	0x3cc6c5b7	0.0242642
106	0x3b046bc1	0.0020205828
107	0xbc65eddb	-0.01403376
108	0xbc4f4899	-0.012651586
109	0xbc6fa58e	-0.014626874
110	0x3d5fb98a	0.054620303
111	0x3c880166	0.01660223
112	0x3cd659bf	0.026165841
113	0xbd7b8caf	-0.061413463
114	0xbd9e76a8	-0.07737476
115	0x3cf3be3b	0.029753795
116	0x3d17ed32	0.03709144
117	0x3c4d19b9	0.01251834
118	0xbd066719	-0.032813165
119	0xbd115674	-0.03548284
120	0x3d5f6da3	0.054547917
121	0x3d418517	0.047246065
122	0xbd370be2	-0.044689067
123	0xbd4d86cf	-0.05017739
124	0xbd9bdf28	-0.07610923
125	0x3cedf92a	0.029049475
126	0x3c9d9240	0.019234776
127	0x3d08e41f	0.03342068
128	0x3cdec8f3	0.02719543
129	0xbc903937	-0.017605407
130	0x3d36ae8d	0.04460006
131	0x3d7a11b7	0.06105205
132	0x3d504d0e	0.050854735
133	0x3d91ce2e	0.07119404
134	0xbd0a3fb6	-0.033752166
135	0x3d85c2aa	0.0653127
136	0x3d427939	0.04747889
137	0x3d0e6881	0.03476763
138	0x3d8651a7	0.06558543
139	0xbc3f58d1	-0.01167889
140	0x3d133793	0.03594167
141	0x3d85281a	0.065017894
142	0x3d93ee6c	0.0722321
143	0x3cf5e914	0.030018367
144	0x3cb08d3e	0.021551725
145	0x3cb6a592	0.022295747
146	0x3d00be31	0.03143138
147	0x3b8a4828	0.0042200275
148	0x3d8a96a9	0.067670174
149	0xbd0882c4	-0.033327833
150	0xbd850c61	-0.06496502
151	0xbd6d4753	-0.05792935
152	0x3d0ee4e3	0.034886252
153	0xbd26717c	-0.04063557
154	0xbd44f0c5	-0.04808118
155	0xbce176f3	-0.02752254
156	0xbd1e2782	-0.038611896
157	0xbcd1f6a9	-0.025630312
158	0xbbeed9f6	-0.0072891666
159	0xbd7b5734	-0.06136246
160	0xbc68b337	-0.014202884
161	0xbceb08dc	-0.028690748
162	0xbd4b4dd6	-0.049634777
163	0xbc96a204	-0.018387802
164	0xbd949702	-0.07255365
165	0x3a2e8e36	0.00066587643
166	0xbd822b8c	-0.06355962
167	0x3c9c77d0	0.0191001
168	0xbcc1269f	-0.023577986
169	0x3cec3ce3	0.028837627
170	0x3c6a6c7d	0.014308092
171	0x3c99dc24	0.018781729
172	0xbcb0b434	-0.021570303
173	0xba8bb6d0	-0.0010659341
174	0x3ccdb3cd	0.02511015
175	0xbd2a8931	-0.041634742
176	0xbc552b1c	-0.013010766
177	0xbaacca82	-0.0013182911
178	0x3c5b1692	0.01337208
179	0x3c957ccd	0.018247986
180	0x3b8113e5	0.003939139
181	0xbd0fd4b3	-0.035114955
182	0xbce9cf84	-0.028541334
183	0xbd49f43e	-0.049305193
184	0xbc9e139e	-0.019296464
185	0x3ba729bb	0.00510141
186	0x3a74c887	0.0009337742
187	0xbd64f6c2	-0.05589939
188	0xbd4dcbc4	-0.050243154
189	0xbd27d232	-0.040971942
190	0x3d0c49ef	0.034250196
191	0x3cc02bbd	0.023458356
192	0xbd0336a8	-0.032034546
193	0xbc44a547	-0.012002296
194	0xbc80b55b	-0.015711477
195	0x3c007974	0.007841457
196	0xbc842b56	-0.016133945
197	0x3ce2b5f1	0.027674647
198	0x3c2991e3	0.0103497235
199	0xbd35abf3	-0.044353437
200	0x3c0bc60b	0.008531104
201	0xbcc8a65b	-0.024493387
202	0x3c96e364	0.018418975
203	0xbb851555	-0.004061381
204	0xbcb786ce	-0.022403147
205	0xbbb21fb8	-0.00543591
206	0xbcbc497b	-0.022984257
207	0xbcad56bc	-0.021159522
208	0xbcd64ffe	-0.02616119
209	0xbd7660b4	-0.060150817
210	0x3c68de76	0.014213195
211	0x3c36f7ee	0.0111675095
212	0xbc0ff56d	-0.008786541
213	0xbd378844	-0.044807687
214	0x3b8b85a4	0.0042578746
215	0xbd2ab2c6	-0.041674398
216	0xbc70762a	-0.01467661
217	0xbd328b03	-0.043589603
218	0xbcf75c2c	-0.030195318
219	0xbb41ac78	-0.0029552262
220	0xbcd5cdc8	-0.0260991
221	0xbcc3db40	-0.023908257
222	0xbd0fc4f0	-0.035099924
223	0xbceaeaf6	-0.028676491
224	0xbd0c820e	-0.034303717
225	0xbd359ed1	-0.044340912
226	0x3c6ccd8b	0.014453302
227	0xbcc74bfa	-0.02432822
228	0xbc101f6a	-0.008796552
229	0x3d7e1282	0.06202937
230	0x3cf74625	0.030184815
231	0x3d5e43a3	0.054263722
232	0x3d072abf	0.03299975
233	0x3cc7c2d3	0.024384892
234	0x392f3fea	0.0001671311
235	0x3d03782b	0.032097023
236	0x3ce8b9c6	0.028408896
237	0x3c8f97b4	0.017528392
238	0x3c8a0001	0.016845705
239	0x3ce4296f	0.027851788
240	0x3d3cd84a	0.046104707
241	0x3cb36cc3	0.021902448
242	0x3cc200b2	0.023681972
243	0x3ca13554	0.01967875
244	0xbce36ab4	-0.027760841
245	0xbc6bc439	-0.014390045
246	0x3d3f4336	0.046694957
247	0x3d28e7fb	0.04123686
248	0xbce84d88	-0.028357282
249	0xbd058995	-0.03260191
250	0xbc9348a6	-0.017978977
251	0xbcc77240	-0.02434647
252	0x3c00d501	0.007863284
253	0xbcd04da9	-0.025427656
254	0xbd31c989	-0.04340509
255	0x3c8073e7	0.015680267

conv6.bias f4 [30]
0	0x3c2869a1	0.01027909
1	0x3cebf7a2	0.028804604
2	0xbc9abb43	-0.018888121
3	0xbce48345	-0.027894625
4	0x3d17c625	0.0370542
5	0x3bb66d53	0.0055672317
6	0xbc9ff226	-0.019524645
7	0xbd0df0f0	-0.034653604
8	0x3b675015	0.0035295535
9	0x3c8e054c	0.01733651
10	0x3bb873d2	0.005629041
11	0xbcf4110d	-0.029793287
12	0x3c7f47c8	0.015581079
13	0xbd43b729	-0.047782097
14	0x3c9da77e	0.019244906
15	0x3c579895	0.013158937
16	0x3cb5b315	0.02218012
17	0x3d07934c	0.033099458
18	0xbae3107e	-0.0017323641
19	0x3c995055	0.018715063
20	0xbd04f8fa	-0.032464005
21	0x3cf626c4	0.030047782
22	0xb9790034	-0.00023746566
23	0x3d18f918	0.03734693
24	0x3c798d71	0.015231476
25	0xbcb88df6	-0.02252863
26	0xbd217c59	-0.039425228
27	0xbbc2a648	-0.0059402324
28	0xbd8f5868	-0.06999284
29	0xbbcb62ca	-0.006206845

bn1.weight f4 [10]
0	0x3f88d8d4	1.0691171
1	0x3f5b416b	0.85646695
2	0x3f7dc7ad	0.99132806
3	0x3f8275b9	1.0192176
4	0x3f773a88	0.96573687
5	0x3f7ebfc6	0.99511373
6	0x3f794f8f	0.9738702
7	0x3f6f8f86	0.93578374
8	0x3f8df8fd	1.109161
9	0x3f7f6c10	0.99774265

bn1.bias f4 [10]
0	0x3d87ee55	0.06637255
1	0xbd9f8806	-0.07789616
2	0x3c7dc909	0.015489825
3	0x3dcbfa70	0.099598765
4	0xbcd55da7	-0.026045633
5	0xbd41e4df	-0.04733741
6	0x3c239e75	0.00998651
7	0xbdb5e1c6	-0.088809535
8	0x3e239741	0.15975668
9	0xbcfab206	-0.030602466

bn1.running_mean f4 [10]
0	0xbea4f5c5	-0.32218757
1	0xbe7e1c30	-0.2481544
2	0x3e0c1359	0.13679256
3	0xbd54aaea	-0.05192081
4	0x3e6c8a47	0.23099624
5	0xbd00bb19	-0.03142843
6	0xbde2cad8	-0.110738456
7	0xbcbd7ee7	-0.0231318
8	0x3cb858d1	0.022503288
9	0xbec136f8	-0.3773725

bn1.running_var f4 [10]
0	0x3e7ab790	0.24484086
1	0x3f935c9d	1.1512638
2	0x3e9d680d	0.30743447
3	0x3ecb17f7	0.3966672
4	0x3e93aacc	0.28841245
5	0x3e4c86c5	0.19973285
6	0x3f125d71	0.5717383
7	0x3e94ba2f	0.29048297
8	0x3e98c733	0.29839477
9	0x3f3ad5ce	0.7298249

bn2.weight f4 [20]
0	0x3f7c74ea	0.98615897
1	0x3f8770b5	1.058127
2	0x3f7c46fe	0.98545825
3	0x3f77e748	0.9683728
4	0x3f75fe88	0.9609151
5	0x3f807f62	1.0038874
6	0x3f7679e2	0.9627973
7	0x3f7b730b	0.98222417
8	0x3f7ece34	0.9953339
9	0x3f7cfab9	0.9882007
10	0x3f77d10c	0.96803355
11	0x3f7fa945	0.9986766
12	0x3f83f3da	1.0308793
13	0x3f84c5e3	1.037289
14	0x3f757f4a	0.9589735
15	0x3f80659f	1.0031012
16	0x3f8600c1	1.046898
17	0x3f821868	1.0163698
18	0x3f8867b2	1.0656645
19	0x3f7c296d	0.9850071

bn2.bias f4 [20]
0	0xbd67798d	-0.056512404
1	0xbca681a0	-0.020325482
2	0xbd0f869d	-0.035040487
3	0xbd69f03b	-0.057113867
4	0xbd143aac	-0.036188766
5	0x3c86ea32	0.016469095
6	0xbd7080a3	-0.058716428
7	0x3ae980cb	0.0017814873
8	0x3d0a0dd2	0.033704586
9	0xbd830025	-0.06396512
10	0xbc6a625b	-0.014305676
11	0xbcce5b36	-0.025189977
12	0x3cb3469e	0.021884259
13	0x3b2a189e	0.0025954614
14	0xbc30496e	-0.0107596945
15	0xbd87888a	-0.0661784
16	0x3d0b8ef2	0.03407187
17	0xbcaf72e7	-0.021417094
18	0x3bc78c5f	0.0060897316
19	0xbc31d7a2	-0.0108546335

bn2.running_mean f4 [20]
0	0x3f10adbe	0.5651511
1	0xbf0c0022	-0.546877
2	0xbf58f600	-0.84750366
3	0xbfadef2a	-1.3588612
4	0xbd2b8787	-0.041877296
5	0xbdd5aff8	-0.10433954
6	0x3e4e4df5	0.20146926
7	0xbf36d15a	-0.71413195
8	0xbf88698d	-1.0657212
9	0xbf436578	-0.76326704
10	0xbf59d5e0	-0.8509197
11	0x3d42f9ef	0.047601636
12	0xbe2a046c	-0.1660325
13	0xbecfb4b2	-0.40567547
14	0xbef94e6e	-0.4869265
15	0xbd957bae	-0.07298981
16	0xbf47cc73	-0.7804634
17	0x3ecaabd1	0.3958421
18	0xbf493a9d	-0.7860506
19	0x3f3c993a	0.73671305

bn2.running_var f4 [20]
0	0x3fbdea0c	1.483705
1	0x3f86040d	1.0469986
2	0x3f7c946e	0.98663986
3	0x3fbbf949	1.4685451
4	0x3f43c982	0.7647935
5	0x3fbe990a	1.4890454
6	0x3fbd1adc	1.4773822
7	0x3f8b3eba	1.0878518
8	0x3fb96638	1.448432
9	0x3fa5429b	1.2910951
10	0x3fab8e88	1.3402872
11	0x3f8243c6	1.0176933
12	0x3fc021b2	1.5010283
13	0x3f8067c4	1.0031667
14	0x3fc448be	1.5334699
15	0x3f53a2d8	0.82670355
16	0x3f9bc049	1.2168056
17	0x3f858072	1.0429823
18	0x3f560310	0.83598423
19	0x3fcc9cea	1.5985386

bn3.weight f4 [30]
0	0x3f62f0b3	0.8864853
1	0x3f56034b	0.83598775
2	0x3f543db5	0.8290666
3	0x3f4ae23b	0.7925145
4	0x3f5c48d3	0.8604862
5	0x3f5666f9	0.83750874
6	0x3f5f57a4	0.87243104
7	0x3f605022	0.8762227
8	0x3f62ee99	0.8864532
9	0x3f5f8846	0.8731731
10	0x3f5d39db	0.86416405
11	0x3f558182	0.8340074
12	0x3f62eb1b	0.8863999
13	0x3f6621bf	0.8989524
14	0x3f64486d	0.8917301
15	0x3f66530e	0.8997048
16	0x3f5943df	0.8486919
17	0x3f5e8a1f	0.86929506
18	0x3f571163	0.84010905
19	0x3f5f8d0a	0.87324584
20	0x3f5da730	0.8658323
21	0x3f620a1b	0.8829667
22	0x3f5dbd9d	0.8661745
23	0x3f50d5f0	0.8157644
24	0x3f602a82	0.8756486
25	0x3f5b0a23	0.8556234
26	0x3f5f9924	0.8734305
27	0x3f5d9e9d	0.8657015
28	0x3f654673	0.8956062
29	0x3f5ef29b	0.87088937

bn3.bias f4 [30]
0	0xbdd544eb	-0.10413536
1	0xbe1ff8fb	-0.15622322
2	0xbe244110	-0.16040444
3	0xbe4ac93a	-0.19803324
4	0xbe27227f	-0.16321753
5	0xbe48c3bb	-0.19605915
6	0xbe189682	-0.14901164
7	0xbe11a4ac	-0.14222974
8	0xbdc97cc5	-0.09838251
9	0xbe0cd26f	-0.13752149
10	0xbe3648f9	-0.17801274
11	0xbe3bbe93	-0.18334417
12	0xbdf011a5	-0.117221154
13	0xbe23ed13	-0.16008405
14	0xbe2a3e8b	-0.16625421
15	0xbe01fa4b	-0.12693135
16	0xbe146600	-0.14492035
17	0xbe29da33	-0.16587143
18	0xbe43faa4	-0.1913858
19	0xbe298184	-0.16553313
20	0xbe13307b	-0.14373963
21	0xbe059d53	-0.13048296
22	0xbe3a7fae	-0.18212768
23	0xbe4ff8ef	-0.20309804
24	0xbe3208b7	-0.17386137
25	0xbe316868	-0.17324984
26	0xbe06ff88	-0.13183415
27	0xbe225463	-0.15852503
28	0xbdd2aa81	-0.10286427
29	0xbe3b276b	-0.18276756

bn3.running_mean f4 [30]
0	0xbf9269b1	-1.1438504
1	0xbeca5ec0	-0.39525414
2	0xbfd528f7	-1.6653126
3	0xbd8af708	-0.06785399
4	0xbf26941d	-0.6506975
5	0xbec8d078	-0.3922155
6	0x3e04dfac	0.12975949
7	0xbf90f49e	-1.1324651
8	0x3f470e8f	0.7775659
9	0xbe1fddeb	-0.15611999
10	0xbf6bb024	-0.92065644
11	0x3f0f88d3	0.5606815
12	0xbe21ae11	-0.15789057
13	0xbf0376bf	-0.5135307
14	0xbf2ced9d	-0.6755007
15	0xbee8a46a	-0.45437938
16	0xbf19a1c9	-0.6001249
17	0xbf0b9dfb	-0.54537934
18	0xbf843e8c	-1.0331588
19	0xbfd5e6b1	-1.6711026
20	0xbd9f8f66	-0.07791023
21	0xbe5a8812	-0.21340969
22	0xbe6796a0	-0.22616053
23	0xbf54074c	-0.82823634
24	0xbe474312	-0.19459179
25	0xbf95ecef	-1.1712931
26	0xbfdbbb0d	-1.7166458
27	0xbf22a7c2	-0.6353723
28	0xbeeef5e8	-0.46671987
29	0xbf8030c5	-1.0014883
