outputs/2022-05-26/17-31-54/models/epoch=7-step=1048.ckpt (torch, 985488 bytes, 66 tensors)

conv1.weight f4 [10, 3, 5, 5]
0	0xbd556c06	-0.052104972
1	0xbb045b7e	-0.0020196135
2	0xbd67064b	-0.056402486
3	0x3da02787	0.07820039
4	0xbdde0910	-0.10841572
5	0x3db84c45	0.08998922
6	0xbdd27282	-0.10275747
7	0xbdc72c96	-0.09725301
8	0xbd6c3a41	-0.057672743
9	0x3d693772	0.056937642
10	0xbd70b3aa	-0.05876509
11	0x3ccf9cc5	0.025343308
12	0xbe007b2b	-0.12546985
13	0xbd9af2d4	-0.07565847
14	0xbd721c3e	-0.059108965
15	0xbcba5ce8	-0.02274938
16	0xbdda1103	-0.10647776
17	0x3d9d46ce	0.076795205
18	0xbc938c88	-0.018011346
19	0x3cfb5f53	0.030685103
20	0x3ddc8096	0.10766713
21	0x3cc1de26	0.023665499
22	0x3cc9d0d3	0.024635708
23	0x3e02b6f5	0.12765105
24	0xbd68cb7d	-0.056834687
25	0x3d0e66f7	0.034766164
26	0xbd3d33b3	-0.046191882
27	0x3dc2f29d	0.09518931
28	0x3e041429	0.12898315
29	0xbdd5988d	-0.104294874
30	0x3dd574c1	0.1042266
31	0x3d6e0b69	0.05811635
32	0x3d8e8810	0.069595456
33	0x3d9d6016	0.076843426
34	0x3de099fb	0.109668694
35	0xbcb787ee	-0.022403684
36	0xbdcfb808	-0.10142523
37	0xbd0cbc6a	-0.034359373
38	0xbd8c67ee	-0.068557605
39	0x3a4d5c98	0.0007833927
40	0xbc975780	-0.01847434
41	0xbd8c6a89	-0.068562575
42	0x3af71a3f	0.0018852426
43	0x3e093f3d	0.1340303
44	0xbc17f6ab	-0.009275119
45	0x3c499700	0.012304068
46	0xbcd526d9	-0.0260195
47	0x3c179d21	0.009253771
48	0x3dedf0cc	0.11618194
49	0x3d7f2882	0.06229449
50	0x3d03ae10	0.03214842
51	0x3c163555	0.009167989
52	0x3c31d477	0.010853878
53	0x3d81e0bc	0.06341693
54	0xbcd5cb19	-0.026097821
55	0xbde2ee4a	-0.11080606
56	0xbdbfe9d8	-0.09370774
57	0x3db805de	0.08985494
58	0x3cbcde18	0.023055121
59	0xbdc84fb2	-0.09780826
60	0x3c538744	0.012910668
61	0x3db0191f	0.085985415
62	0xbdf8e2e9	-0.12152655
63	0xbd8bd63e	-0.06827973
64	0xbd54cfad	-0.051955868
65	0x3c368a99	0.011141443
66	0xbd0a33b7	-0.033740725
67	0xbbb53380	-0.005529821
68	0xbdc32f0c	-0.09530458
69	0x3d5c4d2e	0.05378454
70	0x3df090a3	0.11746337
71	0x3d859baf	0.06523835
72	0xbdbf3e81	-0.093380935
73	0xbdb1673d	-0.08662269
74	0x3d2a172a	0.041525997
75	0xbd8a96f1	-0.06767071
76	0xbb63d660	-0.0034765229
77	0xbe0e6bbe	-0.13908288
78	0xbd4adc7f	-0.049526688
79	0x3ccf6cda	0.02532046
80	0xbacac60b	-0.0015470398
81	0xbce78ec8	-0.028266326
82	0x3c6e7b4b	0.0145557625
83	0xbcea117a	-0.028572787
84	0xbdc106c1	-0.09425116
85	0xbda1df14	-0.07903877
86	0xbd887a1b	-0.06663915
87	0x3dbe97bd	0.093062855
88	0x3d865e70	0.06560981
89	0x3d13be74	0.036070302
90	0xbdc87ffb	-0.09790035
91	0x3ded0c62	0.115746275
92	0x3d6d42c4	0.057925
93	0x3da86278	0.082219064
94	0xbd2908a5	-0.04126801
95	0xbcb6dde7	-0.022322608
96	0x3dc00784	0.093764335
97	0x3da309a9	0.07960827
98	0x3da59087	0.08084207
99	0xbd73198c	-0.059350535
100	0x3cbe30a5	0.023216555
101	0xbdffa79e	-0.12483142
102	0x3b2b5a40	0.0026146322
103	0xbd9d4b88	-0.07680422
104	0xbd72fd83	-0.0593238
105	0xbd8e174f	-0.069380395
106	0xbbc60d26	-0.006044048
107	0x3df4dfbe	0.11956738
108	0x3d89dd0a	0.06731613
109	0xbb84b21c	-0.0040495526
110	0x3d8cfff9	0.068847604
111	0xbcccf613	-0.025019681
112	0x3de037e1	0.10948158
113	0x3d2c8292	0.04211671
114	0x3c3b0489	0.0114146555
115	0x3d0e225c	0.034700736
116	0xbbe4ff4e	-0.0069884425
117	0x3dd0c27a	0.101933435
118	0x3dc8509e	0.097810015
119	0x3e0cdccb	0.13756101
120	0xbd23e5ee	-0.0400142
121	0x3db6dc63	0.08928754
122	0x3e40f99f	0.18845223
123	0xba369bc7	-0.00069659617
124	0x3ddf37f7	0.10899346
125	0xbddf9f09	-0.109190054
126	0x3cc510cb	0.02405586
127	0x3cf908c0	0.03039968
128	0x3c1c7d03	0.0095512895
129	0x3d4de2d9	0.050265167
130	0xbd9b366f	-0.07578742
131	0x3c9cc83a	0.019138444
132	0x3bc320a3	0.0059548183
133	0xbdae0c6a	-0.084984615
134	0xbd19b82d	-0.03752916
135	0xbdab5261	-0.08365322
136	0x3d9a2e6e	0.07528387
137	0x3d27fe44	0.04101397
138	0x3d32ccbe	0.04365229
139	0xbc9304d5	-0.01794664
140	0x3c3ebd66	0.011641836
141	0x3c3336b5	0.010938336
142	0x3da942d9	0.08264703
143	0x3e12fe6f	0.14354871
144	0x3d3a5e32	0.045499988
145	0xbd69c807	-0.057075527
146	0xbd357bcb	-0.04430751
147	0x3d3b850b	0.045781177
148	0xbd76771c	-0.060172185
149	0xbd941394	-0.07230297
150	0xbdf61406	-0.12015538
151	0xbd992bb3	-0.07479038
152	0xbd089897	-0.033348646
153	0x3d2446b6	0.040106498
154	0x3c32ee3f	0.01092106
155	0x3d81ef90	0.06344521
156	0xbda30d8f	-0.079615705
157	0xbc21965e	-0.0098625105
158	0xbdec62b4	-0.115422636
159	0x3d8227d1	0.063552506
160	0xbb52666f	-0.0032104512
161	0x3e09f1b9	0.13471116
162	0xbd56a291	-0.05240113
163	0x3dfd0ffb	0.12356564
164	0x3deb8927	0.11500769
165	0x3d6d8f46	0.057997964
166	0x3c727cd2	0.014800267
167	0x3df3c9f2	0.119037524
168	0x3dcf7c40	0.10131121
169	0x3dcb1507	0.0991612
170	0xbce65001	-0.02811432
171	0xbdae7423	-0.08518245
172	0x3c56f97e	0.013121007
173	0x3d3fc42e	0.04681795
174	0xbd8431cb	-0.0645481
175	0xbddbde4e	-0.10735761
176	0xbe1058a4	-0.14096314
177	0xbd9ad20a	-0.07559593
178	0x3da1c490	0.078988194
179	0x3c433c62	0.011916252
180	0xbd1eee90	-0.03880173
181	0xbb22ce03	-0.002484203
182	0x3d6b382b	0.057426613
183	0xbdd9e404	-0.10639194
184	0xbd9a4f11	-0.07534612
185	0xbd86964f	-0.06571638
186	0xbd642e58	-0.05570826
187	0x3d94d3fc	0.07266995
188	0x3dc54acf	0.09633409
189	0xbdbbe03e	-0.0917363
190	0xbdf1f132	-0.118135825
191	0xbde3a6ba	-0.11115785
192	0x3d5ef908	0.054436713
193	0x3dd6dfa1	0.104918726
194	0xbd90fd8d	-0.07079611
195	0xbd541f16	-0.05178746
196	0x3d72bf8a	0.059264697
197	0xbd55534e	-0.0520814
198	0x3e032b65	0.12809522
199	0x3d6ecbf3	0.05829997
200	0xbd7d6429	-0.0618631
201	0xbca9b62b	-0.020716747
202	0x3c100f5d	0.008792725
203	0xbd71707b	-0.05894516
204	0xbdc8f116	-0.098116085
205	0xbc94d81d	-0.018169457
206	0xbb4ffb0c	-0.003173533
207	0xbc3f173b	-0.011663253
208	0xbcaad6bf	-0.020854352
209	0x3da9b635	0.08286706
210	0xbd350a4c	-0.044199273
211	0x3c3d0534	0.011536885
212	0x3d8e26a4	0.06940964
213	0xbd468f3c	-0.048476443
214	0x3d5f5fcf	0.05453473
215	0xbcd20ade	-0.025639948
216	0x3d9c703c	0.076385945
217	0xbd1ccc49	-0.03828076
218	0x3d2247bf	0.039619204
219	0x3d515fb7	0.05111667
220	0xbda5125a	-0.08060141
221	0xbd51c016	-0.051208578
222	0x3da01ffc	0.078186005
223	0x3c77f555	0.015134175
224	0x3dfeaf7f	0.12435817
225	0xbe054b5f	-0.13017033
226	0xbd95dfc4	-0.073180705
227	0xbdf709b0	-0.120623946
228	0x3c77aca7	0.015116847
229	0xbd0d5499	-0.034504507
230	0xbd0527e3	-0.032508742
231	0xbd08f574	-0.033437207
232	0xbde4981d	-0.11161826
233	0x3c2b62f2	0.010460602
234	0xbc8d26b7	-0.017230375
235	0xbdc30242	-0.09521915
236	0x3cc96085	0.024582157
237	0xbcccc8f1	-0.02499816
238	0xbe0bc9ec	-0.13651246
239	0x3d376778	0.04477641
240	0x3d819747	0.06327682
241	0xbcb8144b	-0.022470614
242	0xbdaf54fe	-0.08561133
243	0xbb7d8579	-0.0038684292
244	0x3da553f4	0.080726534
245	0x3dce244a	0.10065515
246	0xbdbcd3b4	-0.09220067
247	0xbd676ed2	-0.05650217
248	0x3da6342b	0.08115419
249	0x3d5e09cc	0.05420856
250	0x3dbe67a6	0.09297113
251	0xbd1b3903	-0.037896167
252	0x3dd9d933	0.106371306
253	0xbdca69cf	-0.09883463
254	0xbc96c80b	-0.018405935
255	0x3cd8b706	0.02645446

conv1.bias f4 [10]
0	0xbd689f59	-0.05679259
1	0x3dabc6e8	0.08387548
2	0xbda8ddc5	-0.08245424
3	0x3d44663b	0.047949057
4	0xbdcc2811	-0.099685796
5	0xbd8631d8	-0.06552476
6	0xbb879800	-0.004137993
7	0xbdbf20f3	-0.093324564
8	0x3c946eec	0.018119298
9	0x3d241737	0.040061202

conv2.weight f4 [10, 10, 5, 5]
0	0xbd64db11	-0.05587298
1	0x3d955b5a	0.072928146
2	0xbda2e8a9	-0.07954533
3	0xbd5ee4f1	-0.054417554
4	0xbd0a80f2	-0.033814378
5	0x3d562c91	0.052288596
6	0x3d79cc8d	0.06098609
7	0xbb7087ba	-0.0036701993
8	0xbcf4b605	-0.02987195
9	0xbcd4c01f	-0.025970517
10	0xbd25ce26	-0.0404798
11	0x3d6fc966	0.058541678
12	0xbd15bffa	-0.036560036
13	0xbd1d441a	-0.038395025
14	0xbd91fae5	-0.071279325
15	0x3d2b7929	0.041863594
16	0x3e0c3f61	0.13696052
17	0x3db8e24f	0.0902754
18	0x3caded41	0.021231296
19	0x3da48344	0.080328494
20	0xbd411b47	-0.047145154
21	0x3d716844	0.058937326
22	0x3d249712	0.040183134
23	0x3d8b0178	0.067873895
24	0x3b88c062	0.0041733244
25	0xbda8c5b1	-0.08240832
26	0x3c9f7e2d	0.019469345
27	0xbd40b4e3	-0.047047507
28	0xbd1eed21	-0.038800362
29	0xbd63bfeb	-0.05560295
30	0xbd9172fd	-0.071020104
31	0xbdad89bc	-0.08473536
32	0x3d22d1da	0.03975091
33	0xbcfcfa3b	-0.030881038
34	0x3d12235c	0.035678253
35	0x3c969d4e	0.018385556
36	0x3b97e628	0.004635591
37	0x3d01d472	0.031696744
38	0xbbe5b72b	-0.0070103607
39	0xbd8e64f4	-0.06952849
40	0x3c535166	0.012897825
41	0xbda44cfe	-0.080224976
42	0xba026550	-0.0004974203
43	0xbd1a059b	-0.037603002
44	0x3d0ce5e8	0.034398943
45	0x3c65fbc8	0.01403708
46	0xbcce5224	-0.025185652
47	0xbd2a2311	-0.04153735
48	0x3ce54c2e	0.027990427
49	0xbd0ed51f	-0.034871217
50	0xbd4cb0ed	-0.049973417
51	0xbcc68149	-0.02423157
52	0xbd4b13c6	-0.049579404
53	0x3d922128	0.0713523
54	0x3d342678	0.043982
55	0xbcd968de	-0.026539262
56	0x3cac5383	0.021035915
57	0x3d5cec20	0.053936124
58	0xbc6288cd	-0.013826561
59	0x3c690708	0.014222868
60	0xbcc3f2ad	-0.023919428
61	0xbd1197c1	-0.035545114
62	0xbcf524b7	-0.029924734
63	0xbce4a5f9	-0.027911173
64	0xbbba4695	-0.0056846836
65	0xbca88886	-0.020572912
66	0xbd614d3c	-0.055005297
67	0xbd85d1a5	-0.06534127
68	0xbd00930d	-0.03139024
69	0x395432de	0.00020236845
70	0x3c2e6386	0.010643845
71	0xbd0bdf8f	-0.03414875
72	0x3d23ac4e	0.039959244
73	0xbd3e06be	-0.04639315
74	0xbd29b9bf	-0.041436907
75	0x3d9083e3	0.070564054
76	0x3c7f90ef	0.01559852
77	0x3c590c88	0.013247617
78	0xbd8456d4	-0.06461874
79	0xbd8f4b11	-0.0699674
80	0xbb4c27f1	-0.0031151737
81	0x3d8c7b62	0.06859471
82	0xbd80f482	-0.06296636
83	0x3d05028f	0.032473143
84	0xbd3b2989	-0.045693908
85	0xbcf26fd3	-0.029594338
86	0x3d8f6841	0.07002307
87	0xbd44dca2	-0.048061974
88	0x3cfa9be6	0.030591916
89	0xbd14cf71	-0.036330644
90	0x3d5a1ff3	0.053253125
91	0xbd0ea919	-0.034829233
92	0x3d44767c	0.047964558
93	0x3d0c5ee9	0.0342702
94	0x3bc0920d	0.0058767856
95	0x3d75661e	0.05991184
96	0x3d863cf9	0.06554598
97	0x3d299ff1	0.041412298
98	0x3d32e299	0.04367313
99	0x3d2a9d42	0.04165388
100	0x3c7c1fc1	0.01538843
101	0x3c4fc6e4	0.012681697
102	0xbd87475c	-0.066054076
103	0x3c884c63	0.016637987
104	0xbb26843d	-0.002540841
105	0xbb82f814	-0.0039968584
106	0xbc9607af	-0.01831421
107	0x3c562a8f	0.01307167
108	0xbd9efc14	-0.07762924
109	0xbd38f959	-0.04515967
110	0xbd306917	-0.04306897
111	0x3d0d6ddf	0.03452861
112	0xbd4d207e	-0.050079815
113	0xbcce7f06	-0.025207054
114	0xbd07683b	-0.033058386
115	0xbda04566	-0.07825737
116	0xbd8ef92e	-0.06981121
117	0xbd84277c	-0.064528435
118	0xbd93ce28	-0.072170556
119	0xbd95bce0	-0.07311416
120	0xbd0772e0	-0.033068538
121	0x3d1fffc3	0.039062273
122	0xbd866d12	-0.06563772
123	0xbd35dcd9	-0.04440007
124	0xbd7a4042	-0.061096437
125	0x3c318b54	0.010836441
126	0x3d189a39	0.037256453
127	0xbd4daccf	-0.05021363
128	0xbcdca95a	-0.026936222
129	0x3d19fb74	0.03759332
130	0xbd8ffbed	-0.07030473
131	0x3d8b471f	0.06800675
132	0xbd11894b	-0.035531323
133	0x3d4c79e0	0.049920917
134	0x3d9117cc	0.07084617
135	0x3c139490	0.009007588
136	0xbd6c2c08	-0.05765918
137	0xbbccb638	-0.006247308
138	0x3db30395	0.087409176
139	0xbd3f79d4	-0.046747044
140	0x3d34a3b1	0.04410142
141	0xbd943f12	-0.07238592
142	0xbd358913	-0.044320177
143	0x3d70133b	0.05861209
144	0xbd8c9076	-0.06863491
145	0xbd8db6d1	-0.06919635
146	0xbcd6d7e8	-0.026225999
147	0xbda3207d	-0.07965181
148	0xbc7cc31e	-0.015427379
149	0x3d0a1dbd	0.033719767
150	0x3d957c5c	0.0729911
151	0xbd965053	-0.073395394
152	0x3c33b113	0.010967511
153	0xbd9b8c7a	-0.07595153
154	0xbd2c6cb2	-0.042095847
155	0x3d8e68b5	0.06953565
156	0x3a815bec	0.0009869314
157	0x3da46102	0.08026315
158	0xbcfa586a	-0.030559737
159	0xbd1f3af5	-0.038874585
160	0x3d0fa456	0.035068832
161	0xbd17627c	-0.036959156
162	0xbd4cdc02	-0.050014503
163	0xbddd99a8	-0.10820323
164	0x3d5c90e1	0.053849105
165	0xbd421513	-0.04738338
166	0x3d2171ad	0.03941505
167	0xbd52d80f	-0.05147558
168	0xbae45708	-0.0017420957
169	0xbd85c40b	-0.06531533
170	0x3c8940e6	0.016754579
171	0xbd85aec0	-0.065274715
172	0xbcc269b7	-0.02373205
173	0xbd604d84	-0.054761425
174	0xbcb8c5b7	-0.022555215
175	0xbd057721	-0.032584313
176	0xbc5f7628	-0.0136390105
177	0x3b91a7c2	0.004445047
178	0x3d8cdd90	0.06878197
179	0xbd68ee91	-0.05686814
180	0xbd362a4e	-0.04447394
181	0x3ce1a615	0.027545014
182	0x3c8c2613	0.017107999
183	0x3cf6d4b5	0.030130723
184	0x3c8240ea	0.015900094
185	0x3d6023be	0.054721586
186	0xbd8ec150	-0.06970465
187	0x3d49880f	0.04920202
188	0x3d82a29f	0.06378674
189	0xbcdf738e	-0.02727678
190	0xbcc53ff3	-0.024078345
191	0xbd2d2835	-0.042274673
192	0xbd24d2a0	-0.04023993
193	0xbd083c71	-0.033260766
194	0x3d285174	0.041093305
195	0x3d5efb7a	0.054439045
196	0x39fa6074	0.0004775558
197	0x3cb555e8	0.02213569
198	0x3d260f00	0.04054165
199	0x3bfae900	0.0076571703
200	0x3d23a62b	0.039953392
201	0x3d0d28da	0.034462787
202	0xbdc5ac0a	-0.096519545
203	0x3d894375	0.067023195
204	0xbc27a5f1	-0.010232435
205	0xbd5f4cb2	-0.0545165
206	0x3d06c242	0.032900102
207	0xbd65b20e	-0.05607801
208	0x3bda533d	0.006662755
209	0x3cead5e0	0.028666437
210	0xbca42673	-0.020037865
211	0xbd981d4a	-0.074274614
212	0xbc056f86	-0.008144265
213	0x3d6ce686	0.05783703
214	0xbbbc5328	-0.0057472177
215	0x3c2311f2	0.009953009
216	0xbc4f23e1	-0.012642832
217	0xbd9a4431	-0.07532538
218	0xbbc2b53a	-0.005942014
219	0xbd3ddcbf	-0.046353098
220	0x3d203fda	0.039123394
221	0x3dd61eed	0.104551174
222	0x3db954b6	0.090493605
223	0x3c7a3f7c	0.015273925
224	0xbd40e295	-0.047091085
225	0x3d800eab	0.06252798
226	0x3d0c7862	0.034294493
227	0x3d16a861	0.036781672
228	0xbdb545ea	-0.08851226
229	0x3dbcec41	0.09224749
230	0xbd4f7d83	-0.050656807
231	0x3c9a3dff	0.01882839
232	0x3da14aae	0.07875572
233	0xbd88161b	-0.06644841
234	0xbc094d9a	-0.008380318
235	0x3d01b630	0.03166789
236	0xbd27d64b	-0.04097585
237	0x3d880079	0.06640715
238	0xbad9b1ca	-0.0016608771
239	0x3d308e63	0.04310454
240	0x3d7cea22	0.061746724
241	0xbc810699	-0.015750216
242	0x3d3bb5e3	0.045827758
243	0xbd1de72a	-0.038550533
244	0x3e330f18	0.17486227
245	0xbd148d7b	-0.03626774
246	0x3b931d33	0.004489565
247	0xba5c20f1	-0.00083972426
248	0x3c4c00ae	0.012451334
249	0x3c5526c6	0.013009733
250	0xbd84d0f5	-0.06485168
251	0xbd384c99	-0.044994924
252	0xbd98bf57	-0.0745837
253	0xbd37f4a4	-0.04491104
254	0xbd52a874	-0.05143018
255	0xbdbe30b8	-0.09286636

conv2.bias f4 [10]
0	0xbc638d01	-0.013888598
1	0xbd51c9a7	-0.0512177
2	0x3d4782d4	0.04870875
3	0xbd4b765a	-0.049673416
4	0xbd895c9c	-0.06707117
5	0xbca5db9f	-0.020246325
6	0xbd4798a5	-0.048729558
7	0x3d542f3a	0.05180285
8	0xbc558357	-0.013031802
9	0xbcfc8149	-0.030823367

conv3.weight f4 [20, 10, 5, 5]
0	0xbd965932	-0.073412314
1	0xbd0d723c	-0.03453277
2	0xbd91929f	-0.07108044
3	0x3d10f52d	0.035390068
4	0x3d789cb9	0.060696337
5	0x3d1db956	0.03850683
6	0xbd3fe30a	-0.04684738
7	0x3c6860e0	0.014183253
8	0xbd2b98dd	-0.04189383
9	0x3d60869b	0.05481587
10	0xbd8b1cdd	-0.067926146
11	0xbd45517c	-0.048173413
12	0xbd09f2e1	-0.033678893
13	0x3d4c9094	0.049942568
14	0x3d44204c	0.047882363
15	0xbd2731cf	-0.040818986
16	0x3d1e2e37	0.038618293
17	0x3d4bcd13	0.04975612
18	0x3cffcaa0	0.031224549
19	0xbceb5cb8	-0.028730735
20	0xbcef9798	-0.02924709
21	0x3ccdbf34	0.025115587
22	0x3d38cf42	0.04511953
23	0x3d95e6cb	0.07319411
24	0x3c78c03c	0.015182551
25	0xbc8d80eb	-0.017273387
26	0xbc998742	-0.018741254
27	0x3d85a304	0.065252334
28	0xbd0839cd	-0.033258248
29	0x3d94711c	0.072481364
30	0xbd3d0e43	-0.04615618
31	0xbafc646a	-0.0019256
32	0x3ce7b487	0.028284324
33	0x3d9811b6	0.07425253
34	0x3caba3c9	0.020952122
35	0xbc59b859	-0.013288581
36	0xbb4e00bf	-0.003143355
37	0x3d38f411	0.045154635
38	0xbc885e06	-0.016646396
39	0x3d216c95	0.039410193
40	0xbd75cf3c	-0.060012087
41	0x3cbc1f2f	0.022964088
42	0xbd936a42	-0.071980014
43	0x3b8b6b47	0.004254732
44	0x3d5cc5ad	0.053899456
45	0xbd3f381e	-0.046684377
46	0x3c5d116e	0.013492925
47	0xbd8905ca	-0.06690557
48	0x3d39289e	0.04520475
49	0x3d7afa58	0.061273903
50	0xbc29f3ac	-0.010373037
51	0x3c25b148	0.010113068
52	0x3c2d611a	0.010582233
53	0x3b9df99c	0.0048210155
54	0xbd6810bb	-0.05665658
55	0xbd8aee48	-0.0678373
56	0x3cd3d114	0.025856532
57	0x3c42e450	0.011895254
58	0x3cc68893	0.024235046
59	0xbcd0d52f	-0.025492279
60	0xbd05d5bc	-0.032674536
61	0xbce05045	-0.027382025
62	0xbd6ff8fd	-0.058587063
63	0xbb715a8a	-0.0036827647
64	0x3c0681d6	0.008209666
65	0xbd920bb2	-0.07131137
66	0x39f3b0db	0.0004648034
67	0xbd762b09	-0.060099635
68	0xbd77a439	-0.06045935
69	0xbd4fb633	-0.050710868
70	0xbc571256	-0.01312693
71	0xbce48c33	-0.027898883
72	0xbb5890e8	-0.0033045355
73	0x3d891710	0.06693852
74	0x3d690e7f	0.05689859
75	0xbd943f8f	-0.07238685
76	0xbd2111b9	-0.039323542
77	0xbd9abad3	-0.07555165
78	0xbd8d3d34	-0.06896439
79	0xbdbdbbfa	-0.09264369
80	0x3cb4a56c	0.022051536
81	0xbd03cbdd	-0.03217684
82	0x3d5a0cca	0.053234853
83	0xbcea7e84	-0.02862478
84	0xbdd9be64	-0.10632017
85	0x3c8e5ae9	0.017377334
86	0x3dc77534	0.097391516
87	0x3c27a5af	0.010232373
88	0xbd80145c	-0.06253883
89	0xbdb10c33	-0.08644905
90	0x3d9ac9c1	0.07558013
91	0xbb2b97af	-0.002618294
92	0x3beb625d	0.0071833567
93	0x3cd63afa	0.02615117
94	0xbce409dd	-0.027836734
95	0x3b35eee1	0.002776079
96	0x3d8d8a91	0.06911195
97	0xbd13aeb0	-0.036055267
98	0xbc622d3b	-0.013804729
99	0x3c7a1009	0.015262612
100	0x3d028776	0.031867467
101	0x3c9a0fdf	0.018806396
102	0x3ce1692f	0.027515976
103	0xbd03af13	-0.032149386
104	0xbd0affc2	-0.033935316
105	0x3d69b724	0.057059422
106	0xbd0a82dc	-0.033816203
107	0x3b26858e	0.0025409195
108	0xbc11171a	-0.0088556055
109	0xbd2d3575	-0.04228731
110	0x3cf27888	0.02959849
111	0x3d31ed9a	0.043439485
112	0x3cbf3e48	0.023345128
113	0xbd82edc7	-0.06393009
114	0xbd3e4085	-0.04644825
115	0x3ca85c94	0.020551957
116	0xbd21f609	-0.039541278
117	0x3cff31d0	0.031151682
118	0x3d47f42a	0.048816837
119	0xbd331c29	-0.043728027
120	0xbd5eb4a0	-0.054371476
121	0x3cbc216f	0.022965161
122	0xbd53bdc0	-0.05169463
123	0x3d8d71b3	0.06906452
124	0xbcdab80d	-0.02669909
125	0xbd3501cb	-0.044191163
126	0x3caf734d	0.021417284
127	0xbcea8d6d	-0.02863189
128	0x3d611bb8	0.054958075
129	0xbcbe635a	-0.023240734
130	0xbdd48408	-0.103767455
131	0xbdb6e0c3	-0.08929589
132	0xbd5a363d	-0.053274382
133	0xbb776706	-0.0037750616
134	0xbd51eada	-0.051249363
135	0xbd208aa2	-0.03919471
136	0xbd3c5f0e	-0.04598909
137	0x3cab2bd3	0.02089492
138	0xbdca01d4	-0.0986363
139	0xbd9c049e	-0.07618068
140	0x3d56f81d	0.052482713
141	0xbcbf8013	-0.0233765
142	0x3cd327c8	0.025775805
143	0xbcef18a3	-0.029186552
144	0xbdb28557	-0.08716839
145	0x3ce4184a	0.027843613
146	0x3d578ad2	0.052622624
147	0xbd839ba3	-0.0642617
148	0xbd430243	-0.04760958
149	0xbd2de55f	-0.042455073
150	0x3cff0eee	0.031135049
151	0x3a074fa1	0.0005161707
152	0x3c39760b	0.011319648
153	0x3ceba9db	0.028767517
154	0x3d7537bb	0.0598676
155	0xbc891ac9	-0.016736405
156	0xbd81645b	-0.063179694
157	0xbd5ea997	-0.054360952
158	0x3cc9275d	0.024554903
159	0xbd0a5ec8	-0.033781797
160	0x3c26ada6	0.010173237
161	0x3d16d8d8	0.036827892
162	0xbd52d334	-0.05147095
163	0x3cef8828	0.029239729
164	0xbcc3123c	-0.023812406
165	0xbd01da88	-0.03170255
166	0xbc9d3b27	-0.019193245
167	0x3cd2866b	0.025698861
168	0x3d245cc6	0.04012754
169	0x3a278830	0.0006390838
170	0x3b4e5b5b	0.0031487558
171	0xbd3f5e24	-0.04672064
172	0xbbe716da	-0.0070522847
173	0x3cbbca67	0.022923661
174	0x3d0f3586	0.034963153
175	0xbd3a01e9	-0.045411978
176	0xbd834d78	-0.0641126
177	0xbd7e5c00	-0.062099457
178	0x3d0cff11	0.034422938
179	0x3c42d86f	0.011892422
180	0xbccc26a9	-0.024920778
181	0xbdc2ebcf	-0.09517633
182	0xbd21550a	-0.03938774
183	0x3da939b3	0.082629584
184	0x3d020063	0.03173865
185	0xbdf39e36	-0.11895411
186	0xbd439af4	-0.047755197
187	0xbd685f88	-0.05673173
188	0xbc75f4fe	-0.015012024
189	0x3dab290d	0.08357439
190	0xbdc3fecf	-0.09570085
191	0x3b338bdc	0.0027396595
192	0x3d2706b2	0.04077787
193	0x3d245c68	0.040127188
194	0x3c056b8d	0.008143318
195	0xb9ec62a7	-0.0004508693
196	0xbcf44fcd	-0.029823208
197	0x3d75065b	0.059820514
198	0xbcb296d0	-0.021800429
199	0x3d11cdae	0.035596542
200	0xbc277ab0	-0.010222122
201	0xbd2916b7	-0.04128143
202	0x3d102dc1	0.035199884
203	0x3d53965d	0.05165707
204	0xbc80577c	-0.015666716
205	0xbccade18	-0.024764106
206	0x3c5747d5	0.013139685
207	0xbd2076e2	-0.039175875
208	0x3d459f4a	0.048247613
209	0x3cf56d9a	0.029959489
210	0x3d237002	0.03990174
211	0xbd824bef	-0.063621394
212	0x3cf258f6	0.029583436
213	0xbb8ffdcb	-0.004394268
214	0x3db2c69e	0.087292895
215	0xbcdd6d2f	-0.027029602
216	0xbc9d78c1	-0.019222619
217	0xbcea9b28	-0.028638437
218	0xbc6b73a6	-0.014370834
219	0x3d3f9fd2	0.046783276
220	0xbd5e6739	-0.05429766
221	0x3c0d4e47	0.00862462
222	0x3d2209ac	0.039560005
223	0x3a36a26b	0.0006966951
224	0x3d047043	0.032333624
225	0x3d25c53d	0.040471304
226	0x39236a8a	0.0001558458
227	0xbb17a80a	-0.002314093
228	0xbddceb41	-0.107870586
229	0xbd0c0f10	-0.034194052
230	0xbbdbbe06	-0.006706002
231	0x3dc17782	0.094466224
232	0x3d3554a2	0.044270165
233	0x3c17afa9	0.009258189
234	0xbb0b5f8c	-0.0021266667
235	0xbc6cc998	-0.014452361
236	0x3b87b3f6	0.004141326
237	0x3d8d30b3	0.06894054
238	0x3c171229	0.009220638
239	0x3d66ef37	0.056380477
240	0x3d885285	0.06656364
241	0x3ce89f9e	0.028396424
242	0x3d7cecfd	0.061749447
243	0x3d131dd9	0.035917137
244	0xbc8bf8c6	-0.017086398
245	0xbd5689d6	-0.052377544
246	0x3c2014f1	0.009770618
247	0x3d8782a6	0.06616716
248	0x3d53b490	0.05168587
249	0xbbb69aad	-0.005572638
250	0x3d8c8ecb	0.06863173
251	0x3d766f72	0.060164876
252	0xbd5740d1	-0.052552048
253	0xbd157e27	-0.03649726
254	0x3a36b752	0.0006970066
255	0x3bb88105	0.0056306147

conv3.bias f4 [20]
0	0xbca73466	-0.020410728
1	0xbd47b79a	-0.04875908
2	0x3d5a79dd	0.053338874
3	0xbd85dae3	-0.0653589
4	0xbd414738	-0.04718706
5	0x3d553c80	0.05205965
6	0xbccfa88b	-0.025348922
7	0x3d97525f	0.07388758
8	0x3d63b5a8	0.055593163
9	0xbd25a3f8	-0.040439576
10	0x3d8c2b3e	0.06844185
11	0x3c94c335	0.018159488
12	0xbd836eb7	-0.064176016
13	0xbddaee50	-0.10689986
14	0x3d7b0581	0.061284546
15	0x3b2bc9fc	0.0026212921
16	0xbd9c0bc0	-0.07619429
17	0xbcbc3474	-0.02297423
18	0x3c93ad42	0.018026952
19	0x3da81f7e	0.08209132

conv4.weight f4 [20, 20, 5, 5]
0	0xbc8a8037	-0.01690684
1	0xbd2e97f4	-0.042625383
2	0x3cc70309	0.02429344
3	0xbce17379	-0.027520882
4	0xbbbad656	-0.0057018204
5	0xbc829587	-0.01594044
6	0xbd1d9a98	-0.03847751
7	0xbc256331	-0.01009445
8	0xbda75b8c	-0.08171758
9	0xbcc9c896	-0.02463178
10	0xbae59b9b	-0.0017517688
11	0xbd81584d	-0.0631567
12	0xbcdf8a71	-0.027287694
13	0xbd2f0f98	-0.04273948
14	0xbdc8ac5e	-0.097985014
15	0xbd9cee11	-0.07662595
16	0xbd996de1	-0.07491661
17	0xbd8d7348	-0.06906754
18	0xbc389dac	-0.011268061
19	0xbd913767	-0.07090645
20	0xbd95c1fc	-0.0731239
21	0xbd828282	-0.06372549
22	0xbcb79b27	-0.02241285
23	0xbd983e93	-0.0743381
24	0xbd251cb2	-0.04031057
25	0x3cc23d85	0.023710975
26	0x3bcc81e8	0.006241072
27	0xbd349fd7	-0.044097748
28	0xbd25a1d3	-0.04043753
29	0xbd3be3b5	-0.045871455
30	0x3cbe5a80	0.023236513
31	0xbcbc7d67	-0.023009015
32	0xbcf7a7ce	-0.030231383
33	0x3cc97b5a	0.024594951
34	0xbbcfd823	-0.006342904
35	0x3b8ac167	0.004234481
36	0x3c5a97a7	0.013341821
37	0x3cca5d2b	0.02470263
38	0xbc815c9b	-0.015791228
39	0x3bc04d44	0.005868586
40	0xbb9b9c69	-0.00474887
41	0x3d0cf55d	0.034413684
42	0xbc9da337	-0.019242866
43	0x3cd919cf	0.026501564
44	0xbd64933d	-0.05580448
45	0x3cc12204	0.02357579
46	0xbd3d5969	-0.046227846
47	0xbc8b773e	-0.017024633
48	0xbbb3cd62	-0.00548713
49	0xbd7e3950	-0.062066376
50	0x3d4d1a33	0.050073814
51	0x3d0dbd10	0.034604132
52	0xbc94e19b	-0.018173983
53	0xbcfb0b02	-0.030644897
54	0xbca17ad1	-0.019711884
55	0x3c98d5e9	0.018656688
56	0xbd049726	-0.03237071
57	0x3c6107a5	0.013734733
58	0xba1e080e	-0.0006028422
59	0x3ca1df52	0.019759808
60	0x3d62acac	0.055340454
61	0x3d7817ed	0.060569692
62	0x3c9a1200	0.018807411
63	0x3d6ff817	0.058586206
64	0x3d3f30f2	0.046677537
65	0x3d36eb38	0.044657916
66	0x3cb3b0dc	0.021934919
67	0x3d23e1cf	0.04001027
68	0x3d2bef02	0.041975982
69	0x3bd0f784	0.0063771624
70	0x3d07a267	0.033113863
71	0x3d6825f5	0.056676824
72	0x3d61cc4b	0.05512647
73	0x3d9bfcf2	0.07616605
74	0x3cb31db9	0.021864759
75	0xbd7a2075	-0.06106611
76	0x3c53598a	0.012899766
77	0xbd1749a4	-0.036935464
78	0xbd058877	-0.032600846
79	0xbd3deaf6	-0.046366654
80	0x3d072d0b	0.03300194
81	0xbca26ef1	-0.019828292
82	0xbd48e5f5	-0.04904743
83	0x3cb4d581	0.022074463
84	0xbd0ca6cf	-0.03433877
85	0xbd5c537f	-0.053790566
86	0xbd009452	-0.03139145
87	0xbce74262	-0.028229896
88	0xbcec4955	-0.028843561
89	0xbd1d1e85	-0.038359184
90	0x3c14f6c2	0.009092035
91	0xbc8a4690	-0.01687935
92	0xbd46bd2f	-0.048520263
93	0x3cdf2a3b	0.027241817
94	0xbba805f2	-0.005127662
95	0xbd935670	-0.07194221
96	0xbae86660	-0.0017730705
97	0x3a17c163	0.000578901
98	0x3ccca609	0.024981515
99	0x3c8b0b1c	0.01697307
100	0x3d54d70d	0.0519629
101	0x3d7cc025	0.06170668
102	0x3cc7cbb0	0.024389118
103	0x3d7ced65	0.061749835
104	0xbc703802	-0.014661791
105	0x3c9db781	0.01925254
106	0x3d523dcd	0.05132847
107	0x3d803cf7	0.06261628
108	0x3d401f18	0.046904653
109	0x3d68280c	0.056678817
110	0x3d70e699	0.058813665
111	0xbb4a1842	-0.0030837213
112	0x3d9f190a	0.07768448
113	0x3ab10ab5	0.0013507219
114	0xbc84e95d	-0.016224558
115	0x3c99f782	0.018794779
116	0x3cc3b439	0.023889648
117	0x3d026401	0.031833652
118	0x3d1a299f	0.03763735
119	0x3d6dbe49	0.0580428
120	0x3c2809d1	0.010256247
121	0xbcac429a	-0.021027852
122	0xbcb344c8	-0.021883383
123	0xbbe80b9d	-0.0070814625
124	0x3c1eccdc	0.009692397
125	0x3c40845b	0.011750306
126	0xbb9ba474	-0.004749829
127	0x3d7ec1c3	0.062196504
128	0x3cea9c76	0.02863906
129	0x3c8d1b04	0.017224796
130	0x3c7e6364	0.015526626
131	0x3d71d236	0.059038363
132	0x3d21a503	0.039464008
133	0x3d3dfd2f	0.046384033
134	0x3cd7dadc	0.026349477
135	0x3c061ee6	0.008186078
136	0xbd0383d6	-0.03210815
137	0x3cc6d83a	0.024273027
138	0x3abf3e3e	0.0014590693
139	0xbd4e48d5	-0.050362427
140	0x3d2426ed	0.040076185
141	0x3cd57ead	0.02606138
142	0x3d24a341	0.040194754
143	0xbd0c6ecf	-0.034285363
144	0x3c741f5f	0.014900058
145	0xbd36c8f6	-0.044625245
146	0xbcd824e6	-0.026384782
147	0xb99aaf27	-0.00029503668
148	0xbd5bef7a	-0.05369518
149	0xbcce8432	-0.02520952
150	0xbc6716a4	-0.014104519
151	0xbd8b04a5	-0.06787995
152	0xbd70e37f	-0.058810707
153	0xbce506b4	-0.027957298
154	0xbd3867e6	-0.04502096
155	0x3cd14a52	0.025548134
156	0xbba3df92	-0.005001017
157	0xbd94c7bc	-0.07264659
158	0x3bd1d49c	0.006403519
159	0xbcd14ce0	-0.025549352
160	0xbd3e1aec	-0.046412393
161	0x3c259ca8	0.010108151
162	0x3cac4e1a	0.021033335
163	0xbd7525b6	-0.059850417
164	0xbcce51ea	-0.025185544
165	0xbcb9f795	-0.022701064
166	0xbc2314f9	-0.009953731
167	0x3c928a01	0.017888071
168	0x3cb7c10f	0.022430925
169	0x3d115922	0.035485394
170	0xbd3666df	-0.0445317
171	0x3b3b2ea4	0.0028561736
172	0xbc08ec05	-0.008357053
173	0xbbf52ec0	-0.0074823797
174	0xbbde36d2	-0.0067814374
175	0x3c7c5fe8	0.015403725
176	0x3c5a9834	0.013341952
177	0x3d11036e	0.03540366
178	0xbd20e715	-0.039282877
179	0xbcf4c699	-0.029879855
180	0x3c512c2f	0.012766882
181	0x3d536637	0.05161115
182	0xba10f0b5	-0.0005529032
183	0xbc1ca979	-0.00956189
184	0xbd39e900	-0.04538822
185	0xbc814d31	-0.015783878
186	0x3c9d41a2	0.019196335
187	0x3d5a22b4	0.05325575
188	0xbc80be54	-0.015715756
189	0xbc4bccd4	-0.012438972
190	0x3ca6e7b3	0.020374155
191	0x3ceea013	0.029129064
192	0xbcbfadfd	-0.023398394
193	0x3cda9667	0.026683046
194	0x397f4ab0	0.00024346518
195	0xbc900a53	-0.017583048
196	0xbd14360e	-0.036184363
197	0xbd44e95e	-0.04807412
198	0xbd8b9f54	-0.06817499
199	0xbc2297e3	-0.009923908
200	0x3d423f83	0.04742385
201	0x3d5e0690	0.054205477
202	0x3d81aad7	0.06331413
203	0x3d36c915	0.04462536
204	0x3d5d63d9	0.0540503
205	0x3da48001	0.08032227
206	0xbc1c8a67	-0.009554482
207	0x3d54e4fd	0.051976193
208	0x3c87d838	0.016582593
209	0x3d47562c	0.048666164
210	0x3ba21c85	0.0049472474
211	0xbc94d75c	-0.018169098
212	0xbd82b2f6	-0.0638179
213	0xbd8f6042	-0.070007816
214	0xbd52895d	-0.05140053
215	0x3d018a57	0.03162607
216	0x3be4813d	0.006973414
217	0x3cd7da26	0.026349138
218	0x3cbd73eb	0.023126563
219	0xba881d2c	-0.001038467
220	0x3c785eef	0.015159353
221	0xbca64ca7	-0.020300223
222	0xbd20e18c	-0.0392776
223	0x3c1653a0	0.009175211
224	0xbd5a4b9e	-0.05329477
225	0xbd0a708a	-0.033798732
226	0xbce6187d	-0.028087849
227	0xbcea4626	-0.028597903
228	0xbc3a917d	-0.011387226
229	0x3c80332e	0.015649404
230	0x3c621bd7	0.013800583
231	0x3bda3993	0.0066596954
232	0x3b213ba4	0.00246022
233	0x3cba000b	0.022705099
234	0xbcb04a2d	-0.021519745
235	0x3d4a4956	0.049386345
236	0x3c79e95c	0.015253391
237	0xbcfbad95	-0.030722419
238	0x3c6ecf5e	0.014575807
239	0xbcf24ae5	-0.029576728
240	0xbcab504e	-0.020912316
241	0x3c052740	0.008127034
242	0xbd136706	-0.035986923
243	0xbd22d987	-0.03975823
244	0x3d47f40f	0.048816737
245	0xbcc5de5c	-0.02415388
246	0xbd0977d6	-0.03356155
247	0x3c36044b	0.011109422
248	0xbd532a77	-0.05155417
249	0x3cd94f53	0.026527083
250	0x3c96fadb	0.018430164
251	0xbd1fdcc6	-0.039028905
252	0xbd047a5b	-0.03234325
253	0xbc8ed7fd	-0.017436976
254	0x3cf566c5	0.02995623
255	0xbd48c363	-0.04901446

conv4.bias f4 [20]
0	0xbc04b066	-0.008098697
1	0xbc70de24	-0.0147014
2	0x3d2df82c	0.042473003
3	0xbd698bfc	-0.057018265
4	0x3c8ca6c6	0.017169368
5	0x3d118a3f	0.035532232
6	0x3bae566f	0.0053203623
7	0xbb920a8e	-0.0044568246
8	0xbcad371e	-0.021144446
9	0xbd15386c	-0.03643076
10	0xbc99e48f	-0.018785743
11	0x3d263243	0.040575277
12	0xbbd3042c	-0.0064397063
13	0x3b8dd229	0.0043280316
14	0xbd506f76	-0.050887547
15	0xbb303c50	-0.0026891418
16	0xbd63da39	-0.055628035
17	0x3d81ef74	0.063445
18	0x3d2a743b	0.041614752
19	0xbce0928c	-0.027413629

conv5.weight f4 [30, 20, 5, 5]
0	0x3aac2977	0.0013134916
1	0x3d1215b8	0.035665244
2	0x3cd43ff6	0.025909405
3	0x3d500c9f	0.050793286
4	0xbc2626df	-0.0101411035
5	0x3cbd0cbe	0.023077365
6	0xbc9f9ebe	-0.019484874
7	0xbcfe924c	-0.03107562
8	0xb8d47d18	-0.00010132248
9	0xbc24335d	-0.010022012
10	0x3a88b5b5	0.001043013
11	0xbcc0e52c	-0.023546778
12	0xbcc4c5a5	-0.024020026
13	0xbd2a14aa	-0.041523613
14	0xbc8152c2	-0.015786532
15	0xb9762930	-0.00023475732
16	0x3c737be8	0.0148610845
17	0xbc9bfc6d	-0.019041264
18	0xbd098922	-0.033578046
19	0x3bb2df38	0.0054587387
20	0xbd9c57ca	-0.07633932
21	0xbd56c38a	-0.052432574
22	0x3c5cdd19	0.013480448
23	0xbd446cf8	-0.047955483
24	0x3b241102	0.0025034552
25	0xbd4a89b3	-0.049447726
26	0x3c1ba07c	0.009498712
27	0xbc004020	-0.007827789
28	0xbb6213a7	-0.0034496577
29	0xb947802f	-0.00019025871
30	0xbcb61776	-0.022227984
31	0xbc2ee082	-0.010673644
32	0x3b14d5bd	0.0022710406
33	0x3c4cb061	0.012493224
34	0xbcb69a2e	-0.022290315
35	0xbd53996e	-0.051659994
36	0xbd0e392c	-0.034722492
37	0xbd4678f9	-0.048455212
38	0x3c1cee41	0.0095782885
39	0xbbe2a682	-0.006916822
40	0xbd808498	-0.0627529
41	0xbc814002	-0.015777592
42	0x3c47da4c	0.012198042
43	0x3ce63ac4	0.028104194
44	0xbd5c407d	-0.05377244
45	0xbcee51aa	-0.029091675
46	0xbd516b95	-0.05112799
47	0xbd0c7f86	-0.034301303
48	0xbd96b766	-0.07359199
49	0xbd05a8c7	-0.03263166
50	0xbcbd4646	-0.023104798
51	0xbc90b4e4	-0.01766438
52	0xbb7b298c	-0.0038324324
53	0x3cd0eb66	0.025502872
54	0x3cc28859	0.023746656
55	0x3bea0188	0.007141296
56	0xbd1726c1	-0.036902193
57	0x3cbed376	0.023294192
58	0x3c22cfe2	0.009937258
59	0xbd5c622f	-0.053804573
60	0x3c90c7ac	0.017673336
61	0x3cf8a171	0.030350419
62	0xbd0633f6	-0.032764398
63	0xbc8d6f4e	-0.017264988
64	0x3cfc260f	0.030779867
65	0xbcc6a0c5	-0.024246583
66	0xbc16670d	-0.009179843
67	0x3d0aa633	0.033849906
68	0x3d0f2b49	0.03495339
69	0xbd1c1a0d	-0.03811078
70	0xbd848f75	-0.06472675
71	0xbcf52878	-0.029926524
72	0xbb10f361	-0.0022117721
73	0x3c0efb60	0.008726925
74	0xbd78f335	-0.060778815
75	0x3c30c822	0.010789903
76	0xbd2f28eb	-0.04276363
77	0xbcf78cc8	-0.030218497
78	0x3ccfb676	0.025355559
79	0x3cb8b5e4	0.02254767
80	0xbbc2729f	-0.005934074
81	0xbd42b260	-0.047533393
82	0x3c28f612	0.010312574
83	0x3cbf7138	0.023369417
84	0xbd1635a5	-0.036672253
85	0xbd32d8e4	-0.043663874
86	0xbcb91dda	-0.022597242
87	0xbd5ce4be	-0.053929083
88	0xbc74ce73	-0.014941799
89	0xbd4fc52f	-0.05072516
90	0xbd35ff00	-0.04443264
91	0xbc3f8a81	-0.011690737
92	0xbc793a04	-0.015211586
93	0x3a762eab	0.00093911093
94	0xbc887180	-0.016655684
95	0xbca0036a	-0.019532878
96	0xbd344c6a	-0.044018187
97	0xbd5da155	-0.054108936
98	0x3b96b534	0.004599238
99	0xbb4c2f20	-0.0031156018
100	0xbc1c5a4b	-0.009543012
101	0x3d531302	0.0515318
102	0x3d265ecb	0.040617745
103	0x3d0894c2	0.03334499
104	0x3cf97e79	0.030455815
105	0xbc3560ec	-0.011070471
106	0x3d27128b	0.04078917
107	0x3d7d863f	0.061895605
108	0x3cefa0d0	0.029251486
109	0x3d4b1c36	0.04958745
110	0xbcf83e24	-0.030303068
111	0x3c3d5d09	0.011557826
112	0x3da654a5	0.081216134
113	0x3d678beb	0.05652992
114	0x3d1f4ba1	0.038890485
115	0xbd29e5c3	-0.041478883
116	0xbc6f13b2	-0.014592098
117	0x3d9a19d2	0.07524456
118	0x3d27e191	0.0409866
119	0x3d46539a	0.048419572
120	0x3b47cfcc	0.0030488847
121	0xbd1aece7	-0.037823584
122	0xbb6d53d0	-0.0036213286
123	0x3cf9f294	0.030511178
124	0x3cccd748	0.025004998
125	0xbd2116f6	-0.039328538
126	0xbb8bb48c	-0.004263466
127	0xbca34d73	-0.019934392
128	0x3cc082f2	0.02349994
129	0x3ac0270f	0.0014660078
130	0xbd56b7e4	-0.052421466
131	0x3d26e313	0.0407439
132	0x3c0c1b36	0.0085514095
133	0x3cd054e4	0.025431104
134	0x3d3b1a07	0.04567912
135	0x3c00e400	0.007866859
136	0xbbdfc7ba	-0.006829229
137	0xbc04e919	-0.008112215
138	0x3d1eaf4f	0.038741406
139	0x3d771572	0.060323186
140	0xbca3f54d	-0.02001443
141	0x3c97a9cc	0.018513583
142	0xbd166d53	-0.036725353
143	0xbc204bb5	-0.009783675
144	0x3bd9a39e	0.006641819
145	0xbd38cb14	-0.045115545
146	0x39f40c70	0.00046548573
147	0xbb6c8bba	-0.0036094026
148	0x3c7aaf4b	0.015300582
149	0xbc3a470e	-0.01136948
150	0xbc3083a3	-0.010773572
151	0xbd1c5bb6	-0.0381734
152	0x3b40fe02	0.0029448275
153	0xbc3366dc	-0.010949817
154	0x3b85fd64	0.0040890444
155	0xbb409ced	-0.002939041
156	0x3b65ed37	0.0035084018
157	0x3c1242ca	0.008927057
158	0xbd2c352e	-0.042042904
159	0x3c972b9d	0.018453414
160	0xbc5e86bf	-0.013581931
161	0xbcc48090	-0.023987085
162	0x3cf61160	0.030037582
163	0xbcb6fffa	-0.022338856
164	0x3a554b96	0.00081365684
165	0x3d2dc68f	0.04242569
166	0xbcb818ae	-0.022472706
167	0xbc080e70	-0.008304223
168	0xbd0a207c	-0.033722386
169	0x3d161bf6	0.03664776
170	0xbba1fc17	-0.0049433815
171	0x3b948e3c	0.004533557
172	0xbcc1a066	-0.023636054
173	0xbc92e8fa	-0.017933358
174	0xbcaa5bd3	-0.020795738
175	0xbd8071b8	-0.0627169
176	0x3c572133	0.013130474
177	0x3ce605ab	0.028078875
178	0x3d3ca9bf	0.04606032
179	0x3b489285	0.003060491
180	0xbcbf9ff2	-0.023391698
181	0xbce1a9f3	-0.027546858
182	0x3bc1dc92	0.0059161866
183	0x3cd2eb4a	0.02574696
184	0x3cd5fa69	0.026120381
185	0xbd222384	-0.03958465
186	0x3c21f1de	0.009884326
187	0xbba1001a	-0.004913342
188	0xbc92242f	-0.01783952
189	0x3c856c66	0.01628704
190	0x3c4de7f8	0.012567513
191	0xb9981941	-0.00029010515
192	0x3c96828c	0.018372796
193	0xbaa2dd3b	-0.0012425551
194	0xbbf3b948	-0.0074378587
195	0xbcc3d9c2	-0.023907546
196	0x3d4a634c	0.049411103
197	0x3d6fb707	0.058524158
198	0x3c54213d	0.012947378
199	0xbc2f371f	-0.010694294
200	0x3c9327bd	0.017963285
201	0xba76eaa8	-0.0009419122
202	0xbd1004c7	-0.035160806
203	0xbbd26e02	-0.0064218054
204	0xbd3c82a1	-0.046023015
205	0xbc41d4e1	-0.011830539
206	0x3bc6c81a	0.0060663344
207	0xbd204504	-0.03912832
208	0xbd27a5d5	-0.040929634
209	0xbd162433	-0.036655616
210	0x3c70d29f	0.0146986535
211	0xbc4d54cd	-0.012532425
212	0xbc1c5f10	-0.009544149
213	0x3c1f34d6	0.009717187
214	0x3c795655	0.015218337
215	0xbd848a92	-0.06471743
216	0x3c98f669	0.018672185
217	0x3ce9da60	0.028546512
218	0xbceb9c3b	-0.02876102
219	0xbcd76557	-0.02629344
220	0xbc883ed0	-0.016631514
221	0xbcc98e89	-0.024604099
222	0x3cc0c588	0.02353169
223	0xbcc72ec1	-0.024314286
224	0xbbef59ba	-0.0073043974
225	0x3c33faac	0.010985058
226	0xbbf81a6d	-0.0075715096
227	0xbd00ca13	-0.031442713
228	0xbce3f612	-0.027827296
229	0xbc6e573a	-0.014547164
230	0x3c51db1c	0.012808587
231	0xbd356212	-0.04428298
232	0x3c94638b	0.018113872
233	0xbc1c27c1	-0.009530962
234	0x3c8f503a	0.01749431
235	0x3d1ac938	0.037789553
236	0xbc22b85d	-0.009931651
237	0xbd34a6f3	-0.044104528
238	0xbba038a0	-0.0048895627
239	0xbd3d2847	-0.04618099
240	0x3c42e852	0.01189621
241	0xbcf2d9a3	-0.029644793
242	0xbcbffbeb	-0.023435554
243	0xbce44065	-0.027862737
244	0x3c7ce64f	0.015435769
245	0x3b41ec94	0.0029590474
246	0x3beed1d6	0.007288198
247	0xbcea8b00	-0.028630733
248	0xbd12f24b	-0.0358756
249	0xbd37421f	-0.044740792
250	0xbbe20de8	-0.0068986304
251	0xbb74c1af	-0.003734689
252	0x3d58a019	0.052887056
253	0x3c17824f	0.009247377
254	0xbc8ab41a	-0.016931582
255	0x3c0cd764	0.008596275

conv5.bias f4 [30]
0	0x3d1808eb	0.03711788
1	0xbcb7b936	-0.022427183
2	0xbd948888	-0.07252604
3	0xbcd24806	-0.02566911
4	0xbba7661b	-0.0051086075
5	0xbd1bfafb	-0.03808115
6	0xba8072fb	-0.0009799892
7	0xbc81c287	-0.015839828
8	0x3d4d546f	0.05012935
9	0x3bb2d327	0.0054573
10	0x3c6a69aa	0.014307419
11	0x3c0fc00d	0.008773816
12	0x3c440106	0.011963135
13	0x3da458d8	0.08024758
14	0xbd760991	-0.060067717
15	0xbc960ed8	-0.018317625
16	0xbc6da575	-0.01450478
17	0xbcc08fb4	-0.023506023
18	0xbceb062c	-0.028689466
19	0x3cb1f378	0.02172254
20	0xbc7753f6	-0.015095701
21	0x3c58168f	0.013188972
22	0x3ca43fc3	0.020049935
23	0x3cf80ac7	0.030278577
24	0x3cf765d5	0.030199924
25	0xbc075038	-0.008258872
26	0xbc00b0ad	-0.007854623
27	0xbd5827ea	-0.05277244
28	0x3d06f198	0.032945246
29	0x3d5548d6	0.052071415

conv6.weight f4 [30, 30, 5, 5]
0	0xbd088573	-0.033330392
1	0xbd34ba40	-0.044122934
2	0xb943e27c	-0.00018681021
3	0xbd2eb3f0	-0.04265207
4	0xbd0b04fa	-0.033940293
5	0xbc1a5751	-0.009420232
6	0x3c316fce	0.010829879
7	0xbd42b56b	-0.047536295
8	0xbd4b4120	-0.049622655
9	0xbce9123e	-0.028451081
10	0x3d1ba5b7	0.037999835
11	0x3cd8c2ce	0.026460078
12	0xbce25925	-0.027630398
13	0xbbe34eb9	-0.0069368747
14	0xbc9a2629	-0.018817024
15	0x3c5523f8	0.013009064
16	0x3cba7e38	0.022765264
17	0x3ce330c7	0.02773322
18	0xbd65c878	-0.056099385
19	0xbb8af7cf	-0.004240967
20	0x3d4c42be	0.049868338
21	0x3d232dee	0.039838724
22	0x3c3b4f11	0.011432425
23	0xbd168245	-0.03674533
24	0xbc92a9e0	-0.017903268
25	0x3c511166	0.012760496
26	0x3b985a43	0.004649432
27	0x3ac6f3fe	0.0015178917
28	0xbc3ade1c	-0.011405494
29	0xbd4a219e	-0.049348466
30	0x38faa045	0.000119507815
31	0xbbf6b883	-0.0075293197
32	0x3cb05cdc	0.021528654
33	0xbc56d37b	-0.013111944
34	0xbd640f9e	-0.055678956
35	0x3c360fc6	0.011112159
36	0x3d2c43c1	0.042056803
37	0x3ca9201c	0.020645194
38	0xbd17f065	-0.037094492
39	0xbd6a133e	-0.057147257
40	0x3ca36c6e	0.019949164
41	0x3d4bfa16	0.049799047
42	0x3d0d6695	0.034521658
43	0x3d1e1a01	0.038599018
44	0xbb199b1f	-0.0023438407
45	0xbcb69127	-0.02228601
46	0x3d1a79a5	0.037713666
47	0x3d279c90	0.040920794
48	0x3c2fc906	0.01072908
49	0x3c1b16fb	0.009465928
50	0xbc090d54	-0.008364994
51	0x3d3cd2ff	0.04609966
52	0x3c72a1a7	0.014809049
53	0xbb2e2e83	-0.0026578016
54	0x3c8707ad	0.016483152
55	0x3d3b5f8e	0.045745425
56	0x3d808f2c	0.06277308
57	0x3d98b993	0.074572705
58	0x3d31d4ff	0.04341602
59	0x3c661836	0.014043858
60	0x3d848415	0.06470505
61	0x3cdcb905	0.026943693
62	0x3cf31bea	0.029676396
63	0x3c4b051b	0.012391354
64	0x3c0dc461	0.008652777
65	0x3d4f412b	0.05059926
66	0x3d7db19b	0.061936956
67	0x3cf3fdda	0.029784132
68	0x3d6c86cd	0.057745744
69	0xbb838de0	-0.0040147156
70	0x3d369d24	0.044583455
71	0x3d1c9a41	0.038233045
72	0x3d7af889	0.061272178
73	0xbc0afba5	-0.008482848
74	0x3cc231fb	0.023705473
75	0xbd3d015e	-0.046143882
76	0xbd27ed07	-0.04099753
77	0xbbcdc99f	-0.0062801386
78	0xbc016fea	-0.007900218
79	0xbcaee9ae	-0.021351662
80	0x3c08e974	0.008356441
81	0xbd074c79	-0.033031914
82	0x3ccd8175	0.025086144
83	0x3d20a710	0.039221823
84	0x3d1566ae	0.036474876
85	0x3c3a63f9	0.011376374
86	0x3c81c256	0.015839737
87	0x3b8d7d40	0.0043179095
88	0x39d44f7a	0.00040495006
89	0xbb93305e	-0.00449185
90	0xbc0c357b	-0.008557673
91	0xbd8baaa9	-0.0681966
92	0x3c5ef8a8	0.013609089
93	0x3cc65353	0.024209654
94	0xbc95fddd	-0.018309528
95	0x3bae93a6	0.0053276597
96	0xbcc0292f	-0.023457138
97	0xbcb4dfa0	-0.022079289
98	0xbd00dc45	-0.031460065
99	0xbc58f511	-0.013242022
100	0x3d4d7515	0.050160486
101	0x3d2e3f9b	0.042541128
102	0xbc9639af	-0.018338053
103	0xbbab7e6e	-0.0052335775
104	0xbd28b6a0	-0.04118979
105	0x3cf91094	0.030403413
106	0x3c2d4ba3	0.010577115
107	0x3cfd4a91	0.030919345
108	0x3b98ea1e	0.004666581
109	0xbd1f6ba7	-0.038921025
110	0x3d8613ad	0.065467216
111	0x3cd7f309	0.026361005
112	0x3d8f4bf6	0.0699691
113	0xbcca01c1	-0.02465904
114	0xbd8841e7	-0.06653195
115	0x3c6f1f04	0.014594797
116	0x3d0d9488	0.03456548
117	0x3d5bf763	0.053702723
118	0xbc0a4b22	-0.008440765
119	0xbc671cac	-0.014105957
120	0x3cb85ffd	0.022506708
121	0x3d1e5304	0.03865339
122	0x3c05a301	0.008156539
123	0x3af8b2d3	0.0018974192
124	0xbc5f8b1f	-0.013644009
125	0xbd05322f	-0.032518562
126	0xbd571316	-0.052508436
127	0xbd0a6ae5	-0.03379335
128	0xbd004813	-0.031318735
129	0xbc93f266	-0.01805992
130	0x3cb5d563	0.022196477
131	0x3bc21836	0.0059232963
132	0x3cc59c98	0.024122521
133	0x3d2d2cef	0.04227918
134	0x3c3f6bd3	0.011683422
135	0x3d0ecdc4	0.034864202
136	0xba471e12	-0.00075957284
137	0x3c2ada4f	0.010428025
138	0x3d6a9693	0.057272505
139	0x3d151df3	0.036405515
140	0xba8d705a	-0.001079093
141	0x3c9a6df9	0.018851267
142	0x3ce6f8d7	0.028194828
143	0x3a0cea4c	0.0005375489
144	0x3d55f6ca	0.05223731
145	0x3b4e440b	0.0031473662
146	0x3bf83a07	0.007575277
147	0xbcd6fab4	-0.026242591
148	0x3d3bd54e	0.04585772
149	0xbc37c681	-0.011216761
150	0xbd96cf4c	-0.073637575
151	0xbd9a9ece	-0.07549821
152	0xbce8dfb9	-0.028426992
153	0xbdd7afef	-0.105316035
154	0xbda9a991	-0.08284295
155	0x3b9e4387	0.004829827
156	0xbd15a1f7	-0.036531415
157	0xbd79d9b3	-0.06099863
158	0xbd55142b	-0.052021187
159	0xbdccd363	-0.10001256
160	0x3cf4a27a	0.029862631
161	0xbc026ed8	-0.0079609975
162	0xbd8d0d87	-0.06887346
163	0xbd516bbb	-0.05112813
164	0xbdd42c05	-0.103599586
165	0x3ccae209	0.024765985
166	0xbcf43d28	-0.029814318
167	0x3c1d2426	0.009591138
168	0xbd893a24	-0.067005426
169	0xbcab659d	-0.020922476
170	0x3baa13c0	0.0051903427
171	0x3cf854db	0.0303139
172	0xbd067ee9	-0.032835875
173	0xbcab38ae	-0.02090105
174	0x3c309541	0.010777772
175	0xbd74cd61	-0.059766177
176	0xbd2be06b	-0.04196207
177	0xbcccc07d	-0.02499413
178	0x3cac454f	0.021029143
179	0x3c33339d	0.0109375985
180	0x3b48124c	0.0030528484
181	0xbd37f8aa	-0.04491488
182	0xbd29d674	-0.041464284
183	0xbd86dae6	-0.0658472
184	0xbcd4e7d7	-0.025989456
185	0xbc4cbb00	-0.012495756
186	0xbcb09c1c	-0.021558814
187	0xbd6e04e6	-0.05811014
188	0xbda6aad5	-0.081380524
189	0xbd7ab686	-0.061209224
190	0x3c9b28d4	0.018940367
191	0xbc04815c	-0.008087482
192	0xbd844c8d	-0.064599134
193	0xbda7b73b	-0.08189245
194	0xbd830f84	-0.06399444
195	0xbabb7612	-0.0014302155
196	0xbd24f2c1	-0.04027057
197	0xbc59169b	-0.0132500185
198	0xbd02d7aa	-0.031943955
199	0xbd7c257c	-0.061559185
200	0x3c28a850	0.010294035
201	0xbc4876e9	-0.012235382
202	0x3d3124d7	0.043248024
203	0x3a3e18b4	0.0007251606
204	0xbd31e1c1	-0.043428186
205	0x3bab9fe7	0.0052375677
206	0x3c24af90	0.010051623
207	0x3c75ce92	0.0150028635
208	0xbc18b6e2	-0.009320946
209	0xbd3c644d	-0.04599409
210	0x3d0dff39	0.034667227
211	0x3d237784	0.0399089
212	0x3c4e984f	0.012609555
213	0xbd3dd791	-0.04634816
214	0xbc5a9c2c	-0.013342898
215	0xbccc9dbb	-0.024977555
216	0x3cd9e2b4	0.026597358
217	0xbd078b7f	-0.03309202
218	0xbd2fb662	-0.042898543
219	0xbcda320c	-0.026635192
220	0xbcd2782c	-0.025692068
221	0xba726249	-0.0009246213
222	0xbbd9072d	-0.00662317
223	0xbd005bd0	-0.03133756
224	0xbd514379	-0.051089738
225	0xbcd69f2e	-0.02619895
226	0x3a846dbf	0.0010103508
227	0xbd1ad446	-0.037800096
228	0xbd2b3dea	-0.041807093
229	0xbc3dcd1d	-0.011584547
230	0x3d0cb7cd	0.034354974
231	0x3c9fa9cf	0.01949015
232	0xbc5be4fb	-0.013421292
233	0xbd118032	-0.035522647
234	0xbd8e175c	-0.06938049
235	0x3d283f4e	0.041075997
236	0x3cff1471	0.031137677
237	0xbbcb1db4	-0.0061986092
238	0xbccbb735	-0.024867633
239	0xbc081a55	-0.008307059
240	0x3d99dd39	0.07512898
241	0x3d06823b	0.03283904
242	0x3cdc251c	0.026873164
243	0x3c89af5f	0.016807256
244	0xbcedd629	-0.029032784
245	0x3d190577	0.037358727
246	0x3d8407cc	0.064468
247	0x3d8ceb1a	0.068807796
248	0xbc08ae24	-0.0083423
249	0xbc9414a3	-0.018076247
250	0xbd855f5a	-0.065123275
251	0xbd27fdb7	-0.041013446
252	0x3c6e4748	0.014543362
253	0x3c4780aa	0.012176672
254	0x3d2c452b	0.04205815
255	0xbc740ce0	-0.014895648

conv6.bias f4 [30]
0	0x3d2551da	0.040361263
1	0x3d0f1a7b	0.034937363
2	0xbd6f1f1c	-0.058379278
3	0xbcf0dcc3	-0.029402142
4	0xbcbccfe1	-0.023048343
5	0x3c8e46e2	0.017367784
6	0xbb7973ef	-0.0038063487
7	0xbcfae780	-0.030627966
8	0x3cc1fdfe	0.023680683
9	0x3c65f27d	0.0140348645
10	0xbc34295e	-0.010996191
11	0xbcdd5e9c	-0.027022652
12	0x3d1acc04	0.03779222
13	0xbd04cda4	-0.032422677
14	0xbc981a9c	-0.018567376
15	0x3c37c227	0.011215723
16	0x3cf7613f	0.030197738
17	0x3c153747	0.009107417
18	0xbbe792c3	-0.007067056
19	0x3ce0134a	0.027352948
20	0xbcbe04f2	-0.023195717
21	0x3cd01040	0.025398374
22	0x3c5872b7	0.013210944
23	0x3d01d50f	0.03169733
24	0xbc937723	-0.018001145
25	0xbb9f18f1	-0.004855268
26	0xbcf3abd6	-0.029745024
27	0xbb5434f7	-0.0032380202
28	0xbc5ec325	-0.013596331
29	0x3c9a5942	0.01884139

bn1.weight f4 [10]
0	0x3f81d4c9	1.0143062
1	0x3f669736	0.9007448
2	0x3f739c2e	0.95160186
3	0x3f76af3d	0.9636114
4	0x3f75803c	0.95898795
5	0x3f82985c	1.0202746
6	0x3f74c5f5	0.9561456
7	0x3f86ca19	1.0530425
8	0x3f89d66e	1.0768564
9	0x3f8f855b	1.1212572

bn1.bias f4 [10]
0	0x3c45c87a	0.012071723
1	0xbd1baa7d	-0.038004387
2	0xbc9d7dba	-0.01922499
3	0x3caf9d20	0.021437228
4	0x3cd90f27	0.026496483
5	0xbc7e293d	-0.015512762
6	0xbc9a9482	-0.018869642
7	0x3d952133	0.07281723
8	0x3de8aa45	0.11360601
9	0x3e387e26	0.18016872

bn1.running_mean f4 [10]
0	0xbe44484e	-0.19168207
1	0xbf1cebc4	-0.6129725
2	0xbea764e0	-0.3269415
3	0xbdfdb15f	-0.123873465
4	0xbe70a3c6	-0.23499975
5	0xbf00312a	-0.5007502
6	0xbeb56e81	-0.3543587
7	0xbdd7d62d	-0.10538898
8	0xbede92f2	-0.43471485
9	0xbea4d2d3	-0.32192096

bn1.running_var f4 [10]
0	0x3e9dd7e4	0.30828774
1	0x3f1b5de0	0.60690117
2	0x3f374deb	0.7160327
3	0x3ebe0ff3	0.37121543
4	0x3e75da97	0.24009167
5	0x3ee43076	0.44568223
6	0x3eb91f50	0.36156702
7	0x3dee17dd	0.11625645
8	0x3f24e822	0.64416707
9	0x3ebc2abd	0.36751357

bn2.weight f4 [20]
0	0x3f7d0b86	0.9884571
1	0x3f881a74	1.0633073
2	0x3f806138	1.0029669
3	0x3f84e7c7	1.0383233
4	0x3f710e47	0.9416241
5	0x3f765582	0.96224225
6	0x3f8d3810	1.1032734
7	0x3f7bf7d5	0.98425037
8	0x3f838984	1.0276341
9	0x3f76f844	0.96472573
10	0x3f703652	0.93832886
11	0x3f81a0a9	1.0127155
12	0x3f7383c3	0.9512293
13	0x3f86d179	1.0532676
14	0x3f7225ad	0.9458874
15	0x3f780208	0.968781
16	0x3f779d8e	0.96724784
17	0x3f836670	1.0265636
18	0x3f7d38c1	0.98914725
19	0x3f7cd92b	0.9876887

bn2.bias f4 [20]
0	0xbc8b97c6	-0.017040145
1	0xbcce2ff3	-0.025169348
2	0xbd15e7b2	-0.036597915
3	0xbccdc3d3	-0.02511779
4	0xbe09380e	-0.1340029
5	0xbd1cac0d	-0.038250018
6	0xbce59a14	-0.028027572
7	0x3c9454ca	0.018106837
8	0xbce14363	-0.027497953
9	0xbd478f6d	-0.048720766
10	0xbde5ec22	-0.112266794
11	0xba9e0f24	-0.0012058956
12	0xbd966b3e	-0.073446736
13	0xbc2b7f41	-0.010467351
14	0xbd5af689	-0.05345777
15	0xbcb44902	-0.02200747
16	0xbc1bb089	-0.0095025385
17	0x3d28d624	0.041219845
18	0x3b19cc9b	0.0023467902
19	0xbd247ed8	-0.04016003

bn2.running_mean f4 [20]
0	0xbe69dda9	-0.22838463
1	0xbf04a97a	-0.518211
2	0x3d8145cd	0.063121416
3	0xbf059abe	-0.5218924
4	0x3f02350b	0.5086219
5	0x3f4ffd5d	0.81245977
6	0xbeb3a64b	-0.3508781
7	0xbd3e454d	-0.04645281
8	0xbed71e49	-0.42015293
9	0xbf2cfb59	-0.67571026
10	0xbe3611f2	-0.17780283
11	0xbdfae3e0	-0.12250495
12	0xbf37fe22	-0.7187215
13	0x3e12794b	0.14304082
14	0xbfb06fec	-1.3784156
15	0xbf9d2529	-1.2276965
16	0xbfdde6eb	-1.7336096
17	0x3e3940a4	0.18091065
18	0xbe4f3cef	-0.20238088
19	0x3eeb16f4	0.4591595

bn2.running_var f4 [20]
0	0x3fa2d848	1.2722254
1	0x3f947144	1.1597066
2	0x40049092	2.0713239
3	0x40001133	2.0010498
4	0x40212a99	2.518225
5	0x3f93a619	1.1535064
6	0x3fe1027f	1.7578887
7	0x3f781b6f	0.9691686
8	0x3f9ec4a2	1.2403758
9	0x3ffea230	1.9893246
10	0x400d2620	2.205452
11	0x3fe8af12	1.8178427
12	0x3fc88c12	1.5667746
13	0x3fd69e64	1.6767087
14	0x3fdd9e4f	1.7313937
15	0x3fd52fd8	1.6655226
16	0x3ff80916	1.9377773
17	0x3f9a4339	1.2051765
18	0x3fcb7de5	1.5897795
19	0x40228a69	2.539698

bn3.weight f4 [30]
0	0x3f5ee797	0.8707213
1	0x3f52e903	0.823868
2	0x3f5e66b7	0.8687548
3	0x3f5baa73	0.8580696
4	0x3f5b50bc	0.85670066
5	0x3f5b5f31	0.85692126
6	0x3f59334b	0.8484389
7	0x3f5a0051	0.8515673
8	0x3f576adb	0.84147424
9	0x3f582fbe	0.8444785
10	0x3f473f0a	0.77830565
11	0x3f5b1ac4	0.85587716
12	0x3f5ca266	0.861853
13	0x3f5b5579	0.85677296
14	0x3f5f3bb7	0.8720049
15	0x3f5c1ece	0.85984504
16	0x3f63f820	0.89050484
17	0x3f54e965	0.8316863
18	0x3f5ad2c5	0.8547786
19	0x3f5e7e66	0.8691162
20	0x3f5f1390	0.87139225
21	0x3f58fb72	0.84758675
22	0x3f5752ed	0.8411091
23	0x3f5bfa9e	0.85929286
24	0x3f5db686	0.86606634
25	0x3f58556c	0.84505343
26	0x3f53b787	0.82701916
27	0x3f611520	0.8792286
28	0x3f5cf894	0.863168
29	0x3f641e1e	0.89108455

bn3.bias f4 [30]
0	0xbe37c216	-0.17945132
1	0xbe108af3	-0.14115505
2	0xbdecf7da	-0.115707114
3	0xbe4746d2	-0.1946061
4	0xbe0a0e1d	-0.13481946
5	0xbdf45fa2	-0.11932303
6	0xbe66a579	-0.2252406
7	0xbe1c0cd7	-0.15239273
8	0xbe6c8171	-0.23096253
9	0xbe15b216	-0.14618716
10	0xbe0e989c	-0.13925403
11	0xbe312aae	-0.17301437
12	0xbe68e4ab	-0.2274348
13	0xbe20050d	-0.15626927
14	0xbdf67c09	-0.120353766
15	0xbe344ee0	-0.17608213
16	0xbe3cf185	-0.18451507
17	0xbe5d3c48	-0.21605027
18	0xbe48a41a	-0.1959385
19	0xbe086445	-0.133195
20	0xbe4423e9	-0.19154324
21	0xbe30ef8e	-0.17278883
22	0xbe25cb62	-0.16190866
23	0xbe54596c	-0.20737237
24	0xbe532907	-0.2062112
25	0xbe1bc65d	-0.15212388
26	0xbe75dfe3	-0.24011187
27	0xbe31e64d	-0.17373009
28	0xbe1da944	-0.15396601
29	0xbe1d55af	-0.15364717

bn3.running_mean f4 [30]
0	0xbf4fd272	-0.8118049
1	0xbf5e7dc8	-0.86910677
2	0xbefd5680	-0.49480057
3	0xbefa0c2f	-0.4883742
4	0xbfba0901	-1.4533998
5	0xbee3044b	-0.44339213
6	0x3f29dde4	0.66354203
7	0x3e3d0dde	0.18462321
8	0xbf8cec9e	-1.100971
9	0xbfbe4dec	-1.486753
10	0xc00f6fb8	-2.2411938
11	0xbf0d1502	-0.5511018
12	0xbe8c9e8b	-0.2746471
13	0xbf12d47a	-0.57355464
14	0xbf00f82d	-0.50378686
15	0x3de9be86	0.114132926
16	0xbdc9d093	-0.098542355
17	0xbf77667b	-0.9664075
18	0xbf1e2bb4	-0.61785436
19	0x3e1921b3	0.14954261
20	0xbf8340dc	-1.0254169
21	0xbfcf6719	-1.6203338
22	0xbf807ac3	-1.0037464
23	0xbf64eb30	-0.8942137
24	0xbfef59b9	-1.8699256
25	0xbfb3b394	-1.4039178
26	0xbf252e6a	-0.6452395
27	0xc001b1ca	-2.0264764
28	0xbe919b4c	-0.28438795
29	0xbee802aa	-0.45314533
