mlops_project/outputs/2022-05-26/17-31-54/models/baseline.pth (torch, 329102 bytes, 26 tensors)

conv1.weight f4 [10, 3, 5, 5]
00000000: c66b 5cbd aef5 ad38 a8ec 5cbd 4853 a53d
00000010: d030 e6bd 142e b03d c369 d4bd a824 cabd
00000020: e3ca 7ebd 2859 523d 4c75 86bd f8fb a83c
00000030: 6730 07be 0496 abbd 7aed 8abd 22c2 ccbc
00000040: 7eb4 e7bd 5690 973d 9398 b0bc 8a50 c83c
00000050: 02dd da3d 4e77 7d3c 0658 933c 8d4c fc3d
00000060: 2b0a 7ebd 3908 103d cacf 26bd f93e d03d
00000070: ab7d 093e 04df d9bd 6c09 d93d 23a4 7c3d
00000080: 054d 983d ac16 a03d 04ca dd3d 81c6 bcbc
00000090: 7f49 d0bd 86e4 14bd 2ee7 8ebd bbd0 bcba
000000a0: fa1d 87bc 3b0e 8fbd 4ac6 833b eaea 0e3e
000000b0: 476c f2bb 410e 5e3c 762f 00bd 503f 103c
000000c0: 4f56 f63d 55bd 873d 9e59 023d cda4 3e3c
000000d0: 510a 503c 97cc 833d 14b1 fbbc 6b86 e2bd
000000e0: 2993 bcbd 673a bb3d b980 9f3c ee43 d4bd
000000f0: b4d8 663c f6c0 b73d af00 fdbd c43c 94bd
00000100: 775d 68bd 4c00 2c3c 6215 11bd a40a d8bb
00000110: c46a c8bd 26b4 443d 4acd e33d c8f0 623d
00000120: 5ae9 cbbd e442 babd 5f5c 0d3d 10ba 8fbd
00000130: 311c fbbb 1ee8 0fbe b679 5ebd 6ee2 4b3c
00000140: 3aa5 5abb a6bb e9bc 09d7 5d3c 77b9 1fbd
00000150: 6a27 d9bd ce49 a5bd 4722 83bd 6f65 bd3d
00000160: 77e4 743d e762 f83c 0731 cdbd 1bc6 fd3d
00000170: df62 873d 1a76 a93d 04d2 2abd 7250 fabc
00000180: 1c83 bd3d be82 ad3d 03a1 a23d 2a77 87bd
00000190: 1840 8e3c 2fbc 05be 593e 28bb b14f a8bd
000001a0: bb84 98bd 7ffe 8cbd 92e8 57bb 6af1 f23d
000001b0: 49f3 6c3d c0f3 73bc 1e95 8b3d 3f57 8fbc
000001c0: 670b e03d 559a 143d e8a6 9a3b 3ff2 023d
000001d0: 64dc 073c 9342 ee3d fe20 c93d 2c37 093e
000001e0: c986 3dbd 2eb9 c33d 654b 4e3e 691c 3a3a
000001f0: 5216 ce3d 2eb3 f0bd 5510 563c dda7 943c
00000200: e8d8 f8ba d15c 0e3d 7adc 9dbd 105c 8d3c
00000210: fe7f 06ba 5d1d c2bd e2d5 45bd 3569 a3bd
00000220: ab44 a53d 0b2e 1f3d 379e 283d f423 acbc
00000230: 683a 803c cd5a af3c a465 b43d 5d54 123e
00000240: 5423 333d 32da 63bd f24c 19bd e601 533d
00000250: bb12 82bd 4bc8 9fbd 9518 fdbd 32e0 aabd
00000260: 28dc 2bbd cbe0 003d 6773 32bb eee2 803d
00000270: 233a a1bd 5543 52bc d801 f2bd faf9 653d
00000280: 2d52 edbb ae24 123e 2a99 2cbd f5d6 043e
00000290: abd6 e33d 1298 683d 1038 bd3c b76e 033e
000002a0: c927 d73d aec1 c23d cb98 dfbc 8fca a4bd
000002b0: 3be6 9b3c 13d3 4d3d 5462 87bd be2b d4bd
000002c0: d6c6 0fbe ebb0 9abd 4276 a63d 67a6 4c3c
000002d0: 697c 07bd d2e0 d63b 9929 793d 668b cebd
000002e0: 73bd 90bd 8445 85bd c30c 31bd f4e0 b33d
000002f0: 8b35 e23d 85ec acbd 6336 e8bd e3c2 ccbd
00000300: 479f 8d3d 5173 ec3d 6048 83bd 432b 43bd
00000310: 743d 8b3d 66d0 27bd 0d8f 0d3e c53a 843d
00000320: 4aaa 90bd 7a8f 07bd ae98 acbb ab42 8abd
00000330: 77a0 e1bd ace2 b7bc 7010 8fbb 1319 9abc
00000340: 326d c9bc 523f 9f3d c9f0 4bbd cc62 823c
00000350: 9d7e 953d 4a50 35bd 479a 5f3d 20dd bfbc
00000360: f462 a83d 6891 06bd bfcd 343d c149 593d
00000370: 9712 9ebd 4a4c 3fbd 415f a93d 2461 ac3c
00000380: 9782 023e 254a 03be f596 94bd 52f2 f3bd
00000390: 9184 813c 4c4e 0fbd 0841 dbbc 57d0 0ebd
000003a0: 5212 e6bd 4a37 283c e454 85bc ae37 bcbd
000003b0: 69f0 c03c d8ec e0bc 95ba 0dbe b13e 383d
000003c0: c13f 973d dca1 81bc 7f70 a7bd f3f2 65ba
000003d0: 24df ae3d d6f3 e33d f047 b0bd d057 66bd
000003e0: 73f1 a43d ad7e 583d 7ca2 be3d bc50 23bd
000003f0: f059 d63d 7ed0 d1bd bf65 b7bc b961 053d
-0.05381372 8.295044e-05 -0.05393663 0.08072525 -0.11239779 0.08602539 -0.10371735 -0.09870273
-0.062205207 0.051354557 -0.06565341 0.02062796 -0.13202058 -0.083782226 -0.06783576 -0.024994913
-0.11313723 0.07400577 -0.021557128 0.024452467 0.10686685 0.015470339 0.017986309 0.123192884
-0.062021416 0.03516409 -0.040725507 0.10168261 0.13426845 -0.1063824 0.105975 0.06167997
0.07436565 0.07816824 0.10829547 -0.023043873 -0.10170268 -0.03635075 -0.06977688 -0.0014405468
-0.016493786 -0.06985136 0.0040214406 0.139568 -0.0073981616 0.013553203 -0.031295262 0.008804157
0.12028181 0.06627909 0.031823747 0.011635971 0.012697772 0.06435507 -0.030724086 -0.110607944
-0.09207756 0.09141999 0.01947056 -0.10364519 0.014089752 0.08972351 -0.12353646 -0.072381526
-0.05672976 0.010498118 -0.035420783 -0.0065930653 -0.09785989 0.048023365 0.1112314 0.05540541
-0.09956618 -0.090947896 0.03451192 -0.070179105 -0.007663273 -0.1405339 -0.05431529 0.012444122
-0.0033362643 -0.02853186 0.013540038 -0.038995232 -0.10603221 -0.08070718 -0.06403022 0.092478625
0.059788194 0.030320598 -0.10019117 0.12391301 0.06610655 0.08274479 -0.041704193 -0.030555937
0.09253523 0.08472203 0.07940867 -0.066145256 0.017364547 -0.13060068 -0.0025671928 -0.08218325
-0.07447191 -0.06884479 -0.003294502 0.11862452 0.057849202 -0.0148896575 0.06815551 -0.017497657
0.10939675 0.036279995 0.004719604 0.031969305 0.008292291 0.11633792 0.09820746 0.13399953
-0.04627112 0.095568046 0.20145948 0.00070995704 0.10062851 -0.11752926 0.013065417 0.01814645
-0.0018985542 0.034756485 -0.07708068 0.017255813 -0.00051307667 -0.09478257 -0.048299678 -0.07979051
0.08069738 0.03886227 0.04116651 -0.021013238 0.01565285 0.021405602 0.08808449 0.14289995
0.043734863 -0.05562801 -0.037426896 0.051515482 -0.06351229 -0.07801875 -0.12358204 -0.08343543
-0.041958004 0.03146438 -0.002722943 0.062932834 -0.07872417 -0.012833436 -0.11816758 0.0561466
-0.007242462 0.14271805 -0.042138256 0.12972625 0.11124929 0.05678565 0.023098022 0.12835203
0.10505635 0.09509598 -0.027294537 -0.080464475 0.01903068 0.050250124 -0.066105515 -0.10359906
-0.14040694 -0.07553276 0.08128025 0.012490845 -0.03307763 0.0065575624 0.060830686 -0.10085182
-0.070673846 -0.065074 -0.04322506 0.08783141 0.11045369 -0.0844355 -0.113384984 -0.09998109
0.06915145 0.11545432 -0.06410289 -0.04764868 0.06798831 -0.04097023 0.13824101 0.06456522
-0.0706373 -0.033095814 -0.0052672243 -0.06750997 -0.11016934 -0.022446953 -0.004365973 -0.018810784
-0.024588201 0.07775749 -0.049790177 0.01591625 0.0729954 -0.044266023 0.05459049 -0.02342087
0.08221999 -0.032853514 0.044141527 0.053048853 -0.077183895 -0.046703614 0.08270121 0.021042414
0.12745129 -0.12821253 -0.07255355 -0.11911453 0.015810283 -0.03498678 -0.026764408 -0.034866657
-0.11233963 0.010267088 -0.01627583 -0.091903076 0.023552136 -0.027456686 -0.13840707 0.044981662
0.07385207 -0.01582425 -0.08175754 -0.0008771859 0.085386544 0.111304924 -0.08607471 -0.05623609
0.08053865 0.052855182 0.09308335 -0.039871916 0.10466373 -0.10244845 -0.022387384 0.0325639

conv1.bias f4 [10]
00000000: ed08 85bd 9d9f fc3d 63e6 cbbd 9c34 7a3d
00000010: e02d ccbd e81b 92bd d6c3 06bd 6c71 06be
00000020: 72a5 e93c d03a 363d
-0.06495843 0.12335131 -0.09956052 0.06108533 -0.099696875 -0.07134229 -0.032901607 -0.13129205
0.028521273 0.04448968

conv2.weight f4 [10, 10, 5, 5]
00000000: 8334 66bd d6da 973d 94c6 a3bd d3cc 68bd
00000010: 38cd 23bd 9660 4d3d 543d 853d ed9e 2abb
00000020: 03da fabc 5cb9 eebc a2f5 1dbd e90e 793d
00000030: 86b3 02bd b615 25bd 53a3 91bd b344 433d
00000040: 7c39 1d3e 9dcd c33d 610f aa3c 2a23 a83d
00000050: 4202 0fbd 6e51 9b3d ec94 5f3d 1364 973d
00000060: 3210 0f3c 93e3 adbd 7c38 9e3c 7c32 33bd
00000070: 06f5 20bd eb22 72bd 0fc8 99bd 8037 b1bd
00000080: f1c1 2f3d eca3 fbbc f19d 0b3d a985 883c
00000090: 0912 c03b 3e95 133d 8de5 59bb 30ff 85bd
000000a0: 8200 5d3c 2000 9dbd 67de 8f3b 4b6f 07bd
000000b0: a988 173d db4c 793c 2572 a5bc c27e 10bd
000000c0: 1aa1 033d ffb8 08bd 345b 66bd 9d5c d4bc
000000d0: dfcf 5ebd 5b14 8b3d 452f 383d a0df f2bc
000000e0: ff09 aa3c d27b 5f3d 8aee 7abc 284d 6d3c
000000f0: 08ad cbbc afbf 0dbd 89a6 eabc 34a7 f3bc
00000100: 6997 d8bb 6407 a3bc e7eb 4cbd 303b 7dbd
00000110: ffb2 f9bc a0c2 1fbb 9591 253c 8e97 f9bc
00000120: 65ea 3a3d 03bf 38bd 1334 30bd bab1 893d
00000130: 3061 393c 2ff9 0f3c 9626 86bd 7a49 94bd
00000140: f9fd deba 2f9d 8f3d 2c47 89bd 0cb6 043d
00000150: 53ba 43bd 6ea5 bdbc be50 9b3d b729 29bd
00000160: 34f1 143d 03e5 0ebd d36d 6f3d c39a d9bc
00000170: afb6 5c3d 22ba 223d 17c6 273c d3bd 8c3d
00000180: 8bae 9b3d 09b3 4e3d 5c30 4c3d 6f7f 3e3d
00000190: 570e 3b3c 3c8e ff3b 96bc 90bd 48fb 533c
000001a0: 0757 e7bb 6ab3 b0bb 9b7b abbc 6f25 3f3c
000001b0: ae0d a6bd 2960 41bd 98e2 25bd 17d5 043d
000001c0: 1c40 49bd bd7f c9bc e26e 05bd 5540 95bd
000001d0: cbf3 89bd a7c8 81bd f96a 8fbd 288f 8abd
000001e0: c272 f2bc 94af 323d 512e 80bd 2255 25bd
000001f0: 99fe 65bd abc3 6b3b 282d 283d 1e8e 43bd
00000200: 1b66 ecbc ea30 193d 95d7 9fbd b0ad 893d
00000210: 986f 14bd 0daa 4d3d f568 8d3d ee1d b9ba
00000220: 20d7 80bd ee57 8cbb 3824 bf3d 5ecb 41bd
00000230: 9803 e73c d56d b1bd f9d8 55bd 51bd 6c3d
00000240: 4279 91bd b0da afbd 054c 1fbd 3acb b2bd
00000250: 1f65 81bc 5b0c 103d 462c b73d 7ca3 8abd
00000260: ccc3 9b3c bf38 95bd 2d5d 29bd b8b0 a73d
00000270: 5d02 5f3b 30f9 ae3d ba13 e2bc 18ae 09bd
00000280: 41f6 283d 2694 0ebd be41 4bbd 2aae d9bd
00000290: 988d 753d 3390 33bd c231 253d 2d80 6fbd
000002a0: c130 44bc 2c22 8dbd 949d b63c e0a1 7bbd
000002b0: 8782 eebc 68e8 8cbd 68cd f5bc 24f9 12bd
000002c0: f566 6ebc c446 e33b 985f 923d d1ac 78bd
000002d0: d46b 42bd 2cbb fa3c 4af5 743c 5b94 003d
000002e0: 3a81 fe3b 3c64 4b3d c2ea 8ebd 1907 3f3d
000002f0: d77e 853d 1bc0 0abd 2ceb 0dbd 5245 56bd
00000300: abe4 54bd 1275 27bd 6294 f53c 815a 3f3d
00000310: 3d28 17bc b0b6 8e3c 0b29 103d 6aa6 26bb
00000320: 1657 473d 0112 3c3d 6359 bebd e7bd 9a3d
00000330: 2e5c ca3b 6c55 49bd faee 293d 4992 4dbd
00000340: 14d5 803c 7b4e 403d ed13 7abc ff10 8ebd
00000350: 85a0 783b 95a1 953d 85e9 9a3c 0155 873c
00000360: 5561 1fbc bc58 95bd db09 a43b 845f 08bd
00000370: 4f8d 3c3d ec1e ef3d 7aed c33d e73b e03c
00000380: fa4c d4bc 989e 7e3d ff80 9c3c 7125 353d
00000390: b95c a8bd 5ac1 b83d 403c 44bd f059 aa3c
000003a0: 41a8 bd3d 22a0 48bd ed70 d5bb 2093 053d
000003b0: 3560 2ebd 9e53 a23d a0ca c03b 2984 433d
000003c0: cc09 913d f057 36bc c62c 723d f62e fabc
000003d0: ed5b 443e f52f 1ebd 3c6f fc3a ecc6 cabb
000003e0: dd85 853c 4a41 9d3c 4a85 54bd 74c0 25bd
000003f0: cd41 9cbd 9798 2abd 3ed6 22bd 6931 afbd
-0.056202423 0.074147865 -0.0799686 -0.05683596 -0.039990634 0.05014094 0.06505838 -0.0026034669
-0.030621534 -0.02914112 -0.03856433 0.060805235 -0.03190949 -0.04030391 -0.0711123 0.04767294
0.1535396 0.09560702 0.020759286 0.08209832 -0.034914263 0.07583891 0.054585382 0.073921345
0.008731889 -0.08490672 0.019314043 -0.043749318 -0.039296173 -0.05911533 -0.07508861 -0.08653164
0.042909566 -0.030717812 0.03408617 0.016665297 0.005861525 0.036031 -0.0033248395 -0.06542814
0.013488891 -0.076660395 0.004390526 -0.03306512 0.036995564 0.015216078 -0.02019603 -0.035277136
0.03213606 -0.03337955 -0.05623932 -0.025923068 -0.05439746 0.06790992 0.044966955 -0.029647648
0.02075672 0.054561444 -0.015315661 0.0144837275 -0.024862781 -0.03460663 -0.028643863 -0.029742815
-0.0066098464 -0.019900985 -0.05002966 -0.061824024 -0.03048086 -0.002437748 0.01010551 -0.030467775
0.045633692 -0.045104038 -0.04301841 0.06723352 0.011314675 0.008787437 -0.065503284 -0.07240577
-0.0017012946 0.07012402 -0.06703028 0.032400176 -0.047785114 -0.023150172 0.0758376 -0.041299548
0.03636284 -0.03488637 0.058454346 -0.026563054 0.05388516 0.03972829 0.010240099 0.068721436
0.07601651 0.05046371 0.049850807 0.04650825 0.011416993 0.007798938 -0.0706722 0.012938328
-0.007059935 -0.0053924816 -0.020932963 0.01166664 -0.08108078 -0.047210846 -0.0404993 0.03242978
-0.049133405 -0.024597043 -0.03257645 -0.07287661 -0.06735953 -0.063370995 -0.07002825 -0.06765586
-0.029595736 0.043624476 -0.06258834 -0.040364392 -0.056151006 0.0035974781 0.04105869 -0.047742955
-0.028857281 0.037400164 -0.07804791 0.067225814 -0.036239237 0.050211 0.069047846 -0.00141233
-0.06291032 -0.004282943 0.0933308 -0.047313087 0.028199956 -0.08663527 -0.052208874 0.057797734
-0.07103206 -0.08586633 -0.038890857 -0.08730169 -0.015795289 0.035168033 0.08943991 -0.067694634
0.019014262 -0.07286214 -0.041348625 0.08188003 0.0034028508 0.085436225 -0.027597297 -0.033613294
0.04125047 -0.034809254 -0.049623244 -0.10628922 0.059949487 -0.04383869 0.040330656 -0.058471847
-0.011974514 -0.068912834 0.022291936 -0.061433673 -0.029114975 -0.068802655 -0.030005172 -0.03588213
-0.014550914 0.006935926 0.07147139 -0.060711686 -0.047466114 0.030606829 0.01495106 0.031391483
0.00776687 0.049656138 -0.0697837 0.04663763 0.065183334 -0.033874612 -0.034648106 -0.052312203
-0.051975887 -0.04088313 0.029977981 0.04671717 -0.009225902 0.017421097 0.03519539 -0.002542878
0.048667036 0.045915607 -0.09294393 0.07555752 0.0061755395 -0.04915373 0.04148767 -0.050188337
0.015726604 0.046949845 -0.01526354 -0.069368355 0.0037937474 0.0730621 0.018910179 0.016520025
-0.009727796 -0.07292315 0.0050060577 -0.033294216 0.0460332 0.1167582 0.095667794 0.027372314
-0.025915612 0.062162966 0.019104479 0.04422516 -0.082208104 0.09021254 -0.04790902 0.020794839
0.092606075 -0.04898084 -0.006513706 0.032611012 -0.04257222 0.07926105 0.00588353 0.04773346
0.07081947 -0.011129364 0.05912473 -0.03053997 0.19175692 -0.038619954 0.0019259225 -0.006188264
0.016299183 0.019196171 -0.051884927 -0.04046674 -0.07629738 -0.041649427 -0.0397551 -0.08554346

conv2.bias f4 [10]
00000000: 6512 d1bc b865 83bd b716 0d3d fe9d 2cbd
00000010: 880c 8abd 1168 dbbb fc9a 11bd 388b 303d
00000020: 6724 10bd e183 e8bc
-0.025521467 -0.06415886 0.03444549 -0.04214286 -0.067406714 -0.0066957553 -0.035548195 0.04310152
-0.035190966 -0.028383197

conv3.weight f4 [20, 10, 5, 5]
00000000: c81a c2bd 10b6 4abd 94c9 aebd 8d4a de3c
00000010: 3370 823d 312b b13c a55f 7fbd abb2 913a
00000020: 190c 49bd 7d82 583d 4f91 9cbd e92f 6cbd
00000030: 991b 3ebd 7204 313d e8e2 2b3d a28a 2abd
00000040: 13b2 2a3d 2167 5e3d dfcd 0f3d d830 b1bc
00000050: 5a69 85bc 94eb 2b3d 0ea5 853d a46f c03d
00000060: d45c 1e3d c748 e4bb 8bde 26bc d339 8d3d
00000070: d966 06bd c62a 8f3d 53ef 0abd e6cd 8e3b
00000080: fa77 fe3c c975 9c3d d3d9 b03c 7c67 12bc
00000090: d611 98bb adc7 313d 35f0 88bc 4511 273d
000000a0: 5d63 70bd f642 a53c f3e9 9abd b0d5 5a3b
000000b0: 7620 693d 913c 44bd d142 163c 73b5 95bd
000000c0: 3ee0 253d 576c 6f3d a4a0 a3bb 7a03 823c
000000d0: 5ca6 8f3c e5ad 0c3c 53c5 68bd 2ea2 83bd
000000e0: 25c1 e63c 1db9 8e3c f652 013d 9fde 94bc
000000f0: 6c6b 05bd ef99 d4bc 3e37 58bd 2936 ac3b
00000100: 6f48 a73c 717a 87bd 90d3 b23b 8a6c 53bd
00000110: 54d5 48bd 5ddb 0ebd 3266 9cbb 0b12 a6bc
00000120: a044 113c b4ec a13d 8fe4 913d d8d0 babd
00000130: 56f1 3ebd 1a64 aebd db94 aebd 0233 cabd
00000140: e23a 923c 67da 0dbd 6e5a 443d 0a06 21bd
00000150: b12a eabd 70d5 9f3c 2db5 bb3d 0182 c83b
00000160: 3286 8bbd 46ec cabd afe6 943d d412 b7bb
00000170: 3c5e 55ba b691 c83c 38e9 ddbc edae ccba
00000180: 6414 963d 4b29 d6bc c2c9 1abb d649 003d
00000190: 188b 2f3d ba55 ed3c 5168 f23c 9557 edbc
000001a0: 941b c0bc 848e 9c3d 4acf 3cbc aac5 503c
000001b0: af62 ebba a98c 1abd a890 4a3d 886c 883d
000001c0: 4742 453d db1b 5dbd e533 43bd c00e 133d
000001d0: f83b 44bc 430b 7d3d 17b9 8c3d ab29 d3bc
000001e0: d9f7 34bd 1ee8 383d 5aaf 9fbc 3155 d03d
000001f0: 9a75 003c 6eb7 71bd c6a0 753c 8991 e3bc
00000200: 070d 773d 05a6 8cbc 73d4 ccbd fc43 b8bd
00000210: 21e9 75bd 72d5 d8bb 7aea 67bd 9463 c4bc
00000220: 93d0 37bd d8c4 313c 3bb5 dcbd 9253 aebd
00000230: 86c3 983d c9b5 9abc fd4f e03c e86f 01bd
00000240: 1505 aebd 086f 353d 9f30 753d dca4 67bd
00000250: bb8b 51bd e921 27bd 94a3 0f3d 6b2b 2dbb
00000260: 8482 233c 44a7 e73c 49e1 813d 6d72 b6bc
00000270: 636a 91bd 6dee 71bd 88f7 993c 2c5d 08bd
00000280: adb4 dcba f1ad d03c 1200 80bd 9ca3 af3c
00000290: f198 f0bc 588a 1dbd 316c bebc e7d1 a63c
000002a0: 4fae 063d be81 e5bb 1bb1 96bb 4ca9 52bd
000002b0: a124 7dbc 880c 8f3c 5d36 093d 7c09 1abd
000002c0: ca6c 70bd 23ff 45bd bc69 4c3d 9d55 d73c
000002d0: a758 dcbc 347e bcbd f694 0ebd 15ff b83d
000002e0: cb53 3a3d 9dcd f2bd 518e 4bbd 3652 62bd
000002f0: b24a 73bc a390 bc3d be91 d0bd ad12 54bb
00000300: 9cf1 263d 9ef1 163d 1bf3 4c3c ddc2 8bbb
00000310: 946e 09bd 5a8f 853d f47a 96bc 3ddd 173d
00000320: 34c2 ecba 5c85 1abd 825f fc3c c387 383d
00000330: 08d9 a8bc 1331 87bc 4e4f 543c de06 29bd
00000340: b508 3f3d fdb5 f13c 6e03 1f3d 06c7 8fbd
00000350: dfe0 c83c e52d f9bb 1363 b63d f55e f4bc
00000360: 6cb9 b9bc 939c 00bd 3c60 69bc e8c4 603d
00000370: 8ab0 67bd b963 e93b 2487 1d3d f224 863a
00000380: f2aa 173d 5aba 373d 4ace a23a e4fe c3bb
00000390: d49d dabd bc35 12bd 2abc 563b 0783 d53d
000003a0: b8c5 3b3d 0eb6 1a3c efec a6bb 2a03 a4bb
000003b0: f856 813c f2c4 9d3d ce2d 833c 817e 6d3d
000003c0: 96f6 833d d15d fe3c 8c55 8a3d 134f 2f3d
000003d0: 6f6d 56bc db25 87bd 7c1c 5c3b 5721 803d
000003e0: fae2 623d d664 fdba 0576 8a3d fc30 7d3d
000003f0: 24f6 48bd 60a1 11bd dbcb 4b3c 1345 5b3b
-0.09477764 -0.049490035 -0.08534542 0.027135158 0.063690566 0.02162704 -0.062347073 0.0011115869
-0.049083803 0.05285882 -0.07644903 -0.05766288 -0.046413038 0.04321713 0.04196444 -0.041636117
0.04167373 0.05429757 0.035108443 -0.021629736 -0.016285587 0.04197271 0.06525622 0.09396294
0.038662747 -0.0069666835 -0.010184894 0.06895795 -0.032812927 0.0699058 -0.033919644 0.004358041
0.031063069 0.07639653 0.021588242 -0.008935805 -0.004640798 0.043403316 -0.016716102 0.040787954
-0.05868851 0.020173531 -0.075641535 0.0033391528 0.056915723 -0.047909323 0.009171204 -0.07309999
0.040497057 0.05845293 -0.004993515 0.015870798 0.017535381 0.008586382 -0.056828808 -0.06427418
0.02816827 0.017422253 0.03157326 -0.01817256 -0.03257315 -0.025952308 -0.052787058 0.00525548
0.020420281 -0.06615151 0.005457349 -0.051617183 -0.04903157 -0.03487717 -0.004772925 -0.020272275
0.008866459 0.07906476 0.07123672 -0.09121865 -0.046616875 -0.085151866 -0.08524486 -0.0987301
0.017850343 -0.034632113 0.047937803 -0.0393124 -0.11433924 0.019510955 0.09165416 0.0061190133
-0.06812705 -0.09908347 0.07270562 -0.0055869613 -0.0008139347 0.024483543 -0.027088746 -0.0015616097
0.07328108 -0.026142737 -0.0023618792 0.031320415 0.04285726 0.028971542 0.029590758 -0.028972426
-0.02345065 0.0764437 -0.011524031 0.012742439 -0.0017958487 -0.0377318 0.04945436 0.06661326
0.04815891 -0.053981643 -0.047656912 0.03590274 -0.011977188 0.061778318 0.068712406 -0.025776705
-0.04418168 0.04514324 -0.019492794 0.10172499 0.007840538 -0.059012823 0.014991945 -0.027779358
0.06031516 -0.017169008 -0.10001459 -0.08997342 -0.060036782 -0.0066172415 -0.0566201 -0.023973264
-0.044876646 0.010850154 -0.107767545 -0.085120335 0.07459168 -0.01888551 0.027381891 -0.031600863
-0.08497063 0.04429534 0.05986082 -0.056553707 -0.051158648 -0.040803824 0.03506811 -0.0026423584
0.009979848 0.028278 0.06341798 -0.02227136 -0.0710037 -0.05906527 0.01879479 -0.03329198
-0.0016838514 0.025473567 -0.062500134 0.02144032 -0.029369803 -0.038462013 -0.023244949 0.020363761
0.032881077 -0.007003992 -0.0045987493 -0.051430985 -0.015450628 0.01746203 0.03349911 -0.0376067
-0.0586975 -0.04833902 0.049905524 0.02628594 -0.026897741 -0.09203759 -0.03481003 0.09033028
0.045490067 -0.11855624 -0.04969627 -0.055254184 -0.014849352 0.09207275 -0.10184048 -0.0032359764
0.04075776 0.036851518 0.012509133 -0.004265173 -0.03355272 0.06521483 -0.018369175 0.037076224
-0.0018063248 -0.037724838 0.03080726 0.045051347 -0.020611301 -0.016502893 0.012958361 -0.041266315
0.046639163 0.029505724 0.03882163 -0.070203826 0.02452129 -0.007604348 0.08905616 -0.029830435
-0.022671424 -0.03139932 -0.0142441355 0.054875284 -0.056564845 0.0071224836 0.03845896 0.0010234399
0.03702826 0.044855453 0.0012421098 -0.005981313 -0.106746346 -0.035695776 0.0032765963 0.10425382
0.045842856 0.009442819 -0.0050941627 -0.00500526 0.01578854 0.0770358 0.016013052 0.05798197
0.06443517 0.031050595 0.06754598 0.04280002 -0.013087614 -0.06599017 0.0033586314 0.06256359
0.055392243 -0.001933242 0.06760792 0.061814293 -0.049062863 -0.03555429 0.01243874 0.003345792

conv3.bias f4 [20]
00000000: 46ec 12bc 1b34 2abd 19d2 973d bfc6 8ebd
00000010: 799e 24bd 693f b03c 0bcb 41bd ed90 933d
00000020: 57d6 843d c955 82bd 4097 bf3d 1d28 063d
00000030: 2be8 9bbd 2c7f eebd 8ee0 623d ed7a 983b
00000040: afd8 8cbd 08fb b4bc 8046 a93c 7d04 c13d
-0.008967465 -0.041553598 0.0741312 -0.069715016 -0.040190194 0.021514611 -0.047312777 0.07205377
0.064861946 -0.063640185 0.093550205 0.0327531 -0.07612642 -0.1164535 0.055389933 0.004653326
-0.068772666 -0.022092357 0.0206635 0.09424684

conv4.weight f4 [20, 20, 5, 5]
00000000: 75ca 91bc 922e 38bd 3c8a d33c ff18 18bd
00000010: a1dc 81bc 3023 d7bb c58a 08bd 11c1 14ba
00000020: eac0 9abd f12f d6bc 04ba 273c 07d1 7dbd
00000030: b189 93bc f94a 08bd 2188 c1bd 8676 90bd
00000040: ac1d a6bd b1e2 8fbd 1b01 01bc 559f 91bd
00000050: 5ce2 9abd 94df 8bbd 6de7 bbbc 6708 96bd
00000060: 966b 0fbd 791c 3c3d 64ef b63c 54da 08bd
00000070: dbd0 f2bc 7504 31bd c981 db3c 0461 d8bc
00000080: 4d53 17bd 8394 973c 8af8 69bc 9cd9 3d3c
00000090: 89ff 013c d124 cc3c 8355 85bc 0bd3 e43a
000000a0: 1ee0 d13a a97b 013d 785b 8ebc 93e4 d33c
000000b0: dce1 6dbd 5ccc 863c 9a2e 79bd c21f 06bd
000000c0: 554c 5bbc 3591 8abd 2a0f 203d e2bf b23c
000000d0: 364b f1bc 58cf 2dbd 78b1 c6bc a7ac 303c
000000e0: 13c7 19bd 4ee1 2b3c f731 92bb 2547 aa3c
000000f0: 482b 553d 29d8 6d3d e50f 983c f712 743d
00000100: 891c 423d b1fe 283d 2409 993c 5e43 183d
00000110: d6a7 203d 0130 b33b 44bd 133d 6fa9 7e3d
00000120: 4ad6 773d 7f38 a83d 80c3 e53c 8ed6 a7bd
00000130: b2cf 1dbc bde6 57bd 3e66 23bd aa00 4fbd
00000140: 227e bd3c 0866 09bd 5ab9 75bd 1cc2 c03c
00000150: e9d8 07bd 660a 7ebd 24b7 25bd 30e3 28bd
00000160: 9c16 c3bc 18e4 11bd 1c49 a0bb 740a c0bc
00000170: 60bc 79bd 1e59 e43c f2f3 5a3b 0959 b6bd
00000180: 5d44 7ebc 86a3 6ebc 798a 8a3c 8b6c 983c
00000190: 523e 493d a757 763d 1069 af3c 9ea8 823d
000001a0: b104 8ebc cbf8 bf3c 595f 5f3d 9efc 8a3d
000001b0: 68c3 5a3d d62b 703d d21c 813d b46e 653b
000001c0: 2ee2 af3d af34 5d3c b977 0abc efd7 bb3c
000001d0: c08d 083d de3b 2f3d 9ea8 563d 85fc 8c3d
000001e0: ac47 c53b 6488 a0bc 3fb7 adbc 249d 0cba
000001f0: 9424 8c3c 91df f93a 859c 81bc e2aa 553d
00000200: 67fb 7e3c 13fe 9a3b e704 183c 8ca5 593d
00000210: 67a2 053d 1f4f 123d e8cd 7a3c 5c0f 24bb
00000220: 9a1d 28bd 7066 693c 39e2 45bc eb59 89bd
00000230: 945b 0c3d e11b b13c 8409 013d cf8a 3dbd
00000240: 0272 a43a 9d94 41bd 0b2e e4bc 27cb 00bc
00000250: f0a9 81bd 2276 f0bc b8f6 d0bc 7cbd 9dbd
00000260: a14e 87bd 5ab9 0bbd eafe 55bd 9a4e b33c
00000270: 5de2 41bc a922 99bd 73b3 1d3c c8a8 d1bc
00000280: 7239 6ebd bd70 bcba 7b80 6c3c bd5c 84bd
00000290: 402b eebc 6382 40bd eb20 e9bc 2c27 933b
000002a0: 6681 813c d46c e93c a452 66bd b0e1 06bc
000002b0: ded4 8fbc 0bbc 77bc 4ba4 66bc 3c55 813c
000002c0: a01d 0d3c f629 f83c fb87 2dbd ee1b 0bbd
000002d0: 6afd 693c 9b6a 443d f169 9dbb 4ccb 6dbc
000002e0: d18d 42bd 940e 46bc 51ef b03c 205c 5f3d
000002f0: 2d8b acbc 37d0 81bc 8347 f33c 7c2b 033d
00000300: 17ab aebc 73f5 bd3c ae53 99bb 54ca ddbb
00000310: 8f30 e9bc ad8e 2ebd da2a 8ebd 104f 78bc
00000320: 5427 243d 1a6e 393d e330 573d e8a3 023d
00000330: 2995 2d3d f019 c53d fcc6 2f3a 1791 6d3d
00000340: 22c8 a83c 494c 4f3d 1dec 0d3c 2602 96bc
00000350: f5c7 80bd 7ed3 95bd c605 5fbd a35a 113d
00000360: 5ee7 093c d78b ef3c 2673 b73c fa4c 5dba
00000370: 9824 9b3b d7d8 26bd e841 73bd 5d86 40bc
00000380: 7713 95bd 4290 46bd 5fef 2bbd cdfd 16bd
00000390: dd4d 7fbc 7359 703c dcca f7bb 4697 92bc
000003a0: 2528 c0bb 4bbe 393c a815 e3bc 2f37 0b3d
000003b0: 035f 1fbc 9c9d 31bd 921e 603a d0c2 23bd
000003c0: 41f5 d7bc 0b2f 1bbb 8201 11bd 1212 2cbd
000003d0: b007 373d f967 08bd ca9a 36bd 12ae 6a3c
000003e0: f446 6abd 08b9 a23c 9f67 353c 0240 39bd
000003f0: 6565 0cbd 0418 54bc 221e 1a3d 5173 72bd
-0.017796734 -0.044966288 0.025822751 -0.037133213 -0.015852274 -0.006565474 -0.033335466 -0.0005674521
-0.07556327 -0.026145907 0.010237221 -0.061966922 -0.018009992 -0.033274624 -0.09449793 -0.070538566
-0.08111128 -0.0702566 -0.007873799 -0.07110468 -0.07562706 -0.068297535 -0.0229375 -0.07325821
-0.03501471 0.04592559 0.022330947 -0.03341134 -0.029640606 -0.04321714 0.026795285 -0.026413448
-0.036944676 0.018503433 -0.014280448 0.011587527 0.0079344595 0.0249199 -0.016276127 0.0017457915
0.0016012227 0.031612072 -0.0173776 0.025865829 -0.058076724 0.016454868 -0.06083546 -0.03274513
-0.013384898 -0.06765977 0.03907696 0.021820012 -0.029454809 -0.042434067 -0.024254546 0.010783351
-0.037543368 0.010490729 -0.0044615227 0.020785877 0.05204323 0.058067475 0.018562267 0.0595884
0.047390494 0.041258518 0.018681116 0.03717362 0.03922256 0.005468369 0.03606917 0.062173303
0.060507096 0.08213901 0.028047323 -0.0819522 -0.009632038 -0.052710284 -0.039892428 -0.050537743
0.023131434 -0.03354457 -0.05999122 0.023530059 -0.033165846 -0.062021635 -0.04045786 -0.041232288
-0.023814492 -0.035617918 -0.004891528 -0.023442484 -0.060970664 0.027874526 0.0033409563 -0.08903701
-0.015519229 -0.014565354 0.016911732 0.018606445 0.0491317 0.060142186 0.021412402 0.063798174
-0.017336221 0.023434063 0.05453429 0.06786464 0.05340901 0.058635555 0.06304325 0.003500861
0.08588062 0.01350133 -0.008451396 0.022930114 0.03333831 0.042781703 0.0524069 0.06884102
0.006020507 -0.019596286 -0.021205543 -0.0005363992 0.017107286 0.001906382 -0.015821705 0.05216492
0.015562869 0.004729995 0.009278513 0.053136393 0.032625582 0.035719987 0.015307881 -0.002503357
-0.041043855 0.014245614 -0.012077861 -0.067066036 0.034267023 0.021619739 0.031503215 -0.046274956
0.0012546184 -0.04726087 -0.027853986 -0.007860935 -0.06331241 -0.029353205 -0.02550827 -0.07702157
-0.06606794 -0.034112312 -0.052245058 0.021888066 -0.011833754 -0.07477314 0.009625304 -0.025593176
-0.058160253 -0.001437686 0.014434929 -0.06463001 -0.029073358 -0.046999346 -0.02845808 0.0044907536
0.015808772 0.028494276 -0.056231156 -0.008232519 -0.017557558 -0.0151205165 -0.014077256 0.015787713
0.00861302 0.030293446 -0.04236601 -0.033962183 0.01428161 0.04795323 -0.004803889 -0.014513802
-0.047498528 -0.012088437 0.02159849 0.054531217 -0.021062458 -0.015846355 0.029697185 0.03202389
-0.021321816 0.023188328 -0.004679165 -0.006768504 -0.028465537 -0.042616535 -0.06941767 -0.015155569
0.04007657 0.045271017 0.052536856 0.031894594 0.04237858 0.09624088 0.0006705371 0.057999697
0.020603243 0.05060986 0.008662251 -0.018311571 -0.06288139 -0.073157296 -0.054448865 0.03548683
0.008416979 0.029241486 0.022393774 -0.00084419514 0.004734587 -0.04073414 -0.059389025 -0.011750785
-0.07279103 -0.04847742 -0.04197633 -0.036863137 -0.015582529 0.014669764 -0.0075620245 -0.017894398
-0.0058641606 0.011336873 -0.027720287 0.033988174 -0.009727242 -0.0433632 0.0008549477 -0.03998071
-0.026362063 -0.0023679163 -0.03540183 -0.04200942 0.044685066 -0.03330228 -0.044581212 0.014323728
-0.057196572 0.01986362 0.0110720685 -0.04522706 -0.034276385 -0.012945179 0.037626393 -0.059192006

conv4.bias f4 [20]
00000000: 6d13 9bba 7379 a9bb 3f5c 4f3d 2181 9dbd
00000010: 6f82 6c3c 7902 393d f4bd 6d3c 53cc fd3b
00000020: 866a 14bd fa43 44bc a05c 96bc ac59 8e3c
00000030: b821 7f39 922e 79bc 0943 2bbd bca1 033b
00000040: 66aa 5bbd ce5f 9d3d a77b 1f3d 664f dbbc
-0.0011831351 -0.0051719486 0.050625082 -0.07690645 0.014435395 0.045168374 0.01451062 0.0077453046
-0.0362344 -0.0119790975 -0.018354714 0.017376743 0.00024331256 -0.015208857 -0.041811977 0.0020085415
-0.0536293 0.07684289 0.038936283 -0.026771259

conv5.weight f4 [30, 20, 5, 5]
00000000: 7fcf c439 7409 e93c 16a3 3e3c 407d 0b3d
00000010: d288 b9bc 531d c43c 3bf3 bcbc acec 2bbd
00000020: c90a 49bc 5662 9ebc 0073 4d3b 5b5b dfbc
00000030: aed3 04bd 79ac 52bd 9d70 cdbc 099b 453b
00000040: 3c2f 7f3c 9653 b2bc 848c 19bd 7edf dd3a
00000050: 117d a6bd 7809 64bd 0d41 5c3c 9bfb 36bd
00000060: 3bb1 cb3b 330d 59bd 89e3 dc3b 0281 44bc
00000070: 83bd f3ba 0648 2f3b 8a6d c1bc f5e0 5abc
00000080: 6dcc 8639 0b9c 873c 84d7 a9bc 8446 67bd
00000090: 3f2c 26bd c6c5 5bbd 8339 423c fcc3 aebb
000000a0: bca5 8abd a5f3 7dbc 9b12 aa3c b1be 1f3d
000000b0: d981 43bd 26c3 3ebd b344 7ebd cff9 fabc
000000c0: 39c8 82bd 10ec d4bc 0859 1dbd 3d2f e8bc
000000d0: b8c7 c3bb bf92 f73c ad6f 063d bb3d 1ebc
000000e0: 375d 46bd cce1 a43c fbe0 563c ae95 36bd
000000f0: c935 173c 8e08 d63c ee21 f9bc f08c 1cbc
00000100: 4d18 233d d7c1 bebc de38 1dbb 6691 343d
00000110: 3f4e 393d eab0 edbc 058c 6ebd ffdc 87bc
00000120: d6a2 7e3c bfc3 d03c d9b7 36bd 21e0 8f3c
00000130: b799 31bd 3301 04bd e872 c03c 032b ac3c
00000140: 9473 d23b 3457 25bd 7131 523c 197a a23c
00000150: 0a61 23bd 949c 02bd 1e46 76bc 614b 3ebd
00000160: 2caa 36bc 8537 4dbd 89a5 30bd 2303 97bc
00000170: 21de 95bc f99f 99ba f6a3 c0bc b9d6 83bc
00000180: 6509 47bd 8dc2 6dbd 14f1 0e3c 7783 84bb
00000190: d5a9 5fbc 267b 5e3d f122 473d ad18 223d
000001a0: 9549 0b3d d6f0 5abc 6e70 443d 251d 963d
000001b0: 27d8 133d d2b1 513d 1a9c 08bd 732a 993c
000001c0: 104c bd3d 0681 763d 1eb5 0e3d 2719 40bd
000001d0: 1770 64bc 7a08 a43d e00a 233d 855d 2b3d
000001e0: 667c 93b8 5f10 28bd 164b a4bb 7b32 e53c
000001f0: ba84 b13c 89c5 33bd 2b6c 68bc 64a4 08bd
00000200: 1980 4f3b 3c66 1dbc 2332 4dbd 1f4b 243d
00000210: 7f17 c83b f358 443c 899a 1d3d c8b4 183c
00000220: f075 57bc a48d 65bc 6528 e43c 401f 5b3d
00000230: 0464 b8bc ca83 413c 1da9 1bbd 6723 22bc
00000240: fdef dd3b aa11 51bd 0651 1bbc e8d2 c5bb
00000250: 2cb2 aa3c c4b1 20bc 517f ddbc d416 7bbd
00000260: c23c a2bc ba1f 06bd e14e d03b 83c9 36bc
00000270: bb17 4bbc 2a49 29bc 9727 75bd 1c50 c73c
00000280: 3d6e 6fbc ebb5 0cbd 96e2 873c 043b 11bd
00000290: 8d50 b13b 7f6d 333d dae4 06bd 567f 72bc
000002a0: 6c9a 1cbd efad 343d c968 f4ba 3619 afbb
000002b0: 9af5 b3bc 8546 5ebc 8788 36bc 9c23 80bd
000002c0: 7a40 783c 9fac 003d 3d4e 513d c1db 1a3c
000002d0: dfe2 cabc a76f d8bc ed9e 423c e7e9 073d
000002e0: fa3d 063d 5ff5 24bd aea3 383c b9c2 a6b8
000002f0: 1aea 0ebc 5458 b03c 905c 0f3a 95f9 cfbb
00000300: 78f3 a73c 2d73 a63b 76c4 debb 04e4 2abd
00000310: 655c 223d a963 733d 82e2 9b3c 0009 f3bb
00000320: 0868 553a 15b4 54bc a192 30bd b53b 9ebb
00000330: 3291 fcbc 295a f1bc 2e04 17bc d083 4cbd
00000340: 8167 26bd b28f c7bc 211b fb3b 9d80 83bc
00000350: 377b 9abc 79e7 1e3c d886 ac3c 672c 77bd
00000360: a5a3 c63c 9fef e13c dda7 c7bc 2fb4 a3bc
00000370: 8c81 27bc 1034 75bc 7502 133d ade6 48bc
00000380: a5da 003c e4c3 313c b00a f1bb ec2c 0fbd
00000390: 7492 1bbd 9b14 c2bc 856b a23b 2edf 53bd
000003a0: 68ff cc3b 7ed3 abbc f712 fd3b 8ff2 ff3c
000003b0: 4a1a 89bc ef55 5ebd 6ba5 7ebc 9dc8 54bd
000003c0: 4ad1 4a3c 4dc6 d5bc c409 c9bc e2c0 e9bc
000003d0: e8c5 863c 107c 283c b72d 983c e3d0 9cbc
000003e0: 609a bdbc c556 01bd 1922 0ebc 83dc bc3a
000003f0: 9cc0 693d 30e5 313c 7dad 66bc 4575 593c
0.0003753863 0.02844689 0.011635562 0.034054995 -0.022648249 0.023939764 -0.0230652 -0.041973755
-0.012270638 -0.019334 0.0031349063 -0.027265241 -0.032428436 -0.051434014 -0.025078112 0.0030152223
0.015575226 -0.021768373 -0.03748752 0.0016927568 -0.08129323 -0.055673093 0.013443244 -0.044673543
0.006216196 -0.052991103 0.0067409915 -0.0119936485 -0.0018595908 0.002674581 -0.023611803 -0.013359298
0.0002571078 0.0165539 -0.020732649 -0.056463733 -0.04056954 -0.05365541 0.011854532 -0.0053334218
-0.067698926 -0.015499984 0.020760825 0.039000217 -0.047731254 -0.046572827 -0.062077235 -0.030636696
-0.06385846 -0.02599147 -0.038414985 -0.028342837 -0.005974736 0.030221341 0.032821346 -0.009658272
-0.04842874 0.0201272 0.013115163 -0.04457634 0.009229132 0.026127126 -0.030411687 -0.0095550865
0.039818097 -0.02328579 -0.0023990194 0.044083975 0.045240637 -0.029015023 -0.058239 -0.016584871
0.015541753 0.025483964 -0.044608925 0.017562928 -0.043359485 -0.032227706 0.023492292 0.021016603
0.0064224694 -0.040366367 0.012829171 0.019833611 -0.039887466 -0.031887606 -0.015031366 -0.046458606
-0.011148971 -0.050101776 -0.043126617 -0.018434113 -0.018294396 -0.0011720649 -0.023515683 -0.016093599
-0.048592944 -0.058046866 0.00872447 -0.004043992 -0.013651331 0.054316662 0.048617307 0.039574314
0.03400572 -0.013363084 0.047958784 0.07329778 0.03609481 0.051194973 -0.033351995 0.018697
0.092430234 0.06018164 0.034840696 -0.046898987 -0.01394274 0.08009429 0.039805293 0.041837234
-7.032677e-05 -0.041031238 -0.0050138338 0.027978173 0.021669734 -0.043889556 -0.0141859455 -0.0333599
0.0031662046 -0.009606894 -0.050096642 0.040110704 0.0061063166 0.011984098 0.038477454 0.009320445
-0.013150677 -0.014010821 0.027851293 0.0534966 -0.022508629 0.011811206 -0.038003076 -0.009896136
0.0067729936 -0.051042236 -0.009479767 -0.006037105 0.020836912 -0.009808008 -0.027038248 -0.061301067
-0.019804362 -0.0327451 0.0063570593 -0.011156443 -0.0123957945 -0.010332385 -0.05985221 0.024330191
-0.014613685 -0.034353178 0.016587537 -0.035456672 0.0054112137 0.043805595 -0.032933094 -0.014800867
-0.038233206 0.04411119 -0.0018646951 -0.0053435815 -0.021967698 -0.013566618 -0.011140949 -0.06256792
0.015152091 0.031414624 0.051100004 0.0094518075 -0.024766384 -0.026420427 0.011878711 0.03318205
0.03277395 -0.040273067 0.011269493 -7.951767e-05 -0.008722806 0.021526493 0.000546881 -0.006346891
0.020501837 0.005079648 -0.0067983223 -0.04172136 0.039638896 0.059421215 0.019028906 -0.0074168444
0.0008140807 -0.012982388 -0.043108586 -0.004828895 -0.030830953 -0.029461937 -0.009217305 -0.049930394
-0.040626053 -0.024360511 0.007663146 -0.016052539 -0.018857582 0.009698742 0.021060392 -0.06034508
0.024247954 0.02758008 -0.024372036 -0.01998338 -0.0102237575 -0.014966026 0.035891015 -0.012262029
0.007864629 0.010849927 -0.0073560104 -0.03495495 -0.037981465 -0.023691466 0.004956665 -0.051726513
0.0062560327 -0.02097487 0.007723208 0.03124359 -0.016736168 -0.05428117 -0.015542368 -0.051949132
0.012379 -0.026095534 -0.02454079 -0.028534357 0.01645179 0.010283485 0.018576486 -0.019142574
-0.0231449 -0.03157689 -0.008675122 0.0014408979 0.057068452 0.010857865 -0.014079449 0.013272588

conv5.bias f4 [30]
00000000: e367 0a3d 2b8b 07bd 4dab 80bd f1d9 97bc
00000010: 41cc 3f3b 5540 23bd fc4e ad38 44d5 c7bc
00000020: dd65 4b3d fe53 dbbb 708d 563c 2599 08bc
00000030: 6629 2a3c 0bab a43d 2f22 35bd d90a c4bc
00000040: dfc8 8dbc 2cf9 b0bc 4089 03bd aaf2 0b3d
00000050: 6a19 93bb fdf7 a83b 3bbd 823c 85a8 e13c
00000060: 2ed6 103d 7e5f 6bbc 8b1d ec3a 07a7 73bd
00000070: d6f2 073c 1e66 523d
0.03379048 -0.033091705 -0.06282673 -0.01853654 0.0029266032 -0.039856274 8.263995e-05 -0.024393685
0.04965769 -0.0066933623 0.013095245 -0.008337294 0.010385847 0.08040436 -0.044222053 -0.023930954
-0.017307697 -0.02160319 -0.032113314 0.03416697 -0.0044891136 0.0051565156 0.015959373 0.027546177
0.035360508 -0.014366029 0.0018014176 -0.05948546 0.008297643 0.051366918

conv6.weight f4 [30, 30, 5, 5]
00000000: 3056 dcbb e4b6 ffbc c2be d33b 45d2 38bd
00000010: 82c7 21bd f118 4e3c 7806 c33c 7dcf 21bd
00000020: 6526 50bd 8ba5 f5bc b376 543d 870e 1c3d
00000030: 0b32 a0bc 1681 d1bb 374a a4bc 98e4 b93c
00000040: b1d0 093d 7f86 263d 0de3 4abd 210b edba
00000050: be65 773d 658a 5b3d d4e6 f63c 8e95 9ebc
00000060: 0000 f5bb 8a56 013c 927a ec38 0866 4fb9
00000070: a3e3 4abc caa4 5abd 9e3a 673b 1e37 65b9
00000080: 7f76 ec3c aa0b b6bb 26c5 4bbd 1fbc 803c
00000090: fac0 583d c267 133d 0815 c2bc 6cd8 47bd
000000a0: 65e9 913c 5dad 5b3d aef2 353d 3c95 523d
000000b0: 149a b8b8 a4c0 9cbc 565d 263d aa62 453d
000000c0: e074 aa3c d06f 3d3c f6ab 3a3a de5d 6e3d
000000d0: a3ab 023d 4ffd 0a3c 2c88 853b 0768 323d
000000e0: 16ee 963d 5d55 b23d 8b41 5a3d e438 1e3b
000000f0: 823a 723d bc58 0a3d 4def 1f3d 4148 613c
00000100: bb22 bbbb 8caa 5d3d 9ade 993d acb1 243d
00000110: 128e 6b3d ee24 8fbc 23f4 583d 687c 543d
00000120: d06a 993d 811a 0cbc f17e 953c 5e69 22bd
00000130: 1f68 07bd 747e cf3b e364 ca3a cc1a b7bb
00000140: 04aa d63c 6eed 95bc ea52 243d 2cfd 623d
00000150: 87cd 623d 056a c53c d163 b43c 6d59 f63b
00000160: d56d 423b 76cf cb3b 26c8 02b8 949c 84bd
00000170: c6ea 113c 64bf c53c 8dcf 42bc cf1a 0d3c
00000180: c3ad ccbc d009 f1bc 02d3 00bd dd2f 0abc
00000190: beb1 963d f008 843d bc7a 66bb 5415 7e3a
000001a0: cd6c 4ebd aa3e 3c3d 4097 e93c 4a15 413d
000001b0: c3bf 493c 1141 3fbd f8e9 983d 13a3 153d
000001c0: de99 a73d e4a9 68bc fc5b 92bd b196 983c
000001d0: 93ef 173d ce3d 713d 441f 133b 763d 8bbc
000001e0: 590f d13c 7fd2 2c3d 494c 843c a7f2 823c
000001f0: 53c3 35bc 5239 24bd 7448 82bd 4498 21bd
00000200: 5620 e3bc 3353 3dbc 94cd 293c a3df 05bc
00000210: 7fb8 8b3c c5cc 3f3d c1fe b13c 8013 853c
00000220: d1d4 84bc 3e7b f33a 66de 5f3d fd75 143d
00000230: 6fe1 aabc 6c4f 6e3b e613 aa3c fb62 d4bb
00000240: a5d3 2c3d d267 47bc efdb afbb 3b44 05bd
00000250: e765 1e3d a053 bdbc 5e9c 56bd abca 78bd
00000260: 685f 9bbc b4b6 cebd 438e aabd 276e b03c
00000270: edba bcbc e686 46bd 11ab 34bd 8c35 c3bd
00000280: 5b6f 163d b975 7cba dcbb 7abd 0cae 34bd
00000290: 923a cebd 9e64 d03c 33c4 c9bc bdc0 883c
000002a0: 45a7 70bd 54a0 a1bc 6aea ae39 99a9 ff3c
000002b0: de51 c4bc 320e 28bc 67d9 703c d89a 4bbd
000002c0: 95f5 04bd 90ad bfbb 30ae 1f3d 42c6 ee3c
000002d0: 1028 5c3b 92f9 3bbd d2b2 0dbd db33 74bd
000002e0: b5f8 b6bc 6d02 b3bc 62ac 13bd 9b8a 84bd
000002f0: 652e b4bd 1aba 82bd 4777 533c 360c 66bc
00000300: 422d 88bd e66e abbd 36ba 5cbd 12c9 74bb
00000310: 6df5 3abd ef93 93bc 7925 18bd 0ab7 7ebd
00000320: 5260 083d 12e0 ad3b 0963 603d 07a4 663b
00000330: 5f39 3fbd 6e7f d83c 5352 023d 5b6c 043d
00000340: 6445 a638 209a 2dbd f849 453d ad75 603d
00000350: 1a56 b93c 81b4 26bd 2415 38bc 50a2 95bc
00000360: 0604 103d 0076 dfbc 6f64 26bd 72f5 dabc
00000370: 74b0 a4bc d23b 313c 1786 d13b f51d 98bc
00000380: de93 34bd 9ee2 7dbc d127 bd3b fa06 32bd
00000390: 635e 63bd 3b67 c6bc 04fb 3c3d c1c0 d03c
000003a0: 829e 7abc 9a62 44bd abd2 aebd e9e1 663d
000003b0: d5f9 2f3d 7c56 693a de59 d7bc 83df 95bc
000003c0: 6787 ac3d 5c54 363d b5eb 173d ddbc b93c
000003d0: e00a e6bc 458f 363d ee50 973d 2976 9b3d
000003e0: 8cb1 92bb f9fb 92bc 9e18 a3bd 278f 3dbd
000003f0: 05f0 9c3c 8c3f d63c 9104 883d 0e98 22bd
-0.0067241415 -0.031215139 0.006461949 -0.045122404 -0.039496906 0.012579189 0.023806795 -0.039504517
-0.050817866 -0.029986164 0.051871013 0.03809979 -0.019555112 -0.006393562 -0.02005492 0.02269201
0.03364629 0.04065561 -0.04953294 -0.0018084982 0.060399763 0.05359878 0.030139364 -0.019358423
-0.0074768066 0.007894168 0.000112761874 -0.00019779068 -0.012383374 -0.05337981 0.0035282741 -0.00021859675
0.028865097 -0.0055555897 -0.049748562 0.015714703 0.05291841 0.035987623 -0.02369167 -0.04879038
0.017811486 0.05363213 0.04442089 0.051411852 -8.802503e-05 -0.019134827 0.040616356 0.048189797
0.020807683 0.011562303 0.0007120961 0.058194987 0.031901967 0.008483245 0.004075071 0.04355624
0.0736963 0.08707688 0.053285163 0.0024142796 0.05913783 0.03377603 0.039046574 0.013750137
-0.0057109273 0.054117724 0.07513161 0.040208504 0.057508536 -0.017473664 0.052967202 0.051876456
0.07491076 -0.008551241 0.018249007 -0.039651267 -0.033058282 0.006332213 0.0015441444 -0.0055879112
0.026204117 -0.018301692 0.040118136 0.055417225 0.055371787 0.024098406 0.022020252 0.0075179846
0.0029667516 0.0062197996 -3.1180818e-05 -0.064751774 0.008906072 0.024139114 -0.011890304 0.008612349
-0.0249852 -0.029423624 -0.031451233 -0.008434263 0.073581204 0.06447017 -0.003516837 0.0009692509
-0.05039673 0.0459582 0.028514504 0.047139443 0.012313786 -0.04669291 0.07466501 0.036532473
0.08183645 -0.014200661 -0.07146451 0.018626543 0.03709371 0.058896832 0.0022449056 -0.01699708
0.025520014 0.042192932 0.016149657 0.015984846 -0.011093932 -0.040093727 -0.063614756 -0.039451852
-0.02772538 -0.011555481 0.010363955 -0.008170995 0.017055748 0.046826143 0.021727921 0.01624465
-0.01621476 0.0018576158 0.054655455 0.036245335 -0.020859448 0.0036363257 0.020761441 -0.006481526
0.042194027 -0.012170749 -0.0053667943 -0.032535773 0.0386714 -0.023111165 -0.052395217 -0.060740154
-0.018966392 -0.100934416 -0.083279155 0.0215369 -0.023038352 -0.048468493 -0.044108454 -0.09531698
0.03672729 -0.0009630579 -0.061214313 -0.044111297 -0.10069765 0.025438603 -0.024629688 0.016693467
-0.05875327 -0.01972977 0.00033362518 0.0312088 -0.023964819 -0.010257291 0.01470027 -0.049708217
-0.032460768 -0.0058495477 0.038984478 0.029147271 0.0033593215 -0.045892306 -0.034594364 -0.059619766
-0.02233539 -0.021851743 -0.03605307 -0.064717494 -0.087979116 -0.06383152 0.012906856 -0.014040997
-0.06649257 -0.083707616 -0.053888522 -0.0037351293 -0.045644213 -0.018014876 -0.03714511 -0.06218628
0.033294983 0.0053062523 0.054781947 0.0035192983 -0.046685573 0.02642795 0.03181679 0.0323299
7.928422e-05 -0.042383313 0.048166245 0.054799724 0.022624064 -0.040699486 -0.011235509 -0.018265873
0.035160087 -0.027277946 -0.040623125 -0.026728366 -0.02010367 0.010817485 0.0063941586 -0.018568972
-0.04408633 -0.015495924 0.0057725688 -0.043463685 -0.055509936 -0.024219146 0.046137825 0.025482537
-0.01529658 -0.047945596 -0.085362755 0.05636779 0.042962868 0.0008901132 -0.02628797 -0.018295055
0.084242634 0.044514045 0.037090022 0.022673065 -0.028081357 0.044570226 0.07388483 0.07590897
-0.0044767316 -0.017942416 -0.0796368 -0.0462791 0.019157419 0.026153348 0.06641496 -0.039695792

conv6.bias f4 [30]
00000000: 8313 ce3c 9b4e fb3c 92de a2bd b7e2 04bd
00000010: 90f0 b6bc 0e77 063c 4f5c 18bb 5dc6 2ebd
00000020: 2dcc dc3c c085 0c3c 01e6 21bc 25d7 b7bc
00000030: d8a4 213d ff52 0dbd 3143 b0bc afbf c43c
00000040: 3052 173d 528a 653c a161 10bb 6c0e 083d
00000050: 51a7 28bd 29f5 f43c 6ce9 393c dad4 fe3c
00000060: b0da 4dbb fa04 10bc f3fb c1bc d7a1 8eba
00000070: 2fd2 72bc ff19 4b3d
0.025155788 0.03067713 -0.07952608 -0.032442775 -0.022331506 0.008207096 -0.002324838 -0.042669643
0.026952827 0.00857681 -0.009881497 -0.022441456 0.039463848 -0.03450298 -0.021516414 0.024017183
0.036943614 0.014010029 -0.0022030848 0.03321688 -0.04117519 0.029902058 0.011347156 0.031107355
-0.0031410865 -0.008790249 -0.023679709 -0.0010881972 -0.0148206195 0.04958534

bn1.weight f4 [10]
00000000: e852 813f 8fd9 603f 9c99 703f 2b80 743f
00000010: 81fa 703f c145 853f 61ce 753f 5f2e 873f
00000020: 4984 8a3f 4c6b 933f
1.0103426 0.8783197 0.9398439 0.9550807 0.9413224 1.0411912 0.96018034 1.0561026
1.082162 1.151712

bn1.bias f4 [10]
00000000: 6585 1b3c b5da 35bd 11f8 01bd 1dac cd3c
00000010: cf08 da3b 70c2 bebc 1a04 25bc 870e cc3d
00000020: 7bd1 053e 3e4a 593e
0.009492253 -0.04439803 -0.031730715 0.025106484 0.006653882 -0.023286074 -0.010071779 0.09963708
0.13068192 0.21219727

bn1.running_mean f4 [10]
00000000: 33fa f0bd 05f0 16bf a2ef 93be 53f2 55bd
00000010: d8c2 a1be 0bd2 07bf accd 9cbe 5274 63be
00000020: a346 9cbe e298 b8be
-0.11766472 -0.5895999 -0.28893763 -0.05223305 -0.31593966 -0.53054875 -0.30625665 -0.22212341
-0.30522642 -0.3605414

bn1.running_var f4 [10]
00000000: fa8d f83e d667 423f e187 6d3f 3e50 ed3e
00000010: 7f6a aa3e de46 473f 20b7 c83e bd7b 2d3e
00000020: b9cf 4c3f 61ab e23e
0.4854582 0.7593969 0.9278546 0.46350282 0.33284375 0.7784251 0.39202213 0.16941734
0.8000446 0.44271377

bn2.weight f4 [20]
00000000: b535 813f ee4d 8b3f 53b8 803f 2e38 843f
00000010: 250e 6a3f 2ef6 753f 65bf 8d3f 2462 793f
00000020: 6ad4 843f 5c57 753f c57c 6c3f be31 833f
00000030: 7adf 6e3f 7c71 853f 4b7c 713f fee4 743f
00000040: 2fe0 793f 9cc8 833f 3c76 7e3f 0629 793f
1.0094515 1.0883157 1.0056251 1.0329645 0.9142783 0.96078765 1.1074034 0.97415376
1.0377324 0.95836425 0.92377883 1.0249555 0.9330975 1.0425258 0.9433028 0.95661914
0.976077 1.0295596 0.9939916 0.9732822

bn2.bias f4 [20]
00000000: 6adf ccba 8bb6 b9bc a9b9 18bd c7f3 12bd
00000010: d9db 34be 0ecd febc a197 22bd 9b68 1f3c
00000020: 7465 b2bc b684 65bd cf87 16be 8ea6 073c
00000030: 981a ebbd aebe 58bc 0c93 82bd 1b11 20bd
00000040: 4e13 6abb 16dd 723d ebcc 373c e593 4dbd
-0.0015630547 -0.022670051 -0.037286434 -0.035877015 -0.1766199 -0.031103637 -0.039695386 0.00972953
-0.021776892 -0.056034766 -0.14700244 0.008279456 -0.11479682 -0.013229055 -0.06375703 -0.039078813
-0.0035717073 0.059292875 0.01121829 -0.05018987

bn2.running_mean f4 [20]
00000000: f275 7cbe 34f7 c2be b60a f3bd 2188 aebe
00000010: 69e0 2f3f 2fd6 e33e 28aa 04bf 6ce3 a5be
00000020: 23db 17bf 2e91 07bf 4308 973b e2ec 13bf
00000030: 2b94 83bf ef52 44bd 2f6e b3bf 776f abbf
00000040: ec6a 99bf 8037 1a3d 943a 573e b13a 873e
-0.24654368 -0.38079226 -0.11867277 -0.34088233 0.687018 0.44499347 -0.5182214 -0.32400072
-0.5931875 -0.529559 0.004609139 -0.5778333 -1.0279592 -0.047930654 -1.4018 -1.3393391
-1.1985755 0.037650585 0.2101844 0.26411965

bn2.running_var f4 [20]
00000000: b237 c03f eedb a03f f288 e53f 0bfa 0840
00000010: 2702 1b40 f7be b43f b5a3 f13f a506 853f
00000020: c801 b63f 42f7 d43f 9514 cd3f e048 1840
00000030: 4151 c63f 9290 d73f 53c8 b43f c734 e43f
00000040: ecd4 ff3f 606c bc3f e298 f63f fed5 2d40
1.5016997 1.2567117 1.7932417 2.1402614 2.4220064 1.4120778 1.8878084 1.0392653
1.4219294 1.6637957 1.6021906 2.379448 1.5493547 1.6840994 1.4123634 1.7828606
1.9986854 1.4720573 1.9265406 2.716186

bn3.weight f4 [30]
00000000: 196c 5a3f 57f9 4b3f 1027 593f d38e 573f
00000010: 705f 543f 27a4 563f 2e96 573f a146 553f
00000020: 2a8d 533f 49a2 543f d879 3e3f 5e10 563f
00000030: ee1d 5b3f 8e80 563f 13de 5c3f 833f 5a3f
00000040: b37b 5d3f ec0c 513f 6e6a 593f bbb7 5a3f
00000050: f29d 5b3f d454 523f 88fb 4d3f d784 5a3f
00000060: 3416 5c3f d989 543f de04 513f 190c 5c3f
00000070: 0c0a 563f 33a1 613f
0.85321194 0.7967734 0.8482523 0.8420231 0.82958126 0.83844227 0.8421353 0.83310896
0.82637274 0.8306013 0.7440467 0.83618724 0.85592544 0.8378991 0.8627636 0.8525316
0.86516875 0.8166034 0.84928024 0.854366 0.8578788 0.8216069 0.8046193 0.8535895
0.8597138 0.8302284 0.8164805 0.8595596 0.8360908 0.88136595

bn3.bias f4 [30]
00000000: 7a78 53be a5f7 1ebe 9e89 06be dc4d 54be
00000010: 3fef 27be 1885 08be 886a 6dbe 9f05 33be
00000020: abbc 82be c7e2 23be 428e 28be 15c5 46be
00000030: 5477 70be 44fe 34be 8e2d 03be f254 3bbe
00000040: 2005 52be 729e 76be f899 52be f25f 08be
00000050: 74cd 57be 7543 51be 8765 44be 49ac 61be
00000060: 5478 5cbe fa42 25be 3ee4 85be 6feb 43be
00000070: 99a0 2ebe 4334 27be
-0.20651427 -0.15524156 -0.13138434 -0.20732826 -0.16399859 -0.13332021 -0.2318517 -0.17482613
-0.25534567 -0.16004477 -0.16460517 -0.19411118 -0.2348302 -0.1767512 -0.12810346 -0.18294123
-0.20509768 -0.2408388 -0.20566547 -0.1331785 -0.21074468 -0.20435889 -0.19179355 -0.22038378
-0.21530277 -0.16138831 -0.26150697 -0.1913278 -0.1705345 -0.1632853

bn3.running_mean f4 [30]
00000000: 0d7c 0ebf 0c33 3bbf 72b9 29bf e274 ddbe
00000010: cf5e aebf e491 1abf 9cab 643f 5f88 64be
00000020: a812 6abf 85f6 dcbf 2248 1dc0 1bdc 13bf
00000030: 52fe 24bf 879e 00bf a7f8 3bbf e340 c63e
00000040: ff57 07be 8087 67bf af7f 8abf 324b 86bc
00000050: 38d8 84bf c28b d5bf 5634 a8bf 6ca7 8ebf
00000060: 8676 e0bf 53b4 e7bf 66da 6dbf f743 1fc0
00000070: c099 c2be eacb 19bf
-0.55658036 -0.73124766 -0.6629859 -0.43253237 -1.3622683 -0.6037886 0.89324355 -0.22317646
-0.9143472 -1.7262732 -2.4575276 -0.5775773 -0.6445056 -0.50241894 -0.7342629 0.3872138
-0.13217162 -0.9044113 -1.0820216 -0.016393278 -1.0378485 -1.6683276 -1.3140972 -1.1144843
-1.753617 -1.8101906 -0.92911375 -2.4885232 -0.38007927 -0.60076773

bn3.running_var f4 [30]
00000000: 1ee6 3440 ce50 1540 1cbb 1e40 9c83 6f40
00000010: 4ec2 3040 e7de 3940 5e0d 3f40 6250 9240
00000020: 112d 4f40 b95a 2d40 ada9 7840 35fe 6e40
00000030: 30fe 8940 ff2f 3c40 8a20 0d40 f4af 8f40
00000040: 1f34 2e40 082d 9640 7e55 a340 eeca 4040
00000050: 557e 4240 cf1d 9a40 2c66 6140 35b6 9240
00000060: f41e 6840 ab10 4640 5af4 d140 a045 6b40
00000070: 1f10 dd40 3897 9340
2.8265452 2.333057 2.4801702 3.7424078 2.7618594 2.9042299 2.9851909 4.5723124
3.2371256 2.7086623 3.8853562 3.7342656 4.3122787 2.9404294 2.205111 4.4902287
2.7219312 4.692997 5.104186 3.0123858 3.0389607 4.8161387 3.521861 4.584742
3.6268892 3.0947673 6.561078 3.6761246 6.908218 4.6122093
