mlops_project/outputs/2022-05-27/12-35-06/models/epoch=0-step=131.ckpt (torch, 985680 bytes, 66 tensors)

conv1.weight f4 [10, 3, 5, 5]
0	0xbd41a314	-0.047274664
1	0xbb9dbcb0	-0.004813753
2	0xbd74797b	-0.059686165
3	0x3d394c1b	0.045238595
4	0xbded3755	-0.11582819
5	0x3db4f180	0.08835125
6	0xbda99d29	-0.08281929
7	0xbdb30b35	-0.08742372
8	0xbd93ae94	-0.072110325
9	0x3d57cf48	0.052687913
10	0xbd261043	-0.040542852
11	0x3d3c9cb6	0.04604789
12	0xbdbb0a2c	-0.091327995
13	0xbd65a85e	-0.05606877
14	0xbd41b2fd	-0.047289837
15	0xbc83488a	-0.0160258
16	0xbdac8ab3	-0.08424892
17	0x3dbeaa24	0.093097955
18	0xbbf43ab3	-0.0074532866
19	0x3d34d942	0.044152506
20	0x3dab2b96	0.08357923
21	0x3cad1581	0.021128418
22	0x3d1ede35	0.038786132
23	0x3dfa0d48	0.122095644
24	0xbd5676da	-0.05235944
25	0x3d07f644	0.03319384
26	0xbd6d0ae5	-0.057871718
27	0x3db73bc4	0.08946946
28	0x3dd163df	0.10224127
29	0xbde147d7	-0.110000305
30	0x3dcc1a10	0.099659085
31	0x3d66645f	0.056248065
32	0x3d7ab6ca	0.061209477
33	0x3d5ac700	0.053412437
34	0x3dcd3982	0.10020734
35	0xbc8f4e84	-0.017493494
36	0xbdc7333a	-0.097265676
37	0xbcd310f6	-0.025764924
38	0xbd877fe2	-0.066161886
39	0x3c2e335b	0.010632361
40	0xbc9e4d98	-0.019324109
41	0xbd82291b	-0.063554965
42	0x3ad22d8f	0.0016035306
43	0x3e02dc63	0.12779383
44	0x39b09cdf	0.00033686214
45	0xbb7e455c	-0.0038798666
46	0xbcf47500	-0.029840946
47	0x3c8e4a2a	0.017369349
48	0x3ddc76c0	0.10764837
49	0x3d98414a	0.07434328
50	0x3d107ac6	0.035273336
51	0x3ce1d8eb	0.027569255
52	0x3d1ae3fa	0.03781507
53	0x3d635605	0.055501956
54	0xbc8476ec	-0.016169988
55	0xbde09516	-0.10965936
56	0xbd88f1d6	-0.066867515
57	0x3de86d27	0.11348944
58	0x3c8736be	0.016505595
59	0xbdb6035a	-0.08887358
60	0x3c632c5a	0.013865555
61	0x3dd351f2	0.10318364
62	0xbdc676c7	-0.09690624
63	0xbd7af088	-0.061264545
64	0xbd2f7ff7	-0.042846646
65	0x384c6fd4	4.874154e-05
66	0xbcbe41ed	-0.023224795
67	0xb9d6e0bd	-0.00040984704
68	0xbdcb7ee1	-0.099363096
69	0x3d74dcb0	0.059780777
70	0x3db7f7f2	0.08982839
71	0x3d78c3a0	0.060733438
72	0xbdac9949	-0.08427674
73	0xbdbea2ab	-0.0930837
74	0x3d3f3a9b	0.04668675
75	0xbcafbfab	-0.0214537
76	0x3cfb2910	0.030659229
77	0xbdf8ebf9	-0.12154383
78	0xbc909242	-0.017647866
79	0x3d94a356	0.07257716
80	0x3cd8cb99	0.02646427
81	0xbc93208c	-0.017959855
82	0x3c38b2fc	0.011273142
83	0xbcfae0c0	-0.030624747
84	0xbd8a0726	-0.06739645
85	0xbd97a88d	-0.074051954
86	0xbdc5ed31	-0.09664381
87	0x3da3d739	0.08000035
88	0x3d5d78c3	0.054070245
89	0x3d2bc9fe	0.04194068
90	0xbdec9cd2	-0.115533486
91	0x3d8d1a26	0.06889753
92	0x3cb6482c	0.022251211
93	0x3da9900e	0.082794294
94	0xbd46e525	-0.048558373
95	0xbc8dfcb9	-0.017332422
96	0x3d931c53	0.07183137
97	0x3d7a4be2	0.061107524
98	0x3dab0609	0.083507605
99	0xbcd7869f	-0.02630931
100	0x3d99457f	0.074839585
101	0xbdc3e579	-0.09565253
102	0x3c8246fb	0.015902987
103	0xbd801e21	-0.06255747
104	0xbcce93a6	-0.025216889
105	0xbd323fce	-0.04351788
106	0x3b40a1ee	0.0029393393
107	0x3ddcc5d1	0.10779918
108	0x3d53d428	0.051716
109	0x3b2a6388	0.0025999267
110	0x3d900591	0.07032312
111	0xbd8752bb	-0.066075765
112	0x3d78b744	0.06072165
113	0xbc14ef57	-0.009090266
114	0xbc2db944	-0.010603253
115	0x3bdf8c9e	0.006822183
116	0xbdb1d7db	-0.08683749
117	0x3cabc517	0.020968003
118	0x3d67a793	0.056556296
119	0x3ddab725	0.10679463
120	0xbd7539ba	-0.059869505
121	0x3caaec7a	0.020864714
122	0x3df42138	0.119203985
123	0xbd3293f5	-0.043598134
124	0x3df600ad	0.12011848
125	0xbd83188e	-0.06401168
126	0x3d49380f	0.049125727
127	0x3d4da3a6	0.050204895
128	0x3d080f6f	0.033217844
129	0x3dbee2c3	0.09320595
130	0xbd5b307b	-0.05351303
131	0x3ce41c71	0.027845593
132	0xb95e6c64	-0.00021211948
133	0xbdbe84a0	-0.0930264
134	0xbcd6b9f0	-0.026211709
135	0xbda788b8	-0.08180374
136	0x3d4a1c31	0.04934329
137	0x3c18d9f0	0.009329304
138	0x3c4d690c	0.012537252
139	0xbcb79b6b	-0.022412976
140	0x3aa61e69	0.0012673858
141	0xbd044ea6	-0.032301567
142	0x3d0ec806	0.034858726
143	0x3dfe4095	0.12414662
144	0x3d02d748	0.03194359
145	0xbd877b54	-0.0661532
146	0xbda8f46f	-0.08249747
147	0x3c86c0e1	0.016449394
148	0xbda2abcc	-0.07942924
149	0xbd94e419	-0.07270069
150	0xbda5bf8a	-0.08093174
151	0xbd2713bc	-0.040790305
152	0x3c6075be	0.013699947
153	0x3da69993	0.08134761
154	0x3d193c06	0.03741076
155	0x3dc8f3e2	0.09812142
156	0xbd8b5d52	-0.06804909
157	0x3c522ebd	0.012828526
158	0xbddb13cb	-0.106971346
159	0x3d87de1b	0.0663416
160	0x3d1518e2	0.036400683
161	0x3df2cc64	0.11855391
162	0xbd9f73ac	-0.077857345
163	0x3dab8997	0.083758526
164	0x3dcc2acf	0.099691026
165	0x3dcec7e5	0.100967206
166	0x3cbae750	0.022815377
167	0x3de9a1dc	0.11407825
168	0x3da65abd	0.08122776
169	0x3db6b302	0.08920862
170	0xbbab1649	-0.0052211625
171	0xbda085ba	-0.07838006
172	0x3b3f18f6	0.0029159165
173	0x3cd3b6e0	0.025844038
174	0xbd9acab4	-0.07558194
175	0xbd9278f4	-0.07151976
176	0xbdeabe90	-0.11462128
177	0xbd116fdb	-0.035507064
178	0x3dd65cc9	0.10466916
179	0x3c90c033	0.017669773
180	0xbb5676ed	-0.0032724694
181	0x3b9ff7c7	0.0048818323
182	0x3d9a9043	0.07547047
183	0xbdd3dee4	-0.103452474
184	0xbdb0dffd	-0.086364724
185	0xbd0c2837	-0.03421804
186	0xbd8adf58	-0.06780881
187	0x3d815d20	0.0631659
188	0x3d951b1a	0.0728056
189	0xbde00b67	-0.10939675
190	0xbdc9a084	-0.09845069
191	0xbde902b3	-0.11377468
192	0x3d3d11e1	0.04615963
193	0x3dba56d9	0.09098596
194	0xbdb2adad	-0.08724532
195	0xbd6484d7	-0.05579075
196	0x3d2ec514	0.042668417
197	0xbd98673f	-0.07441568
198	0x3dd052f5	0.10172073
199	0x3d09599f	0.033532735
200	0xbcb75143	-0.022377616
201	0x3c8a8701	0.016910078
202	0x3d50d5fb	0.050985318
203	0xbcf8cc86	-0.030370962
204	0xbdac7cd8	-0.084222496
205	0x3c7b484d	0.015337062
206	0x3c4f4739	0.012651258
207	0x3c7dd19e	0.015491871
208	0xbc0e03c2	-0.008667888
209	0x3db053f3	0.08609762
210	0xbc9de24e	-0.01927295
211	0xbb6767fc	-0.0035309782
212	0x3d6e9dd2	0.058255978
213	0xbd9609fc	-0.07326123
214	0x3d2e1620	0.04250157
215	0xbc88242c	-0.01661881
216	0x3d7e2a6b	0.06205217
217	0xbd60213d	-0.0547192
218	0x3ab968a3	0.0014145564
219	0x3cb1111d	0.021614606
220	0xbdaa57a7	-0.083174996
221	0xbd8c6a03	-0.06856158
222	0x3d5ba885	0.05362751
223	0xbcc6c36f	-0.024263112
224	0x3dadce4a	0.08486612
225	0xbde61c39	-0.11235852
226	0xbd224309	-0.03961471
227	0xbdc5f2b7	-0.09665435
228	0x3d50bd3f	0.05096173
229	0x3b02dc68	0.0019967798
230	0xbc52351a	-0.012830043
231	0x39d23ce8	0.000400997
232	0xbdb5e9b8	-0.08882469
233	0x3d5f4f94	0.05451925
234	0x3c3a258f	0.011361494
235	0xbd888787	-0.06666475
236	0x3d3cb0bd	0.04606699
237	0xbc813c29	-0.015775757
238	0xbde37d8f	-0.11107933
239	0x3d8aee86	0.06783776
240	0x3da1ecf6	0.07906525
241	0xbcb57d00	-0.022154331
242	0xbdb1260c	-0.08649835
243	0x3ba22675	0.004948432
244	0x3dc1905a	0.09451361
245	0x3de541f4	0.1119422
246	0xbdbebe3c	-0.09313628
247	0xbd8880db	-0.06665202
248	0x3da4ec01	0.08052827
249	0x3d6da8a9	0.058022175
250	0x3d78c5d7	0.06073555
251	0xbd6f8ac6	-0.058481954
252	0x3dae02f8	0.0849666
253	0xbdd3060d	-0.103038885
254	0xbc0fc4c2	-0.008774938
255	0xbb3a63d5	-0.0028440852

conv1.bias f4 [10]
0	0xbd57869f	-0.05261862
1	0x3d4b9cd8	0.049710125
2	0xbdd2ecbc	-0.1029906
3	0x3d0c4bc8	0.034251958
4	0xbddf302f	-0.10897862
5	0xbc5f59ee	-0.013632281
6	0x3cf60a4d	0.030034209
7	0xbbff4f2e	-0.0077914214
8	0x3d84f830	0.064926505
9	0x3db2a65f	0.08723139

conv2.weight f4 [10, 10, 5, 5]
0	0xbd75b4f9	-0.059987042
1	0x3d2411cf	0.040056046
2	0xbd6dd636	-0.058065616
3	0xbd5d5dce	-0.054044537
4	0xbca7d368	-0.020486549
5	0x3d2b3486	0.041798137
6	0x3d47fcda	0.048825122
7	0xbbc63848	-0.0060491897
8	0xbced0ff1	-0.028938266
9	0xbd086174	-0.033296064
10	0xbd3d2556	-0.046178184
11	0x3d1ae52a	0.037816204
12	0xbb05e4b7	-0.0020430514
13	0xbd13c513	-0.036076616
14	0xbd7a4798	-0.061103433
15	0x3b10121d	0.0021983453
16	0x3d5566ce	0.052099995
17	0x3d214d69	0.039380465
18	0xbc194d43	-0.0093568
19	0x3d2fe6b4	0.042944625
20	0xbcd6c052	-0.026214752
21	0x3d6ee444	0.05832316
22	0x3cbcfdde	0.023070272
23	0x3d19796c	0.037469313
24	0x3c8cb536	0.017176252
25	0xbd4c0a31	-0.049814407
26	0x3d249c48	0.040188104
27	0xbd157e49	-0.036497388
28	0xbd1f983d	-0.038963545
29	0xbd22cfe8	-0.039749056
30	0xbcdc1f18	-0.026870295
31	0xbd614bc8	-0.05500391
32	0x3d7bad70	0.0614447
33	0xbcfdb64d	-0.030970717
34	0x3d3ec756	0.04657682
35	0x3d5b92ee	0.05360692
36	0x3d17ebac	0.03708999
37	0x3d5b78d0	0.053582013
38	0x3bdced7c	0.0067421775
39	0xbd6bd712	-0.057578154
40	0x3cec8823	0.028873509
41	0xbd72561e	-0.05916416
42	0x3cb79e23	0.022414273
43	0xbca66719	-0.020312833
44	0x3d3e6844	0.046486154
45	0x3d128d9c	0.03577958
46	0xbc07d865	-0.008291339
47	0xbcaaa534	-0.020830728
48	0x3d58a418	0.052890867
49	0xbc8424c7	-0.016130818
50	0xbd428159	-0.047486637
51	0xbd15a1ee	-0.03653138
52	0xbd494ff4	-0.049148515
53	0x3d5b2fc5	0.053512353
54	0x3d683533	0.05669136
55	0xbce22476	-0.027605277
56	0x3cb8d215	0.022561112
57	0x3d549299	0.05189762
58	0xbcc2a35a	-0.023759533
59	0xb9c90f8d	-0.00038349294
60	0xbca55f7d	-0.020187134
61	0xbd1ea620	-0.038732648
62	0xbcd5effc	-0.02611541
63	0xbd06cef9	-0.03291223
64	0xbb53599d	-0.0032249459
65	0xbc51342b	-0.0127687855
66	0xbd2f9592	-0.04286725
67	0xbd622f7c	-0.055221066
68	0xbc3776e0	-0.011197776
69	0x3cccc555	0.024996439
70	0x3c6bc7fa	0.01439094
71	0xbd143595	-0.036183912
72	0x3d627c7c	0.0552945
73	0xbd0dc902	-0.034615524
74	0xbcfb96f0	-0.030711621
75	0x3d2db29d	0.042406667
76	0x3ca9c30d	0.02072289
77	0x3c6d5662	0.014485927
78	0xbd6d7e56	-0.05798181
79	0xbd3fb04e	-0.046798997
80	0xbc9e71e0	-0.01934141
81	0x3d85b0b6	0.065278456
82	0xbd96d171	-0.073641665
83	0x3d23e959	0.04001746
84	0xbd195bc3	-0.037441026
85	0xbd6ee3f9	-0.05832288
86	0x3d67b860	0.056572318
87	0xbd6f2c2b	-0.05839173
88	0x3c91148d	0.017709995
89	0xbcc8fe15	-0.024535218
90	0x3d0a8f20	0.0338279
91	0xbd7a691f	-0.061135408
92	0x3d1034f2	0.035206743
93	0x3c9943ed	0.018709147
94	0xbb5fbddb	-0.0034140262
95	0x3d47b55a	0.048756935
96	0x3d6eb437	0.058277335
97	0x3cda7a0a	0.02666952
98	0x3cf58cf9	0.029974448
99	0x3d3a8c91	0.04554421
100	0x3d39f035	0.045395095
101	0x3d06b8c7	0.03289106
102	0xbd22cdb8	-0.03974697
103	0x3d113ff3	0.035461377
104	0xbbaee46f	-0.00533729
105	0x3ca5202f	0.020156948
106	0x3a79a0b2	0.00095225417
107	0x3d1cea98	0.038309664
108	0xbd573a18	-0.052545637
109	0xbd0e88e6	-0.034798525
110	0xbcfbe41c	-0.03074842
111	0x3d55284b	0.05204038
112	0xbd297129	-0.041367684
113	0xbb06b1c8	-0.0020552743
114	0xbc8c5ba8	-0.017133549
115	0xbd89a044	-0.06720021
116	0xbd5f4e4f	-0.05451804
117	0xbd6766f2	-0.05649466
118	0xbd6171e4	-0.055040255
119	0xbd569044	-0.052383676
120	0xbcee6bae	-0.02910408
121	0x3d440ad4	0.04786189
122	0xbd341339	-0.043963645
123	0xbcfee0dc	-0.03111308
124	0xbd0ec591	-0.034856383
125	0x3c3641b7	0.011124066
126	0x3d1c9ac5	0.038233537
127	0xbcfbb2df	-0.03072494
128	0xbd21c711	-0.039496485
129	0x3ccefc8f	0.025266914
130	0xbd8b34a5	-0.067971505
131	0x3d4e291a	0.050332166
132	0xbd1c6914	-0.038186148
133	0x3c5204f4	0.012818564
134	0x3d44e697	0.04807147
135	0x3c8dc19a	0.01730423
136	0xbd7e8d78	-0.062146634
137	0xbcd38724	-0.025821276
138	0x3d643a0c	0.05571942
139	0xbd903953	-0.07042184
140	0x3d3e2c03	0.04642869
141	0xbd6a96bc	-0.057272658
142	0xbcb6900c	-0.022285484
143	0x3d08adaa	0.033368744
144	0xbd7687a2	-0.060187943
145	0xbd5a7ad9	-0.053339813
146	0xbc8658ef	-0.016399829
147	0xbd457f6e	-0.04821723
148	0xbc4d1d7b	-0.012519236
149	0x3d262683	0.04056407
150	0x3d110e9e	0.03541433
151	0xbd916a8a	-0.07100399
152	0xbbef1e78	-0.0072973333
153	0xbd6f2643	-0.0583861
154	0xbd3ba3bb	-0.045810442
155	0x3cc36488	0.023851648
156	0xbac98bc8	-0.0015376741
157	0x3d85d3a7	0.0653451
158	0x3b6778b0	0.0035319738
159	0xbd370cf7	-0.0446901
160	0x3c51b279	0.012798899
161	0xbd26a882	-0.040688045
162	0xbd706ba6	-0.05869641
163	0xbd8ad412	-0.067787305
164	0x3d7b8777	0.061408486
165	0xbd1afe69	-0.03784028
166	0x3d4619e2	0.048364528
167	0xbd1f13ab	-0.038837116
168	0x3d708bae	0.05872696
169	0xbd32ac87	-0.043621566
170	0x3cb0485c	0.021518879
171	0xbd7bd6ff	-0.061484333
172	0xbc40d751	-0.011770085
173	0xbc1d7088	-0.009609349
174	0xbc1d4d9a	-0.009601021
175	0xbc92a75a	-0.017902065
176	0xbabdc876	-0.0014479298
177	0x3c1f5f72	0.009727346
178	0x3d7c5221	0.06160176
179	0xbd34d968	-0.044152647
180	0xbd3512f5	-0.044207532
181	0x3cf879dc	0.030331545
182	0x3b6b18d5	0.0035872955
183	0x3ab34ebc	0.0013680081
184	0x3b13c877	0.0022549906
185	0x3d684f6f	0.05671638
186	0xbd62909c	-0.05531369
187	0x3d62f27b	0.05540703
188	0x3d259bfd	0.040431965
189	0xbce5dc73	-0.02805922
190	0xbc9ba23f	-0.018998263
191	0xbcb79608	-0.022410408
192	0xbc899de1	-0.016798915
193	0xbcfec343	-0.031098967
194	0x3d708b30	0.05872649
195	0x3d6e3493	0.058155607
196	0x3c4f7223	0.01266149
197	0x3d04c710	0.032416403
198	0x3d6bc089	0.057556663
199	0x3d1de22e	0.03854578
200	0x3d957b36	0.07298891
201	0x3d287a56	0.041132294
202	0xbd8dae51	-0.06918014
203	0x3d91aebc	0.07113406
204	0x3bd1983a	0.0063963206
205	0xbcc06335	-0.023484806
206	0x3cdc3e52	0.026885185
207	0xbd078638	-0.033086985
208	0xbd1d1431	-0.038349334
209	0xba728190	-0.00092508737
210	0xbbf24c33	-0.0073943376
211	0xbd217dfe	-0.039426796
212	0x3c41ee85	0.011836653
213	0x3da00750	0.07813895
214	0x3c187ab1	0.009306596
215	0x3c0e9448	0.008702345
216	0x3b35868b	0.0027698602
217	0xbd55bdc8	-0.052182943
218	0xbb38c24a	-0.0028191977
219	0xbd2e260c	-0.042516753
220	0x3d1fcb2c	0.03901212
221	0x3da4c0a9	0.080445595
222	0x3d9dd989	0.07707507
223	0xbaf6ce0e	-0.001882972
224	0xbd5d4b7c	-0.054027066
225	0x3c8cae86	0.017173063
226	0x3d3658fc	0.044518456
227	0x3c4cbe94	0.012496609
228	0xbd8345a5	-0.06409768
229	0x3da843fa	0.082160905
230	0xbd3acaa7	-0.04560342
231	0x3c9c764a	0.019099373
232	0x3d75ad6f	0.059979852
233	0xbd135226	-0.035967015
234	0xbbca9629	-0.0061824513
235	0x3cb11a17	0.021618886
236	0xbc8079fe	-0.01568317
237	0x3d449055	0.04798921
238	0x3bffc70e	0.0078057116
239	0xba3c370a	-0.00071798323
240	0x3c356bac	0.011073034
241	0xbcbe7772	-0.023250315
242	0x3bc1db0d	0.0059160055
243	0xbd54119d	-0.05177461
244	0x3d92ea27	0.07173567
245	0x3bb1ee76	0.005430038
246	0x3ceb6e55	0.028739134
247	0x3c88cd29	0.01669939
248	0x3d1bdaec	0.038050577
249	0xbc41f6c2	-0.011838617
250	0xbd32ba93	-0.043634962
251	0xbb6eea49	-0.0036455563
252	0xbd12c6b2	-0.035834022
253	0xbccc4591	-0.024935516
254	0xbd12a157	-0.035798397
255	0xbd54a3e5	-0.051914115

conv2.bias f4 [10]
0	0x3c7eb853	0.015546876
1	0xbd69646d	-0.05698054
2	0x3cb3b60e	0.021937396
3	0x3ccb585e	0.02482241
4	0xbd29172a	-0.041281857
5	0xbb7e4b64	-0.003880226
6	0xbc82a7b1	-0.015949102
7	0x3d80b6f0	0.062848926
8	0xbd06e2dd	-0.032931197
9	0xbcd2c845	-0.025730262

conv3.weight f4 [20, 10, 5, 5]
0	0xbd8603dc	-0.06543705
1	0xbd00ff78	-0.031493634
2	0xbd898e97	-0.0671665
3	0x3d010586	0.03149941
4	0x3cf0cd4d	0.02939477
5	0x3d4f9774	0.050681546
6	0xbd74a403	-0.059726726
7	0x3b3ccac5	0.0028807383
8	0xbd42e7d4	-0.04758437
9	0x3cf5a62e	0.029986467
10	0xbd920e31	-0.07131613
11	0xbd80a424	-0.06281307
12	0xbd25d30c	-0.040484473
13	0x3cd5d6f4	0.026103474
14	0x3d04e173	0.032441568
15	0xbd67213e	-0.056428187
16	0x3c480d8b	0.01221026
17	0x3cb2ef40	0.021842599
18	0xbc01b552	-0.007916765
19	0xbd7f1408	-0.062274963
20	0xbd39bc29	-0.04534546
21	0xbc7dfa99	-0.015501642
22	0xba2a34a3	-0.0006492829
23	0x3d25ae28	0.04044929
24	0xbcf9fbc7	-0.030515565
25	0x3b7b22fe	0.0038320418
26	0xbc9de144	-0.019272454
27	0x3d2ce249	0.04220799
28	0xbd78a381	-0.060702804
29	0x3d258d12	0.04041774
30	0xbd18d5c0	-0.037313223
31	0xbc02eb56	-0.007990679
32	0x3c29db17	0.0103671765
33	0x3d3ceefe	0.04612636
34	0xbcbaeee8	-0.022818998
35	0xbb3496af	-0.0027555635
36	0x3b368002	0.0027847295
37	0x3d3a099a	0.045419313
38	0xbd026f42	-0.031844385
39	0xbb9b2734	-0.004734898
40	0xbd771763	-0.060325038
41	0x3cfd425a	0.030915428
42	0xbd73b698	-0.059500307
43	0xbc2f1524	-0.010686193
44	0xbc1d372e	-0.009595675
45	0xbc968c1c	-0.018377356
46	0x3d46513b	0.04841731
47	0xbd62c2ee	-0.05536168
48	0x3d1e5337	0.03865358
49	0x3c8bcf00	0.017066479
50	0x3ca7dbc3	0.020490533
51	0x3c9794f6	0.018503647
52	0x3ba508dc	0.0050364565
53	0x3b5dc416	0.00338388
54	0xbd3210e2	-0.043473132
55	0xbd38011e	-0.04492294
56	0x3d1c34ff	0.03813648
57	0x3c66f8a3	0.014097366
58	0x3cba0709	0.022708433
59	0xbd1a2745	-0.037635107
60	0x3b19bb12	0.002345745
61	0xb94fb0d9	-0.00019806939
62	0xbd3191fd	-0.043352116
63	0xbb363d04	-0.0027807364
64	0xbc0cb546	-0.008588141
65	0xbd42a90c	-0.047524497
66	0x3cbc69cf	0.022999672
67	0xbd4963a9	-0.04916731
68	0xbd604230	-0.05475062
69	0xbd6b24df	-0.05740821
70	0x396461eb	0.00021780252
71	0xbcaeb7a2	-0.021327797
72	0xbc6f6158	-0.014610611
73	0x3d2d6788	0.042335063
74	0x3d00d3b7	0.031451907
75	0xbccb614b	-0.024826666
76	0x3c3b3c4c	0.01142795
77	0xbcf35ff1	-0.029708834
78	0xbd14da8c	-0.036341235
79	0xbd3a0b0a	-0.045420684
80	0x3cc54982	0.024082903
81	0xbd20a0c5	-0.03921582
82	0x3d518cc3	0.05115963
83	0xbb5fbac0	-0.0034138411
84	0xbd402265	-0.0469078
85	0xbcd2ede0	-0.025748193
86	0x3d69e8a4	0.05710663
87	0xbabf3291	-0.0014587214
88	0xbd0ea2c3	-0.03482319
89	0xbbf390fb	-0.0074330545
90	0x3d0ed523	0.03487123
91	0xbd3cbb89	-0.046077285
92	0x3c4ee559	0.012627923
93	0x3d85eefd	0.06539724
94	0x3c8d6328	0.017259195
95	0xbcbdfe98	-0.023192689
96	0x3d4d204a	0.05007962
97	0xbca14493	-0.019686019
98	0xbb9fdedb	-0.0048788614
99	0x3c867137	0.016411407
100	0xbbc4ce00	-0.0060060024
101	0x3c6dfb34	0.0145252235
102	0x3d103e67	0.03521576
103	0xbc8c0e18	-0.017096564
104	0xbcd468ee	-0.02592894
105	0x3bf0d585	0.0073496723
106	0xbd9f2db5	-0.0777239
107	0xbcb743c8	-0.022371188
108	0xbc5ab50b	-0.013348828
109	0xbd56cab7	-0.052439418
110	0xbbafeda7	-0.0053689065
111	0x3c23ad0f	0.009989991
112	0xbbedcd5c	-0.0072571468
113	0xbd8f3be5	-0.06993846
114	0xbd3490ce	-0.04408341
115	0xbbaee9b2	-0.0053379172
116	0xbd9f0e5d	-0.077664115
117	0xbc1cafc9	-0.009563395
118	0x3cc04db8	0.02347456
119	0xbd7e4a23	-0.06208242
120	0xbd877416	-0.066139385
121	0xbc052bcb	-0.008128117
122	0xbd9c11a7	-0.076205544
123	0x3d0b2dd7	0.033979263
124	0xbd7ccd82	-0.061719425
125	0x3c551917	0.01300647
126	0x3d61f61e	0.055166356
127	0xbd151a86	-0.036402248
128	0x3d442bcc	0.04789333
129	0xbbf244ca	-0.007393454
130	0xbd800d07	-0.06252485
131	0xbd9373e4	-0.07199839
132	0xbd493281	-0.04912043
133	0x3b796827	0.0038056464
134	0xbd0eccfc	-0.034863457
135	0xbca35acc	-0.019940756
136	0xbd304d5f	-0.043042537
137	0x3cd37610	0.025813133
138	0xbd765b65	-0.060145754
139	0xbd471b40	-0.048609972
140	0x3cdf083e	0.02722561
141	0xbd3ee5db	-0.046605926
142	0x3d1ccb9f	0.038280126
143	0x3c7b52d0	0.015339568
144	0xbd66b40d	-0.056324054
145	0xbcbba374	-0.022905089
146	0x3d0693a5	0.03285565
147	0xbd829a41	-0.06377078
148	0xbc05194e	-0.008123709
149	0xbcbe2e0b	-0.023215314
150	0x3d5de4b6	0.054173194
151	0x3d04a3b4	0.032382682
152	0x3ca5498a	0.020176668
153	0x3c732fa8	0.014842905
154	0x3d0ea59d	0.03482591
155	0x3becdc3d	0.007228403
156	0xbd0ddc40	-0.034633875
157	0xbd42c94c	-0.047555253
158	0x3cc8f6e1	0.024531784
159	0xbd83b9d3	-0.064319275
160	0x3d2a0ab5	0.041514117
161	0x3d71b24f	0.05900794
162	0xbd19c077	-0.037537064
163	0x3d0cdd0c	0.034390494
164	0xbd3ff499	-0.046864126
165	0xbbcf0846	-0.006318125
166	0xbc216dbf	-0.009852826
167	0x3ce70169	0.028198915
168	0x3cf78f3a	0.030219663
169	0xbc34bed7	-0.011031828
170	0xbb6f52f7	-0.0036517957
171	0xbd87a702	-0.06623651
172	0xbcf1020b	-0.02941992
173	0xbc23f02b	-0.010005991
174	0xbaabfc6b	-0.0013121491
175	0xbb176e16	-0.0023106388
176	0xbd29252b	-0.04129521
177	0xbd6e5ead	-0.05819576
178	0x3c8106a6	0.01575024
179	0xbbcbef15	-0.006223569
180	0x3cc88beb	0.02448078
181	0xbd95cf82	-0.073149696
182	0xbd3b35f8	-0.045705765
183	0x3d0f2792	0.034949847
184	0xbd1ada19	-0.03780565
185	0xbd84dbf4	-0.06487265
186	0xbd0c0e81	-0.03419352
187	0xbd92b1e0	-0.07162833
188	0xbd71a889	-0.05899862
189	0x3b9766c8	0.004620407
190	0xbd8002c0	-0.062505245
191	0x3ceb357b	0.028712025
192	0x3ccf78c0	0.025326133
193	0xbc54c040	-0.012985289
194	0xbd35abca	-0.044353284
195	0x3c4db5ea	0.012555579
196	0xbd0e981b	-0.034813028
197	0x3d059588	0.032613307
198	0xbd847c7f	-0.06469058
199	0xbd0d0d19	-0.03443632
200	0x3b88d02b	0.004175206
201	0xbd316d8b	-0.04331736
202	0x3d293e59	0.041319225
203	0x3d8de386	0.06928162
204	0x3b6929d2	0.0035577905
205	0xbc9dca9c	-0.01926165
206	0x3b82432d	0.003975293
207	0xbd3678c3	-0.04454876
208	0x3d5b5c1c	0.05355464
209	0x3d10308e	0.035202555
210	0x3d2c2126	0.0420238
211	0xbd816a9e	-0.06319164
212	0x3ce414e6	0.027841996
213	0xbbf61a7f	-0.007510483
214	0x3d97822c	0.07397875
215	0xbbb854cf	-0.0056253443
216	0x3bba9a48	0.0056946613
217	0xbcac5e3b	-0.021041026
218	0xbcaad5dd	-0.020853931
219	0x3cd599d3	0.026074326
220	0xbc238a6f	-0.009981736
221	0x3d37a35f	0.044833537
222	0x3d520822	0.051277287
223	0xbc146df9	-0.009059423
224	0x3c46e676	0.012139907
225	0x3d7a9dd3	0.06118567
226	0x3cccb807	0.024990095
227	0x3d3f4125	0.046692986
228	0xbd330ca8	-0.04371324
229	0x3d177528	0.036976963
230	0xbcc9f445	-0.02465261
231	0x3d6d8ab4	0.057993606
232	0x3cef66b7	0.029223783
233	0x3ca88650	0.020571858
234	0x3cdd1f63	0.026992505
235	0xbd297437	-0.041370597
236	0xbd40e698	-0.04709491
237	0x3c9193bb	0.017770639
238	0xbc29e848	-0.010370322
239	0x3d6b80b6	0.057495795
240	0x3d945f1d	0.07244704
241	0xba5781ee	-0.000822096
242	0x3d06408c	0.0327764
243	0x3c420964	0.011843059
244	0xbcd8ed11	-0.02648023
245	0xbc9fbbbd	-0.0194987
246	0x3cddbbc2	0.027067069
247	0x3d8f5889	0.069993086
248	0x3cf578f7	0.029964907
249	0xbd0a0e3e	-0.03370499
250	0x3d2c9840	0.042137384
251	0x3d4dc60b	0.050237697
252	0xbd092a88	-0.033487827
253	0x3c860b68	0.01636286
254	0x3d9f5701	0.077802666
255	0xbafe37de	-0.0019395312

conv3.bias f4 [20]
0	0x3ad0837c	0.0015908326
1	0xbd77225d	-0.060335506
2	0x3d774843	0.06037165
3	0x3bb016f3	0.0053738295
4	0xbd028fec	-0.031875536
5	0x3ce150e6	0.027504396
6	0xbcee1d63	-0.029066747
7	0x3d6fd16b	0.058549326
8	0x3d835425	0.06412534
9	0xbd58211e	-0.052765958
10	0x3d7d0fbd	0.061782587
11	0x3d225139	0.03962824
12	0xbc5f2562	-0.013619753
13	0xbd4ef2c7	-0.0505245
14	0x3d4838bc	0.04888223
15	0xbc34ff45	-0.011047189
16	0xbd2d99ae	-0.04238289
17	0xbd385224	-0.04500021
18	0x3d201318	0.03908071
19	0x3d2fa73a	0.04288409

conv4.weight f4 [20, 20, 5, 5]
0	0x3b89e683	0.0042083873
1	0xbcd107e9	-0.025516467
2	0x3cefb673	0.029261803
3	0x3ad647cc	0.0016348301
4	0xbc215c32	-0.009848641
5	0x3cc3ad97	0.023886485
6	0x3b81f791	0.00396628
7	0x3c6243da	0.013810122
8	0xbd42ff9c	-0.04760705
9	0x3be9e82a	0.007138272
10	0x3d39069b	0.045172315
11	0xbc3cc7c4	-0.011522237
12	0x3c55b176	0.013042798
13	0xbc035c93	-0.008017677
14	0xbd35b710	-0.044364035
15	0xbd1b632e	-0.037936382
16	0xbcd4f4c2	-0.025995616
17	0xbcf93299	-0.030419635
18	0x3c9d7cee	0.01922461
19	0xbd152a6d	-0.036417414
20	0xbd19a74c	-0.037513062
21	0xbcb5f24d	-0.022210265
22	0x3cb1ec1a	0.021719027
23	0xbca67dab	-0.020323595
24	0x3afc32e8	0.0019241245
25	0x3c0d0277	0.008606545
26	0x3cb9a0d7	0.022659702
27	0xbccc938d	-0.024972701
28	0xbcf869a9	-0.03032382
29	0xbd0a81fa	-0.03381536
30	0x3cc7b45f	0.024378
31	0x3b8cf066	0.0043011187
32	0x3c7f4fbb	0.015582974
33	0x3d38fa97	0.045160856
34	0x3c5066ec	0.012719851
35	0xbb2815fd	-0.0025647872
36	0x3cfe816a	0.031067569
37	0x3d5696d6	0.052389942
38	0xbaf4d122	-0.0018678049
39	0x3bbf6648	0.0058410503
40	0x3a2a8482	0.00065047306
41	0x3d4b8c50	0.04969436
42	0x3b0388c2	0.0020070528
43	0x3d66a565	0.056310076
44	0xbcd552d0	-0.026040465
45	0x3d0bca74	0.03412862
46	0xbcd3dd73	-0.025862431
47	0x3c950e0f	0.01819518
48	0x3cc6e2aa	0.024278004
49	0xbcf10f18	-0.029426143
50	0x3cb23bed	0.02175709
51	0x3d1f4c62	0.038891204
52	0x3aa24ae4	0.0012381938
53	0xb8c453a6	-9.361589e-05
54	0x3c6ed7f2	0.014577853
55	0x3bd91057	0.0066242623
56	0xbd03e079	-0.032196496
57	0x3c8301dc	0.015992098
58	0x3c3404a4	0.010987435
59	0x3d079f32	0.033110805
60	0x3d2c3cd5	0.0420502
61	0x3d353845	0.044243116
62	0x3bf4db10	0.0074724033
63	0x3d4ae3e3	0.049533736
64	0x3d735307	0.059405353
65	0x3d27f09d	0.04100095
66	0x3ae6cce8	0.0017608674
67	0x3d0b2d35	0.03397866
68	0x3cd5d3fb	0.026102057
69	0x3c0e80ed	0.0086977305
70	0x3ce6237f	0.028093098
71	0x3cd68133	0.026184654
72	0x3d0013e1	0.031268958
73	0x3d36b860	0.044609427
74	0xba4f11f8	-0.0007899101
75	0xbd2786dd	-0.0409001
76	0x3d0f76ef	0.035025533
77	0xbcb0a97f	-0.021565197
78	0xbd010dbf	-0.03150725
79	0xbcfda7bd	-0.030963773
80	0x3d12c73b	0.035834532
81	0xbb38214f	-0.0028096025
82	0xbcf0de6b	-0.029402932
83	0x3ca7f5f8	0.02050303
84	0xbd157b47	-0.03649452
85	0xbceb7920	-0.02874428
86	0xbae43bb9	-0.0017412818
87	0xbb925e99	-0.0044668433
88	0xbc482ee9	-0.0122182155
89	0xbd0ced43	-0.034405958
90	0x3d2cdfc3	0.042205583
91	0xbb9737bf	-0.0046147997
92	0xbd038e56	-0.032118164
93	0x3d095431	0.033527557
94	0xbb6124ac	-0.0034354134
95	0xbcd21a8c	-0.025647424
96	0x3cfcb60d	0.030848527
97	0x3c962550	0.018328339
98	0x3cea63c7	0.02861203
99	0x3b9520f9	0.00455105
100	0x3d2b3359	0.041797016
101	0x3cdf24e8	0.027239278
102	0xbc273408	-0.010205276
103	0x3d06ad8b	0.032880347
104	0xbd20b617	-0.039236154
105	0x3c99d6ff	0.018779276
106	0x3d13e7e0	0.036109805
107	0x3d39a6b9	0.045325015
108	0x3ce6047b	0.028078308
109	0x3d335365	0.043780703
110	0x3d4625bd	0.048375834
111	0xbd0bd632	-0.03413982
112	0x3d2029ba	0.039102294
113	0xbc8f46d0	-0.01748982
114	0xbcd61e8b	-0.02613761
115	0x3b984eb2	0.004648053
116	0x3ba9e4b8	0.005184736
117	0x3c161d61	0.009162278
118	0x3c9fa727	0.019488884
119	0x3d27f3df	0.041004058
120	0x3becb05d	0.0072231726
121	0xbcf218ca	-0.029552836
122	0xbd0959ed	-0.033533026
123	0xbcc13177	-0.023583157
124	0x3c2a9b96	0.010413071
125	0x3c336320	0.010948926
126	0xbc4a6e30	-0.012355372
127	0x3d2338a2	0.03984893
128	0x3ca1262f	0.019671528
129	0x3c5fdba6	0.013663208
130	0xbc008a52	-0.007845478
131	0x3d3d1292	0.04616029
132	0x3b504463	0.0031779043
133	0x3d3176e3	0.04332627
134	0x38cc8ed3	9.754081e-05
135	0xbb9a0902	-0.004700781
136	0xbd253a58	-0.040338844
137	0x3c7b0814	0.01532175
138	0x3c11e506	0.008904701
139	0xbd35eee3	-0.044417273
140	0x3c0fd2cb	0.008778284
141	0x3cf80c33	0.030279255
142	0x3ccc68eb	0.024952373
143	0xbd33d02e	-0.043899707
144	0x3cb2a148	0.02180542
145	0xbd10614c	-0.03524904
146	0xb9d36ff9	-0.00040328482
147	0x3cbc4632	0.02298269
148	0xbce2fa21	-0.027707161
149	0x3bfc8458	0.0077062063
150	0x3b817c6a	0.003951599
151	0xbd19b640	-0.037527323
152	0xbcd1e0c2	-0.025619868
153	0x3cb50267	0.022095872
154	0x3c256c3f	0.010096609
155	0x3d23aa93	0.039957594
156	0x3b87a143	0.004139097
157	0xbd467a94	-0.048456743
158	0x3d4293ff	0.04750442
159	0x3c85315b	0.016258886
160	0xbcba4781	-0.022739174
161	0x3ce153bb	0.027505746
162	0x3ce48e6d	0.027899945
163	0xbd274a1a	-0.040842153
164	0x3b0ef93f	0.0021816043
165	0xbb52f445	-0.0032189053
166	0xbb04eb0b	-0.0020281698
167	0x3c9f1aaf	0.019421903
168	0x3d10870a	0.035285033
169	0x3d026f94	0.03184469
170	0xbce999f2	-0.02851579
171	0x3c842dde	0.016135152
172	0x3b2312cf	0.0024883037
173	0x3cb1d1ec	0.021706544
174	0x3c0492a4	0.0080916025
175	0xbb28cf1d	-0.0025758215
176	0xbb838895	-0.0040140846
177	0x3cb889f6	0.022526722
178	0xbd62e501	-0.055394176
179	0xbc9a3e25	-0.018828461
180	0xbc29bc97	-0.010359905
181	0x3cf14e95	0.029456416
182	0xbce31e81	-0.027724506
183	0xbc48a3fb	-0.012246127
184	0xbcf6e4cc	-0.030138396
185	0xbce820a1	-0.028335871
186	0xbbed68db	-0.0072451658
187	0x3cf8c024	0.030365057
188	0xbc903ef2	-0.01760814
189	0x3b964bcf	0.004586674
190	0x3aa34cc7	0.0012458795
191	0x3c980adc	0.018559866
192	0xbd456e13	-0.048200678
193	0x3d011b7e	0.03152036
194	0x3c62d86a	0.013845542
195	0xbd283b6b	-0.04107229
196	0xbd44a066	-0.04800453
197	0xbd40930b	-0.04701523
198	0xbd406ee0	-0.04698074
199	0x3ccb4db4	0.024817325
200	0xbb715abf	-0.003682777
201	0x3cfe7f1a	0.031066466
202	0x3cc1e150	0.023667008
203	0x3ccbfd99	0.024901198
204	0x3cfdc695	0.03097848
205	0x3d407de8	0.046995074
206	0xbc950e66	-0.018195342
207	0x3d19ee5c	0.037580833
208	0x3c66daf8	0.014090292
209	0x3d1314d0	0.03590852
210	0x3be6ceaa	0.0070436792
211	0xbb843e98	-0.004035782
212	0xbd5cda87	-0.05391934
213	0xbd5439b2	-0.051812835
214	0xbd114b4d	-0.035472203
215	0x3cca7273	0.024712777
216	0xbbfc6511	-0.0077024777
217	0x3c85d618	0.01633744
218	0x3c9694f3	0.018381571
219	0x3c8f17a4	0.017467327
220	0x3ca2ef86	0.019889604
221	0xbc759357	-0.014988742
222	0xbcce74cf	-0.025202183
223	0x3d172394	0.036899164
224	0x3c43a0f8	0.011940233
225	0xbcee9602	-0.029124264
226	0x37028b04	7.780971e-06
227	0x3c05dea0	0.008170754
228	0x3c3b6ca1	0.011439473
229	0x3d3238d1	0.043511216
230	0x3c3748c0	0.011186779
231	0x3cd88ac1	0.02643335
232	0x3d0a0c61	0.03370321
233	0x3d25cfc5	0.040481348
234	0xbbf93236	-0.0076048626
235	0x3d47f59e	0.048818223
236	0x3c82e022	0.015976015
237	0xbd0c3a22	-0.034235127
238	0xbc2bac98	-0.010478161
239	0xbd204422	-0.039127477
240	0xbc8a983b	-0.016918292
241	0x3ce232fa	0.027612198
242	0xbcd79917	-0.026318116
243	0xbd69095e	-0.0568937
244	0x3c8dccc2	0.01730955
245	0xbce64144	-0.028107293
246	0xbd1d2002	-0.038360603
247	0x3c500a62	0.012697788
248	0xbd0944e5	-0.03351297
249	0x3ccccad9	0.024999069
250	0x3d1bba8e	0.03801971
251	0xbc9448be	-0.018101092
252	0xbd265094	-0.04060419
253	0xbb683c00	-0.0035436153
254	0x3d20df9c	0.03927575
255	0xbd4e97e6	-0.05043783

conv4.bias f4 [20]
0	0x3a465cd2	0.0007566932
1	0xbc1988ff	-0.009371041
2	0x3c830ac4	0.015996344
3	0xbd148776	-0.036261998
4	0x3c84887c	0.016178362
5	0x3c40e5c6	0.011773532
6	0xbc1003d8	-0.008789979
7	0xbd1a2b9b	-0.03763924
8	0xbcb32d1b	-0.021872094
9	0xbbf85dec	-0.0075795557
10	0xbc092d12	-0.008372562
11	0xbb124d53	-0.002232392
12	0xbcb1dc3a	-0.021711458
13	0xbb9124d4	-0.004429439
14	0xbd5680e0	-0.052369
15	0xbc811a9b	-0.015759757
16	0xbd233280	-0.039843082
17	0x3d00618b	0.031343024
18	0x3c603009	0.0136833275
19	0xbc936755	-0.017993608

conv5.weight f4 [30, 20, 5, 5]
0	0x3b73a597	0.0037177557
1	0x3d22de51	0.0397628
2	0x3cf7aea7	0.030234648
3	0x3cf00aa9	0.029301958
4	0xbd07b8df	-0.03313529
5	0x3d41652c	0.047215626
6	0xbbb03b69	-0.005378176
7	0xbd0c0b7e	-0.034190647
8	0xbbff6b13	-0.0077947467
9	0xbcaf13a5	-0.021371672
10	0x3cfc49bb	0.030796876
11	0xb9c38436	-0.00037291803
12	0xbc4c021b	-0.012451674
13	0xbd1c3f91	-0.03814656
14	0xbc56ec69	-0.013117888
15	0x3ceba520	0.028765261
16	0x3d0f41a5	0.034974713
17	0xba8f7dee	-0.0010947564
18	0xbcf64396	-0.030061524
19	0x3c5431fc	0.01295137
20	0xbcfe99b4	-0.03107915
21	0xbc896f20	-0.016776621
22	0x3d0a2840	0.03372979
23	0xbca7c1cc	-0.020478152
24	0x3c871e62	0.01649398
25	0xbd3ac643	-0.045599233
26	0x3c59701f	0.013271361
27	0xbbd21c9a	-0.006412101
28	0xbcc4f1ad	-0.024041021
29	0x3b187ea1	0.0023268836
30	0x3cd85358	0.026406929
31	0x3a2406c6	0.0006257113
32	0x3c9990a6	0.018745732
33	0x3caa0a71	0.020756932
34	0xbc304aae	-0.0107599925
35	0xbceea5a8	-0.029131725
36	0xbcc49cae	-0.024000492
37	0xbd13a260	-0.036043525
38	0x3c83fe76	0.016112547
39	0xbc2b7c1c	-0.010466602
40	0xbb20908c	-0.002450022
41	0x3b9a3ea7	0.004707176
42	0x3c1f53a2	0.009724529
43	0x3d1f3427	0.038868096
44	0xbd0e51ef	-0.034746107
45	0x3c20f400	0.009823799
46	0xbd2421fa	-0.040071465
47	0xbc97f731	-0.018550487
48	0xbd52a37a	-0.051425435
49	0xbbb696e0	-0.005572185
50	0xbcd5a7f4	-0.026081063
51	0xbcd32e0d	-0.025778795
52	0xbc22ef57	-0.009944758
53	0x3ce3d961	0.027813615
54	0x3cdd7dd7	0.027037544
55	0x3cf9f428	0.03051193
56	0xbd22076e	-0.039557867
57	0x3d2ae431	0.041721527
58	0x3d1067b4	0.03525515
59	0xbd4449d6	-0.047921978
60	0x3d04ac10	0.032390654
61	0x3cc9a02f	0.024612514
62	0xbd004080	-0.031311512
63	0xbc353d11	-0.011061923
64	0x3d358d1f	0.044324037
65	0xbcf11206	-0.02942754
66	0xbc51fc73	-0.012816536
67	0x3caf9f81	0.021438362
68	0x3d150e90	0.03639084
69	0xbd08623b	-0.033296805
70	0xbd42dacb	-0.04757194
71	0xbc1574c4	-0.009122077
72	0x3a952cec	0.0011381186
73	0x3cf2f68c	0.029658578
74	0xbd72102f	-0.059097465
75	0x3c7643cc	0.0150308125
76	0xbc915bc8	-0.01774396
77	0xbcc1a7e0	-0.02363962
78	0x3cf5dd9c	0.030012898
79	0x3cb78d27	0.022406174
80	0x3c5e2a9c	0.013559964
81	0xbcd9bb5d	-0.0265786
82	0x3c3e4677	0.01161348
83	0x3d05142c	0.03248994
84	0xbca9b035	-0.020713905
85	0xbcab6bb7	-0.020925386
86	0x3bb94ca6	0.005654889
87	0xbcd43730	-0.025905222
88	0x3beeb5d2	0.0072848583
89	0xbcb7642f	-0.022386638
90	0xbc9fcfb9	-0.01950823
91	0x3cd0d44f	0.025491862
92	0x3c1fdacc	0.009756755
93	0x3cac2f9a	0.021018792
94	0xbc84e638	-0.016223058
95	0xbbcd16b5	-0.0062588104
96	0xbd125cf8	-0.035733193
97	0xbd30c45f	-0.043156024
98	0x3c666c04	0.014063839
99	0x3bd90f39	0.006624129
100	0xbb87bb2f	-0.004142187
101	0x3bf5d4d6	0.0075021787
102	0xbc9f3987	-0.01943661
103	0xbc89ac55	-0.016805807
104	0xbc4744b2	-0.012162374
105	0xbce021b7	-0.027359826
106	0xbc898518	-0.016787097
107	0xbb1aec6e	-0.0023639458
108	0xbcd1444c	-0.025545262
109	0xbab46103	-0.0013761822
110	0xbd33fd87	-0.043942954
111	0xbd1370e2	-0.035996325
112	0x3c4e8771	0.012605534
113	0xbba108f3	-0.004914397
114	0x3c2239fc	0.00990152
115	0xbd5a374e	-0.0532754
116	0xbd39fb84	-0.04540588
117	0x3be5fe3b	0.007018832
118	0xbcde7cdf	-0.027159153
119	0x3c6b8d79	0.014376991
120	0xb99dbc3e	-0.00030085625
121	0xbd227d3f	-0.039670225
122	0xbbb8456d	-0.0056235106
123	0x3d058afe	0.032603256
124	0x3cd54b56	0.0260369
125	0xbd1abdbb	-0.037778597
126	0xbc91ade3	-0.017783111
127	0xbd53f0b3	-0.05174322
128	0xbc16489b	-0.009172584
129	0xbcbb6520	-0.022875369
130	0xbd0db475	-0.034595925
131	0x3d369ae4	0.04458131
132	0xbbf8367e	-0.0075748553
133	0x3a606ffd	0.00085616094
134	0x3c2f23d0	0.010689691
135	0x3cafc776	0.021457415
136	0xbb8a4ca0	-0.00422056
137	0xbce43e6f	-0.027861802
138	0x3c27e570	0.010247573
139	0x3d0aad66	0.033856772
140	0xbba5f4f4	-0.005064601
141	0x3d03d683	0.032186996
142	0xbd552c45	-0.05204417
143	0xbd0ae261	-0.033907298
144	0xba9664f8	-0.0011474183
145	0xbced7fda	-0.028991628
146	0x3cbaea16	0.022816699
147	0xb9bb0266	-0.00035669206
148	0x3cb13adc	0.021634512
149	0x3bd7d622	0.006586806
150	0x3c2a9da8	0.010413565
151	0xbc34c05b	-0.011032189
152	0x3b376db0	0.0027988963
153	0xb8ee5d68	-0.000113661226
154	0x3c3198ad	0.010839623
155	0x3d08acd2	0.03336794
156	0x3d18ccd0	0.0373047
157	0x3bb0cecc	0.005395746
158	0xbd1277cd	-0.035758782
159	0x3c8b1e4e	0.016982224
160	0x3a8baedf	0.0010656974
161	0x39ceabc4	0.00039419357
162	0x3cc06108	0.023483768
163	0xbcbb8f99	-0.022895621
164	0x3be45178	0.0069677196
165	0x3d78f55b	0.060780864
166	0x3c18258f	0.009286298
167	0xbca27495	-0.019830981
168	0xbd25c7ef	-0.040473875
169	0x3d194177	0.037415948
170	0x3c591728	0.01325015
171	0x3d25fd97	0.040525045
172	0xbc7dd883	-0.015493515
173	0xbc8fffa3	-0.017577952
174	0xbc4a847c	-0.012360688
175	0xbd4bdceb	-0.04977123
176	0xbb0bfbb8	-0.0021359753
177	0x3a6768d1	0.00088275695
178	0x3c209089	0.009800085
179	0x3c1b0f04	0.009464029
180	0xbc34ecee	-0.011042817
181	0xbd455cec	-0.04818432
182	0xbc8f1f52	-0.01747099
183	0xbb4cbed9	-0.0031241684
184	0x3d0d80c8	0.034546643
185	0xbd227847	-0.039665487
186	0xbc8fcde6	-0.017554235
187	0xbd0ba6f8	-0.03409478
188	0xbd344027	-0.044006493
189	0x3ad8176d	0.0016486474
190	0x3a1428fa	0.0005651858
191	0xbd5c2396	-0.053744875
192	0xbd1ce259	-0.0383018
193	0xbd40faf4	-0.047114328
194	0xbc8fddb5	-0.017561773
195	0xbd25862b	-0.040411156
196	0x3c9cc853	0.01913849
197	0x3cdcb87f	0.026943443
198	0xbc99d2aa	-0.01877721
199	0xbbb1082a	-0.0054025846
200	0xbc00ed62	-0.0078690965
201	0xbd3acdd2	-0.04560644
202	0xbd5037d5	-0.050834496
203	0xbb916c08	-0.004437927
204	0xbd3943be	-0.04523062
205	0xbc29b297	-0.010357521
206	0xbcf14835	-0.029453376
207	0xbd432bcc	-0.04764919
208	0xbd382b09	-0.044962917
209	0xbc969f8d	-0.018386627
210	0x3d1d25c1	0.038366083
211	0xbd18a1de	-0.037263744
212	0xbcc6e12e	-0.024277296
213	0x3bbadcce	0.0057025915
214	0x3c65f172	0.014034616
215	0xbd357168	-0.044297606
216	0xbb89f6dd	-0.0042103366
217	0x3c5531ca	0.013012359
218	0xbcff7794	-0.031184949
219	0xbc850f1e	-0.01624256
220	0xbb751386	-0.003739567
221	0xbcbd084b	-0.023075243
222	0x3bc87710	0.006117709
223	0xbcfb893b	-0.030705085
224	0xbabdb4c2	-0.0014473426
225	0xbc6026c6	-0.013681119
226	0xbc63c737	-0.013902477
227	0xbc9cb421	-0.01912886
228	0xbc42f45d	-0.011899081
229	0x3a00c2ac	0.0004911821
230	0xbcb5b122	-0.02217919
231	0xbd54c086	-0.051941417
232	0x3d1e27b6	0.03861209
233	0x3bbfa80f	0.0058488916
234	0x3cc8b849	0.024501937
235	0x3c094aec	0.008379679
236	0xbcb70ad7	-0.022344036
237	0xbcf2b3ef	-0.029626815
238	0x3c2999c6	0.010351604
239	0xbcefe7b3	-0.029285287
240	0xba9d9c3a	-0.0012024709
241	0xbd108ac7	-0.0352886
242	0xbb8f27df	-0.0043687667
243	0xbc3e42c4	-0.011612598
244	0x3d0757d7	0.033042755
245	0x3c5671c1	0.0130886445
246	0x3c74470e	0.014909519
247	0xbc32ad84	-0.010905627
248	0xbc3bc403	-0.011460307
249	0xbd12b049	-0.03581265
250	0x3c4e4a06	0.012590891
251	0xbc8e20d7	-0.017349644
252	0x3c632e6e	0.01386605
253	0xbceaa8d7	-0.028644962
254	0xbd23f65a	-0.04002986
255	0x3cfa4197	0.030548854

conv5.bias f4 [30]
0	0x3ce84421	0.028352799
1	0xbd2a8048	-0.041626245
2	0xbd372d3e	-0.04472088
3	0xbb630ee3	-0.0034646324
4	0xbb99a1e6	-0.0046884893
5	0xbcde1c20	-0.02711302
6	0xba8a3137	-0.0010543232
7	0xbce5903a	-0.028022874
8	0x3cddeb42	0.027089719
9	0x3c2c6116	0.010521194
10	0x3d042744	0.03226401
11	0x3d0fd954	0.03511937
12	0xbbbb1e73	-0.005710417
13	0x3d1dc544	0.038518205
14	0xbd399821	-0.045311097
15	0xbc3c09b2	-0.011476921
16	0xbce64889	-0.02811076
17	0xbd159591	-0.03651959
18	0xbd094eb6	-0.03352233
19	0x3c83c52e	0.016085234
20	0xbcd8475b	-0.026401212
21	0x3ae7bf37	0.0017680888
22	0x3b7e7168	0.003882492
23	0x3c7d9b66	0.015478944
24	0x3cdd4d73	0.02701447
25	0xbc81439c	-0.015779309
26	0xbcb2a601	-0.021807672
27	0xbd6154ce	-0.055012517
28	0x3cfb6067	0.030685617
29	0x3cda61d7	0.026657982

conv6.weight f4 [30, 30, 5, 5]
0	0xbcf06e2e	-0.029349413
1	0xbcdd90cb	-0.027046582
2	0x3be31ce3	0.006930934
3	0xbd0289ec	-0.031869814
4	0xbabdb99f	-0.0014474875
5	0xbc8ff02d	-0.01757058
6	0x3bb85a0e	0.0056259697
7	0xbd225449	-0.03963116
8	0xbcb75a58	-0.022381946
9	0x3b6a4c8f	0.00357512
10	0x3ccd1991	0.025036605
11	0x3c35dda1	0.011100204
12	0xbcea1048	-0.028572217
13	0x3cf13717	0.029445214
14	0x3c7d83f9	0.015473359
15	0xbbe5d114	-0.0070134494
16	0xbb5ca25d	-0.0033666112
17	0x3c752dad	0.014964503
18	0xbce1f258	-0.027581379
19	0x3c8095e0	0.015696466
20	0x3cd40c93	0.025884902
21	0xbc8b830d	-0.017030263
22	0xbcb4322a	-0.021996576
23	0xbd2c49b5	-0.04206248
24	0xbcc1ab72	-0.023641322
25	0x3c4c38e5	0.012464737
26	0x3c14127f	0.009037613
27	0x3c940a97	0.018071456
28	0x3c867715	0.016414205
29	0xbc7265dd	-0.014794794
30	0xbd3c0b79	-0.04590938
31	0xbd0fe8f1	-0.03513426
32	0x3cc909b8	0.024540767
33	0x3c9aa5e9	0.01887794
34	0xbc9493a7	-0.018136812
35	0xbcc8967d	-0.02448582
36	0xbbc9351c	-0.0061403643
37	0xbca77fb1	-0.02044663
38	0xbc9e09ec	-0.01929184
39	0xbc9d23cd	-0.01918211
40	0x3bd5b01d	0.0065212385
41	0x39ab1e6f	0.00032638336
42	0xbd0b30a8	-0.03398195
43	0x3ae37eb8	0.0017356491
44	0xbb874551	-0.004128136
45	0xbc157198	-0.009121321
46	0x3be88c88	0.0070968308
47	0x3b9abdbc	0.004722325
48	0xbc8ad340	-0.016946435
49	0xbc309a2c	-0.010778945
50	0xbcbfc128	-0.023407534
51	0x3cacc3e0	0.021089494
52	0xba2afb57	-0.0006522438
53	0xbd0a2c38	-0.033733577
54	0x3c826ae6	0.015920114
55	0xbc5deddc	-0.01354548
56	0xbc6e79b8	-0.014555387
57	0x3cf7c8d2	0.030247126
58	0x3c9429f1	0.018086405
59	0xbc9c968c	-0.019114755
60	0x3c996edc	0.01872962
61	0xbd00c25c	-0.031435356
62	0xbcd045f1	-0.025423976
63	0xbcba258c	-0.022722982
64	0xbc85245a	-0.016252685
65	0x3c2e15da	0.010625327
66	0x3d14ef0a	0.036360778
67	0xbb98f91a	-0.004668367
68	0x3cd092bb	0.025460592
69	0xbcb8a5e9	-0.02254005
70	0x3c1bcb9a	0.009508992
71	0x3bc52988	0.006016914
72	0x3d438c28	0.047741085
73	0xbb9ec726	-0.0048455177
74	0x3d10205a	0.035187103
75	0xbcdcc477	-0.02694915
76	0xbd019708	-0.031638175
77	0x3c368693	0.011140483
78	0x3bc20b67	0.0059217694
79	0xbc9bf182	-0.019036058
80	0x3b7d3137	0.003863407
81	0xbc0eb2ba	-0.008709604
82	0x3d3d0e07	0.046155956
83	0x3d161bdd	0.036647666
84	0x3bdf02ba	0.006805745
85	0x3c5c3939	0.013441377
86	0x3d44f76d	0.048087526
87	0x3d4cb647	0.04997852
88	0x3bcbf8bc	0.00622472
89	0xbcfa974b	-0.03058972
90	0x3c8a410b	0.016876718
91	0xbca4c02e	-0.02011117
92	0x3d5d5761	0.05403841
93	0x3ca7788e	0.020443227
94	0xbc2a9ea7	-0.010413802
95	0x3c683c93	0.014174598
96	0xbb7ab3be	-0.0038254107
97	0xbbdf55b3	-0.006815636
98	0xbcb8fc63	-0.022581285
99	0xba072114	-0.00051547703
100	0x3cffda3f	0.031231998
101	0x3cff8d95	0.031195441
102	0xbc96926d	-0.018380368
103	0x3d04e09a	0.03244076
104	0x3c95c348	0.018281594
105	0xbb29ad73	-0.0025890737
106	0xbcb44969	-0.022007661
107	0xbbb01162	-0.005373166
108	0x3b9d7200	0.0048048496
109	0x3bdc69c0	0.0067264736
110	0x3d04083b	0.03223441
111	0xbbc73345	-0.00607911
112	0x3d08701d	0.033310045
113	0xbd0a3539	-0.033742163
114	0xbd15407f	-0.03643846
115	0x3b8e1afa	0.004336712
116	0x3c97e325	0.018540928
117	0x3cace6dc	0.021106176
118	0xbbf72919	-0.007542741
119	0x3ca1fc5f	0.01977366
120	0x3d2f1137	0.042741027
121	0x3d0b3ac3	0.033991586
122	0xbca9933b	-0.020700088
123	0xbc3d9d0b	-0.0115730865
124	0xbb7ad8c4	-0.0038276175
125	0x3c478edd	0.012180057
126	0xbc8f25a9	-0.017474012
127	0x3b7ae648	0.003828423
128	0xbc5ea097	-0.013588092
129	0xbc58a5c9	-0.01322312
130	0x3ca7f79f	0.020503817
131	0x3ca22d16	0.01979689
132	0x3c9f2611	0.019427331
133	0x3c8fd711	0.017558606
134	0xbcc7c977	-0.024388058
135	0x3d1898db	0.03725515
136	0x3c81d14b	0.015846869
137	0xbae5616f	-0.0017500351
138	0x3cb29d59	0.021803545
139	0xbbd53856	-0.00650696
140	0x3c6bc69f	0.014390617
141	0x3cf90e3e	0.030402299
142	0x3d30a581	0.043126587
143	0xbc14aac5	-0.009073918
144	0x3cd4e17a	0.025986422
145	0x3bfbadff	0.007680654
146	0x3c94f008	0.018180862
147	0xbc985fbe	-0.018600341
148	0x3d0d43ac	0.034488365
149	0xbd12f9d8	-0.0358828
150	0xbd59e589	-0.053197417
151	0xbd400144	-0.046876207
152	0x3c9840be	0.018585559
153	0xbd51224b	-0.051058095
154	0xbcbcd723	-0.023051804
155	0xb9c9c49e	-0.000384842
156	0xbbf1e99d	-0.007382585
157	0xbcc40601	-0.023928644
158	0x3c8d62a6	0.017258953
159	0xbc774885	-0.015092974
160	0x3bad7482	0.00529343
161	0xba0096fb	-0.00049053103
162	0xbd26cbb6	-0.040721618
163	0xbc0c677f	-0.008569597
164	0xbd340e62	-0.04395903
165	0x3c468a8a	0.012117991
166	0xbd1afe72	-0.037840314
167	0x3c8512c8	0.016244307
168	0xbd043576	-0.032277547
169	0x3ce69ce1	0.028150978
170	0x3c852161	0.016251268
171	0x3cedf107	0.029045595
172	0xbcfc66fb	-0.030810824
173	0xbb8bbe68	-0.0042646416
174	0x3c8f0539	0.017458545
175	0xbcdc3648	-0.026881352
176	0xbc95e937	-0.018299682
177	0xbbbfbaea	-0.0058511393
178	0x3bd1dc09	0.006404404
179	0x3c37b719	0.0112130875
180	0x3ca3a280	0.019974947
181	0xbd0711f3	-0.032976102
182	0xbcf89c03	-0.03034783
183	0xbd6bc7d0	-0.057563603
184	0xbbfecd03	-0.007775904
185	0x3a01c3ba	0.0004950125
186	0xbc2ad09d	-0.010425714
187	0xbd4e589b	-0.05037747
188	0xbd424db9	-0.047437403
189	0xbce9eaf0	-0.02855441
190	0x3cad47e4	0.021152444
191	0x3c044d9f	0.008075147
192	0xbcfc4b79	-0.030797707
193	0xbc792142	-0.015205683
194	0xbc7807a0	-0.015138537
195	0x3c9c88c2	0.01910818
196	0xbcc14236	-0.023591142
197	0x3c93df4e	0.018050816
198	0x3c132438	0.008980803
199	0xbcda28d7	-0.026630802
200	0x3ccfbecf	0.02535954
201	0xbcac92cf	-0.021066098
202	0x3cd7b5d2	0.026331816
203	0xbc141b95	-0.009039779
204	0xbca5320e	-0.02016547
205	0x3c22392f	0.009901329
206	0x3bdd6c43	0.0067572906
207	0xbc5f8dd4	-0.013644654
208	0xbc69c293	-0.0142675815
209	0xbcf9f1a3	-0.03051073
210	0x3c9ea928	0.01936777
211	0x3cc0648a	0.02348544
212	0xb99e3a64	-0.00030179613
213	0xbd18baec	-0.037287638
214	0x3c90eede	0.017692026
215	0xbcc618e6	-0.024181794
216	0x3c06e919	0.008234286
217	0xbceef16e	-0.029167857
218	0xbc6898e5	-0.014196609
219	0x3b001c14	0.0019547986
220	0xbcab2c46	-0.020895135
221	0xbc504c4a	-0.012713501
222	0xbc224c54	-0.009905893
223	0xbccb78c1	-0.024837853
224	0xbd14ff2c	-0.036376163
225	0xbc13fa51	-0.009031848
226	0x3d1a2d04	0.037640586
227	0xbc17bb6f	-0.009260996
228	0xbcd18cee	-0.025579896
229	0x3c81f663	0.015864557
230	0x3d1158af	0.035484966
231	0x3d2f93d6	0.042865597
232	0x3c575b83	0.013144377
233	0xb8250c98	-3.9350794e-05
234	0xbceebf59	-0.029143976
235	0x3cd494c6	0.025949847
236	0x3ca717e6	0.020397138
237	0xba8c4fe5	-0.0010704963
238	0xbacf8c68	-0.0015834691
239	0x3bf1c3ec	0.007378092
240	0x3d112428	0.035434872
241	0xba22e3d7	-0.00062137604
242	0x3c977435	0.018488029
243	0x3c9c54be	0.019083377
244	0xbc97d8ce	-0.018535998
245	0xbc12a073	-0.008949387
246	0x3cef4f80	0.029212713
247	0x3d15ba10	0.036554396
248	0xbc50afbf	-0.012737214
249	0xbcd859da	-0.026410032
250	0xbca80473	-0.020509934
251	0xbc82b4cf	-0.015955357
252	0x3ca0b225	0.019616196
253	0x3c4fe10b	0.012687932
254	0x3cc4e7b8	0.024036273
255	0x3bb88008	0.005630497

conv6.bias f4 [30]
0	0x3cb69ec6	0.022292506
1	0x3c8cadac	0.017172657
2	0xbca65b41	-0.020307185
3	0xbcda74d0	-0.026667029
4	0x3c880b24	0.016606875
5	0x3bbd5cf4	0.005778903
6	0xbc109958	-0.0088256225
7	0xbcfdee24	-0.030997343
8	0x3c2cc6e0	0.010545462
9	0x3cc3a8ee	0.023884263
10	0xbbf01fcc	-0.0073280092
11	0xbd095689	-0.033529792
12	0x3d0de1f8	0.03463933
13	0xbc63343e	-0.013867436
14	0xbb49a60c	-0.0030769138
15	0x3c837ecd	0.016051674
16	0x3cc7f234	0.024407484
17	0x3ac3d589	0.0014940958
18	0xbb381968	-0.0028091315
19	0x3ccfd9e1	0.025372447
20	0xbccc3634	-0.02492819
21	0x3cfc7d87	0.030821575
22	0xbc0991a6	-0.008396542
23	0x3ceecddf	0.029150901
24	0xbb7b8a48	-0.0038381983
25	0xbcd6a441	-0.02620137
26	0xbcea86d7	-0.02862875
27	0xbc0e67c6	-0.008691734
28	0xbcfae595	-0.030627051
29	0xbbd3828d	-0.006454772

bn1.weight f4 [10]
0	0x3f818d23	1.0121197
1	0x3f7d1b06	0.9886936
2	0x3f805992	1.0027335
3	0x3f7d412a	0.9892756
4	0x3f808673	1.0041031
5	0x3f7cee8a	0.9880148
6	0x3f7d78ce	0.9901246
7	0x3f7c8c80	0.98651886
8	0x3f84078b	1.0314802
9	0x3f7f1fb9	0.9965778

bn1.bias f4 [10]
0	0x3bdae0d5	0.006679634
1	0xbc9fab1b	-0.01949077
2	0xbc346eda	-0.011012757
3	0x3ba792a0	0.0051139146
4	0xbb0c85d5	-0.0021442075
5	0xbc55791d	-0.013029364
6	0xbc4d87ba	-0.012544567
7	0xbb3656ff	-0.002782285
8	0x3c2b9f25	0.010474955
9	0xbbbeb37f	-0.0058197374

bn1.running_mean f4 [10]
0	0x41ab527b	21.415274
1	0x42a39ddc	81.80832
2	0x41f6972e	30.823818
3	0xc2339b25	-44.90151
4	0x411d1903	9.818606
5	0x4166105b	14.378993
6	0xc2b82ddf	-92.08959
7	0x438a3ef7	276.4919
8	0xc13dcc04	-11.8623085
9	0xc2c0e0db	-96.43917

bn1.running_var f4 [10]
0	0x452456d9	2629.428
1	0x45c815d0	6402.7266
2	0x4578c80e	3980.5034
3	0x459cab15	5013.3853
4	0x46113d23	9295.284
5	0x456dac7d	3802.7805
6	0x45efbe5b	7671.7944
7	0x47018a05	33162.02
8	0x4508145f	2177.2732
9	0x463e7119	12188.274

bn2.weight f4 [20]
0	0x3f81b196	1.013232
1	0x3f81fc7c	1.0155177
2	0x3f805daf	1.002859
3	0x3f7e41ac	0.9931896
4	0x3f8027f3	1.0012192
5	0x3f7f8075	0.99805385
6	0x3f7fde70	0.9994879
7	0x3f815cf1	1.0106488
8	0x3f7bc752	0.98351014
9	0x3f80eab4	1.0071626
10	0x3f80540f	1.0025653
11	0x3f7eb006	0.9948734
12	0x3f7c6f54	0.98607373
13	0x3f812d53	1.0091957
14	0x3f7b57ad	0.9818066
15	0x3f7d31a4	0.9890387
16	0x3f7a4a74	0.97769856
17	0x3f7f391e	0.9969653
18	0x3f828b0f	1.0198687
19	0x3f82f55f	1.0231131

bn2.bias f4 [20]
0	0x3b98b0d0	0.0046597496
1	0xbb79ecba	-0.0038135485
2	0xbcc9abdc	-0.024618082
3	0x3bb7bc82	0.0056071887
4	0x3b889a85	0.004168811
5	0x3c212403	0.009835246
6	0xbc3beeb9	-0.01147049
7	0x3bae804d	0.0053253532
8	0xbc73e6cf	-0.014886572
9	0x3c4ee1e2	0.012627097
10	0xbb916f0d	-0.004438287
11	0xbc6101aa	-0.013733307
12	0x3b50a9c2	0.0031839465
13	0x3bbb1f19	0.0057104942
14	0xbc9ac824	-0.018894263
15	0xbb129664	-0.0022367472
16	0xbc7f3e7f	-0.015578865
17	0xbc695314	-0.014240999
18	0x3c312c15	0.010813733
19	0x3c7f42f0	0.015579924

bn2.running_mean f4 [20]
0	0xbe90b9c0	-0.28266716
1	0x3e680d23	0.22661261
2	0xbe387d90	-0.18016648
3	0xbf1ff996	-0.6249021
4	0x3e18b05e	0.14911029
5	0x3d02a6b4	0.03189726
6	0x3e7ce8f6	0.24698243
7	0x3e685259	0.22687663
8	0xbd08713e	-0.03331112
9	0xbf0d88a1	-0.55286604
10	0x3e382ad7	0.17985092
11	0x3ea78bc5	0.32723823
12	0xbef85c0a	-0.4850772
13	0x3ebc8e97	0.36827537
14	0xbef9e99d	-0.48811045
15	0xbe41cb50	-0.18925214
16	0xbf0f6ad2	-0.5602237
17	0x3e338cfa	0.17534247
18	0x3df755f7	0.12076943
19	0x3eb6ca89	0.35701397

bn2.running_var f4 [20]
0	0x3efaea7d	0.49007025
1	0x3ea47131	0.32117608
2	0x3ea68139	0.32520464
3	0x3f174be7	0.5910019
4	0x3e9086c7	0.28227827
5	0x3e8e59b6	0.2780282
6	0x3e94e035	0.29077306
7	0x3ea5ac70	0.32358122
8	0x3ed035e8	0.40666127
9	0x3eda9abd	0.4269618
10	0x3f117aab	0.568278
11	0x3ed0af55	0.40758768
12	0x3ec63eef	0.3871989
13	0x3f151fc7	0.58251613
14	0x3e97ce2d	0.29649487
15	0x3ed6348c	0.41836965
16	0x3eb830c2	0.359747
17	0x3e8da064	0.2766143
18	0x3ebc8b75	0.36825147
19	0x3eb3cdf0	0.35118055

bn3.weight f4 [30]
0	0x3f6f6e94	0.93528104
1	0x3f77b9b8	0.9676776
2	0x3f733467	0.95001835
3	0x3f785e3b	0.97018784
4	0x3f71966b	0.94370145
5	0x3f76362d	0.96176416
6	0x3f72ee66	0.9489502
7	0x3f761a55	0.9613393
8	0x3f78432e	0.9697751
9	0x3f79b6ab	0.97544354
10	0x3f73650c	0.9507606
11	0x3f77bc05	0.9677127
12	0x3f746b91	0.95476633
13	0x3f792216	0.97317636
14	0x3f728368	0.9473176
15	0x3f77b95f	0.9676723
16	0x3f75db6b	0.9603793
17	0x3f755653	0.95834845
18	0x3f75ad8e	0.9596795
19	0x3f796a8c	0.974282
20	0x3f76dd96	0.96431863
21	0x3f751c6e	0.95746505
22	0x3f7a9e70	0.97898006
23	0x3f703f53	0.93846625
24	0x3f76785a	0.9627739
25	0x3f7619ee	0.96133316
26	0x3f77d3a3	0.96807307
27	0x3f752e5b	0.9577386
28	0x3f75b3b0	0.95977306
29	0x3f74b35a	0.9558617

bn3.bias f4 [30]
0	0xbd8152be	-0.0631461
1	0xbd2d35b3	-0.04228754
2	0xbd5d9cc0	-0.054104567
3	0xbd1eea84	-0.03879787
4	0xbd6c90a8	-0.057755142
5	0xbd31a7b8	-0.04337284
6	0xbd28779b	-0.04112969
7	0xbd2c68e7	-0.04209223
8	0xbd1a7424	-0.037708417
9	0xbd1dd88e	-0.0385366
10	0xbd4012e8	-0.04689303
11	0xbd408bff	-0.04700851
12	0xbd43a8f2	-0.04776854
13	0xbd241533	-0.04005928
14	0xbd64347d	-0.05571412
15	0xbd231cf8	-0.03982255
16	0xbd451a3c	-0.048120722
17	0xbd43c7c3	-0.04779793
18	0xbd37dd2c	-0.04488866
19	0xbcde9e4b	-0.02717509
20	0xbd60b3b4	-0.05485888
21	0xbd356cab	-0.044293087
22	0xbd562474	-0.05228086
23	0xbd415b77	-0.04720637
24	0xbd46083b	-0.048347693
25	0xbd029b17	-0.031886186
26	0xbd125df6	-0.03573414
27	0xbd364fef	-0.044509824
28	0xbd34d4da	-0.044148304
29	0xbd542dfd	-0.05180167

bn3.running_mean f4 [30]
0	0xbf48676e	-0.7828282
1	0x3d9edda3	0.077571176
2	0xbf0dba2e	-0.5536221
3	0x3f15f181	0.5857163
4	0xbf938e08	-1.152772
5	0xbded365e	-0.11582635
6	0xbf0e79c1	-0.5565453
7	0xbf0bc3ca	-0.54595625
8	0x3f0eae00	0.5573425
9	0xbe66e949	-0.22549929
10	0xbf4fbf52	-0.81151307
11	0x3ee75107	0.45179006
12	0xbf5fcec2	-0.8742486
13	0x3da6a5bd	0.08137081
14	0x3e8ed3d7	0.27895996
15	0x3c44f380	0.012020946
16	0xbed50be9	-0.4161065
17	0x3eb2a69b	0.34892735
18	0xbec8422a	-0.3911298
19	0x3cf66d2e	0.030081358
20	0xbda694e4	-0.081338674
21	0xbf05bb5f	-0.5223903
22	0xbe84b052	-0.25915772
23	0xbeb21071	-0.3477817
24	0xbef60f1b	-0.480584
25	0xbf5e11cc	-0.86745906
26	0xbf028163	-0.5097868
27	0xbf1f44b6	-0.6221422
28	0xbef4a4cf	-0.4778199
29	0xbf17b910	-0.5926676
